models/models_o1/reinforce_ep2000.pth (torch, 321641 bytes, 18 tensors)

0.weight f4 [128, 70]
0	0xbb336e41	-0.002737895
1	0xa3a51a09	-1.7900362e-17
2	0xb9e4ed27	-0.0004366424
3	0xa6d4ce96	-1.476645e-15
4	0x3a91ab9d	0.0011113767
5	0xb508897a	-5.0864e-07
6	0x3b80c99d	0.003930284
7	0xbb2bbc49	-0.0026204756
8	0x3a7ae10c	0.0009570278
9	0x3970d098	0.00022965891
10	0xb9972de3	-0.00028835153
11	0xba2e783e	-0.0006655491
12	0xbb0c3afd	-0.0021397464
13	0x39ef0de3	0.0004559598
14	0xbb65e16b	-0.0035076987
15	0x3ab5dbf7	0.0013874759
16	0x39b3dc9c	0.00034305907
17	0xba5b0a59	-0.0008355729
18	0xba9d32f2	-0.0011993332
19	0xbb3576c3	-0.0027689196
20	0x00056e11	4.98662e-40
21	0xbb8722f5	-0.0041240402
22	0x3b03185f	0.002000354
23	0x39d157fd	0.00039929143
24	0xb65ee253	-3.3212316e-06
25	0xba5c42d7	-0.0008402294
26	0xb9d4d6d4	-0.0004059585
27	0x392529cf	0.00015751201
28	0xbb4567f6	-0.003012178
29	0xba12560e	-0.0005582281
30	0x39f3b0e7	0.00046480374
31	0x3a44eea1	0.0007512365
32	0xbad051b8	-0.0015893495
33	0x3b166334	0.0022947313
34	0x99d96f86	-2.2482318e-23
35	0xbb5e9dfd	-0.003396868
36	0xbad46a7d	-0.0016206052
37	0x3a569e67	0.0008187056
38	0x3a8e2c94	0.0010847026
39	0xbade1aed	-0.001694528
40	0x3b3d281b	0.0028863016
41	0xaabb84fc	-3.331015e-13
42	0xbb752117	-0.0037403756
43	0xb9717bbb	-0.00023029644
44	0x3af6e718	0.0018837182
45	0x38c791a1	9.516185e-05
46	0xbb13aa9d	-0.0022532113
47	0x3a5fae43	0.0008532742
48	0xbb0213cc	-0.0019848226
49	0xbb5d4495	-0.0033762802
50	0xba73807d	-0.00092888606
51	0x3acd7b85	0.001567707
52	0x37f61cd9	2.9338918e-05
53	0xbab08e42	-0.001347013
54	0x3a83e74f	0.0010063442
55	0xbaf00616	-0.0018312361
56	0xbb3fe029	-0.0029277897
57	0x3083e3b9	9.596227e-10
58	0x3b256976	0.0025239862
59	0x26d3322f	1.4654668e-15
60	0xbb419b9d	-0.0029542216
61	0x80061686	-5.59093e-40
62	0xbb408ce5	-0.0029380855
63	0xba679a83	-0.0008834975
64	0x80055bd6	-4.92122e-40
65	0x3a22bc21	0.0006207843
66	0x27115988	2.0171327e-15
67	0xba11b169	-0.0005557747
68	0x2a1fc6e7	1.4191045e-13
69	0xba647068	-0.00087142596
70	0x3d3aedc6	0.045636915
71	0x3dc4086c	0.09571919
72	0xbe5fea2d	-0.21866675
73	0x3e210d1f	0.15727662
74	0xbcec73c6	-0.028863799
75	0x3e1a5606	0.15071878
76	0xbcc02889	-0.023456829
77	0x3d3fe5a3	0.046849858
78	0x3d05dddc	0.032682285
79	0x3e106cd4	0.14104015
80	0xbce0ee46	-0.027457368
81	0x3da607ed	0.081069805
82	0x3c086ffa	0.008327479
83	0x3d94db4e	0.072683915
84	0x3d7994d8	0.060932964
85	0xbd584c85	-0.05280735
86	0x3dd542d5	0.10413138
87	0xbcf55d89	-0.029951828
88	0x3d2f0e86	0.04273846
89	0xba18c988	-0.00058283703
90	0x3d66a0b1	0.05630559
91	0x3d77f6de	0.060538165
92	0x3c8c1868	0.017101482
93	0x3d6daa18	0.058023542
94	0xbd8cb795	-0.06870953
95	0x3d2a321f	0.041551705
96	0xbceede3d	-0.029158706
97	0x3d2ee009	0.042694125
98	0x3d562d42	0.052289255
99	0x3c3f1262	0.011662098
100	0x3d20d071	0.039261285
101	0xbc4e47a6	-0.0125903245
102	0x3d002780	0.03128767
103	0x3d33d6d0	0.043906033
104	0x3d164378	0.036685437
105	0x3d370cd3	0.044689965
106	0xbb8458bf	-0.0040388997
107	0x3c956c9e	0.01824027
108	0xbcb6442e	-0.022249307
109	0xb9a00f4f	-0.00030528984
110	0x3cf7f509	0.030268209
111	0xbc427d6d	-0.011870724
112	0x3d4fbdf0	0.050718248
113	0xb94e37e5	-0.00019666513
114	0xbb9fe0e1	-0.0048791026
115	0xbd2e691c	-0.04258071
116	0x3bc51c03	0.006015302
117	0x3af163b7	0.0018416558
118	0xbc8f6957	-0.017506285
119	0x3d176a94	0.036966875
120	0x3c78c48f	0.015183582
121	0xbb381b24	-0.002809235
122	0xbc12c9ae	-0.008959217
123	0xbba07c88	-0.004897658
124	0xbc8d44f2	-0.01724479
125	0xbd077da1	-0.033078793
126	0x3d1f3ecf	0.03887826
127	0xbbb57499	-0.005537581
128	0xbcf56406	-0.029954921
129	0x3bd204f9	0.006409284
130	0x3c861621	0.016367974
131	0xbc668750	-0.014070347
132	0x3beaac66	0.007161665
133	0x3c55b6e8	0.0130440965
134	0xbc078a8b	-0.008272777
135	0xbce85361	-0.02836007
136	0x3c05e72a	0.00817279
137	0xb9e8a296	-0.00044371624
138	0xbc1ebcf5	-0.009688606
139	0x3c6d596b	0.014486651
140	0x3db81d60	0.08989978
141	0x3d917e1f	0.07104134
142	0xbe01e26a	-0.12684026
143	0x3dd33b7e	0.103140816
144	0xbd809a81	-0.06279469
145	0x3dbf88b5	0.09352247
146	0xbd8e4b67	-0.069479756
147	0x3db85ec1	0.09002448
148	0x3cbeb924	0.023281641
149	0x3d4944d6	0.049137913
150	0xbc0be2c2	-0.00853795
151	0x3da72fac	0.081633896
152	0x3ca5b688	0.02022864
153	0x3c3aa020	0.011390716
154	0x3dc359fd	0.09538648
155	0xbd20e4a4	-0.03928055
156	0x3d28c0db	0.041199546
157	0xbbb2a0b5	-0.0054512867
158	0x3d8f1cd3	0.0698792
159	0x3c5f9f9b	0.013648893
160	0x3cf71be6	0.03016467
161	0x3db658ea	0.08903678
162	0xba7b2791	-0.0009580786
163	0x3c8a3157	0.01686923
164	0xbcdf3ef1	-0.027251692
165	0x3d38ad68	0.045087248
166	0xbb402b3f	-0.0029322652
167	0x39918fcd	0.00027763695
168	0x3d9a7982	0.07542707
169	0x3b15194c	0.0022750674
170	0x3c2cb010	0.010540023
171	0x3b04f39d	0.0020286806
172	0x3d31a94e	0.043374352
173	0x3d23b153	0.03996403
174	0x3c5e6afc	0.013575312
175	0x3d902749	0.07038743
176	0xbb62995f	-0.003457628
177	0xbcb9cb31	-0.022679897
178	0xbc874b52	-0.016515408
179	0x3ce4e853	0.027942812
180	0x3c7a1141	0.015262903
181	0xbb96ce4c	-0.004602229
182	0x3d8a6b5c	0.067587584
183	0x3cabe0eb	0.020981273
184	0xbd002a64	-0.031290427
185	0xbd2e2527	-0.0425159
186	0x3c94abe2	0.018148366
187	0xbce49388	-0.02790238
188	0xbc565fe4	-0.013084386
189	0x3d453605	0.04814722
190	0x3c97d2ac	0.018533073
191	0xbcd314d8	-0.025766775
192	0xbc104660	-0.008805841
193	0x3b9ba1bd	0.0047495053
194	0xbcf3f1e5	-0.02977843
195	0xbd0a81de	-0.033815257
196	0x3ce71d9a	0.028212357
197	0x397678d9	0.00023505407
198	0xbcb4abb6	-0.022054534
199	0x3cc9d9c0	0.024639964
200	0x3c280082	0.010254027
201	0xbba95d16	-0.0051685674
202	0xba5006c1	-0.0007935577
203	0x3ccae152	0.024765644
204	0xbca68434	-0.020326711
205	0xbd1c0271	-0.038088266
206	0x3c3141cf	0.010818913
207	0x3c34b2cb	0.011028956
208	0xbc7df4cf	-0.015500261
209	0x3ceb24be	0.028704043
210	0xbcb275f6	-0.021784764
211	0x210623b8	4.544824e-19
212	0xb98f59c3	-0.00027341963
213	0xb2e64a64	-2.6809353e-08
214	0x3c02c5dc	0.007981744
215	0xb93b3d1e	-0.00017856478
216	0x3cb0140a	0.02149393
217	0xbcb276b1	-0.021785112
218	0xbc3312eb	-0.010929803
219	0x369d4143	4.686562e-06
220	0x3b1efcf9	0.002425967
221	0xbb8879da	-0.0041649165
222	0x3c18d73f	0.009328662
223	0x3c3f77b8	0.011686258
224	0xbcb27693	-0.021785056
225	0xbb1b4dfd	-0.0023697608
226	0x38c1c11a	9.238925e-05
227	0x3b29262a	0.00258101
228	0xbbbae2dc	-0.0057033133
229	0x3b2c5d6d	0.0026300803
230	0x3a20cc61	0.00061339705
231	0xbcb275ed	-0.021784747
232	0x3bc6fd45	0.0060726725
233	0x3955552d	0.00020344993
234	0x3b2259b6	0.002477271
235	0xbbeb6500	-0.007183671
236	0x3c5033e0	0.01270768
237	0x3a78f9f6	0.00094976963
238	0xbcb2768d	-0.021785045
239	0xbab34960	-0.0013678484
240	0x39bf23f8	0.00036457158
241	0xb92145b8	-0.00015380129
242	0xbc4c965b	-0.012487019
243	0xbc2a6ae6	-0.010401463
244	0xbb840560	-0.004028961
245	0xbca311d7	-0.019905968
246	0x3b3c46ce	0.0028728726
247	0x3981cc65	0.00024757083
248	0x3a32f1fb	0.0006826219
249	0xbc12e489	-0.00896562
250	0xb997d2b1	-0.00028957942
251	0xbb4a5c56	-0.003087779
252	0xbca11d72	-0.019667361
253	0x3aa923ac	0.0012904308
254	0x3af50cbd	0.0018695813
255	0x39ea9ddc	0.00044749572

0.bias f4 [128]
0	0xbb67f342	-0.0035392796
1	0x3d3e8252	0.046511002
2	0x3db4aad3	0.08821645
3	0xbcb27693	-0.021785056
4	0xbc441ca9	-0.011969724
5	0x3d4095e4	0.047017947
6	0xb4a633b2	-3.0957523e-07
7	0xbadd8491	-0.001690047
8	0xaddd1a1b	-2.5136384e-11
9	0xb8e3cfc1	-0.00010862901
10	0x3b9bd2c5	0.0047553503
11	0xbb341a3b	-0.0027481455
12	0xbcce7c13	-0.025205648
13	0x3c7e8c9e	0.015536455
14	0xb9af2568	-0.0003340647
15	0xbd2c472a	-0.042060055
16	0xa850882f	-1.15758496e-14
17	0xbcdfb9b1	-0.027310224
18	0x3ca613c0	0.02027309
19	0x3c2bbbb0	0.01048176
20	0xbca5d656	-0.020243805
21	0x3c1aef4b	0.009456466
22	0xbc6c4e40	-0.014422953
23	0xbca59b95	-0.020215789
24	0x3da71ffe	0.08160399
25	0x3c11a9d3	0.008890587
26	0xa7f01252	-6.6633244e-15
27	0x3d471554	0.048604324
28	0x3c894ca6	0.016760182
29	0x3c16d111	0.009205119
30	0xb6a95d89	-5.0474814e-06
31	0x3ced906d	0.028999532
32	0xbd067742	-0.032828577
33	0x3d9c8820	0.07643151
34	0xab927dce	-1.0408842e-12
35	0xbd1e5400	-0.038654327
36	0xb937bddd	-0.0001752297
37	0x3d98a12d	0.07452617
38	0x3c441f3b	0.011970337
39	0x3d3ebca2	0.046566613
40	0xbd09c7ac	-0.033637688
41	0x3d164eb3	0.036696147
42	0xbcb10b60	-0.02161187
43	0x3d7c6d32	0.061627574
44	0xbcd08e57	-0.025458498
45	0xbab7fa33	-0.0014036357
46	0x3c53a888	0.012918599
47	0x3c64441e	0.013932256
48	0xb805eb06	-3.1928554e-05
49	0xbbdfd6c3	-0.0068310215
50	0x3d6dc0a4	0.058045045
51	0x3d1eceb3	0.038771342
52	0x3c8d599b	0.017254641
53	0x3c81f920	0.015865862
54	0x3d7fce9e	0.062452905
55	0x3d61b43e	0.055103533
56	0xbb1ce20f	-0.0023938452
57	0xbc6012da	-0.01367637
58	0xbc9dbfcf	-0.0192565
59	0x3d60daff	0.05489635
60	0xa403f04b	-2.8609633e-17
61	0x3d224600	0.03961754
62	0xb2116063	-8.462027e-09
63	0x3d1ffd36	0.03905984
64	0x3d2ad930	0.041711032
65	0xb9af161d	-0.00033395077
66	0x3d388b0a	0.045054473
67	0xbcd24a4b	-0.025670191
68	0x3d39f037	0.045395102
69	0xb7d0ef07	-2.4906838e-05
70	0x3cd957cc	0.026531123
71	0x3d3443ef	0.0440101
72	0xbc8ab9fc	-0.016934387
73	0x3d67f80c	0.05663304
74	0xbb84a774	-0.0040482823
75	0x3d4031d7	0.04692253
76	0xbbe2915d	-0.0069143013
77	0x3c51149d	0.012761262
78	0xb8c5e36e	-9.436054e-05
79	0x3ce12062	0.027481262
80	0x3bf90b52	0.0076002264
81	0xbcb7f591	-0.022455962
82	0xbc991813	-0.018688237
83	0x3c14c70d	0.0090806605
84	0x3d4a5447	0.04939678
85	0xbbe286d3	-0.006913045
86	0xbb259c07	-0.0025270001
87	0x3b31c869	0.002712751
88	0xbd1a3a15	-0.037653048
89	0xb9a7d957	-0.00032014653
90	0xb9e0a7ec	-0.0004284972
91	0xb99ce353	-0.00029924008
92	0xbcc54787	-0.024081958
93	0xbb568b26	-0.0032736748
94	0x3d06865a	0.03284297
95	0xbc19fa93	-0.00939812
96	0x3d1c9e81	0.0382371
97	0xbc82ef85	-0.015983352
98	0x3bd09397	0.0063652503
99	0x3d7beec7	0.061507013
100	0x3d1c0633	0.03809185
101	0xb7f2337a	-2.8872619e-05
102	0x3c4ce1a5	0.01250497
103	0x3c602391	0.013680355
104	0x3c1f38d1	0.009718136
105	0xb5291793	-6.299171e-07
106	0x3c860192	0.01635817
107	0x3cbd8070	0.023132533
108	0x3d8eea22	0.06978251
109	0xb925c959	-0.00015810634
110	0xbbc9fd4c	-0.0061642285
111	0x3c455ba7	0.012045777
112	0x3d0fe3d7	0.035129394
113	0x3d3b84df	0.045781013
114	0x3c2346d0	0.0099656135
115	0x3c26c0f7	0.010177842
116	0x3c22c715	0.00993516
117	0xbb92a00d	-0.004474646
118	0xb7e69995	-2.7489654e-05
119	0xb94761c4	-0.0001901454
120	0x3d6a09b3	0.057138156
121	0xae7ed49b	-5.7941745e-11
122	0xbc5cae57	-0.0134693
123	0x3d7823d9	0.060581062
124	0x3c28512f	0.010273262
125	0xafcbd35c	-3.7075665e-10
126	0xbacf4b3a	-0.0015815266
127	0x3dfa9bad	0.12236724

3.weight f4 [128, 128]
0	0xab5ed616	-7.916735e-13
1	0x3b9dd0ce	0.004816151
2	0x3ca3abcd	0.019979382
3	0xba80ee44	-0.0009836634
4	0x3c47375c	0.012159195
5	0x3b898da8	0.004197795
6	0x000557ac	4.90628e-40
7	0x35836100	9.788491e-07
8	0x00066ac3	5.89312e-40
9	0x0c62b716	1.7465502e-31
10	0xbcdf8705	-0.027286062
11	0xa280e21e	-3.493388e-18
12	0xbb8be4ba	-0.0042692097
13	0xbc989971	-0.018627854
14	0x8005647b	-4.95223e-40
15	0x3ca0e991	0.019642623
16	0x025a0ee2	1.6020382e-37
17	0xb99cd4dd	-0.00029913234
18	0xbc9a2be3	-0.018819755
19	0xbc3ea829	-0.011636772
20	0xb90c9466	-0.00013406723
21	0xbc79c31f	-0.015244274
22	0x185533a0	2.7555669e-24
23	0x34411068	1.7980494e-07
24	0x3cc093a4	0.0235079
25	0xbc8cb813	-0.017177617
26	0x80056c2d	-4.97984e-40
27	0x3cd77fc2	0.026306037
28	0xbc169c9f	-0.009192615
29	0xbca427a7	-0.020038439
30	0xa94ec7f4	-4.591462e-14
31	0xbc884b7f	-0.016637562
32	0x38dde5cb	0.000105809035
33	0xbaf796e3	-0.0018889572
34	0x0006a067	6.08554e-40
35	0xbbc5e34d	-0.0060390593
36	0xb4fbf60a	-4.693141e-07
37	0x3d78119a	0.06056366
38	0x3c37aab8	0.011210136
39	0xbbad69bc	-0.0052921455
40	0xbd86403c	-0.065552205
41	0x3b9aa788	0.0047196783
42	0xbca82b2a	-0.020528395
43	0x3bc7b487	0.0060945186
44	0xb90ccaa3	-0.00013426928
45	0xaba6d76c	-1.1854801e-12
46	0xbc4b281e	-0.012399701
47	0xbcf15c73	-0.029463029
48	0x35030513	4.8808687e-07
49	0x35694603	8.6901144e-07
50	0x3ba761d5	0.005108098
51	0xbb4367ae	-0.0029816437
52	0xbce4c75d	-0.027927095
53	0xbccea38a	-0.025224466
54	0x3a0e2e28	0.0005423748
55	0xbbdae68f	-0.0066803168
56	0x144ac817	1.02378545e-26
57	0x3b796189	0.003805252
58	0x3c0e40a7	0.0086824065
59	0x3af08168	0.0018349113
60	0x80059e8f	-5.16058e-40
61	0xbc25a4de	-0.010110108
62	0x80058dc9	-5.1004e-40
63	0xbbf52b08	-0.0074819364
64	0x398d3fa2	0.00026941026
65	0x8005b5f8	-5.24456e-40
66	0x3954cf5a	0.0002029514
67	0x3c6fa7a6	0.014627373
68	0xbc03da48	-0.008047648
69	0x80059d62	-5.15636e-40
70	0xbb60aced	-0.003428276
71	0xbbabccc7	-0.005242917
72	0xbc670be2	-0.014101954
73	0x3c01fad2	0.007933335
74	0x80060537	-5.52884e-40
75	0x3b9d561a	0.004801524
76	0x2f3a5677	1.694732e-10
77	0xbc936388	-0.017991796
78	0xb4998e3b	-2.8601957e-07
79	0xbcec0ff8	-0.028816208
80	0xbcb69102	-0.022285942
81	0xb9238ac8	-0.00015596591
82	0x37e650f2	2.745583e-05
83	0x3bf3c7cd	0.0074395896
84	0x3bfe9301	0.007768989
85	0xa757c920	-2.9946274e-15
86	0x2c4de1fd	2.92577e-12
87	0xbc2da0e8	-0.010597445
88	0xb961c52c	-0.00021531124
89	0x80058b41	-5.09132e-40
90	0x1fddea0a	9.3984326e-20
91	0x9e87fe30	-1.439881e-20
92	0xbc0550d2	-0.008136945
93	0x802fef7e	-4.402182e-39
94	0xbbaea1c2	-0.0053293416
95	0x3a116170	0.00055458304
96	0x3c18e9c4	0.009333078
97	0x381d8755	3.7557755e-05
98	0xbb9c73c4	-0.0047745425
99	0x3bbf99af	0.005847178
100	0xbbde2ad7	-0.0067800093
101	0x9fb0b159	-7.4832296e-20
102	0xbc236803	-0.009973529
103	0xbc3ff900	-0.011717081
104	0xbc939db4	-0.018019535
105	0x338ec1c4	6.647636e-08
106	0xbc0083e1	-0.007843942
107	0xbc9f2b0e	-0.01942971
108	0x3c932c00	0.017965317
109	0x14c309fa	1.9693903e-26
110	0x3a3c0419	0.00071722415
111	0xbc88d92d	-0.01670512
112	0xbb1546d0	-0.0022777803
113	0xbc229804	-0.009923939
114	0xbcb025dd	-0.02150243
115	0xbc3b5086	-0.0114327725
116	0xbc9df784	-0.019283064
117	0x80057a03	-5.02947e-40
118	0xa222bacf	-2.205399e-18
119	0x9bb2363c	-2.9482678e-22
120	0x3a19786e	0.0005854432
121	0x8e6e73eb	-2.9391577e-30
122	0xbbb3555d	-0.0054728226
123	0x3c809a90	0.015698701
124	0xbc9ffab6	-0.019528728
125	0x800586fd	-5.07602e-40
126	0x01e54f16	8.42348e-38
127	0x3baa7d03	0.005202891
128	0x80057015	-4.99385e-40
129	0xbdbf473f	-0.09339761
130	0xbd03ba32	-0.03215999
131	0xb5c7f825	-1.4898875e-06
132	0x3aa089f5	0.0012248146
133	0xbd572153	-0.052522015
134	0x80058c7c	-5.09574e-40
135	0x8005a1cf	-5.17223e-40
136	0x00062682	5.64827e-40
137	0x27139a55	2.0484012e-15
138	0x3e1896b9	0.14901246
139	0x000680e1	5.97246e-40
140	0xbc7b5ce3	-0.01534197
141	0x3e1b66b7	0.15175901
142	0x80058036	-5.05171e-40
143	0xbcd9b3b1	-0.026574941
144	0x8006591c	-5.8298e-40
145	0x3aece1aa	0.0018072624
146	0x3e2233dc	0.15840095
147	0x3e1ea991	0.15494372
148	0x3a86744f	0.0010258051
149	0x3e1611a6	0.1465517
150	0xbad1ae23	-0.0015997331
151	0xbba389f4	-0.0049908105
152	0xbd30458e	-0.043035083
153	0x3e14e76b	0.14541404
154	0x800689d1	-6.00452e-40
155	0xbc0e20db	-0.008674826
156	0x3e12c97b	0.14334671
157	0x3e26b252	0.16278961
158	0x00063520	5.7007e-40
159	0xbdbabc09	-0.09117896
160	0x3abf81d2	0.0014610833
161	0xbb891907	-0.0041838917
162	0x00069ed9	6.07997e-40
163	0x3c025677	0.007955185
164	0xb6886345	-4.0646723e-06
165	0xbddedbe8	-0.108817875
166	0x3c907d0b	0.01763775
167	0xbd7fbc38	-0.06243536
168	0x3d10e363	0.035373103
169	0xbd5e7b52	-0.054316826
170	0x3d0429f9	0.03226659
171	0xbd6e3606	-0.05815699
172	0x3b0eea64	0.0021807188
173	0x0006dd8f	6.30493e-40
174	0x3e1de19c	0.15418094
175	0x3e1d5919	0.1536602
176	0x3657f0a1	3.217756e-06
177	0x1a22f7fc	3.3701135e-23
178	0xbd6daa2b	-0.058023613
179	0xbd91892e	-0.07106243
180	0x3e18a797	0.1490768
181	0x3e0e8e03	0.1392136
182	0xbd0a3857	-0.033745136
183	0xbcff6079	-0.031173931
184	0x000570e4	4.99675e-40
185	0x3ab6030f	0.001388641
186	0x3bb19c9a	0.0054202797
187	0xbd539e05	-0.05166437
188	0x8005ae44	-5.21692e-40
189	0xbd9c098f	-0.07619011
190	0x80060b0b	-5.54974e-40
191	0xbdb34baf	-0.0875467
192	0xbd7b8c29	-0.061412964
193	0x80056353	-4.94808e-40
194	0xbd8e0b34	-0.069357306
195	0x391b1cf7	0.00014792742
196	0xbd99d6eb	-0.075116955
197	0x800656d1	-5.82157e-40
198	0x3e265ba3	0.16245894
199	0xbda47f4b	-0.08032092
200	0xbc12bf75	-0.00895678
201	0xbd48cdb2	-0.04902429
202	0x3482c941	2.4360818e-07
203	0xbd9637fc	-0.07334897
204	0xb75d73c4	-1.319958e-05
205	0x3e1b344b	0.15156667
206	0x37094737	8.182417e-06
207	0x3e276295	0.163462
208	0x3e2cfb81	0.16892816
209	0xbbbb613b	-0.005718378
210	0xbc85f4bf	-0.016352056
211	0xbb922e09	-0.004461054
212	0xbd7ed0b4	-0.062210754
213	0x3b398108	0.0028305668
214	0xbb3a99d9	-0.0028473048
215	0x3d9cfc64	0.07665327
216	0xbc5fae91	-0.01365246
217	0x00064f4b	5.79458e-40
218	0xa1a9305e	-1.1464688e-18
219	0x1d02e5c3	1.732414e-21
220	0x3ac83e6c	0.0015277392
221	0x0006c4d7	6.21626e-40
222	0xbd8a10fa	-0.06741519
223	0xbbec24f3	-0.007206553
224	0x3e14d0df	0.14532803
225	0x36a5359a	4.9236232e-06
226	0x3e28638a	0.16444221
227	0xbd234abf	-0.039866205
228	0xbd762311	-0.060092036
229	0x8006b30d	-6.15244e-40
230	0x3e10b5fd	0.14131923
231	0x3e14f1e9	0.14545406
232	0x3e1d0e7e	0.1533756
233	0x381d7016	3.7536105e-05
234	0x3e13dc43	0.14439492
235	0x3e3a220f	0.18177055
236	0xbd21308b	-0.039352935
237	0x161c251a	1.2613287e-25
238	0x31b70d4a	5.3275118e-09
239	0x3e1084ed	0.14113207
240	0xbd80f71d	-0.06297133
241	0xbd6ad75b	-0.057334285
242	0x3e122680	0.14272499
243	0x3e2cd7f8	0.1687926
244	0x3e21bd4c	0.15794867
245	0xb995c947	-0.00028569458
246	0xb8023faa	-3.1053707e-05
247	0x19df989f	2.3119303e-23
248	0xbd7dbf9a	-0.061950304
249	0x8005f743	-5.47878e-40
250	0x3b1e2850	0.0024132915
251	0xbd22804b	-0.03967313
252	0x3e1e060c	0.15431994
253	0x8005c076	-5.2822e-40
254	0x8edac679	-5.393227e-30
255	0x3d704c39	0.05866644

3.bias f4 [128]
0	0x3d389062	0.04505957
1	0x3d53e6d1	0.051733796
2	0xb9f50c9a	-0.0004673943
3	0x3d42622d	0.04745691
4	0x3d75c999	0.06000671
5	0xbbf643ed	-0.0075154216
6	0x3dbc01ba	0.09180017
7	0xbbc213b2	-0.005922758
8	0xbc018e05	-0.007907395
9	0x3ddd4fc8	0.10806233
10	0xbbfd1606	-0.0077235727
11	0x3da921eb	0.082584225
12	0x3de1c24c	0.11023387
13	0xbb57e9b3	-0.0032945692
14	0x3dcde871	0.100541
15	0xbbca6e24	-0.0061776806
16	0x3d81b328	0.063329995
17	0xbc209b94	-0.009802718
18	0xbc249a16	-0.010046503
19	0xbbfcd4cf	-0.0077157984
20	0x3d98f9b1	0.074695
21	0x3d4ef740	0.050528765
22	0x3dd7029b	0.10498544
23	0x3dc32950	0.09529364
24	0x3def3671	0.11680306
25	0x3de141c8	0.10998875
26	0x3dc0a04c	0.09405574
27	0x3dae3b3a	0.0850739
28	0x3dc91a89	0.09819514
29	0xbbed09d3	-0.007233837
30	0x3d7c933a	0.061663844
31	0xb914c6f1	-0.00014188491
32	0xbc0aa99c	-0.00846329
33	0xbb5f5b1e	-0.003408141
34	0x3dd085d1	0.101817735
35	0xbbf2787d	-0.007399617
36	0x3dc65aad	0.09685264
37	0xbb0fc863	-0.0021939508
38	0xa98a9c57	-6.155552e-14
39	0x3dcc077f	0.09962367
40	0x3dacd88b	0.0843974
41	0x3da798a8	0.08183414
42	0x3dc481d6	0.09595077
43	0x3dd027d1	0.101638444
44	0x3dba2c85	0.09090523
45	0xbbfba11b	-0.0076791174
46	0xbc1c5c13	-0.009543437
47	0xbb95e4c0	-0.0045743883
48	0x3d71dde8	0.059049517
49	0xbbc0899e	-0.0058757802
50	0x3d52705c	0.051376686
51	0xbb24be49	-0.0025137833
52	0xbb8494de	-0.0040460667
53	0xbbb26541	-0.0054441993
54	0x3de04175	0.10949985
55	0xbc22d7fc	-0.00993919
56	0xbbb0f8eb	-0.005400767
57	0x3ddb97f1	0.1072234
58	0xba349cb6	-0.0006889807
59	0x3dd8ff19	0.10595531
60	0x3dd4a114	0.10382286
61	0xbbcca280	-0.0062449574
62	0xbad4ef13	-0.0016245566
63	0xbbacd499	-0.005274367
64	0xbb8de42e	-0.0043301797
65	0x3d59ca98	0.053171724
66	0xbbe219a8	-0.006900031
67	0xbb5d7675	-0.003379253
68	0x3d6ff3cb	0.05858211
69	0xbba06ef1	-0.0048960377
70	0xb9ac295a	-0.00032837206
71	0x3df2909e	0.1184399
72	0x3dde63d5	0.10858885
73	0xbc2349d1	-0.00996633
74	0x3d500fd0	0.05079633
75	0x3dbfd7d8	0.09367341
76	0x3dbd7190	0.09250176
77	0x3ddda658	0.10822743
78	0xbc035415	-0.008015652
79	0x3d39d402	0.045368202
80	0x3d572c95	0.05253275
81	0x3d38ffa8	0.045165688
82	0x3dd17493	0.10227313
83	0x3dd98b68	0.10622293
84	0xb24688fe	-1.1556265e-08
85	0xbb7974d7	-0.0038064027
86	0xbbc19a13	-0.0059082597
87	0x3dc5570b	0.09635743
88	0x3dd72f79	0.105071016
89	0xb7d03ada	-2.4822937e-05
90	0x3d2be336	0.041964732
91	0x3d75cf15	0.060011942
92	0xbb87fb61	-0.0041498397
93	0xbbcd5332	-0.006266021
94	0xbb4f2a51	-0.0031610916
95	0xbd1bd602	-0.03804589
96	0x3dbc67b6	0.09199469
97	0x3d6ea38a	0.05826143
98	0xbbe370fd	-0.0069409595
99	0x3cf4849b	0.029848387
100	0xbb7e3b04	-0.00387925
101	0xbb83ec2a	-0.0040259557
102	0xbbc3e8d8	-0.005978685
103	0xbc01a33f	-0.007912456
104	0xb70dd41a	-8.453639e-06
105	0xbb058d55	-0.002037843
106	0x3d42fdca	0.047605313
107	0xbb49b4bf	-0.00307779
108	0xbb2a054a	-0.0025943094
109	0x3d6ef708	0.058341056
110	0xba3ccd68	-0.0007202239
111	0xb9acd3d3	-0.00032964218
112	0x3dc8b530	0.09800184
113	0xbb5fd04c	-0.0034151254
114	0x3dc00483	0.093758605
115	0xbc217440	-0.009854376
116	0x3d4e71e2	0.050401576
117	0xbbb28112	-0.0054475153
118	0xb7465fd7	-1.1824034e-05
119	0xbb59bebb	-0.0033225256
120	0x3dc9c83b	0.09852644
121	0xbbfa5fbc	-0.007640807
122	0x3d7b8df3	0.06141467
123	0xbb15a842	-0.0022835885
124	0xbbbe4ecf	-0.0058077346
125	0xa7ce1d2f	-5.7208127e-15
126	0xbbea5f3f	-0.0071524675
127	0x3def4cb0	0.11684549

6.weight f4 [4, 128]
0	0x80064fa8	-5.79588e-40
1	0x0005a361	5.17787e-40
2	0x80062c0d	-5.66815e-40
3	0x8005ff10	-5.50677e-40
4	0x00056b24	4.97612e-40
5	0x80058837	-5.08042e-40
6	0x00068d5e	6.01726e-40
7	0x00061590	5.58748e-40
8	0x80058944	-5.08419e-40
9	0x8005a40a	-5.18024e-40
10	0x80066351	-5.86641e-40
11	0x0006c67d	6.22217e-40
12	0x00069725	6.05233e-40
13	0x80062ab4	-5.66332e-40
14	0x80058cc0	-5.09669e-40
15	0x800682fe	-5.98004e-40
16	0x80056181	-4.94155e-40
17	0x0006bf3c	6.19615e-40
18	0x8006264f	-5.64756e-40
19	0x0005a9cd	5.2009e-40
20	0x800607b2	-5.53774e-40
21	0x8006a8e2	-6.11597e-40
22	0x8006a085	-6.08597e-40
23	0x000606d5	5.53464e-40
24	0x0005aba3	5.20749e-40
25	0x0006146d	5.5834e-40
26	0x80066b0e	-5.89417e-40
27	0x8006bc3f	-6.18543e-40
28	0x0006928f	6.03588e-40
29	0x00058017	5.05127e-40
30	0x8006d246	-6.26445e-40
31	0x8006b63e	-6.16389e-40
32	0x8006ad48	-6.13175e-40
33	0x0005f905	5.48509e-40
34	0x00068d84	6.01779e-40
35	0x80069952	-6.06014e-40
36	0x00065c25	5.84068e-40
37	0x00065a53	5.83415e-40
38	0x000600cf	5.51303e-40
39	0x80065db2	-5.84625e-40
40	0x0005a281	5.17473e-40
41	0x0006cc29	6.24252e-40
42	0x0006042d	5.52511e-40
43	0x00058d8c	5.09955e-40
44	0x0005eb3b	5.43562e-40
45	0x8006dc4e	-6.30043e-40
46	0x8006c58e	-6.21882e-40
47	0x800687d2	-5.99736e-40
48	0x0006cc70	6.24351e-40
49	0x8005e9f2	-5.43101e-40
50	0x8006b48b	-6.1578e-40
51	0x00059f7b	5.16388e-40
52	0x000660c0	5.8572e-40
53	0x800630cb	-5.68517e-40
54	0x80060b03	-5.54963e-40
55	0x00068ad0	6.0081e-40
56	0x8005d46d	-5.35381e-40
57	0x8005fb9d	-5.4944e-40
58	0x00067238	5.91987e-40
59	0x00061bb9	5.60958e-40
60	0x8006614c	-5.85917e-40
61	0x00061144	5.57207e-40
62	0x0005eceb	5.44168e-40
63	0x8006920b	-6.03403e-40
64	0x00066f99	5.91047e-40
65	0x800677dd	-5.94012e-40
66	0x80065528	-5.81561e-40
67	0x80068da9	-6.01831e-40
68	0x80067ecb	-5.96498e-40
69	0x0006983d	6.05626e-40
70	0x00065ff4	5.85434e-40
71	0x8006bcd1	-6.18748e-40
72	0x0006a713	6.10948e-40
73	0x0005f601	5.47427e-40
74	0x800596e4	-5.13307e-40
75	0x8006d118	-6.26022e-40
76	0x0006bb03	6.181e-40
77	0x000688b4	6.00053e-40
78	0x0005cf12	5.3346e-40
79	0x0005d5d4	5.35885e-40
80	0x80065249	-5.80531e-40
81	0x00068609	5.99096e-40
82	0x80069568	-6.0461e-40
83	0x0005c2a5	5.29003e-40
84	0x0005e098	5.39747e-40
85	0x80062d8a	-5.6735e-40
86	0x8005aec5	-5.21873e-40
87	0x00061d08	5.61427e-40
88	0x0006653c	5.87329e-40
89	0x0005dd6b	5.38607e-40
90	0x00060ffd	5.56748e-40
91	0x000665e1	5.8756e-40
92	0x000607ed	5.53856e-40
93	0x80067237	-5.91986e-40
94	0x000667a4	5.88192e-40
95	0x00069d2a	6.07393e-40
96	0x8005a619	-5.18762e-40
97	0x8006db6b	-6.29725e-40
98	0x8006c927	-6.23173e-40
99	0x000587ea	5.07934e-40
100	0x00063433	5.69739e-40
101	0x0005ac98	5.21092e-40
102	0x00056cc3	4.98194e-40
103	0x0006cc39	6.24274e-40
104	0x8006d980	-6.29037e-40
105	0x800607c9	-5.53806e-40
106	0x8005c7a7	-5.30799e-40
107	0x8005a2de	-5.17603e-40
108	0x0006d770	6.28297e-40
109	0x80064a8c	-5.77755e-40
110	0x0006a87e	6.11457e-40
111	0x80056646	-4.95866e-40
112	0x0005f58e	5.47266e-40
113	0x0005e2ac	5.40492e-40
114	0x0005e768	5.4219e-40
115	0x80062d10	-5.67178e-40
116	0x8005c786	-5.30753e-40
117	0x800592b3	-5.11803e-40
118	0x8005dbb6	-5.37995e-40
119	0x8005b21e	-5.23074e-40
120	0x0006170d	5.59282e-40
121	0x8005a1b1	-5.17181e-40
122	0x8006566b	-5.82014e-40
123	0x00059980	5.14243e-40
124	0x8005adf8	-5.21586e-40
125	0x80060ce2	-5.55634e-40
126	0x0005cc5d	5.32489e-40
127	0x0005e6b3	5.41937e-40
128	0x80066c69	-5.89903e-40
129	0x00065c1c	5.84056e-40
130	0x80067069	-5.91338e-40
131	0x0005b0d6	5.22614e-40
132	0x0006cbc9	6.24117e-40
133	0x00060231	5.51799e-40
134	0x0006cbf2	6.24175e-40
135	0x00065b5b	5.83785e-40
136	0x0006dceb	6.30263e-40
137	0x80060c86	-5.55506e-40
138	0x8006148b	-5.58382e-40
139	0x0005be6d	5.2749e-40
140	0x8005c8bb	-5.31186e-40
141	0x80069785	-6.05368e-40
142	0x0005b4fc	5.24102e-40
143	0x0005d36f	5.35026e-40
144	0x00068f51	6.02425e-40
145	0x0005b2b8	5.2329e-40
146	0x0005d56d	5.3574e-40
147	0x0005cee9	5.33403e-40
148	0x00064399	5.75262e-40
149	0x00058ebe	5.10384e-40
150	0x80064c04	-5.78282e-40
151	0x0006880d	5.99819e-40
152	0x000621f5	5.63194e-40
153	0x8006b416	-6.15616e-40
154	0x8006a8a5	-6.11511e-40
155	0x00060f56	5.56514e-40
156	0x80060847	-5.53982e-40
157	0x8005f6a8	-5.47661e-40
158	0x8005b01c	-5.22354e-40
159	0x800600f5	-5.51356e-40
160	0x8006a1b6	-6.09024e-40
161	0x0006b674	6.16465e-40
162	0x00062425	5.63979e-40
163	0x000685b5	5.98978e-40
164	0x000566d7	4.9607e-40
165	0x800652e4	-5.80749e-40
166	0x00063ba6	5.72411e-40
167	0x00065559	5.8163e-40
168	0x8005c360	-5.29265e-40
169	0x000650ec	5.80042e-40
170	0x80064920	-5.77245e-40
171	0x000638dc	5.7141e-40
172	0x8005b71d	-5.24866e-40
173	0x000672e3	5.92227e-40
174	0x000691b6	6.03284e-40
175	0x8005e604	-5.41692e-40
176	0x0006bfb0	6.19777e-40
177	0x8005fd0b	-5.49952e-40
178	0x800614ce	-5.58476e-40
179	0x0005efdf	5.45227e-40
180	0x0005f5bf	5.47335e-40
181	0x80069b36	-6.06692e-40
182	0x8005ca5f	-5.31775e-40
183	0x800677ce	-5.93991e-40
184	0x80069d78	-6.07502e-40
185	0x8006da45	-6.29313e-40
186	0x8005f41a	-5.46745e-40
187	0x8005fcf1	-5.49916e-40
188	0x0006c450	6.21437e-40
189	0x80066f47	-5.90932e-40
190	0x00065b52	5.83773e-40
191	0x0006147c	5.58361e-40
192	0x800623ca	-5.63852e-40
193	0x0006ab5e	6.12488e-40
194	0x0006c17f	6.20426e-40
195	0x000679a6	5.94652e-40
196	0x00062968	5.65867e-40
197	0x00068135	5.97364e-40
198	0x00062ae3	5.66398e-40
199	0x000685e6	5.99047e-40
200	0x0005a78a	5.19279e-40
201	0x0006289e	5.65584e-40
202	0x80060f7f	-5.56572e-40
203	0x800689e6	-6.00482e-40
204	0x00063f88	5.73804e-40
205	0x00069a11	6.06282e-40
206	0x0006a306	6.09495e-40
207	0x80062598	-5.64499e-40
208	0x800686be	-5.9935e-40
209	0x8006601a	-5.85488e-40
210	0x0006dce0	6.30248e-40
211	0x8006484a	-5.76945e-40
212	0x80067f21	-5.96618e-40
213	0x800630b1	-5.6848e-40
214	0x800600dc	-5.51321e-40
215	0x80056a0b	-4.97219e-40
216	0x00062227	5.63265e-40
217	0x8006765e	-5.93475e-40
218	0x000691d1	6.03322e-40
219	0x80062455	-5.64046e-40
220	0x00066b84	5.89582e-40
221	0x8005925f	-5.11686e-40
222	0x80067897	-5.94272e-40
223	0x80058c74	-5.09563e-40
224	0x00061613	5.58932e-40
225	0x00062d92	5.6736e-40
226	0x0005c6c5	5.30483e-40
227	0x800623b8	-5.63826e-40
228	0x80068ade	-6.00829e-40
229	0x0005e01f	5.39577e-40
230	0x8005df28	-5.39231e-40
231	0x80064f21	-5.79399e-40
232	0x80066865	-5.88463e-40
233	0x8006529a	-5.80645e-40
234	0x8005bf5d	-5.27826e-40
235	0x0005acfe	5.21235e-40
236	0x000649cd	5.77488e-40
237	0x8005b94c	-5.2565e-40
238	0x0005d513	5.35614e-40
239	0x000627d3	5.65299e-40
240	0x0006c6a5	6.22273e-40
241	0x80062936	-5.65797e-40
242	0x000639b2	5.7171e-40
243	0x00061f12	5.62159e-40
244	0x00063ae5	5.7214e-40
245	0x0005db7b	5.37912e-40
246	0x8005b245	-5.23129e-40
247	0x8006738a	-5.9246e-40
248	0x00062592	5.6449e-40
249	0x0005c14e	5.28522e-40
250	0x8005d0c1	-5.34064e-40
251	0x80063062	-5.6837e-40
252	0x00062302	5.63571e-40
253	0x0005e4c8	5.41249e-40
254	0x8005dfe4	-5.39494e-40
255	0x00063163	5.6873e-40

6.bias f4 [4]
0	0x00000000	0.0
1	0x00000000	0.0
2	0xbd7db6cd	-0.06194191
3	0xbd82550f	-0.0636388

exp_avg f4 [128, 70]
0	0xb2ec8f4c	-2.753918e-08
1	0x9bae4adf	-2.883427e-22
2	0xb199b59c	-4.4735327e-09
3	0x9eca6127	-2.1427763e-20
4	0x32419e67	1.1270095e-08
5	0xacc54f90	-5.60791e-12
6	0x3329cc53	3.953421e-08
7	0xb2e26a1d	-2.6358117e-08
8	0x32278cc0	9.752682e-09
9	0x31222a2a	2.359807e-09
10	0xb14c6f8a	-2.974931e-09
11	0xb1e8dd45	-6.777244e-09
12	0xb2b9895f	-2.1599304e-08
13	0x31a0bf59	4.6783666e-09
14	0xb3178944	-3.528227e-08
15	0x32702089	1.3977236e-08
16	0x31721119	3.5225354e-09
17	0xb211b5a6	-8.481413e-09
18	0xb250f12f	-1.2162032e-08
19	0xb2ef3d88	-2.7851243e-08
20	0x00000000	0.0
21	0xb33229ac	-4.1481755e-08
22	0x32ad5f60	2.0183222e-08
23	0x318cb8e6	4.095557e-09
24	0xae1d66f5	-3.578911e-11
25	0xb212d1ae	-8.545994e-09
26	0xb18e41ec	-4.1402384e-09
27	0x30dfed87	1.6292895e-09
28	0xb302210e	-3.0298047e-08
29	0xb1c39b53	-5.6929053e-09
30	0x31a35369	4.753407e-09
31	0x3202df46	7.617762e-09
32	0xb28a7ab7	-1.6121119e-08
33	0x32c64524	2.3081675e-08
34	0x91f5de9c	-3.8791378e-28
35	0xb312bf88	-3.416747e-08
36	0xb28c4b54	-1.63324e-08
37	0x320fc5ba	8.368653e-09
38	0x323d0719	1.1002862e-08
39	0xb29389bb	-1.7175685e-08
40	0x32f96d22	2.9037043e-08
41	0xa2a321a6	-4.4216865e-18
42	0xb321968c	-3.7622655e-08
43	0xb1223ef2	-2.3609883e-09
44	0x32a38c75	1.903957e-08
45	0x3087e8ae	9.888674e-10
46	0xb2c3141b	-2.271013e-08
47	0x32153b41	8.686414e-09
48	0xb2abff1b	-2.0023029e-08
49	0xb311dbd6	-3.3960383e-08
50	0xb222d5ec	-9.478281e-09
51	0x3287c4ca	1.5805558e-08
52	0x2fa94950	3.0793013e-10
53	0xb26985a4	-1.3592771e-08
54	0x3230009b	1.0244686e-08
55	0xb29eaff6	-1.8473639e-08
56	0xb2fcf78d	-2.9449234e-08
57	0x284ca6d3	1.1360449e-14
58	0x32da6137	2.5422748e-08
59	0x1ec8db52	2.1266532e-20
60	0xb2ffb0b0	-2.9766255e-08
61	0x80000000	-0.0
62	0xb2fddb49	-2.9552796e-08
63	0xb21a4a62	-8.9808925e-09
64	0x80000000	-0.0
65	0x31da0ed4	6.346321e-09
66	0x1f09668e	2.909571e-20
67	0xb1c35de3	-5.6859206e-09
68	0x220c5379	1.9017728e-18
69	0xb21867f5	-8.8712016e-09
70	0xba338bce	-0.00068491406
71	0xb7e34a0b	-2.7094988e-05
72	0xb948b472	-0.00019140707
73	0xb7b22415	-2.1236056e-05
74	0x39887d21	0.0002603317
75	0xb81f86e7	-3.803419e-05
76	0x3a1d4d59	0.00060006004
77	0xba338afe	-0.00068490196
78	0xb8fe9454	-0.00012139292
79	0xb7e2534f	-2.6980093e-05
80	0x394cf1aa	0.00019544983
81	0xb97ce5a9	-0.00024118148
82	0x3a11659a	0.0005546451
83	0x39b162d2	0.00033833698
84	0xba338185	-0.0006847608
85	0x3a82fc9e	0.0009993499
86	0x39192cbf	0.00014607886
87	0xba5e2dc3	-0.0008475447
88	0xb95e6fd1	-0.00021213225
89	0xbadbba83	-0.0016763959
90	0x390954f7	0.0001309699
91	0xba33fc05	-0.0006865862
92	0x3ad91054	0.0016560652
93	0x39808fa6	0.0002452109
94	0xba010433	-0.0004921585
95	0xb9d0399b	-0.0003971577
96	0xbaac134c	-0.001312831
97	0xb995fa4c	-0.0002860598
98	0xba364e65	-0.0006954431
99	0xbaae0ce7	-0.0013278992
100	0x3925391f	0.00015756905
101	0x39d4f315	0.000406169
102	0xb947d805	-0.00019058592
103	0x3a5d93b3	0.000845249
104	0x392bf286	0.00016398178
105	0xba60b108	-0.00085713016
106	0x3ac2010f	0.0014801341
107	0x3a5fe167	0.00085403625
108	0xb71122f9	-8.650816e-06
109	0xb9904155	-0.00027514496
110	0xb95e52dc	-0.00021202437
111	0x38a041be	7.64164e-05
112	0xbab7c655	-0.00140209
113	0xba9760f2	-0.0011549278
114	0x3a53bd02	0.00080771756
115	0x3a1bb3f8	0.0005939598
116	0xba7c2b19	-0.0009619459
117	0x3aba64b9	0.0014220692
118	0xba845ac7	-0.0010097855
119	0xb953d992	-0.0002020358
120	0x39e18e09	0.0004302117
121	0x38601a0e	5.3430027e-05
122	0xb90745e5	-0.00012900641
123	0xb999e063	-0.00029349615
124	0xb976a1fe	-0.00023520735
125	0xb9deb340	-0.0004247669
126	0xba1ad067	-0.0005905688
127	0xb992fd1b	-0.00028035868
128	0x39fbb5ce	0.00048009906
129	0x38061b2f	3.1973406e-05
130	0xb9d4ae90	-0.0004056585
131	0x393e9086	0.00018173651
132	0xba0650a5	-0.00051237113
133	0xb8474e9a	-4.75185e-05
134	0x39062e16	0.00012796404
135	0x396a8f10	0.00022369274
136	0xb7d368e6	-2.5202007e-05
137	0xb8ee3a08	-0.000113595335
138	0xb8eded48	-0.00011345238
139	0xb913d59a	-0.00014098585
140	0xb970c442	-0.00022961295
141	0xb71ff9e3	-9.53532e-06
142	0xb83f3198	-4.5584136e-05
143	0x35c1aa00	1.4429097e-06
144	0xb807d59b	-3.2385444e-05
145	0x379d77b0	1.8771592e-05
146	0x3941fdfb	0.0001850053
147	0xb970c3e8	-0.00022961164
148	0xb8b7d496	-8.765717e-05
149	0xb8e72f8f	-0.00011023797
150	0x38f8fef1	0.00011873048
151	0xb8c16b6a	-9.2229646e-05
152	0x39d328a7	0.00040275345
153	0xb896a22a	-7.182763e-05
154	0xb970b58a	-0.00022955812
155	0x39c7a4ef	0.00038079123
156	0x382f328d	4.177033e-05
157	0xb9cb34d7	-0.00038758546
158	0x3810bba8	3.4507044e-05
159	0xba3e2e45	-0.00072548195
160	0x37bdd13d	2.262799e-05
161	0xb971ea87	-0.00023070919
162	0x3a289fcf	0.0006432505
163	0x390370b2	0.00012535116
164	0xb82792c9	-3.9952607e-05
165	0xb8b19cbb	-8.469211e-05
166	0x384dad54	4.9037233e-05
167	0xb952c142	-0.00020099155
168	0xb98d548e	-0.00026956614
169	0xbaa25fa8	-0.0012388127
170	0x38bc4a22	8.978347e-05
171	0x391705ed	0.0001440269
172	0x3966574c	0.0002196703
173	0x3a1c1d4f	0.0005955295
174	0x39fa6402	0.00047758227
175	0xb9b45bb3	-0.00034400597
176	0x3a7e7001	0.0009706021
177	0x394888e4	0.00019124482
178	0xb9e03f56	-0.00042771798
179	0x37cf10e3	2.4684186e-05
180	0xba91fd52	-0.0011138117
181	0x39396141	0.00017679205
182	0xba45cf70	-0.0007545864
183	0xb9cce5a0	-0.00039080996
184	0x39deed13	0.00042519774
185	0x3959e7e1	0.00020781114
186	0xba31f159	-0.0006787978
187	0x3a206aa1	0.00061194046
188	0xbac8c50c	-0.0015317514
189	0xb936452b	-0.0001738264
190	0x3a17e7d8	0.000579474
191	0x39cae08a	0.00038695737
192	0xb910a8aa	-0.00013795742
193	0xb96466fd	-0.0002178214
194	0xb990effc	-0.00027644623
195	0xba02fe5f	-0.00049970107
196	0xb9b1ff0f	-0.00033950104
197	0xba1fa551	-0.0006090003
198	0x389e047f	7.5348646e-05
199	0x391779c0	0.00014445838
200	0xb729bf5a	-1.01177375e-05
201	0x39dfd828	0.00042694923
202	0xb8f16dd4	-0.000115122326
203	0xba2def3f	-0.0006635077
204	0x396ca7e2	0.00022569255
205	0x3a81560d	0.0009867564
206	0xb8bb927b	-8.944139e-05
207	0xba3d059d	-0.0007210614
208	0xb94b4f6b	-0.00019389174
209	0xba66bc80	-0.00088018924
210	0xb46c90ff	-2.2031962e-07
211	0x193bc824	9.7080915e-24
212	0xb149da22	-2.9373344e-09
213	0xaac33cae	-3.4681063e-13
214	0x33af8a5d	8.174241e-08
215	0xb10669d7	-1.955973e-09
216	0x34696f19	2.1740233e-07
217	0xb46c91f7	-2.2032314e-07
218	0xb3ed60e1	-1.1053795e-07
219	0x2e6a8830	5.33264e-11
220	0x32d7b296	2.5110506e-08
221	0xb337e24f	-4.2813834e-08
222	0x33ca6b75	9.425904e-08
223	0x33ff08bf	1.1875954e-07
224	0xb46c91cf	-2.2032258e-07
225	0xb2cf4328	-2.412851e-08
226	0x308b3c2e	1.0130685e-09
227	0x32e54806	2.6691861e-08
228	0xb37b242d	-5.8473393e-08
229	0x32e4f6dd	2.6654954e-08
230	0x31d77ba7	6.271381e-09
231	0xb46c90f3	-2.2031945e-07
232	0x33860718	6.2411516e-08
233	0x3116eafa	2.1961442e-09
234	0x32dada82	2.5477906e-08
235	0xb39db8ee	-7.344521e-08
236	0x340a0c8b	1.2856815e-07
237	0x3228bbe6	9.82161e-09
238	0xb46c91c7	-2.2032246e-07
239	0xb2707195	-1.3995664e-08
240	0x31864ba3	3.908512e-09
241	0xb0ddc647	-1.613622e-09
242	0xb4084bd8	-1.2693579e-07
243	0xb3e2998c	-1.0551875e-07
244	0xb32f679c	-4.0839595e-08
245	0xb4582925	-2.0131536e-07
246	0x32fbbe73	2.9306852e-08
247	0x3136ef71	2.6620592e-09
248	0x31f25548	7.0528223e-09
249	0xb3c4dee1	-9.167503e-08
250	0xb1494e2b	-2.9293783e-09
251	0xb308be47	-3.1838024e-08
252	0xb4558f3e	-1.9889282e-07
253	0x3262391b	1.3167916e-08
254	0x32a53117	1.9230852e-08
255	0x31a0ef79	4.6838378e-09

exp_avg_sq f4 [128, 70]
0	0x2f8c4794	2.551671e-10
1	0x2a1526bf	1.3247301e-13
2	0x2d887937	1.551524e-11
3	0x2a39947d	1.6482818e-13
4	0x2e480239	4.547671e-11
5	0x2ba2f87f	1.1579764e-12
6	0x2f8aa618	2.522007e-10
7	0x2f8c47ac	2.5516778e-10
8	0x2dddc003	2.5210061e-11
9	0x2d5b0a0f	1.2450942e-11
10	0x2d278fe4	9.524801e-12
11	0x2df00e41	2.7291171e-11
12	0x2edabf43	9.947467e-11
13	0x2d7359ec	1.38329175e-11
14	0x2f8c46e6	2.5516228e-10
15	0x2f311b15	1.6107678e-10
16	0x2d66780b	1.3100641e-11
17	0x2e2f835f	3.9907074e-11
18	0x2e48024e	4.5476782e-11
19	0x2f8c4806	2.5517027e-10
20	0x27c04e7f	5.337581e-15
21	0x2f8c4638	2.5515745e-10
22	0x2ef0d927	1.09525104e-10
23	0x2d799185	1.4186323e-11
24	0x2c02f559	1.8610306e-12
25	0x2e08c0cd	3.109406e-11
26	0x2dcca96c	2.3267353e-11
27	0x2d0fbbba	8.170293e-12
28	0x2f8c474a	2.5516506e-10
29	0x2dcdaafd	2.3381736e-11
30	0x2d9ec007	1.8047798e-11
31	0x2e490505	4.5706567e-11
32	0x2e411acb	4.3906916e-11
33	0x2f8c1d76	2.5486785e-10
34	0x29c59826	8.774951e-14
35	0x2f8c4831	2.5517147e-10
36	0x2f1f2f56	1.4477783e-10
37	0x2da58947	1.8819292e-11
38	0x2e3fee4d	4.3640026e-11
39	0x2e55b2ca	4.858939e-11
40	0x2f843d76	2.405433e-10
41	0x2a7d02af	2.2471845e-13
42	0x2f8c47d2	2.5516883e-10
43	0x2d81aa00	1.4741097e-11
44	0x2ea9667b	7.7034344e-11
45	0x2ce19926	6.4118875e-12
46	0x2f1b0e4a	1.4102244e-10
47	0x2df76f9a	2.813021e-11
48	0x2efa6272	1.1386171e-10
49	0x2f8c4775	2.5516625e-10
50	0x2dc29fa4	2.2126141e-11
51	0x2f103dd8	1.3118695e-10
52	0x2c91df2d	4.1459254e-12
53	0x2eea88b6	1.0665373e-10
54	0x2df76cb3	2.8128921e-11
55	0x2efa5fcb	1.13857e-10
56	0x2f8c4763	2.5516575e-10
57	0x2b037ce3	4.6713864e-13
58	0x2f37ec26	1.672765e-10
59	0x2a398e96	1.648077e-13
60	0x2f281d62	1.528995e-10
61	0x1e347abe	9.554503e-21
62	0x2f8c475b	2.5516553e-10
63	0x2e12566d	3.3273318e-11
64	0x2837a760	1.0194834e-14
65	0x2da3bf1b	1.8615822e-11
66	0x2a3cad71	1.6757929e-13
67	0x2d999b0e	1.7462944e-11
68	0x2a72e749	2.1574161e-13
69	0x2df76f43	2.8130059e-11
70	0x386fe559	5.7195637e-05
71	0x3337b3af	4.277143e-08
72	0x3707410d	8.061773e-06
73	0x35166aca	5.6034753e-07
74	0x376a7529	1.3974765e-05
75	0x3614ab18	2.2153308e-06
76	0x3867ea18	5.529271e-05
77	0x386fe4fe	5.7195306e-05
78	0x37a07ed8	1.9132553e-05
79	0x36cbcc4c	6.0736547e-06
80	0x36f4a61e	7.2911052e-06
81	0x376e2497	1.4194425e-05
82	0x38536d9d	5.0408406e-05
83	0x37a286e9	1.9374727e-05
84	0x386f74ac	5.70907e-05
85	0x37fd9ace	3.0232037e-05
86	0x36f8a371	7.410003e-06
87	0x37210443	9.59734e-06
88	0x377da8ad	1.5119248e-05
89	0x388638fb	6.400231e-05
90	0x36b56cb4	5.406875e-06
91	0x386fd491	5.718001e-05
92	0x37f1818c	2.8789764e-05
93	0x371b06a3	9.240265e-06
94	0x3721948a	9.630932e-06
95	0x378c9fbc	1.6763683e-05
96	0x387e5152	6.0634055e-05
97	0x370ede56	8.515626e-06
98	0x3872eb0c	5.79162e-05
99	0x37ced489	2.4656083e-05
100	0x376b1fc1	1.4014485e-05
101	0x370bff12	8.344434e-06
102	0x37b0cffc	2.1077685e-05
103	0x38511ab1	4.985434e-05
104	0x378e460a	1.6960334e-05
105	0x38681a53	5.5337627e-05
106	0x3799403e	1.8268936e-05
107	0x37bbebd9	2.2401962e-05
108	0x36b1b19b	5.295687e-06
109	0x37e72417	2.7554152e-05
110	0x3804e930	3.1688425e-05
111	0x3805d349	3.1906446e-05
112	0x384a7732	4.8271562e-05
113	0x3718cea3	9.108017e-06
114	0x3802ce27	3.118641e-05
115	0x3626ca67	2.4853741e-06
116	0x37fc9a1f	3.011251e-05
117	0x3772de36	1.4476062e-05
118	0x3826ff54	3.9815277e-05
119	0x37f0d84e	2.8710954e-05
120	0x3682b945	3.89587e-06
121	0x37b9bfef	2.2143095e-05
122	0x35885256	1.0156753e-06
123	0x379ed7e9	1.8935609e-05
124	0x36c5925e	5.888097e-06
125	0x37e24682	2.6974132e-05
126	0x3749c6cd	1.20268205e-05
127	0x35c7a1bd	1.4873727e-06
128	0x370a8c87	8.25816e-06
129	0x34df4e45	4.1593935e-07
130	0x36faf894	7.479519e-06
131	0x362be2ae	2.561293e-06
132	0x3739e6c9	1.1080593e-05
133	0x370e146f	8.468617e-06
134	0x3536a15a	6.803508e-07
135	0x36afb6ba	5.2366786e-06
136	0x348ca03b	2.6193615e-07
137	0x36a7422d	4.9846917e-06
138	0x35ca4207	1.5069389e-06
139	0x36e57e80	6.8394584e-06
140	0x38404434	4.5839886e-05
141	0x3316c1e0	3.5100925e-08
142	0x36bf0ba6	5.6935996e-06
143	0x34befec7	3.5575633e-07
144	0x373bb0df	1.118725e-05
145	0x35c0f95a	1.4377686e-06
146	0x383b11f2	4.4600987e-05
147	0x38401ee1	4.5805125e-05
148	0x377c1ea4	1.5027505e-05
149	0x36886439	4.0647833e-06
150	0x36bfe374	5.7187226e-06
151	0x376069a1	1.3376034e-05
152	0x382a94e1	4.0669813e-05
153	0x37a2f065	1.9423847e-05
154	0x38403513	4.5825796e-05
155	0x37cf6323	2.4722487e-05
156	0x36b1a182	5.293813e-06
157	0x3700cf91	7.677722e-06
158	0x374e3a9d	1.2292204e-05
159	0x385ee1ad	5.31391e-05
160	0x36bf18aa	5.695115e-06
161	0x38409c6b	4.5922043e-05
162	0x37d604ef	2.5513085e-05
163	0x36d5829d	6.3631e-06
164	0x370158a0	7.709634e-06
165	0x3759c4e7	1.2980053e-05
166	0x3854d87d	5.074636e-05
167	0x36d92fc3	6.472664e-06
168	0x38441862	4.675275e-05
169	0x37b2c7bc	2.1312262e-05
170	0x37155a57	8.902126e-06
171	0x36e877c8	6.928083e-06
172	0x3781dcbf	1.5480791e-05
173	0x38394d67	4.4179524e-05
174	0x3740c9a8	1.1491044e-05
175	0x383d2a1b	4.5100325e-05
176	0x379d46c0	1.8748804e-05
177	0x375c03d4	1.3113913e-05
178	0x36b7fa4e	5.4829643e-06
179	0x37a0e76f	1.9181256e-05
180	0x38119d74	3.4717334e-05
181	0x37b48b84	2.152264e-05
182	0x3832d2ef	4.2634954e-05
183	0x374aea83	1.209474e-05
184	0x37a8f3c0	2.0140666e-05
185	0x364dfde9	3.0695176e-06
186	0x37c27d2e	2.3184894e-05
187	0x37a52777	1.968791e-05
188	0x37f9940e	2.9752056e-05
189	0x381003cf	3.4335822e-05
190	0x36ed944f	7.080416e-06
191	0x37b46393	2.150404e-05
192	0x35e248e5	1.6859527e-06
193	0x37aa5590	2.0305422e-05
194	0x373a9be2	1.1122758e-05
195	0x37f33a0c	2.8994888e-05
196	0x37c09d38	2.2961394e-05
197	0x3654a921	3.1688908e-06
198	0x37830d15	1.5622509e-05
199	0x357c19a4	9.391463e-07
200	0x376b6d4b	1.4032538e-05
201	0x36c5f13c	5.899141e-06
202	0x37afd0d8	2.0958876e-05
203	0x3792007e	1.7404785e-05
204	0x35c788cb	1.4866467e-06
205	0x3735a896	1.0827693e-05
206	0x3509940b	5.125191e-07
207	0x37289e42	1.0050428e-05
208	0x364c470f	3.043973e-06
209	0x376bed2e	1.4062314e-05
210	0x2e983212	6.921054e-11
211	0x2990222e	6.400814e-14
212	0x2c0d3d72	2.0071414e-12
213	0x2a8ef9c0	2.5397566e-13
214	0x2d8cfb73	1.6027823e-11
215	0x2bb7e67a	1.3066902e-12
216	0x2e954ba1	6.78917e-11
217	0x2e983212	6.921054e-11
218	0x2e98458f	6.924516e-11
219	0x2b4a42ec	7.185769e-13
220	0x2d0a8819	7.8746116e-12
221	0x2d549263	1.2083309e-11
222	0x2eb3c2a5	8.1745534e-11
223	0x2e175763	3.441104e-11
224	0x2e983212	6.921054e-11
225	0x2df2e1dc	2.7612516e-11
226	0x2bb445df	1.2809162e-12
227	0x2d11896c	8.2728095e-12
228	0x2d8118fd	1.4676699e-11
229	0x2e59c9e9	4.951942e-11
230	0x2da26b07	1.8464797e-11
231	0x2e983212	6.921054e-11
232	0x2d57c9b2	1.226612e-11
233	0x2bfb53f0	1.785792e-12
234	0x2d4d7cf2	1.1680644e-11
235	0x2da290f0	1.8481633e-11
236	0x2e8e7b49	6.479312e-11
237	0x2d1202e0	8.2997775e-12
238	0x2e983212	6.921054e-11
239	0x2d9801b7	1.7281161e-11
240	0x2c14ec99	2.1163403e-12
241	0x2c940f67	4.208123e-12
242	0x2e11e401	3.317169e-11
243	0x2e3d81f8	4.308906e-11
244	0x2e5409ed	4.8212035e-11
245	0x2e989b4c	6.939746e-11
246	0x2dc7aa5d	2.2699337e-11
247	0x2c0a0db3	1.9618584e-12
248	0x2d199ffb	8.732566e-12
249	0x2da0d1ea	1.8283115e-11
250	0x2e91d364	6.631387e-11
251	0x2d2dc723	9.878129e-12
252	0x2e99e14f	6.997657e-11
253	0x2dc1f788	2.2051486e-11
254	0x2d4b6dd2	1.1563599e-11
255	0x2ca2d4bc	4.627935e-12

exp_avg f4 [128]
0	0xb318e683	-3.5599907e-08
1	0xba338b35	-0.00068490516
2	0xb970c8ca	-0.00022962983
3	0xb46c91cf	-2.2032258e-07
4	0xb4009b60	-1.1977454e-07
5	0xbaf75580	-0.0018870085
6	0xac70dfd3	-3.4230299e-12
7	0x32ddb8d2	2.5811833e-08
8	0xa5b396c6	-3.1153718e-16
9	0xb09d21f5	-1.1432905e-09
10	0xba252902	-0.0006300361
11	0xb2ee0d8c	-2.7713007e-08
12	0xb487924d	-2.5252157e-07
13	0x3ad664be	0.0016356928
14	0xb16ccce4	-3.4458987e-09
15	0xb4e1edd3	-4.2082556e-07
16	0xa03efba3	-1.6176886e-19
17	0xb492d147	-2.7346888e-07
18	0x39c6d089	0.00037920874
19	0x3a81c9a2	0.000990201
20	0xb459d1e1	-2.0286053e-07
21	0x38b52f39	8.6395485e-05
22	0xb41c49d9	-1.4555498e-07
23	0xb45eb480	-2.0741027e-07
24	0xba515ccf	-0.0007986547
25	0x3925e380	0.00015820377
26	0x9fde1250	-9.405095e-20
27	0xba10f040	-0.0005528964
28	0x3a577da2	0.000822032
29	0x3ab56dda	0.0013841942
30	0xae6e2f94	-5.4157193e-11
31	0xba2cfc33	-0.000659886
32	0xb4b0b1c2	-3.291189e-07
33	0xba9f98b2	-0.0012176244
34	0xa3790ca5	-1.3500995e-17
35	0xb6594740	-3.2376993e-06
36	0xb1291c70	-2.4608902e-09
37	0xbb35c597	-0.002773618
38	0x3a1cdde2	0.0005983991
39	0xba8e49e1	-0.0010855758
40	0x3a5483e3	0.0008106811
41	0xba84c804	-0.001013041
42	0xb46956a8	-2.1731341e-07
43	0xba20b64c	-0.000613068
44	0xb4890523	-2.5521976e-07
45	0xb274b9a3	-1.4244878e-08
46	0x3a26f794	0.00063692895
47	0x3ada3afe	0.0016649661
48	0xaec3a5eb	-8.897046e-11
49	0xb3959428	-6.965303e-08
50	0x38327212	4.2544743e-05
51	0xba1b88b8	-0.00059331534
52	0x3a3cd00a	0.0007202631
53	0x3ac6ca46	0.0015166483
54	0xba39c868	-0.0007087053
55	0xba8e3104	-0.0010848348
56	0xb2cfda75	-2.4197314e-08
57	0xb41354fe	-1.3721362e-07
58	0xb6d2be24	-6.280623e-06
59	0xba80fbee	-0.0009840706
60	0x9c0b77e4	-4.6146197e-22
61	0xba2168b8	-0.0006157267
62	0xa9dc9033	-9.794977e-14
63	0xbaa795f6	-0.0012785781
64	0xba21fc7a	-0.00061792845
65	0xb16bed14	-3.4331764e-09
66	0xbab6bd3b	-0.0013941893
67	0xb489e945	-2.5687964e-07
68	0xba8a4c2e	-0.0010551268
69	0xaf9063d1	-2.626437e-10
70	0xb986510b	-0.00025618853
71	0xbaf822ef	-0.001893131
72	0xb4362a5e	-1.6965484e-07
73	0xba7d509c	-0.0009663196
74	0xb32ed38a	-4.0704926e-08
75	0xbaa08985	-0.0012248015
76	0xb3963a22	-6.9954936e-08
77	0x3a7a78b9	0.0009554732
78	0xb0ddc4b2	-1.613577e-09
79	0x3acea7dd	0.001576658
80	0x3921a2d7	0.00015414819
81	0xb47327b0	-2.2645577e-07
82	0xb44ac4fb	-1.8884377e-07
83	0x381e32d2	3.7717466e-05
84	0xbabc6c93	-0.0014375619
85	0xb394a71f	-6.922186e-08
86	0xb2dffbe1	-2.6075158e-08
87	0x37fd80c5	3.0219913e-05
88	0xb4ca3fbf	-3.7671813e-07
89	0xb162219e	-3.2906438e-09
90	0xb19f50ee	-4.6367097e-09
91	0xb15d7e23	-3.2231433e-09
92	0xb48170ef	-2.4110292e-07
93	0xb30d88a4	-3.2953395e-08
94	0x39567f48	0.00020456046
95	0xb3cad74b	-9.4455196e-08
96	0x398cc3eb	0.0002684885
97	0xb42d8dd2	-1.6163474e-07
98	0x39b39044	0.00034249027
99	0xbadd56b2	-0.0016886799
100	0xbaf7dd8c	-0.0018910631
101	0xafa76dd8	-3.0455172e-10
102	0x39392390	0.00017656223
103	0x3977b861	0.00023624442
104	0x39627870	0.00021597906
105	0x2e898a9d	6.2546614e-11
106	0x3a006d1c	0.0004899071
107	0x3a4f15e1	0.00078996836
108	0xbada1ec5	-0.001664125
109	0xb0e913ed	-1.6958644e-09
110	0xb385aa54	-6.2242776e-08
111	0xb9198c00	-0.00014643371
112	0xbaa0d8f1	-0.0012271685
113	0xba2cd347	-0.0006592762
114	0x3aa02be2	0.0012220109
115	0x39a31e70	0.0003111246
116	0xba223464	-0.00061876164
117	0xb3419d30	-4.5079275e-08
118	0xafac60e1	-3.1355454e-10
119	0xb10d8adb	-2.059713e-09
120	0xba8640d0	-0.0010242704
121	0xa64cdfa5	-7.1079813e-16
122	0xb410b11c	-1.3475477e-07
123	0xba988fe6	-0.0011639565
124	0x3b015a66	0.001973772
125	0xa79ff28f	-4.4394348e-15
126	0xb28b5562	-1.6220557e-08
127	0xba38f61d	-0.00070557167

exp_avg_sq f4 [128]
0	0x2f8c46de	2.5516206e-10
1	0x386fe561	5.7195666e-05
2	0x38404435	4.583989e-05
3	0x2e983212	6.921054e-11
4	0x32b09b87	2.0559822e-08
5	0x383dbd15	4.5237208e-05
6	0x2b9ae8a7	1.1006932e-12
7	0x2db86698	2.0963939e-11
8	0x2ab79bf2	3.261554e-13
9	0x2c837227	3.7359174e-12
10	0x38ff62c6	0.000121777455
11	0x2f08982f	1.2423194e-10
12	0x312ddeff	2.5301572e-09
13	0x390451e4	0.00012619008
14	0x2d298adf	9.637373e-12
15	0x3300b295	2.9964742e-08
16	0x2a4fd07a	1.8457623e-13
17	0x31a3ed80	4.770925e-09
18	0x38f9ef15	0.00011917778
19	0x38cc432b	9.739989e-05
20	0x310807de	1.9795077e-09
21	0x38ca13d5	9.6358046e-05
22	0x2ee64768	1.04718734e-10
23	0x2d747a46	1.3896944e-11
24	0x38937809	7.0318645e-05
25	0x38e64ed3	0.00010981937
26	0x2a493b3f	1.7872941e-13
27	0x354fd0f3	7.741757e-07
28	0x38db0592	0.00010443771
29	0x390699f8	0.00012836594
30	0x2c11d14f	2.072193e-12
31	0x38075dd7	3.2273903e-05
32	0x30b849c7	1.3408731e-09
33	0x37d38e3f	2.5219399e-05
34	0x2a8d0e95	2.505675e-13
35	0x35bad7d6	1.3920896e-06
36	0x2a4a3a30	1.7961392e-13
37	0x3816fb2d	3.5996713e-05
38	0x36c514e2	5.8734886e-06
39	0x3810498f	3.4400782e-05
40	0x360683a4	2.004418e-06
41	0x381d3fd3	3.7491158e-05
42	0x2f9cbf4c	2.851216e-10
43	0x38529f76	5.021641e-05
44	0x30bee4c8	1.3889343e-09
45	0x2e33cfbb	4.088439e-11
46	0x38ea6a7b	0.00011177823
47	0x390012ba	0.00012214007
48	0x2a1783da	1.345724e-13
49	0x2dd0e735	2.3749539e-11
50	0x38347c45	4.303108e-05
51	0x38320cd6	4.245046e-05
52	0x38e60b9b	0.00010969416
53	0x38d21628	0.00010017707
54	0x37c56789	2.3532442e-05
55	0x38073f77	3.2245614e-05
56	0x2ea744db	7.606512e-11
57	0x305bf154	8.0014684e-10
58	0x342bb050	1.5989758e-07
59	0x382f531c	4.1800653e-05
60	0x2a14d757	1.3219752e-13
61	0x382047be	3.8213788e-05
62	0x2b24eefd	5.8596167e-13
63	0x384fe743	4.9568025e-05
64	0x38106fde	3.443646e-05
65	0x2d5359c0	1.201389e-11
66	0x38433dbd	4.654912e-05
67	0x3299acb1	1.7890075e-08
68	0x38446c98	4.6831177e-05
69	0x2c755b8c	3.4867413e-12
70	0x38ef94d6	0.00011424131
71	0x38416fc1	4.6118865e-05
72	0x312f8fb4	2.5547537e-09
73	0x385a6f40	5.207886e-05
74	0x2f9f6754	2.899535e-10
75	0x38042764	3.1507938e-05
76	0x2e8e51c7	6.471939e-11
77	0x38ea4a61	0.00011171844
78	0x2a07e4f3	1.2069841e-13
79	0x390a2e59	0.00013177971
80	0x38fcb511	0.000120500226
81	0x2f0804e0	1.237086e-10
82	0x2eb15f40	8.065948e-11
83	0x355e5d0a	8.2836834e-07
84	0x385b01ae	5.2215233e-05
85	0x31a8ee7f	4.9165574e-09
86	0x2d25fb8b	9.435018e-12
87	0x371baf0c	9.279476e-06
88	0x33143449	3.450649e-08
89	0x2d562564	1.2172794e-11
90	0x2bed8bac	1.687863e-12
91	0x2c045e30	1.8810613e-12
92	0x31d55015	6.20822e-09
93	0x2f5bfe1a	2.0008209e-10
94	0x38248992	3.922877e-05
95	0x2fbc5409	3.425671e-10
96	0x389da97f	7.5179145e-05
97	0x2e9a432e	7.015043e-11
98	0x39082040	0.00012981985
99	0x383ca102	4.4972643e-05
100	0x381411a4	3.530238e-05
101	0x2c72df78	3.4514318e-12
102	0x38e3a70a	0.00010855317
103	0x38d3fef2	0.00010108751
104	0x38fa0e18	0.00011923554
105	0x2a45541f	1.75263e-13
106	0x38e00c6e	0.000106834676
107	0x39154ace	0.00014237614
108	0x38571683	5.128096e-05
109	0x2c1308ce	2.0894844e-12
110	0x2ecd55a0	9.337531e-11
111	0x38d61235	0.000102077065
112	0x37e7ac2c	2.761752e-05
113	0x37ca37d4	2.4106273e-05
114	0x38e52a46	0.00010927445
115	0x3921d9f3	0.00015435349
116	0x3902b3fc	0.00012464816
117	0x2f2eabde	1.5886267e-10
118	0x2b441b49	6.9671054e-13
119	0x2be7f210	1.6480723e-12
120	0x3838f7e2	4.4099877e-05
121	0x2ac50fd9	3.5005226e-13
122	0x332ef816	4.0738165e-08
123	0x386dd6ba	5.6705183e-05
124	0x38ff1f43	0.000121651705
125	0x2aedd81e	4.2249619e-13
126	0x2d7b0cf3	1.42705734e-11
127	0x37f02446	2.862712e-05
