custom_implementations/models/models_simple/reinforce_best.pth (torch, 373805 bytes, 18 tensors)

0.weight f4 [128, 105]
-0.0036510797 -0.003506128 -9.862282e-12 -0.0011712168 4.3256898e-11 -0.004213908 -1.00147855e-10 -8.8422346e-11
-3.898305e-10 -5.2933904e-11 8.863793e-11 2.2783674e-11 1.8429483e-10 1.3320821e-10 -1.1304921e-10 4.3103146e-11
1.06367644e-10 -1.0185576e-10 2.6916776e-11 8.948623e-11 2.6800384e-10 7.7505134e-11 -2.2414647e-10 2.651417e-10
1.3334764e-10 2.5804536e-10 3.0842384e-10 -1.7122553e-10 -2.0284116e-10 8.164052e-11 -1.1598888e-11 1.1983684e-11
-7.289695e-11 2.0456062e-11 -1.0927465e-10 -1.7682451e-11 1.3956195e-10 -1.3306195e-10 -1.7532761e-10 -3.376936e-10
-3.026026e-11 -9.123999e-12 -1.16385694e-11 -2.5916935e-10 1.0620538e-10 -6.2623778e-12 -2.5070415e-10 2.0902274e-10
4.2403342e-10 -2.2691035e-11 1.6657436e-11 9.035215e-11 -4.9713674e-11 2.2140992e-10 -3.0414414e-11 -3.520104e-11
-3.544618e-10 1.07509356e-10 -5.363387e-11 3.6440122e-11 8.679273e-11 2.1387941e-10 -1.11672276e-10 -1.0373123e-10
4.345423e-11 2.659435e-10 3.0415385e-11 -1.7567926e-11 3.1789485e-10 2.6409694e-10 -1.4302001e-10 2.3646687e-10
1.2106202e-10 -8.296623e-11 -9.142782e-11 -1.4346983e-10 -1.5129425e-10 1.7570027e-10 -1.0275558e-10 -1.1777464e-10
-2.0827134e-10 4.2974393e-10 -2.0712701e-10 -3.7760964e-10 -3.0432174e-11 -3.0413508e-10 -1.3338618e-10 -3.095966e-10
1.7873533e-10 -1.8416494e-11 -3.92678e-11 3.654615e-10 2.4925614e-10 2.74777e-11 -1.6346859e-10 -7.4202165e-11
2.320807e-10 9.1394003e-11 1.3327951e-10 2.6444997e-11 1.332191e-10 -2.3697386e-10 9.934816e-11 -3.3659125e-10
-5.959705e-11 0.12789027 0.002522536 -2.3781982e-10 0.0869799 -3.0720606e-12 0.12578747 -7.124296e-11
-2.6495e-10 2.3683955e-10 -1.35982545e-11 1.05123014e-10 -9.232232e-11 -2.5725701e-11 2.5179967e-11 2.218107e-10
2.5139676e-10 2.5766453e-10 -2.3313557e-10 -6.226299e-11 7.064554e-11 2.5535253e-11 1.6271588e-10 -1.6733796e-10
-2.191348e-10 4.3960502e-10 -2.944526e-11 3.6146702e-10 1.9201023e-10 1.3314423e-10 -4.2348208e-10 -3.1512588e-11
-6.1152035e-11 4.3948577e-12 -2.1862448e-10 2.039806e-10 -3.46305e-11 5.159181e-11 -2.0699999e-11 -1.3189076e-10
-1.1591067e-10 -2.1449726e-11 -1.110065e-10 4.2176606e-11 8.9461584e-11 -6.4516205e-11 -2.6732817e-11 1.9514149e-11
4.3972243e-10 -4.392715e-10 -2.8732336e-12 -9.410971e-11 4.1788337e-10 -1.8748152e-11 2.73917e-10 -4.1618772e-10
1.2003175e-11 2.4657126e-10 8.952049e-11 -9.326435e-12 4.0725312e-10 4.1777845e-10 -3.9648745e-10 -1.3337498e-10
-1.5649784e-10 8.428285e-12 -1.1935519e-11 3.9089215e-11 3.504877e-10 3.183331e-10 3.9503828e-10 2.1963954e-10
-1.2932663e-10 -9.1856446e-11 -2.584443e-10 -3.0389385e-11 -3.6645065e-10 5.823724e-11 -3.6036753e-11 -6.444868e-11
1.1247928e-10 -4.2456857e-10 -2.9281167e-12 3.8060936e-11 -1.2316013e-10 1.2520761e-10 1.6409972e-10 2.469884e-10
4.2407436e-10 3.9107384e-10 -2.0066221e-10 -2.6930894e-10 -3.8436856e-10 -3.3165026e-10 -1.4514859e-10 -4.3448747e-10
-1.826328e-10 -1.6918024e-10 -2.8960442e-11 -9.739546e-11 -4.3231552e-10 -8.640917e-11 -1.1197813e-10 1.12794435e-11
-7.275285e-11 5.82497e-11 -0.0034129906 -0.0056572543 2.9141656e-10 -0.007056265 -1.2428426e-11 -0.0034640778
1.3283072e-10 7.1439066e-12 -2.5595615e-10 1.3719377e-10 -8.938676e-11 1.903184e-10 1.3184014e-10 1.2713144e-10
1.2504262e-10 1.2382896e-10 -8.36011e-12 -3.7877615e-10 2.1047596e-11 -1.4148725e-10 3.2768338e-10 -1.6686272e-10
2.592646e-10 -1.4997269e-11 -6.654979e-11 3.7501321e-10 2.4715283e-10 -3.937576e-10 2.6413494e-10 -2.510955e-10
-1.1446254e-10 -2.0202121e-11 -3.3593922e-10 -6.156254e-11 -2.5847307e-11 -9.275371e-11 -4.3959333e-10 1.0124517e-10
3.5020284e-10 -1.5087489e-12 -2.8888658e-10 4.0639242e-10 -2.7981168e-11 6.949183e-12 -2.8430772e-11 -4.312033e-12
00000000: f446 6fbb 11c7 65bb c57f 2dad 8483 99ba
00000010: f03e 3e2e d314 8abb 3b3a dcae 5b71 c2ae
00000020: c44f d6af 47ce 68ae b8ea c22e 4668 c82d
00000030: 62a2 4a2f c776 122f 0c99 f8ae d491 3d2e
00000040: a9e7 e92e b2fb dfae 31c3 ec2d 45c8 c42e
00000050: 3056 932f 836f aa2e 9f73 76af 60c3 912f
00000060: 069e 122f a8dc 8d2f cc8e a92f b443 3caf
00000070: b606 5faf 8787 b32e bf0c 4cad b7d1 522d
00000080: 564d a0ae f5ee b32d 294c f0ae 5789 9bad
00000090: 3273 192f 9c4d 12af 56c6 40af 26a6 b9af
000000a0: 0616 05ae d782 20ad 75bf 4cad d87a 8eaf
000000b0: 508c e92e 7c56 dcac 79d3 89af acd2 652f
000000c0: 661d e92f ab97 c7ad 3685 922d bdaf c62e
000000d0: 9fa4 5aae 5a71 732f 96c3 05ae d9d0 1aae
000000e0: 10de c2af 636a ec2e 5fe2 6bae ee43 202e
000000f0: f7db be2e b429 6b2f e791 f5ae 7e1b e4ae
00000100: 1d1d 3f2e 3834 922f aec4 052e 7487 9aad
00000110: b9c3 ae2f 5730 912f 8e40 1daf c1ff 812f
00000120: ee1b 052f d671 b6ae 490d c9ae 2bbf 1daf
00000130: 8c59 26af 3b2f 412f 40f6 e1ae 9d7e 01af
00000140: 2cff 64af 1541 ec2f 12bd 63af d597 cfaf
00000150: 95d7 05ae 3533 a7af dfa8 12af d933 aaaf
00000160: 8685 442f 42fe a1ad 9db3 2cae 22ea c82f
00000170: af07 892f 48b2 f12d 51bc 33af 1b2c a3ae
00000180: e92c 7f2f 40fa c82e d98a 122f d79c e82d
00000190: d879 122f 1b47 82af 0b78 da2e 020b b9af
000001a0: 280e 83ae abf5 023e 2251 253b 2abe 82af
000001b0: 8522 b23d 532d 58ac 6ece 003e 39aa 9cae
000001c0: 66a8 91af 3434 822f 1839 6fad ff2a e72e
000001d0: d904 cbae 2149 e2ad 3f7c dd2d 29e2 732f
000001e0: f334 8a2f 0fa7 8d2f ea2a 80af f3ea 88ae
000001f0: e759 9b2e 479c e02d 73e8 322f 73fd 37af
00000200: f6f0 70af e8ac f12f 6a80 01ae f6b7 c62f
00000210: 131e 532f c564 122f cecf e8af 0598 0aae
00000220: 8979 86ae 5ca1 9a2c 5261 70af 6f47 602f
00000230: 7a4e 18ae 37e7 622e 4114 b6ad f303 11af
00000240: e8e3 feae 7dac bcad 1b1b f4ae a37e 392e
00000250: 65ba c42e 65df 8dae f424 ebad f5a5 ab2d
00000260: 6ebd f12f f87d f1af 932f 4aac 0ff3 ceae
00000270: dbbb e52f 16e9 a4ad 6496 962f 37cd e4af
00000280: 7f29 532d d28d 872f 8edb c42e 8712 24ad
00000290: c8e3 df2f 17ad e52f a6f8 d9af b8a5 12af
000002a0: 3a12 2caf 9f45 142d cdf8 51ad 8bea 2b2e
000002b0: c2ae c02f 6701 af2f b22c d92f 097f 712f
000002c0: 3632 0eaf 95fe c9ae cd14 8eaf 68a7 05ae
000002d0: 5875 c9af a710 802e c77d 1eae 62b9 8dae
000002e0: 3558 f72e b768 e9af 430c 4eac ce64 272e
000002f0: 7f6a 07af cfaa 092f f76d 342f 87c8 872f
00000300: 2923 e92f c0fe d62f 64a1 5caf dd0d 94af
00000310: 114f d3af a053 b6af b297 1faf addc eeaf
00000320: 90ce 48af 0104 3aaf 1ebd fead c52c d6ae
00000330: 00ab edaf 0a04 beae 153e f6ae 196e 462d
00000340: 37fc 9fae aa17 802e 7bac 5fbb 7d60 b9bb
00000350: 3c35 a02f 3e38 e7bb a8a4 5aad 9505 63bb
00000360: 860c 122f 975a fb2c a0b6 8caf 9dd8 162f
00000370: 4690 c4ae de41 512f b3f5 102f 52c8 0b2f
00000380: 5e7c 092f c126 082f 9712 13ad 013c d0af
00000390: f922 b92d 1f91 1baf 5625 b42f ae77 37af
000003a0: 4088 8e2f d9ea 83ad 3458 92ae 6b2a ce2f
000003b0: abdf 872f 7578 d8af b035 912f 8d0a 8aaf
000003c0: aeb4 fbae 22b3 b1ad 3eaf b8af a160 87ae
000003d0: f65a e3ad b2f7 cbae 43ab f1af f7a3 de2e
000003e0: ab86 c02f 6856 d4ab 2cd1 9eaf a66a df2f
000003f0: fd1f f6ad ad80 f42c 6814 faad 57b7 97ac

0.bias f4 [128]
-0.00404542 0.12690797 -0.0034384064 -0.004372761 -0.001581355 0.08079772 0.096916996 -1.4963867e-06
-0.0017532606 -0.0026619567 -0.0034481224 -0.003293951 -0.00084968517 -0.0040994016 -0.012034876 -0.0030620238
-0.0005798923 -0.0071308045 0.11485357 -0.0022854984 -1.594093e-05 0.023614906 -0.010119608 -0.0022213967
-0.00046988757 -0.009878096 0.11978871 0.10419146 0.10202573 -0.0015903199 0.08815876 0.09697991
-0.002432207 0.1125834 -0.008046526 -0.00077537546 0.09622583 -0.0012603337 0.1260589 -0.0010720484
0.11990179 0.10093895 -0.00527288 -0.003236547 0.09081352 8.828599e-05 0.09200267 -0.00016689838
0.059947662 0.084691465 -0.0024247556 0.09846043 -0.00047445064 0.065667495 -0.002804635 -0.0049512596
0.09806936 -0.0028153723 0.108387895 -0.0021653522 -0.00017591345 -0.0047638384 -0.0016115076 -8.530205e-06
0.025740184 0.10785131 -0.0043324847 0.123373955 -0.0018336418 -0.0002162463 0.085844554 0.09604491
-0.008994732 0.0891673 -0.00033000042 -3.8490197e-07 -0.021116178 -3.0517253e-06 -0.005737641 -0.0033076564
-0.003946615 0.098811634 -0.010078388 0.10097749 0.119218685 -0.00091761723 -0.0036314237 0.11730839
0.09618013 0.12592725 -0.001574515 -0.0029121495 -0.0027432 -0.0022827538 0.09171125 -1.4907162e-05
-3.3895398e-05 0.096724875 -0.008465342 -0.0046853954 -0.0034966315 -0.0020261565 0.10299073 0.12601653
0.13227922 0.09479563 -0.021347169 0.07553459 -1.4785732e-06 -0.0030621053 -0.00085644925 -0.0013909123
0.10281737 0.055194322 -0.0023823006 -0.00556523 -0.0057081813 0.107893504 0.11082078 -2.8849877e-06
-0.0035227768 0.1284913 0.11665633 0.08174328 -0.0020206843 -0.00025133963 -0.009166929 -0.0041579627
00000000: 718f 84bb 2af4 013e e356 61bb 6149 8fbb
00000010: 7845 cfba 4679 a53d 6b7c c63d 75d7 c8b5
00000020: aacd e5ba 3974 2ebb e5f9 61bb 54df 57bb
00000030: 68bd 5eba 4654 86bb ee2d 45bc 3cac 48bb
00000040: ea03 18ba 86a9 e9bb 5938 eb3d 4dc8 15bb
00000050: e3b8 85b7 0c74 c13c b6cc 25bc da94 11bb
00000060: 3e5b f6b9 bdd7 21bc c853 f53d 5562 d53d
00000070: def2 d03d 4872 d0ba 948c b43d 679d c63d
00000080: aa65 1fbb 2092 e63d 94d5 03bc 9142 4bba
00000090: 0c12 c53d c831 a5ba 9615 013e fa83 8cba
000000a0: 128f f53d 15b9 ce3d 20c8 acbb 401c 54bb
000000b0: 70fc b93d 2e26 b938 e56b bc3d 7101 2fb9
000000c0: ae8b 753d b872 ad3d a6e8 1ebb 9fa5 c93d
000000d0: b0bf f8b9 ae7c 863d f8cd 37bb 2d3e a2bb
000000e0: 97d8 c83d 1c82 38bb 79fa dd3d 95e8 0dbb
000000f0: 6875 38b9 f919 9cbb 3939 d3ba f41c 0fb7
00000100: 14dd d23c 26e1 dc3d 84f7 8dbb 7cab fc3d
00000110: cf56 f0ba 2dc0 62b9 45cf af3d 32b3 c43d
00000120: a45e 13bc 589d b63d e803 adb9 86a4 ceb4
00000130: d6fb acbc 3ecc 4cb6 d202 bcbb 44c5 58bb
00000140: 9b52 81bb c15d ca3d d31f 25bc 49cd ce3d
00000150: ed28 f43d 408c 70ba 2efd 6dbb 623f f03d
00000160: 17fa c43d 13f3 003e f55f ceba c3d9 3ebb
00000170: 42c7 33bb 419a 15bb 1cd3 bb3d c619 7ab7
00000180: e82a 0eb8 b117 c63d 38b2 0abc f287 99bb
00000190: be27 65bb 44c9 04bb ceec d23d 7a0a 013e
000001a0: 3474 073e 3624 c23d 42e0 aebc e1b1 9a3d
000001b0: 6373 c6b5 9aad 48bb 5683 60ba 464f b6ba
000001c0: ea91 d23d 7113 623d 5f20 1cbb 885c b6bb
000001d0: b20b bbbb 45f7 dc3d 01f6 e23d b69b 41b6
000001e0: 63de 66bb 3993 033e 84e9 ee3d 0569 a73d
000001f0: 756d 04bb 3cc6 83b9 e330 16bc 853f 88bb

3.weight f4 [128, 128]
-1.5726451e-08 -0.0002538511 3.2680834e-11 3.7263557e-09 -0.0010403605 2.8363537e-11 -0.0004956233 1.1379316e-10
-0.000328423 -8.459428e-11 -6.192697e-10 -0.0005313567 -4.0563937e-05 -2.3827243e-10 2.2889779e-10 -0.00026179332
3.601922e-08 -5.2910093e-14 -3.3717545e-06 -1.1698822e-08 -3.8260223e-10 -3.63337e-11 2.3821797e-10 3.2840933e-10
-8.4083e-11 -3.9169507e-10 -5.4546603e-05 3.7462415e-11 -1.2687902e-05 -9.7025705e-08 6.703494e-09 0.0006723944
-0.00011132065 3.4020922e-10 -1.4689004e-10 2.0727053e-09 0.00019908258 2.5136174e-11 0.0014066921 7.5700404e-11
8.114984e-05 1.26001725e-08 2.337906e-09 -2.7459944e-06 -1.3617881e-09 -3.7681497e-10 2.4389962e-10 -4.2327317e-10
-1.2732564e-10 6.3137966e-05 1.0231311e-09 -8.842189e-05 8.627824e-09 1.6580941e-09 -6.6837945e-11 -1.2978063e-09
-4.066998e-10 -1.04733004e-08 -0.00057163736 1.4046813e-11 2.2773888e-10 4.0013575e-09 -7.29301e-09 -1.0415713e-10
-2.690408e-10 -2.1671169e-10 -2.5898364e-05 0.00038981906 -6.5345096e-10 -2.1948627e-11 4.786587e-08 -0.00038165375
9.547805e-11 -1.476927e-09 2.6828498e-10 -3.582149e-10 -2.8415878e-10 -4.2934498e-10 2.4167443e-10 -0.00071452284
-8.560171e-06 0.0005418118 -2.243052e-10 -0.0003838562 -2.1382615e-05 -0.00041016517 1.3870523e-09 0.00026816013
-2.9499532e-05 -2.3119011e-10 2.2916768e-09 -0.00012981228 -4.4696308e-06 -9.4672555e-07 -0.0004212024 -2.6810626e-10
-3.379697e-11 3.686049e-11 -2.5346203e-10 -3.83908e-09 -6.975806e-09 1.000604e-08 -0.00073786237 -3.7486418e-05
-0.0013913957 -0.00023998608 -2.0384317e-11 -0.0006027739 -1.8019898e-10 -1.139877e-09 -1.9597378e-06 -1.6274133e-09
-2.2658977e-10 1.9069577e-09 3.4758514e-09 -3.3565237e-10 1.1907019e-09 -0.00041458203 -8.040845e-10 -8.03036e-11
-2.3226396e-05 -3.4541432e-09 1.4913805e-07 -5.3659194e-05 0.00013946608 -3.145529e-11 2.9387955e-12 -4.9543697e-10
-1.5245631e-10 -1.7821945e-09 -1.3007784e-10 -6.04135e-11 1.3820242e-09 -1.06943704e-10 1.4769673e-09 3.2203218e-10
6.19515e-10 2.6629277e-09 2.1719179e-10 9.903316e-10 -3.985109e-10 -2.3886393e-10 -3.535165e-10 -4.350955e-10
-3.1729497e-10 -6.0972893e-10 -4.2309717e-10 1.9791448e-11 -4.3973633e-10 1.8369385e-10 -1.2412789e-09 -1.2405834e-11
-4.118848e-10 7.077413e-11 1.3082017e-09 3.1810454e-10 -2.1801905e-09 -8.861097e-12 -5.3190463e-10 1.0552581e-09
5.6339594e-10 2.2885978e-09 1.0464655e-09 -1.2963749e-11 -2.7856655e-09 -1.4863402e-09 -1.1244257e-09 2.6543473e-10
-1.101884e-09 2.7067204e-10 1.9429229e-10 3.5974848e-10 5.517386e-12 -2.2541993e-09 -4.3946727e-10 1.7233391e-09
6.6960043e-10 -9.274015e-10 2.6639957e-10 -1.5951738e-09 -3.001036e-11 -1.997669e-10 2.707371e-10 2.9618794e-11
-6.404821e-14 -1.3245557e-10 1.3027109e-09 9.671152e-11 -1.6893715e-09 -3.017707e-11 -8.5158075e-11 -6.252742e-10
3.6252965e-10 -1.9484483e-10 -1.1391342e-09 1.3156116e-10 3.094149e-10 1.7829629e-09 -1.1195427e-10 -1.7432737e-10
-8.44233e-11 -1.286102e-10 1.2805761e-09 -5.942997e-10 -2.8191319e-11 6.220091e-10 1.3668343e-09 1.6077278e-09
-6.1516553e-10 5.1201365e-10 1.5350244e-09 1.3581689e-09 5.5291083e-10 -5.82944e-10 4.1539516e-10 -1.0687796e-09
-2.2927703e-10 -6.4914976e-11 -2.0721282e-11 2.0333992e-09 -2.8845686e-11 -7.383432e-11 -3.6219348e-09 3.2334935e-10
3.239296e-10 1.1999737e-09 3.7530962e-10 5.345778e-11 2.4266358e-11 4.3485282e-10 5.441413e-10 -1.1965703e-09
5.574947e-10 -4.1748325e-09 2.7347413e-10 -6.1909705e-10 3.7223963e-10 -2.1407237e-10 1.2899959e-10 -3.7367506e-10
-2.8772994e-11 -6.3834465e-11 -4.391127e-10 1.0202452e-10 1.2854905e-10 -2.7371308e-10 -2.2825776e-10 1.2946497e-09
-4.8527676e-10 4.3705564e-10 4.1611004e-10 -1.1255465e-09 9.334314e-10 1.5172067e-09 -1.5011355e-11 -3.3556194e-10
00000000: d516 87b2 5117 85b9 59bb 0f2e 5f09 8031
00000010: b55c 88ba 027d f92d b7ec 01ba db3b fa2e
00000020: 3030 acb9 5906 baae 3b39 2ab0 bf4a 0bba
00000030: 3223 2ab8 ddfd 82af 00ad 7b2f 4e41 89b9
00000040: 8db3 1a33 2f49 6ea9 4d46 62b6 f7fb 48b2
00000050: 7a56 d2af 1ccc 1fae 33f6 822f 818b b42f
00000060: 85e6 b8ae 2e56 d7af f8c8 64b8 eec2 242e
00000070: 20de 54b7 725c d0b3 8f54 e631 a043 303a
00000080: d274 e9b8 3108 bb2f df81 21af 6b6f 0e31
00000090: d3c0 5039 a219 dd2d c160 b83a 8a77 a62e
000000a0: fd2e aa38 2578 5832 e1a8 2031 d347 38b6
000000b0: a929 bbb0 fe27 cfaf d215 862f 67b2 e8af
000000c0: fbfe 0baf f068 8438 3a9e 8c30 246f b9b8
000000d0: 9239 1432 00e3 e330 6bfa 92ae 805e b2b0
000000e0: e995 dfaf 10ee 33b2 efd9 15ba 391d 772d
000000f0: cc66 7a2f 507c 8931 ff95 fab1 400b e5ae
00000100: 20e8 93af eb46 6eaf 5040 d9b7 a160 cc39
00000110: 869e 33b0 ea0f c1ad 1595 4d33 b318 c8b9
00000120: 5df5 d12e c0fc cab0 c17d 932f 44ee c4af
00000130: cb37 9caf ef08 ecaf a7dc 842f d14e 3bba
00000140: a89d 0fb7 6008 0e3a 4da0 76af 4f40 c9b9
00000150: d15e b3b7 700b d7b9 90a2 be30 d897 8c39
00000160: c375 f7b7 3b32 7eaf 9b7b 1d31 381e 08b9
00000170: d6f9 95b6 7c22 7eb5 d4d4 dcb9 9a64 93af
00000180: 01a4 14ae 391d 222e 9c57 8baf e8e8 83b1
00000190: d7af efb1 08e7 2b32 1b6d 41ba bc3a 1db8
000001a0: 7e5f b6ba c6a4 7bb9 674d b3ad 7903 1eba
000001b0: 8121 46af dba9 9cb0 0a84 03b6 84ab dfb0
000001c0: 5a23 79af 8e0b 0331 d3db 6e31 df86 b8af
000001d0: 19a6 a330 425c d9b9 6b06 5db0 e896 b0ae
000001e0: 4ed6 c2b7 ee5d 6db1 c122 2034 1f10 61b8
000001f0: a43d 1239 8257 0aae a2cc 4e2c 472f 08b0
00000200: a3a0 27af 65f1 f4b0 a805 0faf c7d9 84ae
00000210: a7f1 bd30 f42b ebae 2bfe ca30 000a b12f
00000220: 7e4a 2a30 b8fe 3631 0ece 6e2f 321c 8830
00000230: 6c15 dbaf 1c51 83af 0659 c2af 3f32 efaf
00000240: 4c6f aeaf dc99 27b0 a299 e8af 6116 ae2d
00000250: 63bf f1af 39f9 492f 9e99 aab0 e93e 5aad
00000260: a26f e2af 4ba2 9b2e 41cc b330 3ce1 ae2f
00000270: 51d2 15b1 d5e2 1bad 7635 12b0 9808 9130
00000280: 77dd 1a30 7045 1d31 3bd3 8f30 890f 64ad
00000290: f26d 3fb1 f247 ccb0 368a 9ab0 9eec 912f
000002a0: 1971 97b0 b4cd 942f 6ba0 552f 19c6 c52f
000002b0: 3220 c22c 4be8 1ab1 8599 f1af 9bda ec30
000002c0: f10e 3830 14ec 7eb0 6874 922f 303d dbb0
000002d0: a9fc 03ae 62a5 5baf dcd6 942f cc43 022e
000002e0: 4839 90a9 eea2 11af 110b b330 bfab d42e
000002f0: 7a2f e8b0 5cb8 04ae bc43 bbae c3df 2bb0
00000300: 834d c72f f23b 56af b98f 9cb0 2da7 102f
00000310: 471a aa2f 6e0c f530 a730 f6ae cbac 3faf
00000320: 18a6 b9ae 8e68 0daf 4400 b030 205c 23b0
00000330: 35f9 f7ad 00fa 2a30 35db bb30 e5f6 dc30
00000340: 6d18 29b0 c2bd 0c30 dff8 d230 52aa ba30
00000350: a4fb 1730 0a3d 20b0 ac5d e42f 57e4 92b0
00000360: bf17 7caf e2bf 8eae 2e44 b6ad f0bb 0b31
00000370: b6ba fdad 075d a2ae c0e5 78b1 60c3 b12f
00000380: 0a15 b22f 52ec a430 2254 ce2f 1c1c 6b2e
00000390: fb72 d52d 1810 ef2f 8a92 1530 9374 a4b0
000003a0: 343e 1930 3772 8fb1 1058 962f 152d 2ab0
000003b0: 12a4 cc2f 0460 6baf 28d6 0d2f 176e cdaf
000003c0: 0617 fdad 9c5f 8cae 9e67 f1af b35a e02e
000003d0: 5757 0d2f b179 96af d9f8 7aaf 70ef b130
000003e0: 5164 05b0 1d46 f02f 48c2 e42f a6b1 9ab0
000003f0: 334a 8030 f785 d030 910a 84ad 257a b8af

3.bias f4 [128]
-0.0022369472 -0.003171095 -0.0050296197 0.07897532 -0.005753099 0.06269609 -0.0027344346 0.08754619
-0.004865566 0.096470185 -0.004757501 -0.005591672 0.091498956 0.080699794 0.065917395 -0.0018820491
-0.0017193996 -0.004650925 0.07678739 0.072704926 0.083593406 0.066523075 -0.0048647 -0.0038373265
0.073914304 -0.004029055 -0.0045058285 -0.005102432 -0.0036360014 -0.0052756383 -0.0025337308 -0.0039574583
-0.0011077791 -0.0035063787 -0.0058609857 0.071777195 -0.002264487 -0.0034674248 0.056414038 -0.0057467646
-0.003940873 -0.0060346373 -0.0044850684 0.087483466 0.079500355 -0.0055333357 0.051033683 -0.005248266
-0.003388806 -0.0014788584 -0.005471174 0.09490408 -0.0057863393 0.062493246 0.06484982 -0.0043167556
-0.0046546506 -0.002973675 -0.005171268 0.060401816 -0.0045725415 -0.004721672 -0.0054074368 -0.0057770563
-0.00401441 0.08508024 -0.006111306 -0.005947317 -0.0046292865 -0.00488527 0.09237734 -0.005326804
-0.0017459724 -0.0057795187 -0.00353304 -0.0040725153 -0.0026251988 -0.005748969 -0.0053583086 -0.005779516
-0.004802291 -0.0037352582 0.10298712 -0.0058405893 -5.547622e-05 -0.0051747765 0.07958229 -0.003097156
0.06602764 -0.0038623544 -0.0036873384 0.06901984 -0.0040898616 -0.0043755053 -0.010259431 0.09448155
-0.0050737015 0.07968849 -0.005302591 -0.0045002317 -0.0039783064 -0.0058106766 0.09430277 -0.005922438
-0.0105782775 -0.003725215 -0.002430205 -0.0020850953 0.083297804 -0.00538438 -0.0040569757 0.07009207
0.07188442 -0.0007131138 -0.004990511 0.084089376 -0.005618377 -0.0052604377 -0.0057084295 -0.005775584
-0.0053034453 -0.004948368 -0.0055335257 0.08466083 -0.0033172104 0.07147479 -0.0021386303 -0.005386206
00000000: bf99 12bb 25d2 4fbb 82cf a4bb d0bd a13d
00000010: 7e84 bcbb cf66 803d 3334 33bb 6b4b b33d
00000020: 536f 9fbb 2992 c53d d0e4 9bbb 583a b7bb
00000030: ce63 bb3d ef45 a53d b3ff 863d 17af f6ba
00000040: 7a5d e1ba c966 98bb b542 9d3d 52e6 943d
00000050: 0533 ab3d 403d 883d 1068 9fbb a87b 7bbb
00000060: 6260 973d 2a06 84bb a1a5 93bb 4d32 a7bb
00000070: fb49 6ebb 43df acbb f30c 26bb 91ad 81bb
00000080: e632 91ba 46cb 65bb 830d c0bb ecff 923d
00000090: ca67 14bb bc3d 63bb 6812 673d 5b4f bcbb
000000a0: 7022 81bb 35be c5bb 7bf7 92bb 882a b33d
000000b0: 15d1 a23d fc50 b5bb b208 513d a5f9 abbb
000000c0: bb16 5ebb 41d6 c1ba 8947 b3bb 125d c23d
000000d0: 559b bdbb ebf8 7f3d fccf 843d 9273 8dbb
000000e0: 0a86 98bb fde1 42bb bd73 a9bb e567 773d
000000f0: 42d5 95bb 41b8 9abb de30 b1bb 764d bdbb
00000100: 508b 83bb 8d3e ae3d 5a41 c8bb b6e1 c2bb
00000110: 45b1 97bb 9d14 a0bb 5530 bd3d 788c aebb
00000120: 1dd9 e4ba 1e62 bdbb 938a 67bb bc72 85bb
00000130: 870b 2cbb d961 bcbb c094 afbb 1862 bdbb
00000140: 895c 9dbb 3ccb 74bb e9ea d23d 6a62 bfbb
00000150: 23af 68b8 2c91 a9bb 0afc a23d a8f9 4abb
00000160: 8039 873d 8e1f 7dbb 46a7 71bb 465a 8d3d
00000170: 3f04 86bb 6660 8fbb 2c17 28bc 8b7f c13d
00000180: 4b41 a6bb b833 a33d 5bc1 adbb ae76 93bb
00000190: 745c 82bb 7d67 bebb d021 c13d 0311 c2bb
000001a0: 8350 2dbc bd22 74bb 1344 1fbb 18a6 08bb
000001b0: 0a98 aa3d 746f b0bb 61f0 84bb 6e8c 8f3d
000001c0: 2438 933d 42f0 3aba 7187 a3bb 0d37 ac3d
000001d0: 5d1a b8bb c05f acbb c70d bbbb 1c41 bdbb
000001e0: 86c8 adbb eb25 a2bb 9452 b5bb a862 ad3d
000001f0: 8e65 59bb 6061 923d 4328 0cbb c57e b0bb

6.weight f4 [3, 128]
-0.0011382198 -3.7589742e-10 1.6923564e-09 -0.08245799 3.217245e-09 -0.050926566 0.00067291036 -0.06993659
-8.268499e-09 -0.07623846 8.8141516e-10 8.087283e-09 -0.07980289 -0.08044575 -0.0625426 1.0905712e-09
-0.0009078115 2.9653562e-09 -0.06649585 -0.07367425 -0.06581323 -0.052328654 -4.780646e-10 -2.7380131e-09
-0.061485503 2.6945337e-09 2.5866749e-08 2.7428926e-09 -0.004013716 9.56816e-10 6.458472e-09 -1.7869767e-10
-0.00324498 -0.00063342985 2.526979e-07 -0.072454035 -3.8245385e-09 0.0055353343 -0.044198878 -1.4422213e-07
0.0038461692 -0.001876517 4.4205312e-10 -0.076751344 -0.07647368 9.057596e-10 -0.045465622 -0.0043975147
-3.5792609e-09 0.0026673614 -2.8817257e-09 -0.0633866 4.7303987e-09 -0.051858857 -0.040838838 -0.004954601
3.5714862e-09 -0.00063532894 -0.0005658637 -0.04781404 -0.0041863685 0.0002472267 -2.5194123e-07 -1.9678517e-09
-4.081525e-10 -0.06574835 -0.0057764114 -0.0033686068 9.219772e-05 0.00018786335 -0.07244392 3.949023e-09
0.001110139 4.483762e-08 4.2937094e-09 -1.9391364e-09 -2.0692559e-09 -9.898539e-10 -2.2564668e-09 8.307697e-09
0.0032621508 1.1202847e-08 -0.08159914 4.736844e-09 -8.594282e-09 -6.550327e-09 -0.065260224 2.3188104e-08
-0.06469356 -0.00022298885 -2.9278926e-08 -0.06654793 6.978551e-09 5.8218074e-08 -0.012313164 -0.07418995
-1.6854174e-09 -0.07790767 7.477957e-10 -2.1644369e-09 1.2345866e-07 -1.2122072e-08 -0.072897315 3.6545895e-09
0.010556976 1.49715e-08 1.3191684e-09 0.0038072928 -0.072720446 -5.0613544e-09 2.8516096e-09 -0.058950685
-0.06637081 -5.0649857e-10 2.5923994e-09 -0.063670844 1.54629e-09 -0.00724631 -0.0054440466 3.9753276e-09
3.877949e-09 1.1261027e-10 1.1530428e-08 -0.075650334 1.6415903e-09 -0.06922281 -7.930151e-10 -4.485905e-06
0.0019315922 -2.947768e-09 -2.3489646e-09 -0.02437741 -3.4721714e-09 -0.03199245 0.0009767346 -0.057299048
-3.360418e-09 -0.055871125 -6.5478156e-10 -9.815285e-09 -0.06042533 -0.026616603 -0.036844507 -2.3674027e-09
-0.0004963752 1.2198031e-09 -0.032398727 -0.028106084 -0.05736318 -0.055127278 -9.743848e-10 -4.144107e-10
-0.061077837 3.399878e-09 -2.8647703e-08 8.655927e-10 -0.0017576831 2.4066404e-09 -3.1615743e-09 -2.7325378e-10
0.0012803647 -0.0006123363 -6.360283e-09 -0.03774224 -9.52644e-10 0.0031258096 -0.051526375 2.5970916e-08
-0.005166768 0.0025128536 -9.955256e-10 -0.041641574 -0.030032681 -6.931726e-10 -0.061465204 0.0018249794
-6.5063506e-09 -0.00014749265 2.0078177e-09 -0.067332774 -9.157154e-09 -0.061958004 -0.057795 0.0025016773
-7.087972e-10 -0.003744581 0.0012249041 -0.053014312 -0.0008548235 -0.0007575665 -0.00014600714 -2.834114e-09
-1.1356775e-08 -0.048357997 -0.0038417687 -0.0037782846 -0.0051755486 -0.00028364078 -0.06412308 9.828535e-09
-0.0016110666 1.9420701e-08 -1.6663638e-08 -1.365337e-09 -4.5238733e-09 -6.116711e-07 -1.8278877e-08 1.9582072e-09
0.004032428 -0.00035013765 -0.059570834 1.797723e-09 -7.3545896e-05 -5.902431e-09 -0.051392037 5.8153637e-09
-0.063252985 0.0014963256 -2.3776334e-05 -0.022620235 9.990325e-09 1.9712925e-09 0.011757762 -0.06639836
2.1870967e-09 -0.039229512 -5.614155e-09 3.2097496e-09 -3.424128e-10 -8.38869e-07 -0.050965145 3.567686e-10
-0.004282359 -1.8387157e-08 -5.0530073e-08 -0.0039807586 -0.04281708 -4.3374625e-06 4.5941317e-09 -0.05447538
-0.035737865 3.72866e-09 -1.5764994e-09 -0.05812536 1.7307637e-10 -0.004175559 0.002299941 -4.3937877e-08
-9.401186e-09 -6.0571603e-10 -1.1110454e-08 -0.051739033 2.0797912e-09 -0.03602618 -4.5633457e-09 -1.1220793e-09
00000000: 5230 95ba dca6 ceaf 7f98 e830 bcdf a8bd
00000010: 5f16 5d31 6098 50bd 4066 303a ea3a 8fbd
00000020: 3e0d 0eb2 e922 9cbd 1448 7230 3ff0 0a32
00000030: b36f a3bd bec0 a4bd 5616 80bd 10e3 9530
00000040: 33fa 6dba 19c7 4b31 fa2e 88bd 86e2 96bd
00000050: 16c9 86bd 9256 56bd ce68 03b0 a327 3cb1
00000060: 39d8 7bbd bd2a 3931 9531 de32 7a7d 3c31
00000070: 7d85 83bb f880 8330 52e9 dd31 ec7a 44af
00000080: bba9 54bb c20c 26ba 89aa 8734 c862 94bd
00000090: ff68 83b1 c061 b53b e209 35bd 7adb 1ab4
000000a0: 0310 7c3b 76f5 f5ba 7205 f32f cf2f 9dbd
000000b0: 3c9e 9cbd 2af9 7830 293a 3abd 0719 90bb
000000c0: 06f7 75b1 e6ce 2e3b db07 46b1 d5d0 81bd
000000d0: 0789 a231 f469 54bd a046 27bd 355a a2bb
000000e0: 406e 7531 348c 26ba 7856 14ba a8d8 43bd
000000f0: ce2d 89bb 359e 8139 8a42 87b4 d03a 07b1
00000100: 5c62 e0af 12a7 86bd 0d48 bdbb d8c3 5cbb
00000110: 465a c138 2ffd 4439 7a5d 94bd f9af 8731
00000120: 1582 913a 7c93 4033 de87 9331 a641 05b1
00000130: bc32 0eb1 630b 88b0 2f10 1bb1 a3b9 0e32
00000140: cfc9 553b a476 4032 731d a7bd b8c1 a231
00000150: 0da6 13b2 4911 e1b1 27a7 85bd 2e2f c732
00000160: 0f7e 84bd 1dd2 69b9 0a81 fbb2 484a 88bd
00000170: fcc7 ef31 730b 7a33 27bd 49bc e7f0 97bd
00000180: 5aa4 e7b0 0e8e 9fbd 728d 4d30 2dbd 14b1
00000190: 0f90 0434 7041 50b2 304b 95bd 3824 7b31
000001a0: 2bf7 2c3c ad9a 8032 1d4e b530 c683 793b
000001b0: 75ee 94bd 25e8 adb1 0cf6 4331 4676 71bd
000001c0: 6bed 87bd ab39 0bb0 f925 3231 dc65 82bd
000001d0: 3e85 d430 7472 edbb f963 b2bb 5a97 8831
000001e0: cd3e 8531 f2a1 f72e 5c17 4632 90ee 9abd
000001f0: 539e e130 b0c4 8dbd 7afb 59b0 a185 96b6
00000200: 7b2d fd3a af91 4ab1 6c6b 21b1 22b3 c7bc
00000210: 169b 6eb1 840a 03bd c605 803a 68b2 6abd
00000220: 19ed 66b1 1fd9 64bd 28fc 33b0 14a0 28b2
00000230: 8d80 77bd 100b dabc 44ea 16bd caaf 22b1
00000240: 2d1f 02ba 02a6 a730 87b4 04bd bb3e e6bc
00000250: a7f5 6abd 24cd 61bd 1eeb 85b0 1fd3 e3af
00000260: c12c 7abd 49a3 6931 f714 f6b2 acee 6d30
00000270: 0f62 e6ba 1162 2531 0143 59b1 0d39 96af
00000280: e9d1 a73a 3285 20ba a489 dab1 9b97 1abd
00000290: 2eee 82b0 62da 4c3b 520d 53bd a616 df32
000002a0: fe4d a9bb b0ae 243b f1d2 88b0 5b90 2abd
000002b0: 1907 f6bc af89 3eb0 f0c2 7bbd 2634 ef3a
000002c0: 778e dfb1 42a8 1ab9 e7f9 0931 c4e5 89bd
000002d0: 9751 1db2 adc7 7dbd 73ba 6cbd 2ef3 233b
000002e0: 2bd5 42b0 a567 75bb f68c a03a 8925 59bd
000002f0: 3c16 60ba 6d97 46ba 7e19 19b9 43c2 42b1
00000300: a01b 43b2 0913 46bd 2fc6 7bbb 199d 77bb
00000310: a697 a9bb 9fb5 94b9 f652 83bd 5bda 2832
00000320: 6d2a d3ba 93d2 a632 ba23 8fb2 86a6 bbb0
00000330: 6970 9bb1 b831 24b5 ad03 9db2 2591 0631
00000340: 7522 843b ae92 b7b9 8c00 74bd c113 f730
00000350: a73c 9ab8 55ce cab1 7580 52bd 7bd0 c731
00000360: c88a 81bd 5b20 c43a 4a73 c7b7 124e b9bc
00000370: eaa1 2b32 5877 0731 a1a3 403c ddfb 87bd
00000380: d04b 1631 20af 20bd a1e6 c0b1 8392 5c31
00000390: 513e bcaf a42e 61b5 d4c0 50bd b722 c42f
000003a0: 0853 8cbb c9f1 9db2 6706 59b3 0671 82bb
000003b0: f660 2fbd 858a 91b6 69da 9d31 9321 5fbd
000003c0: de61 12bd a41d 8031 24ac d8b0 dc14 6ebd
000003d0: ab4c 3e2f 21d3 88bb 9bba 163b 35b6 3cb3
000003e0: da82 21b2 7a7f 26b0 4be0 3eb2 4fec 53bd
000003f0: 13ec 0e31 3090 13bd 9dcb 9cb1 a837 9ab0

6.bias f4 [3]
-0.033605468 -0.02070464 0.05340956
00000000: e3a5 09bd c79c a9bc fcc3 5a3d

exp_avg f4 [128, 105]
-3.7069608e-08 -3.565111e-08 -2.4694907e-16 -1.23862725e-08 6.8191404e-16 -4.278408e-08 -1.2255741e-15 -6.674567e-16
-5.2955187e-16 -1.2323535e-15 1.9524788e-16 2.5715e-16 -1.676508e-15 -1.5253903e-16 -6.446328e-16 2.5805947e-16
1.3751817e-16 -6.563698e-16 1.2267119e-15 6.6669524e-16 -2.2506794e-17 -5.2717345e-16 -1.0978076e-15 1.0141216e-15
-1.1752028e-16 1.2547624e-16 -1.3286652e-15 -1.1731246e-15 -4.4694175e-16 2.1162014e-16 -7.662404e-18 6.714826e-16
-2.281928e-16 -6.2399453e-18 4.0191613e-16 -1.2643816e-19 1.913672e-15 1.6087186e-16 -5.3131513e-16 -7.9158485e-16
7.189326e-17 -8.547863e-18 -7.638305e-18 -1.1320333e-16 1.381837e-16 -6.676854e-16 -1.9379051e-16 4.237739e-16
-5.955859e-16 1.65869e-16 -1.9136872e-16 1.9076394e-16 5.9481306e-16 -1.5941667e-15 8.7823016e-17 6.2063983e-16
1.1256027e-15 1.3274715e-16 -1.9224927e-15 2.596613e-16 -4.9754186e-16 4.0421953e-16 3.886818e-16 -1.4794948e-16
2.5792476e-16 -3.3583287e-16 -8.001358e-17 -1.9116644e-15 8.6420924e-16 -1.478692e-15 1.7515988e-15 -6.267539e-16
-1.0528247e-15 -1.2305761e-15 1.8243358e-15 -6.0034964e-16 -1.1931535e-15 1.1680298e-15 4.342334e-16 -6.389723e-16
7.7917396e-16 -5.11608e-16 -4.3107402e-16 9.949062e-16 8.4656344e-17 1.3448147e-15 1.3047252e-16 -8.916264e-16
1.1644454e-15 -6.75037e-16 -1.2302275e-15 6.682031e-16 2.0546157e-16 -3.6937012e-17 -5.600961e-16 1.1372205e-15
-6.545193e-16 1.8794048e-16 -1.471807e-16 -1.4308272e-16 -1.0569453e-16 -2.8950813e-16 6.586836e-16 -7.959222e-16
5.7381104e-16 0.0018567779 0.0032617883 6.177785e-16 0.00097395707 -2.3801237e-16 0.001856757 5.4489423e-16
-3.6435642e-17 2.9031236e-16 -1.2212076e-15 -1.0851848e-15 -6.6456696e-16 6.346557e-16 -2.3427249e-17 1.1018628e-15
1.8803355e-16 -4.50709e-16 -3.1169455e-16 5.6761573e-16 -5.4649983e-16 -1.4943024e-16 5.617914e-16 -5.5113893e-16
-3.8154792e-16 -1.3726349e-16 5.58096e-17 6.878396e-16 4.8348027e-16 -1.5649303e-16 6.027828e-16 -6.799974e-16
1.8571888e-15 -1.900793e-15 -3.838233e-16 4.428073e-16 -2.5978196e-16 -5.9104906e-16 -6.761202e-16 1.978811e-16
-9.17416e-17 -2.564686e-16 1.7993119e-15 2.5839068e-16 1.924732e-15 -1.2327165e-15 1.4091661e-16 1.9124716e-15
-1.5880028e-16 1.0502509e-16 2.2772904e-16 -6.6315506e-16 -6.697325e-16 2.0683744e-18 9.928395e-16 -3.189642e-16
7.401931e-18 -5.538874e-16 1.9296378e-16 6.5418594e-16 4.0117656e-16 3.0256642e-16 -4.8429686e-16 1.2247605e-16
-5.752394e-16 -6.5509327e-16 -6.714535e-16 -6.142604e-16 7.383338e-16 8.627134e-16 4.944949e-16 -7.2426214e-16
1.7730718e-15 -1.2283508e-15 4.419332e-16 7.7813085e-17 -6.6322796e-16 -5.768812e-16 -2.5970012e-16 -2.4060135e-16
-3.8403336e-16 -2.2393103e-16 2.2762195e-16 -1.1823378e-15 3.0911096e-16 1.2130181e-15 -1.7152662e-15 2.2284905e-16
-5.950447e-16 5.213948e-16 -4.546873e-16 5.852322e-17 -5.6394014e-16 -8.149172e-16 9.956175e-16 4.2011746e-16
8.816837e-16 -5.4672933e-16 4.9919146e-17 1.817029e-15 4.6569506e-16 -1.2298054e-15 3.8693256e-16 1.2200647e-15
5.4077214e-16 -1.1590886e-15 -3.4231245e-08 -5.6698557e-08 -1.3904925e-15 -7.1224584e-08 -7.0926635e-18 -3.4743632e-08
-8.696863e-17 1.2178894e-15 -1.4678515e-16 6.110616e-16 -1.9331342e-16 4.88769e-16 -1.9904266e-16 -2.701543e-16
-2.9188104e-16 -3.0319812e-16 -2.4520458e-16 -5.9696653e-16 -1.7378689e-16 -1.2014507e-15 8.2965527e-16 -5.5226e-16
-4.323872e-16 6.4807767e-16 1.1481095e-15 -1.0109077e-15 1.0538821e-15 8.852991e-16 -3.6652722e-16 5.157329e-16
3.7214056e-16 1.7753268e-16 -7.984724e-16 -6.8022617e-16 1.8869817e-15 1.1076131e-15 2.2053919e-16 1.5710108e-16
-1.1471267e-15 -2.9830935e-18 -9.534117e-16 4.0837174e-16 1.3030256e-16 -2.1908859e-16 4.464179e-17 1.2109446e-15
00000000: 7736 1fb3 cf1e 19b3 405b 8ea5 67cb 54b2
00000010: 608c 4426 98c1 37b3 b49f b0a6 9d61 40a6
00000020: 08a2 18a6 d299 b1a6 011b 6125 a43c 9425
00000030: 3a9c f1a6 93dd 2fa5 81cd 39a6 dbc2 9425
00000040: 338c 1e25 8b2f 3da6 aec9 b026 6d29 4026
00000050: aa96 cfa3 89f2 17a6 f435 9ea6 7c26 9226
00000060: dd7d 07a5 0daa 1025 187b bfa6 a910 a9a6
00000070: 7bd2 00a6 3efb 7325 ae58 0da3 ac8a 4126
00000080: 508b 83a5 9e36 e6a2 5ab0 e725 9745 15a0
00000090: 05e5 0927 fe78 3925 2324 19a6 a728 64a6
000000a0: 4ac6 a524 24ae 1da3 e0e6 0ca3 ba83 02a5
000000b0: a150 1f25 7d72 40a6 dd6c 5fa5 fd49 f425
000000c0: 7caa 2ba6 e33b 3f25 14a2 5ca5 94ef 5b25
000000d0: 7571 2b26 5fbe e5a6 8f81 ca24 23e3 3226
000000e0: 6937 a226 0b0c 1925 bb87 0aa7 3faf 9525
000000f0: 1c68 0fa6 4604 e925 4f0f e025 fb92 2aa5
00000100: faae 9425 2f98 c1a5 ae7f b8a4 fcbf 09a7
00000110: 6317 7926 1b1a d5a6 976e fc26 46a6 34a6
00000120: 60ba 97a6 3f58 b1a6 0e75 0327 fc09 2da6
00000130: 98f3 aba6 b254 a826 8a51 fa25 d52b 38a6
00000140: e494 6026 0276 13a6 4c7f f8a5 8f61 8f26
00000150: 4934 c324 e8ce c126 b16c 1625 357f 80a6
00000160: 74d0 a726 f090 42a6 624b b1a6 b098 4026
00000170: 8de1 6c25 8757 2aa4 cc6f 21a6 08e4 a326
00000180: 00a7 3ca6 3dae 5825 13b0 29a5 91f6 24a5
00000190: 0ab7 f3a4 dce3 a6a5 45da 3d26 b168 65a6
000001a0: c863 2526 215f f33a bac3 553b 0210 3226
000001b0: 2751 7f3a 6d34 89a5 6d5e f33a 190e 1d26
000001c0: 9d07 28a4 8b5a a725 9cfe afa6 4164 9ca6
000001d0: 638c 3fa6 53ed 3626 0714 d8a3 90cb 9e26
000001e0: b5c9 5825 74e8 01a6 ffad b3a5 a69a 2326
000001f0: 9284 1da6 0648 2ca5 e4ec 2126 e0da 1ea6
00000200: 89f2 dba5 0841 1ea5 2cb0 8024 9b41 4626
00000210: 8c5a 0b26 976c 34a5 85bd 2d26 f4fe 43a6
00000220: 16d3 0527 71f7 08a7 5242 dda5 d342 ff25
00000230: 0dc1 95a5 b95b 2aa6 dde0 42a6 3124 6425
00000240: af8a d3a4 16d8 93a5 72a7 0127 bcf3 9425
00000250: 0ab1 0a27 36a7 b1a6 3e77 2225 e0ce 0927
00000260: 9215 37a5 df2b f224 e046 8325 3524 3fa6
00000270: 8909 41a6 7d9e 1822 5015 8f26 cfde b7a5
00000280: a28a 0823 ada5 1fa6 db78 5e25 678e 3c26
00000290: 3643 e725 ec6a ae25 cd96 0ba6 8d34 0d25
000002a0: 2dcd 25a6 5ad1 3ca6 8688 41a6 6b0c 31a6
000002b0: 6bcf 5426 03a9 7826 4987 0e26 1dc1 50a6
000002c0: ce86 ff26 2506 b1a6 d4c1 fe25 bd6c b324
000002d0: 9629 3fa6 5246 26a6 f9b4 95a5 7eb2 8aa5
000002e0: 5261 dda5 6316 81a5 1237 8325 9164 aaa6
000002f0: ba30 b225 78d0 ae26 2732 f7a6 b776 8025
00000300: 8d82 2ba6 2548 1626 000e 03a6 03f2 8624
00000310: 708b 22a6 47e2 6aa6 cd7b 8f26 652e f225
00000320: c620 7e26 8195 1da6 2036 6624 45ee 0227
00000330: 3b3a 0626 d03b b1a6 2b0d df25 71d4 af26
00000340: f1dd 1b26 d20a a7a6 a705 13b3 b984 73b3
00000350: 1e64 c8a6 21f4 98b3 28d6 02a3 0739 15b3
00000360: 3889 c8a4 3084 af26 543b 29a5 6320 3026
00000370: 0de0 5ea5 c9e0 0c26 067b 65a5 bdbb 9ba5
00000380: 0a42 a8a5 25c8 aea5 cf59 8da5 5b10 2ca6
00000390: d65c 48a5 b525 ada6 c121 6f26 982d 1fa6
000003a0: 1741 f9a5 b1cb 3a26 c475 a526 e9af 91a6
000003b0: 63e1 9726 8b2b 7f26 df49 d3a5 5fa6 1426
000003c0: 4186 d625 66ae 4c25 dd24 66a6 d50f 44a6
000003d0: abf8 0727 b69f 9f26 ae43 7e25 0e20 3525
000003e0: 8151 a5a6 0b1d 5ca2 af66 89a6 0869 eb25
000003f0: 873a 1625 8a97 7ca5 b9df 4d24 f883 ae26

exp_avg_sq f4 [128, 105]
1.03925375e-11 8.647773e-12 1.3070788e-20 8.490158e-13 8.939034e-20 1.0391304e-11 2.6278915e-19 9.753248e-20
3.377982e-19 2.5333626e-19 2.5918044e-20 1.5043174e-20 4.912037e-19 4.494354e-20 1.02146104e-19 1.8129626e-20
2.9875056e-20 1.0002675e-19 2.481548e-19 9.7728326e-20 1.5052667e-19 6.6375745e-20 2.8911803e-19 2.98853e-19
4.322777e-20 1.4225804e-19 4.5729145e-19 2.7747107e-19 1.2188838e-19 2.45655e-20 3.5763528e-22 8.38141e-20
2.2981814e-20 1.0688846e-21 5.8054844e-20 7.945634e-22 5.648102e-19 4.5352943e-20 1.150781e-19 3.1881756e-19
3.4259818e-21 2.30378e-22 3.5989382e-22 1.4295702e-19 2.9833894e-20 8.2786194e-20 1.3830319e-19 1.2358131e-19
4.0671716e-19 7.2163705e-21 8.548926e-21 2.6263568e-20 7.2273665e-20 4.818102e-19 3.9991545e-21 7.511716e-20
4.4170416e-19 3.0168078e-20 5.456909e-19 1.7109848e-20 6.4194534e-20 1.249673e-19 5.7280526e-20 2.922075e-20
1.8183766e-20 1.6768865e-19 3.716203e-21 5.377059e-19 3.1288101e-19 4.703356e-19 5.0120083e-19 1.8462118e-19
2.172934e-19 2.5933397e-19 5.1322995e-19 1.08164974e-19 2.7327e-19 2.78426e-19 6.001113e-20 1.0305406e-19
1.9458055e-19 4.0157794e-19 1.2305419e-19 4.3249777e-19 3.88391e-21 4.5862026e-19 4.386174e-20 3.1052265e-19
2.7907652e-19 8.496532e-20 2.5061468e-19 3.2812908e-19 1.3761483e-19 2.2000482e-21 1.124102e-19 2.2755814e-19
1.8635768e-19 2.647662e-20 4.4680532e-20 6.1767866e-21 4.2649e-20 1.3251498e-19 9.955738e-20 3.184741e-19
7.025892e-20 4.8099733e-05 2.4197609e-05 1.8406586e-19 5.6654817e-06 1.2003827e-20 4.8099784e-05 6.7774714e-20
1.472689e-19 1.3246486e-19 2.4549785e-19 2.2087152e-19 9.82518e-20 7.691749e-20 1.7201552e-21 2.8858517e-19
1.3864122e-19 1.741618e-19 1.3111787e-19 6.9701935e-20 6.7905615e-20 6.455263e-21 1.1224517e-19 1.1326663e-19
1.2653139e-19 3.791613e-19 2.8596997e-21 3.266995e-19 1.1908344e-19 4.513772e-20 4.0716097e-19 8.73e-20
5.2012145e-19 5.328313e-19 1.2637634e-19 1.2219493e-19 1.6834841e-20 7.1896355e-20 8.537309e-20 4.7181642e-20
3.255988e-20 1.4841355e-20 5.0871385e-19 1.7987004e-20 5.5363007e-19 2.5564516e-19 6.083454e-21 5.3813693e-19
3.804426e-19 3.772422e-19 1.1036325e-20 9.8582675e-20 4.1131582e-19 8.931367e-22 3.0104838e-19 3.514795e-19
3.8097413e-22 1.801897e-19 2.6095175e-20 7.9957844e-20 3.4624855e-19 3.5250956e-19 3.4082281e-19 4.3470296e-20
1.108981e-19 8.012217e-20 8.380541e-20 7.4366665e-20 3.2293826e-19 3.130078e-19 3.4014587e-19 1.9086188e-19
5.0443666e-19 2.6111887e-19 1.7365977e-19 3.6371842e-21 3.2848865e-19 7.0540664e-20 1.7048498e-20 2.1536883e-20
5.701185e-20 3.5739626e-19 1.102719e-20 2.3507354e-19 5.2874403e-20 2.6787978e-19 4.961451e-19 1.365814e-19
4.06684e-19 3.3834748e-19 1.2130866e-19 1.5250221e-19 3.354611e-19 3.1695423e-19 2.1165461e-19 3.960437e-19
2.0206826e-19 1.1367902e-19 2.6539222e-21 5.118593e-19 3.9879336e-19 2.6002448e-19 5.7179176e-20 2.4503437e-19
6.744198e-20 2.309073e-19 2.644786e-10 4.686795e-10 4.6246794e-19 2.7100044e-11 4.0632097e-22 2.6447822e-10
4.1731847e-20 2.4420737e-19 1.4103675e-19 1.06885926e-19 2.6068216e-20 1.1866126e-19 4.7239438e-20 5.0834927e-20
5.1964782e-20 5.2560836e-20 1.2837352e-20 3.3318145e-19 7.607344e-21 2.7123064e-19 3.1575694e-19 1.1316079e-19
1.7311524e-19 7.891558e-20 2.2917178e-19 4.3359807e-19 2.944846e-19 4.251298e-19 1.6939956e-19 1.779312e-19
5.6331627e-20 7.7988115e-21 3.1827152e-19 9.265988e-20 5.280512e-19 2.2358196e-19 3.8411546e-19 2.8629264e-20
4.4327373e-19 7.96922e-24 3.0490648e-19 3.4578455e-19 5.6376232e-21 1.0345994e-20 2.4696986e-21 2.4191096e-19
00000000: d4d3 362d 1b22 182d 74e6 761e 09fa 6e2b
00000010: 2511 d31f 46ce 362d 931f 9b20 c44a e61f
00000020: 9f66 c720 188b 9520 fcc9 f41e 2a14 8e1e
00000030: 4dfa 1021 683d 541f 882f f11f bf3a ab1e
00000040: ba14 0d1f 762e ec1f 187c 9220 26c1 e61f
00000050: e5b5 3120 adb9 9c1f 48aa aa20 6369 b020
00000060: 2b23 4c1f dbf2 2720 f7f7 0621 3eca a320
00000070: 81e6 0f20 bc03 e81e 612d d81b 84e6 c51f
00000080: 9e0e d91e 7886 a11c 0014 891f 5e24 701c
00000090: dab3 2621 582c 561f 39dc 0720 5932 bc20
000000a0: 106e 811d 4541 8b1b df8a d91b 1cc6 2820
000000b0: f7e2 0c1f 2f79 c31f 9347 2320 29e6 1120
000000c0: 5c15 f020 3a50 081e 127c 211e 690d f81e
000000d0: c0a6 aa1f 8d34 0e21 7315 971d 8a5d b11f
000000e0: 395e 0221 f876 0e1f 3d0f 2121 1399 a11e
000000f0: 3793 971f 0d89 1320 f43f 871f b8fd 091f
00000100: a6bd ab1e c9f8 4520 e964 8c1d e9b3 1e21
00000110: 3eb1 b820 8ed1 0a21 aaed 1321 54f6 5920
00000120: 7344 8020 7115 9920 8f7a 1721 b765 ff1f
00000130: 654f a120 8c5a a420 81b2 8d1f 5b54 f31f
00000140: 5db8 6520 be0c ed20 d946 1120 374d ff20
00000150: dfba 921d 5e5c 0721 9721 4f1f db4c b720
00000160: dabc a420 629e c81f d2ef 9320 77b1 c120
00000170: 8877 2220 1f3b 261d e6b5 0420 9d53 8620
00000180: 2703 5c20 8a10 fa1e 73ff 521f 375a e91d
00000190: 7a67 491f 3272 1c20 be12 eb1f 72fe bb20
000001a0: e9e4 a51f b2be 4938 f8fb ca37 7e4e 5920
000001b0: 1e1a be36 f2be 621e c0be 4938 4d07 a01f
000001c0: 4bdd 2d20 0c63 1c20 96ea 9020 2961 8220
000001d0: 92fd e71f c59d b51f a4f8 011d c259 aa20
000001e0: bdad 2320 2d9d 4d20 f2cb 1a20 3c94 a41f
000001f0: 6d56 a01f 79df f31d 0584 0420 bdb8 0520
00000200: c461 1520 3cd1 df20 a312 581d 6fd9 c020
00000210: c396 0c20 2828 551f 6d58 f020 9d21 ce1f
00000220: 4483 1921 9843 1d21 e832 1520 2743 1020
00000230: 2600 9f1e aec2 a91f de94 c91f 1bcf 5e1f
00000240: 7bc2 191f 322c 8c1e 5525 1621 e8e1 a91e
00000250: 1b67 2321 01e8 9620 8fd3 e51d 7ad4 1e21
00000260: dc92 e020 3baf de20 6578 501e 92c5 e81f
00000270: 4acc f220 8df7 861c 25b5 b120 157a cf20
00000280: e448 e61b ffba 5420 4376 f61e 8dcb bc1f
00000290: 9a63 cc20 bd15 d020 b02f c920 5d48 4d1f
000002a0: e5ec 0220 e12e bd1f 43e1 c51f e497 af1f
000002b0: 0da1 be20 67c4 b820 64c9 c820 7754 6120
000002c0: 28e2 1421 2b23 9a20 7205 4d20 b068 891d
000002d0: cde7 c120 378f a61f bd04 a11e fd68 cb1e
000002e0: 8c9d 861f 32f8 d220 384c 501e 4fc3 8a20
000002f0: 3bb1 791f d920 9e20 aa6f 1221 323f 2120
00000300: 5910 f020 a0b9 c720 4b37 0f20 f70a 3420
00000310: 7305 c620 c518 bb20 aee0 7920 6fc8 e920
00000320: 628f 6e20 6035 0620 5286 481d ff12 1721
00000330: f367 eb20 ca7d 9920 b102 871f 8ca4 9020
00000340: 2d3e 9f1f ba4d 8820 0e66 912f 63d4 0030
00000350: 177f 0821 e05f ee2d 209b f51b 0066 912f
00000360: b512 451f 9327 9020 be81 2620 9460 fc1f
00000370: 1435 f61e 2a17 0c20 fa14 5f1f a80f 701f
00000380: 9165 751f 2736 781f a07d 721e f5ac c420
00000390: dcb2 0f1e 371b a020 d763 ba20 c098 0520
000003a0: df60 4c20 8b55 ba1f 7647 8720 7df3 ff20
000003b0: 41d5 ad20 cdf3 fa20 e0fd 4720 6810 5220
000003c0: 6102 851f bd50 131e d5df bb20 76c9 da1f
000003d0: 6cda 1b21 c0fa 8320 e3bd e220 a832 071f
000003e0: d1d4 0221 ab25 1a19 2afc b320 7c1d cc20
000003f0: bffb d41d 286e 431e eb9a 3a1d 8dcc 8e20

exp_avg f4 [128]
-4.1073392e-08 0.0018567682 -3.448615e-08 -4.5342105e-08 -1.5936063e-08 0.0025616495 0.0028394563 -3.6238467e-11
-1.7648267e-08 -2.67976e-08 -3.5309476e-08 -3.2964714e-08 -8.590949e-09 -4.1153797e-08 -1.2021822e-07 -3.2180704e-08
-5.8031047e-09 -7.360793e-08 0.0015263492 -2.3266642e-08 -2.5304672e-10 -0.0025004097 -1.0186519e-07 1.4369124e-07
-8.7256335e-09 -9.920456e-08 0.0032830646 0.0030887132 0.0027549802 -1.5993011e-08 0.002755156 0.0029448161
-2.453747e-08 0.0018635776 -8.54174e-08 -7.781307e-09 0.0032285913 4.189817e-09 0.0034029281 -1.17787e-08
0.003557518 0.0030805992 -5.3183793e-08 -3.2871924e-08 0.002482412 -2.2475726e-08 0.0022627208 -2.1123112e-09
0.0008855156 0.0024596222 -2.5389138e-08 0.0022053984 -5.282404e-09 0.002722321 -2.9468186e-08 -5.013817e-08
0.0024494545 -2.8236274e-08 0.0030134371 -2.2643446e-08 -2.2171809e-09 -4.846454e-08 -1.7500993e-08 -1.4697046e-10
-0.0016973445 0.0030519024 -4.3344734e-08 0.0017521589 -1.9965542e-08 -2.6821985e-09 0.0026205978 0.0028588288
-9.1817874e-08 0.0027007628 -3.965965e-09 -1.5473445e-11 -2.1130616e-07 -6.255992e-11 -5.8254255e-08 -3.329148e-08
-3.9540208e-08 0.0026909932 -1.0438342e-07 0.0016072507 0.0034762803 -9.221075e-09 -3.7161822e-08 0.0032540113
0.0021402016 0.0016040098 -1.5901671e-08 -2.9453876e-08 -2.8091085e-08 -2.3213808e-08 0.0024763877 -6.3830985e-10
-1.3721574e-10 0.00144019 -8.819232e-08 -4.706786e-08 -3.5677758e-08 -2.1596236e-08 0.0031047356 0.003853608
0.0035967408 0.002887392 -1.727808e-07 0.0025854402 -3.5923733e-11 -3.1285417e-08 -8.570771e-09 -1.5341255e-08
0.0027227295 0.0027186577 -2.5062457e-08 -6.7009644e-08 -5.7134656e-08 0.003274855 0.0033375758 -5.982332e-11
-3.529079e-08 0.0035441606 0.0034048136 0.002465527 -2.0279384e-08 -3.0820917e-09 -9.2821956e-08 -4.2141178e-08
00000000: ac68 30b3 cd5e f33a ec1d 14b3 2cbe 42b3
00000010: c6e3 88b2 59e1 273b 2c16 3a3b e360 1fae
00000020: f398 97b2 8c30 e6b2 2ea7 17b3 1695 0db3
00000030: 6597 13b2 14c1 30b3 5515 01b4 0f37 0ab3
00000040: a664 c7b1 6312 9eb3 c80f c83a e3db c7b2
00000050: 291d 8baf eadd 23bb fbc0 dab3 8c49 1a34
00000060: bee7 15b2 490a d5b3 af28 573b 026c 4a3b
00000070: e68c 343b 0161 89b2 d98f 343b d1fd 403b
00000080: 78c6 d2b2 4a43 f43a b66e b7b3 8dae 05b2
00000090: c696 533b 05f6 8f31 a903 5f3b 455b 4ab2
000000a0: 3f25 693b e1e3 493b 336c 64b3 102f 0db3
000000b0: f6af 223b a510 c1b2 284a 143b 2c28 11b1
000000c0: f221 683a 9d31 213b 4e17 dab2 7288 103b
000000d0: 8480 b5b1 f868 323b 3a21 fdb2 8057 57b3
000000e0: 0787 203b 398c f2b2 167d 453b 7781 c2b2
000000f0: 0f5d 18b1 5327 50b3 1755 96b2 8298 21af
00000100: 6e79 deba 6d02 483b 0a2a 3ab3 b2a8 e53a
00000110: b180 abb2 bc51 38b1 56be 2b3b 305b 3b3b
00000120: 692d c5b3 48ff 303b ff44 88b1 1a1b 88ad
00000130: 65e3 62b4 1b92 89ae 3b33 7ab3 5ffc 0eb3
00000140: ebd2 29b3 605b 303b 6429 e0b3 62aa d23a
00000150: 4ed2 633b b76a 1eb2 db9b 1fb3 4041 553b
00000160: a042 0c3b a33d d23a 2598 88b2 c201 fdb2
00000170: f34c f1b2 b467 c7b2 e44a 223b 1075 2fb0
00000180: ccde 16af c2c4 bc3a 3e64 bdb3 a927 4ab3
00000190: 1c3c 19b3 a082 b9b2 d278 4b3b d08c 7c3b
000001a0: 4cb7 6b3b 663a 3d3b a085 39b4 7d70 293b
000001b0: 87fe 1dae ae5e 06b3 a63e 13b2 c7c7 83b2
000001c0: d26f 323b 822b 323b ed48 d7b2 f1e6 8fb3
000001d0: 3864 75b3 f39e 563b 3bbb 5a3b 898d 83ae
000001e0: a292 17b3 2645 683b 4b23 5f3b ae94 213b
000001f0: d632 aeb2 bbcc 53b1 6955 c7b3 b7fe 34b3

exp_avg_sq f4 [128]
1.0391681e-11 4.8099755e-05 2.6447838e-10 1.9240102e-12 3.9506846e-11 9.00651e-06 2.2061306e-05 2.3499081e-14
5.4265942e-11 5.2814184e-11 4.3487484e-12 3.9506003e-09 1.9559611e-11 1.5397937e-10 5.229414e-10 1.059183e-12
4.4478035e-09 2.477058e-12 4.99236e-05 7.57504e-12 3.4600964e-14 5.8931874e-07 5.36317e-11 2.1494832e-14
7.581517e-15 1.2676839e-10 5.0202656e-05 1.8372224e-05 3.849366e-05 7.379548e-11 1.9538356e-05 2.3681618e-05
3.0349948e-11 1.886763e-05 7.274317e-13 1.6294661e-10 2.7112732e-05 1.2941512e-14 4.8602258e-05 3.306162e-13
3.451294e-05 3.8990176e-05 3.194358e-11 9.954611e-12 1.3930353e-05 1.3190079e-14 1.725148e-05 7.570927e-14
2.4509552e-06 1.5332973e-05 1.2248617e-12 1.248034e-05 2.6275236e-13 2.01978e-06 1.0693684e-12 1.5109382e-11
2.4376199e-05 2.711699e-10 1.8538993e-05 1.2930402e-12 7.7626985e-14 8.152252e-12 4.1787897e-13 3.0321205e-14
2.3541173e-07 2.8109685e-05 1.0962646e-08 4.607154e-05 3.9520625e-13 8.60272e-14 2.3460598e-05 2.728762e-05
5.737415e-12 1.0727499e-05 1.0897823e-13 2.1168209e-14 2.2233673e-09 2.5613494e-14 1.0399893e-11 5.5918895e-11
6.5962924e-10 2.8374587e-05 1.7839976e-12 2.1859314e-05 3.5150526e-05 9.803698e-11 4.5951467e-12 3.494326e-05
2.8165188e-05 4.874752e-05 2.4179228e-11 1.843647e-11 4.346766e-12 8.550474e-12 2.810409e-05 2.0103073e-14
1.01863445e-14 2.3133849e-05 1.511364e-12 1.1249566e-10 5.984588e-12 6.6645875e-13 3.594461e-05 4.1889783e-05
3.8737995e-05 2.9620342e-05 2.2449351e-09 1.4957165e-05 2.3469735e-14 5.2877325e-12 4.3043e-09 3.0807738e-13
2.2571823e-05 1.5174711e-06 1.0199007e-12 4.0548704e-14 2.6103146e-09 3.171313e-05 4.6136025e-05 2.5418046e-14
7.2555073e-10 4.6631863e-05 3.5081852e-05 2.1259579e-05 1.8133098e-10 9.317664e-14 1.5232782e-11 1.326397e-11
00000000: f8cf 362d b8be 4938 0666 912f e363 072c
00000010: c1c0 2d2e aa1a 1737 4b10 b937 31a9 d328
00000020: 05aa 6e2e 7c47 682e 0b02 992c d9bd 8731
00000030: 540c ac2d 574d 292f bbbe 0f30 1711 952b
00000040: 4bd3 9831 b64e 2e2c 0f65 5138 f342 052d
00000050: 32d4 1b29 ad31 1e35 eddf 6b2e b59b c128
00000060: 9393 0828 2162 0b2f b190 5238 0d1e 9a37
00000070: 4174 2138 2947 a22e 4de6 a337 e3a7 c637
00000080: 017b 052e ed45 9e37 fac0 4c2b 6529 332f
00000090: 2670 e337 3122 6928 47da 4b38 d11e ba2a
000000a0: fdc1 1038 6289 2338 467d 0c2e 951f 2f2d
000000b0: 69b6 6937 819c 6d28 45b7 9037 6c7b aa29
000000c0: 177b 2436 4f9f 8037 4b62 ac2b a762 5137
000000d0: 9bea 932a 8e8b 0736 0f80 962b 4ee7 842d
000000e0: 7d7b cc37 c513 952f 2f84 9b37 affa b52b
000000f0: e9cc ae29 7b6a 0f2d b53e eb2a f88d 0829
00000100: 7cc5 7c34 17cd eb37 3a56 3c32 f03c 4138
00000110: 397b de2a 4eb7 c129 40cd c437 b8e7 e437
00000120: 0ade c92c 42fa 3337 ac65 f529 91aa be28
00000130: e4c9 1831 b2b4 e628 f4f4 362d 14ef 752e
00000140: 4851 3530 f605 ee37 4a13 fb2b 855e b737
00000150: 976e 1338 ea95 d72e 67ad a12c 0a90 1238
00000160: 4844 ec37 4076 4c38 c8ae d42d 3d2b a22d
00000170: 30f0 982c e96b 162d 13c1 eb37 8812 b528
00000180: 3980 3728 900f c237 a0b4 d42b 6d61 f72e
00000190: 6090 d22c 6a97 3b2b 3bc3 1638 d0b2 2f38
000001a0: 9b7a 2238 3379 f837 5145 1a31 89f0 7a37
000001b0: 8665 d328 a90b ba2c 06e5 9331 a16e ad2a
000001c0: 9f58 bd37 e9ab cb35 cc89 8f2b 799d 3629
000001d0: 2461 3331 b703 0538 2e82 4138 06f2 e428
000001e0: 1870 4730 9596 4338 da24 1338 9956 b237
000001f0: 2260 472f add0 d129 2dfd 852d 9c57 692d
