models/models_o2/reinforce_ep1000.pth (torch, 115817 bytes, 18 tensors)

0.weight f4 [64, 70]
00000000: 5080 4f3d 70f0 873c 8845 5f3e 4974 fcbc
00000010: ee49 4cbd c9b3 d4bc 5055 7dbd 0be2 4e3d
00000020: d23e eebc 03ff 40be c3f4 083d b576 0a3c
00000030: 0436 e73c f1cf aabd 3dee 153d 142f 4d3c
00000040: 1b59 23be 563e b63c ea10 e33c f7ba a33c
00000050: 48dc cabc d697 5a3c 525f 193c a124 0ebe
00000060: 5abc 73ba 86cb e13c 5210 30bc b2a1 7e3c
00000070: e374 9bbc e908 853b 39d2 80bd 6864 bcbb
00000080: 9c9f 0dbc 243b 8fbc 368d 82bc 78b5 2fbd
00000090: ae4b c2bc 81b0 12ba a17d a93c 5e05 e0bc
000000a0: f0a6 513c a659 bfbb b0a4 0cbd 5acc e539
000000b0: acd7 2c3b 3e5a 453c 8c8f cbbc e2e8 f03a
000000c0: 76b8 1abc 59a6 e6bd b202 7d3c c1b3 a53d
000000d0: 876d 4bbc 6554 bebd 204d 8cbb 58bb 81bd
000000e0: 11c6 8cbd 63cb 723b be21 1a3d bd11 9cbb
000000f0: d1f7 65bd 7922 e93a 5479 1fbd 738b 59bd
00000100: fa6b 4eba 3db0 bc3c 7f93 b73a e227 3fbd
00000110: ea73 ae3b 32fe b4bc 44bf 363d 1106 993d
00000120: ad40 d63d 91ba 9b3d 6448 efbc 6427 a73d
00000130: e571 29bd e5cb 363d 11b9 a9bd b301 12be
00000140: a0a1 ae3d 9758 c6bc d107 e43d 8201 e2bd
00000150: 9811 453d 2227 8ebd d41f 0cbe 50dd ce3d
00000160: 9904 1d3d 2708 ee3d 7ea5 583d b488 843d
00000170: 75bc 1abd 3670 28be 0210 b8bc 856b 113d
00000180: 2172 41bc 7cd8 50bd cc10 a73d cbdb b23d
00000190: 836d 48be 0ea1 08be c7e4 8d3d 7b6c f1bd
000001a0: 8842 473d 6bbd a63d 3b17 0d3e 059a f0bd
000001b0: 0d81 fabd 62c6 023d 8d20 eebd a560 5abd
000001c0: 2172 693d aaad 023e 41ea 2cbd b5eb cfbd
000001d0: 5dd7 f23c 1e30 ddbd c553 cebb 1338 353e
000001e0: 9dc2 16bd 2291 6cbe 825f 213b 9c83 4a3e
000001f0: 0d5f a03c 929d 483e c5ce 41bc 2c0e 03bd
00000200: f16a a6bd 2b5b a03d 8aa2 213d ef8f 4c3d
00000210: d246 843d 0505 4bbe e3b7 0f3c 9f4e 833d
00000220: 3ba8 123d c730 1cbe f61f d33c e681 6fbd
00000230: 648b 3fbb 7359 1da5 4548 4cba 83ad f19d
00000240: 2ad4 153b d67f 94ab ba3c 833b 4a43 b1bb
00000250: e7c2 08b9 0277 473a 8d5f 8c3a 15bd 3dbb
00000260: 1e3f 1e3b d1b7 3bb9 182d 7dbb bd56 1339
00000270: a4a1 413b 8766 f637 c768 11bb e0c1 d638
00000280: d83d 0abb 654b 72ba 39e0 a9b5 fcd2 2c39
00000290: 066e a336 0daf b1b9 0209 1c39 2e6f dbb9
000002a0: f1e5 a4a4 ba57 00b9 8df9 a7b6 2361 b036
000002b0: 958d 54a6 8a27 1d39 3a90 bc38 80a2 2fb7
000002c0: b8ea 3897 bd56 0417 f81b 5e9a b20f 74b7
000002d0: 38df 0e93 ca13 14b7 e1ed 14b9 c795 2818
000002e0: 789e 7438 1c83 0799 d9b0 bab8 d7ca 2d93
000002f0: b3ae 11b9 128d 07b9 3bb5 8518 4698 0739
00000300: 82e1 ac19 7788 e9b8 7240 6e8f bfaa 35b9
00000310: 89ac 1414 ea09 a694 4bda 0593 a920 3a12
00000320: e0b8 8593 8cda d793 80b3 2b13 d2da d813
00000330: f851 5892 c146 3994 595e 7613 1c3f 5513
00000340: d6aa cf93 4b45 7412 20ac e3b8 3329 8496
00000350: ef74 a0b0 bdce 0e9b b124 3037 9de3 e922
00000360: 6f27 1739 e3f9 fdb8 62f2 6c98 f51b f8a4
00000370: 55e8 c49a 3394 64b9 0365 4016 2f5f 8ab9
00000380: ab9a 0eb9 8b2c 8139 4730 3c2f 5e08 d9b4
00000390: a3b6 d7b6 9a8c 69b9 6f34 7f1c 23ff 17b9
000003a0: 7cd1 fcb5 af1b 0231 398b a936 f65b cab6
000003b0: f505 6939 474e 1618 fa82 ebb8 7e0a 2eb9
000003c0: eea0 d22f e21c e536 a442 f0b6 24e7 3c39
000003d0: 58c6 941c 6f97 57b9 0d5d be98 e7ea df35
000003e0: b5e7 851a df4c 7bb9 f3da 0014 145b 75b9
000003f0: a7c4 70b9 01d4 5c98 a462 4b38 07ab 8419
0.050659478 0.016594142 0.21803868 -0.030817168 -0.049875192 -0.025964634 -0.06184894 0.05050854
-0.02908269 -0.18847279 0.033436548 0.0084511535 0.028223999 -0.08340443 0.036604155 0.012523431
-0.1595196 0.022246521 0.027718026 0.019986613 -0.024763241 0.013341865 0.009361105 -0.1388116
-0.0009297781 0.027562868 -0.010746079 0.015541481 -0.018976634 0.0040599 -0.06290097 -0.005749274
-0.008644011 -0.017484255 -0.015936475 -0.04289767 -0.023717728 -0.0005595759 0.020689787 -0.02734631
0.012796149 -0.0058395443 -0.034336746 0.00043830537 0.0026373668 0.012045441 -0.024848722 0.0018379951
-0.009443393 -0.11262197 0.015442537 0.08090926 -0.01241625 -0.09293441 -0.004281655 -0.06334561
-0.06873716 0.0037047497 0.037629835 -0.0047628568 -0.05614454 0.0017786763 -0.038934067 -0.053111505
-0.0007874366 0.023033256 0.0014005749 -0.046668895 0.0053238766 -0.022093866 0.044616 0.0747186
0.10461555 0.07603944 -0.029209323 0.0816181 -0.041368384 0.044628043 -0.08287252 -0.1425846
0.08526921 -0.024212165 0.11134303 -0.11035444 0.04811248 -0.06941058 -0.13684016 0.10100806
0.038334463 0.11622649 0.0528922 0.064713866 -0.037777383 -0.16449055 -0.02246857 0.03550293
-0.011806996 -0.050987706 0.081575006 0.087333284 -0.19573025 -0.13342687 0.069284014 -0.11788269
0.048647434 0.08141597 0.13778393 -0.11748127 -0.12231646 0.031927474 -0.11627302 -0.053314824
0.056993607 0.1276156 -0.04221559 -0.101523794 0.029643709 -0.10800193 -0.006296607 0.17697172
-0.03680669 -0.23102239 0.0024623577 0.19776767 0.019576574 0.19591358 -0.011829083 -0.031995937
-0.08125866 0.07829889 0.03946165 0.049941953 0.064588204 -0.19826134 0.008771869 0.0641148
0.03580497 -0.15252982 0.025772076 -0.05847349 -0.002922737 -1.3647886e-16 -0.00077927514 -6.3971576e-21
0.0022862055 -1.0551514e-12 0.004005042 -0.005409633 -0.00013042577 0.0007608981 0.0010709629 -0.0028951813
0.0024146507 -0.00017902187 -0.0038631614 0.00014051325 0.0029545808 2.9373228e-05 -0.0022187696 0.00010240427
-0.002109399 -0.0009242802 -1.2656739e-06 0.00016481796 4.870587e-06 -0.00033890494 0.00014880675 -0.0004185377
-7.15132e-17 -0.00012239712 -5.0060394e-06 5.256517e-06 -7.3744155e-16 0.00014987416 8.991403e-05 -1.0468648e-05
-5.9749863e-25 4.276098e-25 -4.5931117e-23 -1.4547188e-05 -1.8032975e-27 -8.826095e-06 -0.00014202997 2.178911e-24
5.832172e-05 -7.005814e-24 -8.9021116e-05 -2.1935678e-27 -0.00013893358 -0.00012927156 3.456269e-24 0.0001293133
1.7875465e-23 -0.00011135724 -1.1746718e-29 -0.00017325113 7.506117e-27 -1.6765627e-26 -1.6894587e-27 5.873151e-28
-3.375622e-27 -5.4489134e-27 2.1671735e-27 5.474184e-27 -6.8258616e-28 -9.354067e-27 3.1096082e-27 2.6915495e-27
-5.2422604e-27 7.7078235e-28 -0.00010856264 -2.135175e-25 -1.1674767e-09 -1.1812765e-22 1.049896e-05 6.339577e-18
0.00014415172 -0.00012110525 -3.0624657e-24 -1.07600217e-16 -8.143905e-23 -0.00021798983 1.554151e-25 -0.00026392328
-0.00013599794 0.00024637984 1.7115652e-10 -4.0425488e-07 -6.428761e-06 -0.0002227299 8.444019e-22 -0.00014495528
-1.8836431e-06 1.8933226e-09 5.0528e-06 -6.030775e-06 0.00022222831 1.9426566e-24 -0.000112300695 -0.00016597842
3.8313125e-10 6.8280942e-06 -7.1603154e-06 0.00018015184 9.845089e-22 -0.00020560411 -4.9207806e-24 1.668316e-06
5.5381854e-23 -0.00023965862 6.505529e-27 -0.0002339895 -0.00022961442 -2.8541368e-24 4.8490838e-05 1.3717558e-23

0.bias f4 [64]
00000000: c2ce 503d 27bf 363d dddc 8bbb e9db 29b9
00000010: 3db6 333d 11d2 623d 0326 5b3d c3db 473d
00000020: 554c cb3d ac2e c0b7 b866 253d 665c 6d3d
00000030: 5809 04bc 8cd7 a5b8 bc35 13b9 87e2 263d
00000040: 40fc 633d 6adb 8eb5 096a 523d 1d05 093d
00000050: 80be b2ba e2b5 01bc 7130 f93c 1b71 53ba
00000060: 4a46 17b9 a791 0c3d f4d5 fcbb 2157 3b3d
00000070: bdf8 143d a5d7 0cab 3c53 e9b7 937e 83bc
00000080: 26ee 29bc 0370 7a3d bb48 3d3c 9f7e 80bb
00000090: c8ae 29b0 0d38 143d 8e75 d73c 39f1 6eb9
000000a0: 9879 473d 53ab 2e3d c254 bcb3 d05b 8ab9
000000b0: 00b1 423d 5c27 6e3d 8d18 6e3d d9ec 293d
000000c0: 3196 c5ba 3749 383d 5413 5c3d 6e5d ad3d
000000d0: bb50 acb7 322e fa3c c8ea 753d bd01 b23c
000000e0: bb21 263d 1cf0 6fbc 860b 173d 8ac6 583d
000000f0: d107 0cb6 95f3 5f3d 0e86 0b3d f76d d3b8
0.05097843 0.04461589 -0.0042682723 -0.00016199019 0.043874968 0.055376116 0.053503048 0.048793565
0.099266686 -2.2909917e-05 0.040381163 0.057949446 -0.008058868 -7.907962e-05 -0.0001403903 0.040743377
0.055660486 -1.0643682e-06 0.051370654 0.033452142 -0.0013637096 -0.007916899 0.030418606 -0.0008065865
-0.00014426667 0.034318592 -0.007715935 0.04573739 0.036370028 -5.003726e-13 -2.7814523e-05 -0.016051566
-0.01037172 0.06114198 0.011552985 -0.0039213444 -6.173022e-10 0.036186267 0.026301172 -0.00022787311
0.048699945 0.042643856 -8.7698496e-08 -0.00026389817 0.04753208 0.058143005 0.058128882 0.04148564
-0.0015074668 0.044991698 0.05372937 0.08465086 -2.054159e-05 0.030539606 0.060038358 0.021729345
0.04055951 -0.014644649 0.036876224 0.052923717 -2.0866175e-06 0.054675657 0.03406339 -0.000100817466

3.weight f4 [64, 64]
00000000: deba f117 0481 a893 abb8 86b5 3c1a 6790
00000010: 0edc c9b9 d0a2 4bb3 8ca3 5d14 c9ab 81b8
00000020: 88a7 2012 7472 e913 0138 4694 affe 9eb8
00000030: a8bd 0514 8146 f315 288a b311 431b 0eba
00000040: 0a1c 1db9 7056 0318 c95f 56b8 0d94 4bb9
00000050: 6999 8b93 7ddd ca12 7de2 5db9 c859 2d14
00000060: 035d 4894 2fda 9016 6118 ed13 5598 8e12
00000070: 70d5 63b8 2f9f 9393 a50f a312 f74b 0193
00000080: b49f 8893 76a0 6db0 04b9 8e13 5ec3 d41e
00000090: 030a 0793 36e6 7db8 9ba2 87b9 92f8 9e12
000000a0: 8d26 6914 b6f8 8cb9 8e38 1016 eed8 6f14
000000b0: b332 45b6 2900 96b2 bc5a f412 cded 9e98
000000c0: d9f8 2011 9cf4 f497 2ae0 20b8 7930 78b7
000000d0: 5469 d893 22e3 48b6 2399 2094 4e29 14ba
000000e0: c247 06b9 ce81 3516 9de5 11ab 3d51 3db9
000000f0: 0eaf 4815 c1b7 99b9 d68d 5cba 7564 2e11
00000100: bc5b 053e 54d8 f2bc ff0d 3817 d404 be11
00000110: a274 0b3e cbd1 093e 4d24 84bd e400 93bd
00000120: 9130 403e 229e 5b93 68e8 a1bd 94b4 bfbd
00000130: 706c 26ba 92a5 1814 d2f5 6a94 194f 013e
00000140: 163a 043e 968a 0396 e05e acbd 86bd e53d
00000150: 362c 8713 deb1 b0ba fd52 0b3e 3639 d093
00000160: 7a42 7e92 8559 fb3d ad9c 9ca7 7d43 5fbd
00000170: 772b 98bd 9379 9c12 7d58 b72e 0b55 683b
00000180: db44 afba 772b a3bd 06a7 803d 7dd5 24ba
00000190: 3352 0694 87da dc3d 4289 023e 0fce 6493
000001a0: 50e4 0a3e a05d f83d e846 1014 3e08 4294
000001b0: c6d4 8dbd 0901 023e f301 afbd daba 043e
000001c0: 3eab 1e11 bae4 083e eb6e 043e 65f1 c33d
000001d0: b8cf 2314 0eb7 a3bd 30a2 a8bd f0c1 113e
000001e0: 2626 0e3e 31ac 8abc 1c9d 173e 7eb8 0e3e
000001f0: a9b0 e52f f444 df3d 8452 f03d 3446 1a13
00000200: 5744 db3d 6c25 3ebd ad97 9a37 a438 f694
00000210: a88b d93d 162f ec3d 29d9 5cbd 785e 90bd
00000220: 1659 353e 5edd 1315 1c4f 98bd 5477 aabd
00000230: e8e8 0bba f281 2a9e d040 9515 a492 c63d
00000240: 5eb0 e23d 5c46 1e98 3cf8 9abd 7829 b03d
00000250: 5de8 4a92 99b0 49bb ab7c d83d 6c86 df93
00000260: 0cbe 0496 cbe9 c03d 12b9 eca7 abc8 60bd
00000270: 7edd 8ebd 5481 0e14 cd97 7b34 7592 e03c
00000280: 8f10 64ba 7657 9fbd 15c8 393d 924f e9b9
00000290: 5285 b992 159e bb3d cf68 db3d 3599 4a15
000002a0: 1e7a d63d 05c9 c13d 1217 d19d 7ee2 2396
000002b0: b9ec 84bd 3051 d23d da72 99bd 82e7 d73d
000002c0: f01e 9791 7040 db3d 1960 dc3d 37ee a53d
000002d0: 6ce4 9793 2b2f 99bd 0565 95bd 12c8 e23d
000002e0: b51b e23d 40c0 7bbc 50fe ff3d 823d e63d
000002f0: f5ac 172f 0e97 b03d af67 cf3d 6f5e 7f13
00000300: deb9 dcbd 7fc1 173e 1c7b 6e37 fa64 1b2b
00000310: 60c2 8cbd 1666 96bd f916 063e da03 153e
00000320: d552 27be ead4 9e94 c773 fd3d 49b6 173e
00000330: b336 fcba ff8e 5b30 ec8b 1694 4c97 0fbd
00000340: 5d6c 90bd cc7e aa1b 84da 163e 48aa cdbc
00000350: 9710 c317 f840 363b 4228 0fbd 7c5c d298
00000360: ed95 3912 e2e0 79bd 02d8 b52f 1eb0 0f3e
00000370: 1769 093e 98a7 e193 ebbb ccb3 db22 7c3c
00000380: 4030 1439 2c3a 1c3e b0bc 243e 8505 d539
00000390: c7d3 4f97 5527 55bc 560f 13bd 6796 baa0
000003a0: f42c 6bbd f8d5 ebbc ff9d b92d a6ca 711e
000003b0: 636c 1e3e 67ec 963d fc12 1b3e dc86 8abd
000003c0: a324 b49b c553 c5bd 8eab a2bd 6036 ed3d
000003d0: bc2b e630 3789 f53d f522 193e 73de 67bd
000003e0: 4723 95bd bb6e 69bc 65d4 97bd 44ef d0bd
000003f0: e27c efb5 5ec5 c43c 81ac f4bc dc3c 4724
1.5621432e-24 -4.253638e-27 -1.0037523e-06 -4.5576928e-29 -0.0003850166 -4.7412698e-08 1.11899026e-26 -6.183197e-05
5.0693596e-28 5.893033e-27 -1.000749e-26 -7.5814656e-05 6.752187e-27 9.8258154e-26 2.8326366e-28 -0.00054209324
-0.00014983132 1.6974993e-24 -5.1110783e-05 -0.00019414742 -3.5239807e-27 1.2802593e-27 -0.00021160576 8.751974e-27
-1.0115763e-26 2.3402148e-25 5.985125e-27 8.999013e-28 -5.4319797e-05 -3.7264984e-27 1.0290603e-27 -1.6319543e-27
-3.4488706e-27 -8.6448126e-10 3.602828e-27 2.2527175e-20 -1.7044332e-27 -6.05343e-05 -0.00025870357 1.0032479e-27
1.1771097e-26 -0.00026888185 1.1650073e-25 1.2109198e-26 -2.9384798e-06 -1.7462371e-08 1.5420933e-27 -4.108216e-24
1.2698457e-28 -1.5829879e-24 -3.835574e-05 -1.4793238e-05 -5.4629927e-27 -2.993453e-06 -8.1081366e-27 -0.0005651907
-0.00012805968 1.4662023e-25 -5.1833e-13 -0.00018054708 4.0527772e-26 -0.0002931934 -0.0008413469 1.3757135e-28
0.13023275 -0.029644169 5.947127e-25 2.997969e-28 0.1361871 0.13458936 -0.06452236 -0.07177904
0.18768527 -2.7719652e-27 -0.07905656 -0.093606144 -0.0006348556 7.706692e-27 -1.18624604e-26 0.1262783
0.12912783 -1.0625826e-25 -0.084165335 0.11217789 3.4122386e-27 -0.0013480743 0.13605876 -5.2562996e-27
-8.0230207e-28 0.12272934 -4.3468566e-15 -0.05450772 -0.07430165 9.874954e-28 8.337595e-11 0.003545108
-0.0013371961 -0.07967275 0.06281857 -0.0006287916 -6.781482e-27 0.10783868 0.12747672 -2.887924e-27
0.13563657 0.121272326 7.284126e-27 -9.7961225e-27 -0.06925349 0.12695707 -0.08545294 0.12961903
1.251677e-28 0.13368502 0.12932937 0.09567527 8.270362e-27 -0.07993899 -0.0823406 0.14234138
0.1388174 -0.01692781 0.14806026 0.13937566 4.1780382e-10 0.10901824 0.117344886 1.9472146e-27
0.10706394 -0.046422407 1.842886e-05 -2.4861993e-26 0.106223404 0.115324184 -0.053918038 -0.070492685
0.17709765 2.986104e-26 -0.07436964 -0.08323541 -0.0005337135 -9.026597e-21 6.0282877e-26 0.09695938
0.110687956 -2.0456544e-24 -0.07566878 0.086016595 -6.402637e-28 -0.0030775426 0.105706535 -5.6425664e-27
-1.0722843e-25 0.094195925 -6.570381e-15 -0.054878872 -0.0697584 7.194673e-27 2.3431421e-07 0.027413586
-0.0008699977 -0.07780354 0.04535683 -0.00044500508 -1.1708007e-27 0.09161011 0.1071335 4.0914434e-26
0.10472511 0.094621696 -5.5345694e-21 -1.3238503e-25 -0.06490464 0.102693915 -0.07492609 0.105422035
-2.3842666e-28 0.1070565 0.10760517 0.081020765 -3.8343e-27 -0.074797 -0.072946586 0.11073317
0.11040441 -0.01536566 0.12499678 0.112422004 1.3794817e-10 0.086225614 0.10127198 3.2232084e-27
-0.10777639 0.14819907 1.4214569e-05 5.5207195e-13 -0.068730116 -0.0734369 0.13094701 0.1455225
-0.16340192 -1.6037903e-26 0.123755984 0.1481563 -0.0019242376 7.9874946e-10 -7.6006594e-27 -0.035056397
-0.07051919 2.8206081e-22 0.14731795 -0.02510561 1.2605768e-24 0.002780972 -0.034950502 -5.4377113e-24
5.8560505e-28 -0.06100548 3.307719e-10 0.14032027 0.13418995 -5.6963245e-27 -9.533672e-08 0.01538917
0.00014132354 0.15256566 0.16087604 0.00040630638 -6.715261e-25 -0.013009866 -0.035903297 -3.1609154e-19
-0.057415918 -0.028788552 2.110223e-11 1.28003405e-20 0.15471034 0.07369309 0.1514396 -0.06764004
-2.9802178e-22 -0.096351184 -0.07942878 0.11582637 1.6747133e-09 0.11989062 0.14954741 -0.05660863
-0.07282119 -0.014247592 -0.07413558 -0.10201886 -1.7843233e-06 0.024019893 -0.029867413 4.3202796e-17

3.bias f4 [64]
00000000: f615 b0bb 5284 0b3d c468 e63c c961 643d
00000010: a4df 953c 9e2c ec3c 685a d83c a016 923d
00000020: b5f1 90bb 8e92 0fbc b0ee fe3c 7b2e 5dbb
00000030: 041d babb 0ef2 803d ba72 783d c696 eb3c
00000040: ccac 893d 320d c2bb 785a c33c b9ae d13c
00000050: a6fa 24bc 0dcd 8d3d 8f7a eb3c 4b77 813d
00000060: 402e 033d a69d d83c 4147 5fb8 b5af a03d
00000070: db18 bebb 29a3 bebb 543a 59bb c11e 27bb
00000080: b94d 083d 17aa f53c 05f1 903d ccd5 bfbb
00000090: 4723 983d 591a ff3c 0284 803d 4a60 fc3c
000000a0: 6ed2 88bb a862 8f3d 21a3 d73c 9320 b4bb
000000b0: 1767 133d fafe 8cbb cc89 af3c b017 e9bb
000000c0: 11bc bc3c 7f04 17bc 5ea5 8c3d 96c9 b0bb
000000d0: f2da 2dbc 86d7 2cbc 7603 663d 87a5 23bb
000000e0: e171 7d3d 7f6f aebb 112d 093d cecc e43c
000000f0: 34e7 753d dc0e 12bc dbe2 32bc b825 233d
-0.0053737117 0.034061737 0.028126128 0.055757318 0.018295117 0.028829869 0.026410297 0.071332216
-0.004423345 -0.008762969 0.031119674 -0.0033749628 -0.0056797285 0.06296168 0.060656287 0.028758418
0.067224115 -0.005921983 0.02384685 0.02559601 -0.010069525 0.06923876 0.028744964 0.063215815
0.03202653 0.02644236 -5.3233704e-05 0.078460135 -0.005801303 -0.00581779 -0.0033146339 -0.0025500508
0.033277247 0.029988332 0.07077221 -0.005854344 0.074286036 0.031140493 0.062751785 0.030807633
-0.004175476 0.07001239 0.026322903 -0.005497047 0.035986986 -0.0043028565 0.021428011 -0.0071134195
0.023038896 -0.009217381 0.06867479 -0.0053951247 -0.010611283 -0.010549432 0.056155644 -0.0024970488
0.06187618 -0.00532335 0.033490244 0.02792969 0.060034946 -0.008914676 -0.010918344 0.039830893

6.weight f4 [4, 64]
00000000: 0266 3894 d064 cf94 4b30 5394 8d1b 4214
00000010: be8e 1c12 0198 6c94 f8b1 3a92 f73a 5e12
00000020: 0928 2e93 4b83 ce12 467e 4393 c846 cb93
00000030: b4fa 6614 6b51 8093 e7ab 3494 b132 b793
00000040: bb06 df13 5527 9993 1c1c d414 1fad c013
00000050: 3f7f 0814 4228 8f94 566e 9513 68b1 f814
00000060: 3279 4c14 2226 4f93 bb20 ec92 aeec 3e94
00000070: ca31 3b12 ff05 f694 b2c6 3694 0fa3 2792
00000080: 374b 2a14 6f45 c912 8c8d d312 c8d2 8513
00000090: 72b7 6b14 d901 e192 919f 2694 cda8 6594
000000a0: 011f a913 02cf e193 e729 0a14 ce8c 8714
000000b0: 0826 2694 1fe7 1f93 cc33 8d14 d58b 4e94
000000c0: 4d92 0993 c470 fe11 96e4 f993 1597 4d92
000000d0: db03 1894 05c2 8212 b43b 5a14 9553 6f14
000000e0: f15e 8794 cba8 0095 5df1 8714 8724 8994
000000f0: c529 0514 6ad3 2994 fb63 b514 2e46 8f14
00000100: 264c 2494 286c c094 1c9d 2092 7135 c111
00000110: 3376 8f13 a30f 7512 4043 6214 1b1e 5013
00000120: a80d 8511 a595 2b93 825a 1314 599f b114
00000130: fc26 7b14 04d0 df93 5ed4 9114 8dbe 1794
00000140: 973f 8013 e75c 7014 09ae a713 33f2 3593
00000150: e8c9 9813 c8a9 1814 0618 1494 b77d 0514
00000160: 31b6 168e 3d7f bd13 3164 be13 8bb5 7414
00000170: 6a84 2113 0523 a093 685a 9114 c2a8 cf94
00000180: b7a5 ae13 54ed 8113 5168 2214 cd00 c514
00000190: 76f9 0b94 8080 b812 eb03 0694 90b6 6894
000001a0: 872b 8991 d3ef 8294 9fa3 5792 e84c 9a11
000001b0: 2bc1 3d94 6788 6e93 c782 1094 2155 da14
000001c0: 8ce4 3394 cb5f f092 d21f 8f94 1949 2492
000001d0: 50e8 8292 4503 3814 b9e4 4694 d19f 0593
000001e0: fdaa d893 766a 9113 c294 8713 b426 f111
000001f0: 64b4 f813 5eb8 2493 08a9 e313 3864 f191
00000200: a339 bd39 f0ea 143e a3fd 003e 756a a7bd
00000210: 5085 ee3d 6b9a 003e dcfe 0d3e 770f ddbd
00000220: 7ad2 663b ed40 b63a fb1c f43d 4d39 5aa7
00000230: 867b 0634 0c8b c9bd 8cd8 c9bd b54e 023e
00000240: c5fb aebd 3a57 0fb9 08c8 f03d 62e2 f23d
00000250: 41e5 a43a e493 cfbd e435 fd3d 02e2 b9bd
00000260: fdd6 043e ec34 033e 0756 6c1c 4ca1 cdbd
00000270: 7d77 8dba 20b9 7aba 2964 d0b4 0e1f afaa
00000280: 035c 013e c505 013e c1ec d4bd 1c39 a3b9
00000290: 7cd6 a9bd c673 073e 2601 d7bd 8b60 053e
000002a0: dddd 65b6 9369 e6bd 7c10 eb3d 096d 3cb7
000002b0: eacc 033e bed9 e736 7d6f 043e 99d9 2436
000002c0: a347 033e be9a 0d39 b137 c3bd d27a efb9
000002d0: 0f80 f93a b1ab 2d3b 2719 aebd 1e04 1dbb
000002e0: d1b7 bebd 7a90 a499 22f3 f03d 1477 043e
000002f0: 94d6 adbd 48d5 7837 1554 27bb 11b5 063e
00000300: ce0a 8439 aa72 213e c63a 123e 36c2 30be
00000310: 54fc fb3d 3cba 043e 5571 193e 87b5 3bbe
00000320: ed83 673b ee14 af3a 1b12 073e a7b0 f424
00000330: 05e7 0f35 9ec5 3dbe a434 40be 84b1 0f3e
00000340: fa15 36be 3aeb 34b9 8873 033e 8a95 083e
00000350: 2df1 143b 34ef 3abe a770 0b3e 28a5 46be
00000360: c8f3 133e b676 153e f841 fe9c af6b 3fbe
00000370: 37ce 6bba 8560 85ba 9764 39b5 f6a3 98ab
00000380: 8a29 133e 7263 123e 715a 44be c33c 7fb9
00000390: 0fa9 3abe 5211 123e 9b30 30be 364d 143e
000003a0: e31f 99b6 f4c4 4cbe 3827 043e 54ea 74b7
000003b0: 891e 163e 6660 6b38 af56 083e f650 90b5
000003c0: 2c2a 0a3e cd17 1838 b4eb 3dbe 269a 0bba
000003d0: b003 db39 db77 21b9 118b 25be 54c0 0ebb
000003e0: a0f5 2cbe e057 2619 6ffd 0c3e 2526 163e
000003f0: 32e7 3dbe d3f1 0937 42e0 d4ba c66a 143e
-9.3097435e-27 -2.0941422e-26 -1.0662302e-26 9.7999304e-27 4.9400864e-28 -1.19449326e-26 -5.8910615e-28 7.012353e-28
-2.1981626e-27 1.3032794e-27 -2.4674718e-27 -5.13142e-27 1.1661475e-26 -3.2392027e-27 -9.1215794e-27 -4.624568e-27
5.629975e-27 -3.8661414e-27 2.1417617e-26 4.8638325e-27 6.89134e-27 -1.4455189e-26 3.7721688e-27 2.5111575e-26
1.03232695e-26 -2.6145874e-27 -1.4901763e-27 -9.6392254e-27 5.9068165e-28 -2.4842017e-26 -9.2278376e-27 -5.2896894e-28
8.59764e-27 1.2702e-27 1.3350866e-27 3.3781766e-27 1.1900646e-26 -1.4199952e-27 -8.412327e-27 -1.15948355e-26
4.269217e-27 -5.700211e-27 6.975483e-27 1.3687054e-26 -8.3883586e-27 -2.0182573e-27 1.4257792e-26 -1.0427919e-26
-1.7363963e-27 4.014363e-28 -6.308184e-27 -6.4872817e-28 -7.674799e-27 8.251983e-28 1.1017962e-26 1.20829e-26
-1.3668964e-26 -2.5982548e-26 1.3726717e-26 -1.3847872e-26 6.7230216e-27 -8.574014e-27 1.8315765e-26 1.4466991e-26
-8.294902e-27 -1.9429706e-26 -5.068075e-28 3.0482967e-28 3.621483e-27 7.7327642e-28 1.1423347e-26 2.6268134e-27
2.0992116e-28 -2.1657015e-27 7.439453e-27 1.7935284e-26 1.267995e-26 -5.6498233e-27 1.4725022e-26 -7.661131e-27
3.2374447e-27 1.2135225e-26 4.232834e-27 -2.2964825e-27 3.856929e-27 7.707522e-27 -7.476828e-27 6.739577e-27
-1.857665e-30 4.7835774e-27 4.806154e-27 1.2354655e-26 2.0386342e-27 -4.042421e-27 1.4676917e-26 -2.0968222e-26
4.4087183e-27 3.27982e-27 8.199483e-27 1.9892232e-26 -7.066904e-27 1.164371e-27 -6.766044e-27 -1.1749011e-26
-2.1641615e-28 -1.322124e-26 -6.8043716e-28 2.4344313e-28 -9.580157e-27 -3.0107075e-27 -7.2959334e-27 2.2045952e-26
-9.0822635e-27 -1.5169744e-27 -1.4451861e-26 -5.1839375e-28 -8.261423e-28 9.290271e-27 -1.0041553e-26 -1.6865756e-27
-5.4694673e-27 3.6708125e-27 3.4225478e-27 3.8046948e-28 6.278188e-27 -2.079061e-27 5.7469534e-27 -3.808486e-28
0.00036091832 0.14542747 0.12596755 -0.08174602 0.11646521 0.12558906 0.13866752 -0.10793965
0.0035220669 0.0013904847 0.1191959 -3.028464e-15 1.252466e-07 -0.09840974 -0.09855756 0.12725337
-0.08544115 -0.00013670037 0.11756903 0.11859585 0.001258053 -0.1013563 0.123637944 -0.09076311
0.12972637 0.12813157 7.819704e-22 -0.100405306 -0.0010793057 -0.0009564329 -3.8815895e-07 -3.1107793e-13
0.12632756 0.12599857 -0.1039672 -0.00031132333 -0.08292863 0.13227758 -0.10498266 0.1302511
-3.42528e-06 -0.112506054 0.114777535 -1.123106e-05 0.12871137 6.909685e-06 0.12933154 2.4564563e-06
0.12820296 0.00013504454 -0.09532107 -0.0004567714 0.0019035357 0.002650004 -0.08500891 -0.0023958753
-0.09312404 -1.7015556e-23 0.11765124 0.1293605 -0.08488193 1.483161e-05 -0.0025532295 0.13155009
0.00025185052 0.15766397 0.14280233 -0.17261586 0.12303987 0.12961668 0.14984639 -0.18330966
0.0035326437 0.0013357678 0.131905 1.0611739e-16 5.360783e-07 -0.18532416 -0.18770081 0.1403256
-0.17781821 -0.00017253766 0.1283704 0.13338295 0.002272676 -0.18255311 0.13617192 -0.1939894
0.14448464 0.14596066 -1.6825363e-21 -0.18693422 -0.0008995267 -0.001017586 -6.906425e-07 -1.0845758e-12
0.14371315 0.14295748 -0.19175126 -0.0002434133 -0.18228553 0.1426442 -0.17206042 0.14482579
-4.5634674e-06 -0.19997007 0.12905586 -1.4598092e-05 0.14660086 5.6118144e-05 0.13314317 -1.0752399e-06
0.1349265 3.626179e-05 -0.18546945 -0.0005325399 0.00041773682 -0.00015398806 -0.16166331 -0.0021782117
-0.16890574 8.599745e-24 0.13768552 0.14662988 -0.18545225 8.22214e-06 -0.001624115 0.14493856

6.bias f4 [4]
00000000: 0000 0000 0000 0000 ea19 2bbc 3c2d 84bc
0.0 0.0 -0.01044319 -0.01613485

exp_avg f4 [64, 70]
00000000: bfc9 483a 3538 8e38 b44c d339 b5ae ce39
00000010: 7967 6ab9 3ec0 493a bd3c 42ba adc9 483a
00000020: 8a04 fc38 4121 b7b9 4d1b adb9 e4d6 03b9
00000030: 5f58 d237 8cff 46ba efc7 483a 59af c03a
00000040: 4e1e a4b9 83bd b9ba e5a0 a338 12e6 30bb
00000050: 86b1 99b9 855f 5e3a 6ce6 cf39 a580 e8b9
00000060: b4af d2b9 2dfa 0f3a 721f eb39 4a35 043a
00000070: 2b95 5a3a 509c 37ba ca23 cdba e476 8038
00000080: 9e29 6c3a 3a45 9b3a ec4d c13a b2bb b63a
00000090: 081d 18b9 8ad5 faba 5750 4ab9 0285 813a
000000a0: 5541 123a 6a50 b63a e399 91b9 8f32 29ba
000000b0: b393 02b8 491c 9539 6fff 4d38 3495 463a
000000c0: 5c24 f239 f37e 023a 3531 96b7 3ae9 c5b9
000000d0: e6d3 e735 a878 cb39 47eb cf38 f472 f139
000000e0: 17a8 023a bab9 a5b7 5657 02ba 72c6 bc35
000000f0: 1e49 df39 c2bc 9832 34bc 023a 06df 9736
00000100: 8bad 4eb4 923d a0b6 5c72 0134 04b8 8436
00000110: 29b0 6433 4f48 a236 3429 80ba 32ac 82b8
00000120: 26f7 1bba a110 bdb9 f0cc a039 e7ee 3aba
00000130: 98a9 7c3a 3429 80ba b7ec 4a3a 078f 5e3a
00000140: cfb1 b5b9 c0df 0139 959e ccba 2b7e 7e3a
00000150: 622b 80ba 3c26 d037 0a11 fa39 d891 ad3a
00000160: 7340 0fb9 9a04 273b 2e0e b139 1602 8bba
00000170: 8aba b0ba abaf c539 ca75 853a a228 6ab9
00000180: fa5e 903a 44e3 d339 9b9f 91ba 1f1e d338
00000190: b7eb dc3a c32f fb38 b467 8bba 8328 18ba
000001a0: 02da c0ba c28f ecba 16ef 86ba 16e0 0f3b
000001b0: 9e2d f839 36a7 85ba d4f2 b038 8d96 76ba
000001c0: 7994 dab8 d569 9f3a 3592 283a 72ed 0bba
000001d0: 62cb 8cba 5923 beba 694a 26bb 5569 b8ba
000001e0: 4a24 b93a 3964 e23a d7c6 c0b9 909d d4ba
000001f0: 1f53 c3ba 009c 32bb c59f 5aba 9e99 e937
00000200: d15d 583a 7adb 8037 f6a2 4eba 0176 ff37
00000210: 7c50 62ba 7b81 30ba c81c a837 acd7 3a3a
00000220: f805 9136 8d22 1eba 12c1 e137 6f9e 3aba
00000230: 51ef fcb2 1c4b aa9c c5c0 08b2 4b80 7496
00000240: fa46 c732 3b91 bda3 7a4c 2d33 7713 6ab3
00000250: 2920 bdb0 755e 0532 4c00 3b32 0653 fcb2
00000260: 08f5 d032 1cb5 02b1 e928 27b3 993e c830
00000270: 4009 0033 0799 ad2f 036b c0b2 9049 9130
00000280: a0e1 b6b2 bff0 24b2 918f 81ad 8ce1 eb30
00000290: 875d 752e e27f 73b1 fad5 d930 d2b9 94b1
000002a0: 05fb bd9c 70f0 b2b0 5ebf 79ae fe31 832e
000002b0: 9c8c b89e ced9 da30 0bea 8430 45d0 00af
000002c0: 7ea9 870e 6b83 980e 9e16 2212 ab11 32af
000002d0: 369e 130b 5333 d9ae 40ea cfb0 8c64 2d10
000002e0: d5d1 2e30 56bc 3911 8002 83b0 e6f2 9109
000002f0: d461 cbb0 ecc3 bcb0 73c2 430f 86d3 bc30
00000300: 6f29 ad11 e71e a3b0 903f a60a e5fc fcb0
00000310: 71dc 1a0b 4250 9e0a ceb1 db0a 446f 468a
00000320: 5aac 880b 0cbf 888b e69d 9f89 e745 020b
00000330: d64d 9887 4454 800a f057 898b df2b e00a
00000340: 5186 210b ae67 408b e2e0 9eb0 3eef e48e
00000350: 5e93 91a8 e920 d592 cd8a 012f ac8d d01a
00000360: 8c20 d330 223c b1b0 8f0f d50d 10c3 3f20
00000370: 7604 4292 0d0b 1fb1 b92a 0f8d 27ef 3fb1
00000380: e207 c7b0 0548 3331 8cf7 3727 250c abac
00000390: 5266 a0ae d7f9 21b1 f180 2d14 e723 d4b0
000003a0: 2455 c1ad 0ae2 ea28 d57b 7d2e 4b8d 95ae
000003b0: e502 2231 e592 6c10 6059 a4b0 c41d f2b0
000003c0: b5ee c727 0ca5 a92e 0261 b2ae cf02 0331
000003d0: 8b89 5114 50b7 15b1 e770 7790 54ce a92d
000003e0: 6434 bf12 7d7f 2eb1 bd43 720a f062 2ab1
000003f0: 6e65 27b1 b38d b090 f388 1030 b8a2 9a12
0.0007659457 6.781557e-05 0.00040302204 0.0003942155 -0.00022354526 0.0007696188 -0.00074095634 0.00076594466
0.00012017142 -0.00034929256 -0.00033017472 -0.00012573187 2.5075102e-05 -0.000759118 0.0007659187 0.0014700695
-0.00031303096 -0.0014170859 7.8024146e-05 -0.0026992601 -0.000293147 0.00084828614 0.00039653794 -0.00044346336
-0.0004018523 0.0005492296 0.0004484612 0.0005043341 0.0008338268 -0.00070041884 -0.0015650925 6.125661e-05
0.0009008887 0.0011846193 0.0014747954 0.0013941436 -0.00014506665 -0.0019137126 -0.0001929415 0.0009881558
0.0005579193 0.0013909463 -0.0002777121 -0.0006454372 -3.113197e-05 0.0002844057 4.91137e-05 0.00075753336
0.00046184927 0.00049780234 -1.7904307e-05 -0.00037748535 1.7272512e-06 0.00038809073 9.914353e-05 0.0004605275
0.0004984154 -1.9756018e-05 -0.00049721205 1.4064847e-06 0.0004258835 1.7780966e-08 0.0004987151 4.526114e-06
-1.924838e-07 -4.7755393e-06 1.2055665e-07 3.955329e-06 5.3245603e-08 4.836394e-06 -0.0009777904 -6.230957e-05
-0.0005949609 -0.0003606128 0.00030670268 -0.0007130936 0.00096383085 -0.0009777904 0.0007740962 0.00084899407
-0.00034655488 0.00012385752 -0.0015611226 0.00097081315 -0.0009778554 2.4813336e-05 0.0004769641 0.0013242317
-0.00013661552 0.002548492 0.00033770635 -0.001060548 -0.0013483327 0.0003770565 0.0010182199 -0.00022331116
0.0011014633 0.00040414382 -0.0011110188 0.000100668745 0.0016854916 0.00011977509 -0.0010635764 -0.00058043766
-0.0014713409 -0.0018048214 -0.0010294642 0.0021953634 0.00047336234 -0.0010196927 8.437564e-05 -0.0009406589
-0.00010422705 0.0012162278 0.0006430478 -0.00053378113 -0.0010741765 -0.0014506384 -0.0025373942 -0.0014069477
0.0014125195 0.00172723 -0.0003676924 -0.0016221274 -0.0014902091 -0.0027253628 -0.00083398476 2.7847298e-05
0.0008253726 1.536099e-05 -0.00078825594 3.0453319e-05 -0.0008633209 -0.0006733161 2.0040563e-05 0.00071274745
4.3220316e-06 -0.000603237 2.6911996e-05 -0.00071189454 -2.944549e-08 -1.1269072e-21 -7.960073e-09 -1.9750645e-25
2.3198925e-08 -2.0552929e-17 4.0349256e-08 -5.4500074e-08 -1.37607e-09 7.763096e-09 1.08849e-08 -2.9374416e-08
2.4325814e-08 -1.9020439e-09 -3.8919925e-08 1.4569707e-09 2.9810735e-08 3.157725e-10 -2.2400405e-08 1.0571046e-09
-2.1290191e-08 -9.600796e-09 -1.4729358e-11 1.7162605e-09 5.578962e-11 -3.5433847e-09 1.5849644e-09 -4.3284922e-09
-1.2571858e-21 -1.3019541e-09 -5.6786013e-11 5.966071e-11 -1.9539912e-20 1.5923491e-09 9.670783e-10 -1.1715524e-10
3.3443284e-30 3.7597444e-30 5.1146064e-28 -1.6195283e-10 2.8430195e-32 -9.8771345e-11 -1.512781e-09 3.4195693e-29
6.359902e-10 1.4651962e-28 -9.532215e-10 3.51359e-33 -1.4797998e-09 -1.3734485e-09 9.651692e-30 1.3738919e-09
2.7320123e-28 -1.1868594e-09 1.6009128e-32 -1.840729e-09 2.9825163e-32 1.5245036e-32 2.1155816e-32 -9.55428e-33
5.264462e-32 -5.267275e-32 -3.8426345e-33 2.5089678e-32 -2.2916166e-34 1.2357649e-32 -5.2902794e-32 2.1586918e-32
3.110852e-32 -3.7055855e-32 -1.1559929e-09 -5.643672e-30 -1.6162144e-14 -1.3450303e-27 1.1781794e-10 8.625567e-23
1.5361521e-09 -1.2895536e-09 1.3130884e-30 1.624287e-19 -6.1221105e-28 -2.3143827e-09 -4.4116703e-31 -2.79301e-09
-1.4481396e-09 2.6088867e-09 2.5530547e-15 -4.8614606e-12 -7.2941334e-11 -2.35706e-09 8.759697e-27 -1.5435234e-09
-2.197937e-11 2.6077248e-14 5.7635525e-11 -6.800834e-11 2.3575748e-09 4.6655957e-29 -1.1957972e-09 -1.7616277e-09
5.5492402e-15 7.7145484e-11 -8.111735e-11 1.9064605e-09 1.0578929e-26 -2.1786555e-09 -4.8799138e-29 1.9304704e-11
1.206671e-27 -2.5392801e-09 1.1664616e-32 -2.4794495e-09 -2.4359355e-09 -6.963808e-29 5.258151e-10 9.75888e-28

exp_avg_sq f4 [64, 70]
00000000: 2797 7b38 dd5b 3733 1040 2337 1772 5935
00000010: 01f3 7637 c362 5336 5490 7338 619b 7b38
00000020: 000c 9c37 561b 0c37 b626 0537 221c 7737
00000030: 4ede 4938 f88c c037 88d0 7038 fb97 f937
00000040: 7ea3 2037 8d44 2a37 4146 8737 1825 8238
00000050: bc17 2237 4a55 6a38 ee09 eb37 d3c0 2e37
00000060: cbf7 2c37 9520 8937 f7c8 8238 85a3 1837
00000070: 41c5 7338 3aa6 bd37 b7c8 9f37 4632 e836
00000080: 5c9b d437 8a68 2f38 e42e e137 e9ec 6638
00000090: 95df 1837 6b37 0838 7bf1 4836 56ec 0d38
000000a0: b519 8137 9c42 3138 ed1b 1438 8ebf 3136
000000b0: be72 f837 9043 5c35 c5e9 cc37 3eeb 7836
000000c0: cfb2 0638 b5d1 2c37 d02a 4b35 c16a 1f37
000000d0: 4275 9834 39f7 f336 9ff7 8d35 c04f 3437
000000e0: 33ca d235 9cc4 4834 ebd8 b935 110d 8b33
000000f0: c0ac 9535 8eac 9334 ceff bf35 9be5 4535
00000100: 6c96 bf33 3910 0335 c9ad ea32 5595 d034
00000110: 604f 1034 ab99 0e35 4f77 5238 d9e8 0c33
00000120: c4d2 d536 74ec a934 281c 5337 4d7e a435
00000130: 81be 4e38 4978 5238 83f7 7137 d829 b436
00000140: a102 e636 8630 6337 b12a 3638 7bc7 8d37
00000150: 409a 4f38 ce58 c437 d7f8 c536 3e11 1137
00000160: b122 5537 5d3f 5e38 5518 6836 dd57 4a38
00000170: ad6a e537 0aa9 ec36 6330 0937 d62d 5c37
00000180: 4d88 5a38 2a9d 7736 2e24 4b38 e131 9c37
00000190: c4f2 3c37 d4e5 e536 7dae 9537 75f1 3c38
000001a0: 84f2 4c37 07c4 3c38 b748 8d37 5818 6a37
000001b0: ccf6 8e36 3f98 a537 d0af ed37 208d a137
000001c0: a536 1d38 3d77 2a37 57d0 9937 01b0 1236
000001d0: 3848 b937 9b3a 8337 1b82 f237 611c e837
000001e0: f621 d235 71a8 aa37 e989 cb34 b1d3 a637
000001f0: 0776 3636 7f9f e137 342e a037 da5b 1235
00000200: 41a1 9137 2e7f 7e34 cef2 6637 3dba c835
00000210: e4ce a237 da11 0437 701e 8335 0fdd ac36
00000220: b7a4 a234 ecf3 8c36 2cd2 0036 a1fc b736
00000230: a6be fc2e b5f0 6229 5053 802d 4d1d d828
00000240: 4a0c 052e f4d1 b029 46d8 fc2e 8cb5 fc2e
00000250: 575f 2f2c 8698 8f2d 64f3 d82d f982 072e
00000260: cf3e ff2e f1bc 0b2c 4abb fc2e 9c7a b72c
00000270: 9203 b02e 0f15 ca2b 8552 9a2e dbc4 eb2c
00000280: 8bc4 a32e ff85 a72c c963 e22a e09b 942c
00000290: cb6e 072b 5321 782c 71c0 012c 6695 d32c
000002a0: da96 5629 c6e2 062c dd2f 192b d10e 182b
000002b0: 3b5a 7b29 35c4 0b2c 43a4 c72b a08c 392b
000002c0: da0a 8227 2d76 0627 3b0a 6d28 2b3c 492b
000002d0: 3f55 0820 239b 392b 43c2 012c 6401 e427
000002e0: c952 922b a3d5 3628 fdde df2b f272 501e
000002f0: 2ac3 012c 93c9 0b2c 8578 ee27 8ec9 0b2c
00000300: e7af 4028 d7a3 fe2b 57b0 371f 7bbe 0b2c
00000310: f55f 6720 ded7 f520 4296 a31f ce1d 921e
00000320: 7b6f cb20 9584 d620 eed3 531e 34cc 1920
00000330: f0fa 8e1c 14f8 3620 a7c6 cb20 5a9e b71f
00000340: 4f43 4720 9b9a 5220 25d2 022c 1342 5427
00000350: 8f99 1b2a 44e9 7f28 c114 322b 4288 3629
00000360: acc3 ff2b 94ce 022c 7827 d427 4202 9629
00000370: 10b5 6228 60e1 0e2c 805b 0326 5b53 1e2c
00000380: 78ca 022c ad53 1b2c f78a fa29 dccd a62a
00000390: 7eb9 182b 8a5b 1e2c 3213 aa28 fdc7 022c
000003a0: 1130 dc2a c072 1e2a 6598 0e2b e5fd 252b
000003b0: a951 122c 8572 e127 22d1 022c 1946 102c
000003c0: 491c 072a e5ae 212b 63de 1b2b b464 1e2c
000003d0: 6fce a928 0fd7 172c dfdf 0328 41cc f02a
000003e0: d40f 7928 6647 182c 3ad2 cd1f 0ad1 172c
000003f0: 1f50 122c fa23 0028 f1f2 a42b 28dc 7328
5.9983835e-05 4.2691557e-08 9.730473e-06 8.100482e-07 1.4719321e-05 3.1498937e-06 5.807013e-05 5.998777e-05
1.8602237e-05 8.351015e-06 7.936431e-06 1.4728897e-05 4.812917e-05 2.2953827e-05 5.741467e-05 2.9753885e-05
9.574809e-06 1.014875e-05 1.6125969e-05 6.205792e-05 9.6614785e-06 5.586938e-05 2.8018807e-05 1.0416104e-05
1.0309693e-05 1.6346845e-05 6.236316e-05 9.097978e-06 5.811942e-05 2.2607961e-05 1.9047742e-05 6.9199914e-06
2.5344714e-05 4.182061e-05 2.6843925e-05 5.5056913e-05 9.111963e-06 3.247654e-05 2.9942883e-06 3.3837125e-05
1.538997e-05 4.2262123e-05 3.5311958e-05 2.6486555e-06 2.9617335e-05 8.2054703e-07 2.4427552e-05 3.7091809e-06
3.2114618e-05 1.0300825e-05 7.5685693e-07 9.501994e-06 2.8397523e-07 7.270745e-06 1.0577386e-06 1.0747404e-05
1.5705067e-06 1.8697978e-07 1.3846706e-06 6.475069e-08 1.1151642e-06 2.7506434e-07 1.4305058e-06 7.372234e-07
8.921492e-08 4.882491e-07 2.7320214e-08 3.8851672e-07 1.3439922e-07 5.312274e-07 5.0179016e-05 3.2808064e-08
6.372431e-06 3.1650745e-07 1.2583136e-05 1.225571e-06 4.9291648e-05 5.0179926e-05 1.4422348e-05 5.3692893e-06
6.85484e-06 1.3541552e-05 4.343194e-05 1.69014e-05 4.9496302e-05 2.3406374e-05 5.9000263e-06 8.646688e-06
1.2703867e-05 5.2987936e-05 3.4584857e-06 4.8242382e-05 2.7348602e-05 7.053027e-06 8.177102e-06 1.3123694e-05
5.210219e-05 3.689735e-06 4.8432667e-05 1.8619876e-05 1.12621965e-05 6.8514873e-06 1.7843437e-05 4.5047567e-05
1.2215813e-05 4.5005258e-05 1.684237e-05 1.3953155e-05 4.2606607e-06 1.9740428e-05 2.833447e-05 1.9258412e-05
3.748261e-05 1.0160552e-05 1.8336037e-05 2.1858143e-06 2.2087348e-05 1.5643707e-05 2.8909233e-05 2.766977e-05
1.5656103e-06 2.0344016e-05 3.791204e-07 1.9887319e-05 2.7188814e-06 2.6896361e-05 1.9095001e-05 5.45229e-07
1.7360437e-05 2.3701861e-07 1.3765601e-05 1.4955364e-06 1.9408246e-05 7.8719695e-06 9.769119e-07 5.151734e-06
3.0294697e-07 4.2007214e-06 1.9195822e-06 5.483235e-06 1.1493499e-10 5.039086e-14 1.4588913e-11 2.3993525e-14
3.0251614e-11 7.852391e-14 1.1498051e-10 1.14918824e-10 2.492192e-12 1.6324952e-11 2.4664444e-11 3.0811773e-11
1.16072145e-10 1.9857972e-12 1.14929025e-10 5.214785e-12 8.0041876e-11 1.4358808e-12 7.0177676e-11 6.700957e-12
7.447295e-11 4.761302e-12 4.0214904e-13 4.2237186e-12 4.811539e-13 3.5261418e-12 1.843883e-12 6.0135672e-12
4.764839e-14 1.916843e-12 5.4422943e-13 5.402181e-13 5.5811458e-14 1.9862005e-12 1.4185392e-12 6.592036e-13
3.6094014e-15 1.8660299e-15 1.3158361e-14 7.1493045e-13 1.1547854e-19 6.59405e-13 1.843984e-12 6.328422e-15
1.0396901e-12 1.0149355e-14 1.5906995e-12 1.10351984e-20 1.844034e-12 1.9864984e-12 6.6188938e-15 1.9864973e-12
1.0696284e-14 1.809326e-12 3.8897622e-20 1.9858826e-12 1.959821e-19 4.1647463e-19 6.9281766e-20 1.5470678e-20
3.446331e-19 3.6340746e-19 1.1214073e-20 1.3027169e-19 9.461638e-22 1.5498082e-19 3.4520995e-19 7.7765485e-20
1.6878226e-19 1.7838847e-19 1.8590765e-12 2.945673e-15 1.3820042e-13 1.4205925e-14 6.3267105e-13 4.0530303e-14
1.817315e-12 1.8588785e-12 5.8884612e-15 6.66173e-14 1.2584782e-14 2.0304522e-12 4.557376e-16 2.2499422e-12
1.8586504e-12 2.2073274e-12 1.1126337e-13 2.9630367e-13 5.425867e-13 2.2503965e-12 1.8882116e-14 1.8585127e-12
3.9113203e-13 1.4073031e-13 5.0660024e-13 5.8972125e-13 2.0793178e-12 6.2574207e-15 1.8590203e-12 2.0502543e-12
1.2000222e-13 5.7441405e-13 5.5375686e-13 2.2509052e-12 1.8852295e-14 2.1577772e-12 7.320505e-15 4.2774294e-13
1.3825709e-14 2.1640133e-12 8.716867e-20 2.157443e-12 2.0792324e-12 7.1132285e-15 1.1720331e-12 1.35369485e-14

exp_avg f4 [64]
00000000: f5c9 483a 3429 80ba 66b0 38b3 5c12 edb0
00000010: b1aa 46ba d1e7 873a 7d32 cfb9 c15c 00ba
00000020: 6a92 7eba f81d 8baf 6c52 6dba 408f 3439
00000030: 969b adb3 5735 6ab0 65ff cdb0 afef ff3a
00000040: c7cb 5839 7cbd 5bad 1e74 6b37 28a9 1e3a
00000050: 943c 70b2 b9b8 aab3 cd7a 4c3a 4564 0fb2
00000060: 8694 d3b0 fba4 8d39 fbed aab3 fd9c c7b8
00000070: 4691 4eba d7cc 38a3 ee92 a7af 2b90 2cb4
00000080: 9994 e3b3 d6f1 b439 1b44 49ba 33a3 28b3
00000090: 83f9 1da8 1fb7 1f3a 058e 09ba 9db7 25b1
000000a0: c13f 753a 8ef7 253a eb28 99ab cb68 3fb1
000000b0: 397e e2b8 5f97 3a3a a0c5 d3b9 fe17 bc39
000000c0: 4e8d 84b2 9da7 cb39 2928 e93a b2a4 ed39
000000d0: 53ff 79af 7675 ddba 1c6b 04ba f7c3 dd3a
000000e0: e0c2 b4b9 4ed0 e937 c479 2e3a cfd1 8aba
000000f0: b4db 73ad e822 743a 25e0 ac39 7ed5 94b0
0.00076594885 -0.0009777904 -4.3001272e-08 -1.7249238e-09 -0.00075785356 0.0010368769 -0.00039519733 -0.0004896634
-0.00097111485 -2.5305247e-10 -0.00090531143 0.00017219502 -8.084241e-08 -8.5204505e-10 -1.4988301e-09 0.0019526387
0.00020675278 -1.2490783e-11 1.4034127e-05 0.0006052428 -1.39836125e-08 -7.949843e-08 0.0007800281 -8.346494e-09
-1.5394483e-09 0.00027016536 -7.95953e-08 -9.518301e-05 -0.0007879924 -1.00180365e-17 -3.0481523e-10 -1.6071196e-07
-1.0597541e-07 0.00034512457 -0.000767769 -3.9263977e-08 -8.769355e-15 0.0006092656 -0.0005247298 -2.4115032e-09
0.00093555084 0.0006331139 -1.0882661e-12 -2.7853726e-09 -0.000108000306 0.0007117893 -0.00040392298 0.0003587603
-1.543108e-08 0.0003884406 0.0017788458 0.0004532687 -2.2737127e-10 -0.0016895968 -0.0005051361 0.0016919364
-0.0003447747 2.7872764e-05 0.0006655718 -0.0010591092 -1.3861735e-11 0.0009313063 0.00032973397 -1.0829095e-09

exp_avg_sq f4 [64]
00000000: 2597 7b38 4f77 5238 bcb9 fc2e 96c3 022c
00000010: efa2 7e38 48b2 6d38 b612 ad38 e639 c738
00000020: f253 1438 dd9d 652b eb41 c338 7bc2 fa38
00000030: 43cb 2e30 8a36 bf2b 03b6 f22b 11eb 2438
00000040: f109 6038 bed7 cf2a 8b6f ea38 0989 0e38
00000050: 22cd 392d cddd c82f e2f5 4838 39cc cc2c
00000060: b220 f62b ff5f 6838 bdf5 f52c e41d ca38
00000070: 0200 d138 c706 ae29 a50d 752b bbd0 8f31
00000080: 07dc 792d b45b 0439 a6ae 3b37 db91 8131
00000090: d7f4 0e2a ddbd 0538 80a4 5938 6053 1e2c
000000a0: bcfb 3b38 e611 2438 5f53 842a 1804 2d2c
000000b0: 8fbe d338 eaa9 2138 ebd8 f938 60b0 6d38
000000c0: 9b49 552d 4175 7a38 8e0f 7038 75d5 1238
000000d0: 0768 5d2b 78f1 b738 08e6 e938 2e29 6d38
000000e0: 3f51 7c38 195e 722f bcdd 3738 be5c 8238
000000f0: aadf 5729 8a89 fc37 2f20 3f38 706c ce2b
5.9983828e-05 5.0179016e-05 1.1492626e-10 1.8582683e-12 6.0710063e-05 5.667124e-05 8.252768e-05 9.499844e-05
3.536413e-05 8.157622e-13 9.310603e-05 0.00011957154 6.3589684e-10 1.3586504e-12 1.7245653e-12 3.931957e-05
5.341502e-05 3.6920288e-13 0.00011178766 3.3983062e-05 1.0561581e-11 3.6537387e-10 4.7912712e-05 5.820702e-12
1.7488426e-12 5.5402514e-05 6.9906012e-12 9.637678e-05 9.965898e-05 7.728328e-14 8.706042e-13 4.1855777e-09
1.4202867e-11 0.00012622663 1.1186732e-05 3.770976e-09 1.269708e-13 3.1886495e-05 5.1890034e-05 2.2499433e-12
4.481872e-05 3.9117316e-05 2.350576e-13 2.4587051e-12 0.00010096758 3.8543636e-05 0.00011913649 5.6669465e-05
1.2123992e-11 5.9713846e-05 5.7234945e-05 3.500791e-05 7.865934e-13 8.771097e-05 0.000111531524 5.6543555e-05
6.015715e-05 2.2043202e-10 4.3837106e-05 6.2161576e-05 4.7933588e-14 3.0104788e-05 4.5567922e-05 1.4667278e-12

exp_avg f4 [64, 64]
00000000: 767d ef8f 8c67 fc0a b577 4ead 03e3 410b
00000010: 2456 8ab1 a5a9 28ab 13fd bc8a 47d9 37b0
00000020: c558 1a0b a7e1 a10b 3c22 6b8b 8f15 61b0
00000030: dfdb 978a 5fae 940d b854 9808 e26d c2b1
00000040: df65 dab0 fbc1 aa0c 25ea 17b0 49e7 0cb1
00000050: 7975 060b 3c61 a70b 836c 19b1 66fd 850a
00000060: 423f 2d8b 1338 a70d 4454 f80a b617 9f8a
00000070: 9781 22b0 e263 808a 38aa c409 649d e88a
00000080: 3fbc 878a bb92 5aa8 9247 3c0b d281 4417
00000090: b121 0d0a 8fa4 34b0 482a 3bb1 165f 6b8b
000000a0: 1b7a 798a 6262 43b1 77bb e00d 1eeb f788
000000b0: 6775 14ae 4465 7daa bcfe 9a09 d732 fb8f
000000c0: 415b 8108 f130 808f 9591 e6af 3e64 35af
000000d0: 86db 5f8b 0c48 17ae e1b7 ab8a 8971 c9b1
000000e0: 6561 bbb0 13d4 b50d 2f29 3aa3 abc1 03b1
000000f0: df4f 678b e8fe 53b1 ea42 15b2 11b3 530a
00000100: 431d a039 f7c2 233a d0c4 bf8f 2228 8e0b
00000110: b037 aab7 830f 8a39 0a06 d739 5acc c138
00000120: f5a4 28b9 5521 8a0b c8a6 8e39 dc4f 3139
00000130: 355a deb1 05ba 348b 6844 ff89 3284 9739
00000140: a268 8f39 65b7 b68c f8c2 0739 a1a6 9f38
00000150: cb90 078b 25b1 6db2 3492 c1b6 d1a0 de0a
00000160: e010 3709 d31f 1039 40d1 f69e 636f 1c39
00000170: b34d 7239 5bc4 ea0a bc5a 4fa4 94e8 1833
00000180: f393 7ab2 d4a6 6039 e3e6 1f38 85c5 deb1
00000190: e8e3 950a 6d9c 8138 cec1 29b8 645d 6b8b
000001a0: 6785 3d39 6cc5 2239 c921 000a b43d 948b
000001b0: 67c8 4938 adcf 8438 5c95 7039 4bb9 4139
000001c0: 01c9 8008 d358 8239 c2d1 0b3a ac57 5f39
000001d0: 3526 908b 5f47 ba39 f0b8 9739 f37b 2fb8
000001e0: cb7d 3b38 227c 6534 0942 0fb8 e7a8 64b8
000001f0: 3137 29a6 1ada a939 660b 2538 765c e889
00000200: a1c8 1739 c180 b139 0a58 602f 220b 878c
00000210: 2bb1 b1b8 23d8 0939 6701 4339 891c 6db8
00000220: 88ae 30b9 659c 7b8c 8c9f ed38 4e89 67b8
00000230: 26a7 b9b1 eeab b216 73ef f58b 33e0 4539
00000240: fdf2 c638 aa42 7b90 633e 0f39 c67b 4637
00000250: 1d96 a60b 9dd3 04b3 540e c8b7 5083 9988
00000260: 471d af8c 9183 3438 9ca5 829e 30ad 0336
00000270: 1597 a938 6155 9e0b 7ea4 7f2b 0db2 9334
00000280: 1fe6 25b2 3b1b 84b6 2157 07b5 f51d 9cb1
00000290: dee2 508a 501f fc36 d7e2 95b8 bf15 8e0c
000002a0: a0b6 9038 5fcd 6b38 43cd 1e96 6c5b 338c
000002b0: aeae 8938 4039 efb7 4262 e537 5422 8c38
000002c0: eabc ba09 03f7 b738 1963 b639 002a 5236
000002d0: 0c1e ad09 08fc 3b39 aedb 9838 bc10 1ab8
000002e0: b758 a838 e031 4434 6126 47b8 e903 3eb9
000002f0: 401c d5a5 c290 4739 98d9 5cb8 1cd2 e209
00000300: 09fb 8739 fb9c e0b9 280a 262f 313f 4423
00000310: 7bad 7839 4fbf ed38 fe1b bc38 46f7 24ba
00000320: 8201 5639 dbf5 128e b765 86b9 2000 8db9
00000330: e785 a7b2 a935 4928 946d f50a 4376 8bb8
00000340: 37fc 8139 2f78 9c13 0054 17b9 b5ce b438
00000350: 48b5 9e8e 63ff f032 171a 9b38 45dc f80e
00000360: 255d 9389 7561 ff38 3e63 1c27 5c9e c4b8
00000370: b7b0 e7b9 718a 2e8b 590f 47ab 9268 2534
00000380: 5e34 e230 b23b fa38 f98e 4bba 6887 8e31
00000390: 7bfd 6d8e 3ffe aa38 3d60 2d39 415b ca99
000003a0: 6461 d438 4be9 3139 f009 c125 b903 7216
000003b0: 7d8a 01ba 2451 0638 b9bf a6b9 e54d 2339
000003c0: cb90 df93 9140 8d39 a5c0 c5b7 b9fe e438
000003d0: 380f d028 4424 dfb9 8a3f d1b9 dbef 9638
000003e0: 33a2 7d39 6702 a137 7fce ee38 a571 f839
000003f0: 9a7c 0c2d 896b 7a37 f83a d738 29a0 651c
-2.3615545e-29 2.4305667e-32 -1.1736325e-11 3.7341233e-32 -4.0261217e-09 -5.992102e-13 -1.8198937e-32 -6.688378e-10
2.9726104e-32 6.235447e-32 -4.528511e-32 -8.188516e-10 -1.4623477e-32 9.163183e-31 9.1680845e-34 -5.6586353e-09
-1.5890541e-09 2.6309395e-31 -5.526622e-10 -2.0504152e-09 2.5895838e-32 6.447236e-32 -2.2326112e-09 1.2902752e-32
-3.3366178e-32 1.0305669e-30 2.3913229e-32 -1.5320062e-32 -5.9119415e-10 -1.2363523e-32 4.7345357e-33 -2.2399991e-32
-1.3070837e-32 -1.2133248e-14 3.6261326e-32 6.349487e-25 6.79524e-33 -6.571747e-10 -2.7236116e-09 -4.5330888e-32
-1.20118794e-32 -2.8432159e-09 1.3850196e-30 -1.4921048e-33 -3.3755578e-11 -2.2506048e-13 3.7313702e-33 -2.4770094e-29
7.785359e-34 -1.2640626e-29 -4.1940199e-10 -1.6497467e-10 -4.311339e-32 -3.4397415e-11 -1.6535869e-32 -5.8627774e-09
-1.3633722e-09 1.1206041e-30 -1.0091801e-17 -1.9173096e-09 -4.454907e-32 -3.0849439e-09 -8.688156e-09 1.0192959e-32
0.0003053938 0.00062470086 -1.8909864e-29 5.4756796e-32 -2.029151e-05 0.00026332968 0.00041012495 9.2410206e-05
-0.0001608318 5.320582e-32 0.00027208612 0.00016909785 -6.4713057e-09 -3.4806685e-32 -6.1453346e-33 0.00028899458
0.00027353043 -2.8151917e-31 0.00012947235 7.612748e-05 -2.6108984e-32 -1.3835494e-08 -5.7688685e-06 2.1438315e-32
2.2035758e-33 0.00013744766 -2.6132807e-20 0.00014918814 0.00023107864 2.2607241e-32 -4.4962825e-17 3.5601786e-08
-1.4585555e-08 0.00021424453 3.8123584e-05 -6.4835057e-09 1.4433907e-32 6.180336e-05 -4.0473235e-05 -4.5329613e-32
0.00018074141 0.0001552307 6.16933e-33 -5.7100367e-32 4.8108774e-05 6.332933e-05 0.00022943824 0.00018474941
7.750976e-34 0.0002486171 0.00053336855 0.00021299598 -5.552427e-32 0.0003552986 0.00028938754 -4.1838688e-05
4.4701428e-05 2.1372446e-07 -3.4155357e-05 -5.451674e-05 -5.870845e-16 0.0003239669 3.934968e-05 -5.593892e-33
0.00014475222 0.00033856 2.0403959e-10 -2.0806744e-31 -8.473018e-05 0.00013145855 0.00018597172 -5.653178e-05
-0.00016849686 -1.93834e-31 0.000113307586 -5.5202567e-05 -5.403211e-09 2.8865954e-25 -9.473085e-32 0.00018870905
9.486636e-05 -4.9552378e-29 0.00013660784 1.1830538e-05 6.416674e-32 -3.0926106e-08 -2.384853e-05 -9.239224e-34
-2.698064e-31 4.3037875e-05 -1.383278e-20 1.962133e-06 8.086689e-05 6.098785e-32 9.082248e-13 2.7510433e-07
-9.6565875e-09 -3.9370766e-06 -5.041821e-07 -4.5436033e-09 -1.0057505e-32 7.5138305e-06 -7.147126e-05 2.1891652e-31
6.9004716e-05 5.6219633e-05 -1.2827908e-25 -1.381717e-31 6.565206e-05 -2.851768e-05 2.7344682e-05 6.682114e-05
4.4955525e-33 8.7721295e-05 0.0003478758 3.1316886e-06 4.167649e-33 0.00017927599 7.288843e-05 -3.6732046e-05
8.027389e-05 1.8272067e-07 -4.748104e-05 -0.00018121269 -3.6968753e-16 0.00019032045 -5.2654737e-05 5.4605107e-33
0.00025936242 -0.0004284157 1.510122e-10 1.0638563e-17 0.0002371575 0.00011336675 8.9697525e-05 -0.000629295
0.00020409192 -1.8114265e-30 -0.00025634255 -0.0002689371 -1.950225e-08 1.1169377e-14 2.363386e-32 -6.6500645e-05
0.00024792712 3.9498447e-27 -0.00014431775 8.621571e-05 -3.9124575e-30 2.8055814e-08 7.3958356e-05 6.1348832e-30
-3.5476555e-33 0.000121775 2.1703148e-15 -9.375505e-05 -0.00044191416 -3.3615333e-32 -7.07203e-13 1.5404865e-07
1.6458548e-09 0.00011932048 -0.000776514 4.148138e-09 -2.9334552e-30 8.153589e-05 0.00016534417 -2.0923168e-23
0.00010127088 0.00016966944 3.3486897e-16 1.9549779e-25 -0.0004941596 3.2023658e-05 -0.00031804832 0.0001557391
-5.643589e-27 0.0002694172 -2.3573937e-05 0.00010919333 2.3099239e-14 -0.00042560895 -0.00039910927 7.197234e-05
0.00024188384 1.9193814e-05 0.00011387187 0.00047386918 7.985746e-12 1.4926199e-05 0.00010262983 7.5976746e-22
