custom_implementations/models/a2c_ep5000.pth (torch, 42041 bytes, 5 tensors)

shared.0.weight f4 [128, 70]
00000000: 50d7 fdbc 5a9c 863f 9b7e c4bd 9f1f 9c3f
00000010: 9343 013e b1ce d73f 59d6 61ba d0a6 8ebd
00000020: 735c 34bd acba 3d3e a5de 05be 91a4 5ebe
00000030: dc95 ca3d 0d5c 8b3d e7e0 16bd b370 1639
00000040: 8272 6abd 4038 82bc c576 0ebe 30cb d13d
00000050: 8038 a8bd 801d 2bbd a401 3f3e ca0c cc3d
00000060: 12f2 95bd 5510 48be f2ad 913d c71f 46bd
00000070: d132 43bd ccfd 66bd 0c48 303d ebf9 debd
00000080: 9b07 08be 64fa baba 1423 1a3e 045f 73be
00000090: bd04 023d 5e2e 0abe 874e 26be 144a 0fbe
000000a0: a773 3a3d 6900 49ba c2ee 1cbe 4a96 43bd
000000b0: 19a7 ef3d 312c 0fbe 6d4b 57be 09cf b7bc
000000c0: 1a30 663d c50b 70be a9fb bcbd 7b56 b23d
000000d0: 1703 1f3e bf16 90be 5342 cb3b 7777 dfbd
000000e0: d903 78be 350f 96bd c79d 07bd cbe6 ae3e
000000f0: a37b 70be 768a 38bd 4788 04bd 0f47 7ebe
00000100: 744f 00bd ccb8 ffbd 89a4 a43e 2bdf d1bd
00000110: de04 aebd 2000 a2bc 2323 71bd a87f c7bd
00000120: 2e84 53be a066 e13c e2bc c13d 1718 6c3d
00000130: 9240 52bc 9352 f4bd d85d a23e 58a1 943e
00000140: 389f 62bd e34c 22be 47f8 97be 9713 d8bd
00000150: 61ae 20bd a194 be3d d0af e83d aa94 013e
00000160: d39a 28bb f567 c93d 2947 f73e 8e6a 55be
00000170: d4bf eb3d 1b22 e03d cc2c 0dbd f410 a1bd
00000180: 8e36 3ebe b459 04be 5c16 9ebe 4628 8d3e
00000190: c98a 083e 3262 343d ac56 13be 0a5f 31bc
000001a0: be10 4abe 9c42 febd 6054 87bd f36f 9f3e
000001b0: 6a41 1e3e e82c 8dbd 026a a33b dc1d 7cbd
000001c0: cf34 54be 82e1 77bd b94b 5a3d be50 b93d
000001d0: 41f1 2ebe 4efe 983d 1791 f63c df2c 97bd
000001e0: a34a 513d 5f7d 273e 5bb2 043b 9122 42be
000001f0: afad b23d 2d55 39be fb33 f93d 3185 563d
00000200: c321 3dbe 98a7 c03d 1f4f 98bd c480 e73d
00000210: fb78 333e 7005 f2bd 4ba7 343e c546 313e
00000220: 0e35 ad3e 47a5 5bbe 4853 853e 6c9b 6ebd
00000230: b9d6 8bbc 7f12 bfbd 5ead 93bd 37fa 0abe
00000240: c268 ab3d efd7 933d b2b2 b83c 9e91 a1bc
00000250: 220b bf3d db98 e3bc 52c7 f63d 1e64 3fbb
00000260: 5fca a4bb 2375 283c f9ab fe3c 1b45 60bd
00000270: 543b b33d a20c 3fbd 94d3 d7bd a022 d53c
00000280: 70cc a8bd 4b0a 0abd 9d99 9abb 7c57 373d
00000290: 7453 5f3d 73ab a03b 7bde 8ebd c91d 9a3c
000002a0: 6864 4bbd aeb2 36bd 8320 913d 3964 01be
000002b0: 4b6d c23c d80f 793d 982c 5bbd a880 d5bd
000002c0: d1fc fdbd b4a4 173e c94d 82bd dc47 06be
000002d0: c76e b23b 7c5c cabc ff1b a6bd d664 90bc
000002e0: 7cef 73bd f183 e63d b864 303d fc7c 8bbc
000002f0: 51d1 b0bd 7645 1bbd 6e8b 0bbd f24d 123e
00000300: 2d39 9d3d 9b29 71bd 115e ef3d 9fb7 a03b
00000310: 37ea 25be 22b1 abbd a834 103e 2818 6f3e
00000320: 7163 53be 5f5a aebc cae7 be3d 793f 01be
00000330: 0aba 8bbd 4650 773d e850 863e be3c b7bd
00000340: 9b83 3e3c f5d7 fabd 3941 e3bd 4212 af3e
00000350: 446b 9bbe ee75 533f 73c3 ab3e 0a57 743f
00000360: 3fb8 933e 5333 a2be 622a a23c 1f58 883e
00000370: 4abf 03bf 5f7b 46be 4959 6fbe 152f 173d
00000380: d361 4bbe 89f7 96bd 5a69 c83e 6475 923b
00000390: d0f7 19be aa46 453d a488 1cbc d715 76be
000003a0: 32b9 fb3c f6e7 be3e 5e25 80be ff24 c1bd
000003b0: 4654 0cbe 18ff 853d 74fa 69be 04c3 50bc
000003c0: bd4b 4f3e 001f 12be 98cd 92be 076c 013d
000003d0: d3cb 16be 4751 16be f277 95be 9adf 7d3e
000003e0: e089 763d 9420 99be f8bb 9a3e 83a5 a0be
000003f0: 5e9a f13c 77a2 3ebe c581 863e a2a5 353d
-0.030986458 1.0516465 -0.095944606 1.219715 0.12623434 1.6859952 -0.0008615009 -0.06965411
-0.04403348 0.18528241 -0.13073213 -0.21742465 0.09891865 0.06804667 -0.036835577 0.00014347098
-0.05723811 -0.015895963 -0.13912494 0.10243833 -0.082139015 -0.04177618 0.1865297 0.09963377
-0.07321562 -0.1953748 0.071132556 -0.04837015 -0.047655884 -0.056394383 0.04303746 -0.10887512
-0.13284151 -0.0014265296 0.15052444 -0.23766714 0.0317428 -0.1349425 -0.16240893 -0.13993102
0.04552045 -0.00076676026 -0.15325454 -0.04775075 0.11701793 -0.13981701 -0.21024866 -0.02243759
0.056198217 -0.2344199 -0.09227688 0.08707901 0.15528522 -0.28142354 0.006202975 -0.10911458
-0.24220218 -0.07327119 -0.033109453 0.34160456 -0.23484664 -0.04505392 -0.032356527 -0.24831794
-0.031325772 -0.12486419 0.3215678 -0.10247644 -0.08497022 -0.01977545 -0.0588714 -0.09741145
-0.20655891 0.027514756 0.09459855 0.05764016 -0.012832778 -0.11929812 0.31712222 0.29029346
-0.055327624 -0.15849642 -0.29681608 -0.105506115 -0.0392288 0.093056925 0.113616586 0.12654367
-0.0025727048 0.09834281 0.48296478 -0.20841429 0.11511198 0.10944005 -0.03446655 -0.07864562
-0.18575498 -0.12924844 -0.30876434 0.2756979 0.13334192 0.04403896 -0.14388531 -0.010825882
-0.19732949 -0.124150485 -0.0660789 0.31140098 0.15454641 -0.06893331 0.0049870024 -0.061551914
-0.2072327 -0.060517795 0.05329487 0.090486035 -0.17084219 0.0747038 0.030098481 -0.07381605
0.05109657 0.16356419 0.002024791 -0.18958499 0.08724534 -0.18098898 0.121681176 0.052373115
-0.1846991 0.09406966 -0.07436966 0.11303857 0.17526619 -0.11817443 0.17641942 0.17312153
0.3382954 -0.21449767 0.260401 -0.05825369 -0.017070161 -0.093297 -0.072108015 -0.13572012
0.0836959 0.072189204 0.022546146 -0.019722756 0.09328295 -0.027782848 0.12049736 -0.0029203962
-0.0050290073 0.010281834 0.031087862 -0.054753404 0.0875155 -0.046642907 -0.10538402 0.026017487
-0.08242118 -0.033701222 -0.004718019 0.044761166 0.054522946 0.004903251 -0.069760285 0.01881303
-0.0496563 -0.044603996 0.07086279 -0.12635888 0.023733756 0.060806125 -0.053509325 -0.1042493
-0.124017365 0.14808923 -0.063624926 -0.1311335 0.0054453346 -0.024702303 -0.081108086 -0.017626207
-0.059554562 0.112556346 0.043064803 -0.01702737 -0.08633674 -0.03790804 -0.034068517 0.14287546
0.07676921 -0.05887757 0.116878636 0.004904702 -0.16202627 -0.08383395 0.14082587 0.23349059
-0.20643403 -0.021283327 0.09321554 -0.12621869 -0.068225935 0.06037929 0.26233602 -0.089471325
0.011628057 -0.12248222 -0.110964246 0.34193617 -0.30355275 0.8260182 0.33547553 0.9544531
0.28851506 -0.31679782 0.0197956 0.2662973 -0.5146376 -0.19383 -0.23373903 0.036910135
-0.19861536 -0.07371432 0.39142877 0.0044695605 -0.15035939 0.048163094 -0.009554062 -0.24031769
0.030727956 0.37286347 -0.2502851 -0.094308846 -0.13704023 0.06542796 -0.22849447 -0.012741808
0.20243736 -0.14269638 -0.2867248 0.031597164 -0.1472619 -0.14679442 -0.29193074 0.24792328
0.06019008 -0.29907668 0.30221534 -0.31376275 0.029492553 -0.18616663 0.2627088 0.044347413

shared.0.bias f4 [128]
00000000: d432 10bd 0e8a 78bd f3cb 08be 92be 11be
00000010: 83f4 a2bd 85ff 0bbd 31ab 00be f458 00be
00000020: ce11 b8bd 0fce abbb 3c9e 0bbe 0229 43be
00000030: 8ff3 48be ae64 5e3d da47 10be 04b8 c8bc
00000040: bb9d 62be 4a7c bebd 346d 4abd ad87 afbd
00000050: b67d efbd 398b a6bd f983 a2bd 3403 c8bd
00000060: 3180 dbbd 5353 52bb cd80 91be 68d3 97be
00000070: 760b 5ebe 766c 26bc f958 08be c830 72bc
00000080: a35e 06be f58b 88bc 6526 2fbe ed2f 1cbe
00000090: 01e2 c2bd 1db0 2f3e 6d9f 7bbd 7128 3fbe
000000a0: 29d4 b1bd 2527 b03c 0da7 b2bc dfec bdbe
000000b0: fb6b 1cbd 878f 1fbe 7c16 62be e5dc 19be
000000c0: df1f e3bb 78a4 db3c 3206 a23c 8512 2dbd
000000d0: 3cf2 12be 1995 bebd 6f1a a1bd dbec 71bb
000000e0: 6e12 823c bfcf bcbc 85aa 86be 7de7 00be
000000f0: 75f8 1f3c 8863 9bbd df01 70b9 a994 0ebe
00000100: 5163 cdbd 8257 75bd 6bf9 7dbd c34c 593d
00000110: 4e77 06be 3952 0f3c e748 19be fe00 7fbe
00000120: cc72 9abd 253c a0bc 8f16 07be 6895 10be
00000130: 2996 cbbd 16c7 003d 7063 adbd 7359 1dbe
00000140: 0203 33be 205b 22bd 8936 633c 7082 7a3d
00000150: ecce debb e732 bcbd 3714 1abe 0f51 35be
00000160: 30a9 203c 5a5b 9b3d 477b bcbd 1e91 66be
00000170: c2b8 10be 2a45 04be 970a debd 9a33 90bd
00000180: dcf4 fbbd 7153 9ebd 09e9 36bd edbe 82bd
00000190: f53d d7bd cab1 1b3c d2a8 343d f77f 3cbd
000001a0: 8ec1 0ebe 933c 95be 4049 b9bd 6317 0abe
000001b0: e5eb f5bc 3920 62be b48a 3ebd 9dcd 48be
000001c0: 14f9 5fbd 87f9 35be 5036 7dbd a825 6abe
000001d0: fb3e 3abe 1e8d 88be 6749 29be afd6 35be
000001e0: 999a cabd 3cf4 b3bd 9efb 70bd 6952 1ebe
000001f0: ff8d 8bbd 432d 68be f999 21be 7470 75bd
-0.035204723 -0.060678534 -0.1335905 -0.14232853 -0.07956793 -0.03417923 -0.12565304 -0.12533933
-0.08987771 -0.00524307 -0.1363458 -0.19058612 -0.1962416 0.054295234 -0.14089909 -0.024501808
-0.22130482 -0.0930105 -0.04942055 -0.085708 -0.11693899 -0.08132023 -0.07935328 -0.09766236
-0.1071781 -0.0032093122 -0.2841858 -0.29653478 -0.2168406 -0.010157695 -0.1331519 -0.014782138
-0.13122039 -0.0166683 -0.1710449 -0.15252657 -0.09515763 0.17157026 -0.061431337 -0.18667771
-0.086830445 0.02150304 -0.021808172 -0.3709478 -0.038188916 -0.15582095 -0.2207889 -0.15025671
-0.0069312896 0.026811823 0.019778345 -0.04225399 -0.14350218 -0.09305782 -0.0786637 -0.0036914859
0.015877929 -0.02304828 -0.2630197 -0.12588306 0.009763827 -0.075873435 -0.0002288888 -0.13923897
-0.10028709 -0.059897907 -0.06200544 0.05305172 -0.13131449 0.008747631 -0.14969216 -0.24902722
-0.07541427 -0.01955993 -0.13192199 -0.14119494 -0.0994075 0.031439863 -0.08466232 -0.15366153
-0.17481616 -0.039637685 0.013867983 0.06115955 -0.0067995694 -0.09189396 -0.15046774 -0.17706703
0.009805962 0.07585783 -0.09203201 -0.22516295 -0.1413298 -0.12917009 -0.108418636 -0.07041092
-0.123025626 -0.07730759 -0.044655833 -0.063840725 -0.10509864 0.009502837 0.044106312 -0.046020474
-0.13941023 -0.29147777 -0.090471745 -0.13485484 -0.03001971 -0.22082604 -0.046518996 -0.19609685
-0.0546809 -0.17770968 -0.061819375 -0.22865927 -0.18188088 -0.26670164 -0.16531907 -0.17757677
-0.098927684 -0.087868184 -0.05883371 -0.15461124 -0.06814193 -0.22673516 -0.15781392 -0.059921697

actor.weight f4 [4, 128]
00000000: 66ea 4c3d 57d0 b4bd 9abe 47bd 172b a43d
00000010: 8e19 0b3d 5e1f 0f3d 5488 37bd f8b6 2dbc
00000020: b8bc 81bc f806 5e3c 62a6 e9bc 3d32 26bd
00000030: ad4a 9f3d 6fca 883d 1103 3abd 30a4 23bc
00000040: e211 5c3d 8ae0 563d 68dd 99bd e520 98bd
00000050: 1a08 afbd 1f48 64bd a0b4 3bbb a9ae a83d
00000060: e36a a73d ba66 1a3d df61 a13d 468b 673d
00000070: 603d 553b a2f0 413d 456e 73bd 1d99 823d
00000080: 0dc6 863d efcc 92bd cf16 963d f223 6c3d
00000090: e439 143d 5996 42bd e80c cd3c 5a6d 763d
000000a0: bc21 893c c286 343d 78f8 263c 8686 123d
000000b0: cac1 5a3d d057 97bd 1e6d 173d 68c7 ff3c
000000c0: 771f 903d 603d 3b3b a851 afbd 0e38 083d
000000d0: 9864 453c a811 9dbc 6cdf 8bbc 80bb 7cbb
000000e0: 82f7 763d 46d3 203d ae0c 53bd 16d1 4e3d
000000f0: ed0d 8ebd 1033 75bc 13f7 b33d 58eb a23c
00000100: 641b 94bc 90ca edbb 405e 29bb 8769 3dbd
00000110: 7641 273d 0058 e13c 53b5 ae3d 3204 683d
00000120: c3a3 953d 2321 a03d 9007 063c ace8 b73c
00000130: 2095 abbb bb52 a23d 5442 e4bc 00a6 0ebb
00000140: 8e5f 93bd 683e 033c 5074 023c a2c4 443d
00000150: 8af6 58bd bacb 1e3d cbd8 aebd b9d7 ae3d
00000160: 78bb 153c d929 42bd 80bc b33b 9641 80bd
00000170: d0ae a83c 3852 6ebd f688 93bd d2d3 a0bd
00000180: 5a53 ebbc 71f4 a93d 8024 b63c 2a5d 65bd
00000190: da3b a9bd a45b c5bc d1b8 a43d 4080 e73c
000001a0: 5715 8abd a4a7 63bd 50c9 8dbc 422e 7f3d
000001b0: 01b5 8d3d 4322 893d 8f3d 8c3d c5c4 53bd
000001c0: c6e9 6b3d 9c48 f83c ee0e 533d 0435 083d
000001d0: 00ab 1b3c 3ade 6a3d b08d 923c 6214 473d
000001e0: d5a1 a1bd 4d9d 853d bba4 9f3d c876 90bc
000001f0: 0f76 1bbd 7dc7 923d 003f dfbb dba5 14bd
00000200: 0846 d9bc da59 4b3d a4ad bcbc 9edd 1f3d
00000210: 7ac0 243d 0090 7cb8 3555 883d 903a e2bc
00000220: d8ae 42bc 80f6 573c 28e0 38bc 826a 473d
00000230: 9515 8c3d decf 493d 2e07 7e3d 2cde 14bd
00000240: 824f 54bd 4bda abbd ff14 a2bd 1204 743d
00000250: ef4e b1bd 3dd3 67bd b373 8c3d 80e7 de3a
00000260: 33b5 a73d 13e7 a03d f80c 1cbd 487d 063d
00000270: 35e7 49bd 8e1b 293d b029 963c d01d f53b
00000280: b72b a8bd 2a81 263d eb18 47bd 5904 ad3d
00000290: 5f13 00bd 5aed 7a3d 4099 303b 74cc 46bd
000002a0: e1fe 33bd 53ac af3d 1447 c33c 8a55 233d
000002b0: f08a 5c3c 72e2 203d 8623 753d 4718 973d
000002c0: 23f5 32bd 1bd0 833d ed48 823d d07b 683c
000002d0: f911 9b3d 546f ef3c d3b6 943d 9009 593c
000002e0: 39e8 9abd a01a 57bb b631 213d 20ce 9bbd
000002f0: e033 593b 9a30 323d 2ccc a4bc b5b5 a63d
00000300: 5b71 9abd 8c78 aa3c 60e5 73bb a37e 8a3d
00000310: 54b9 b4bd fe3c 263d 80cf c13c 0042 9d39
00000320: e88d 38bc c79f 41bd 2853 71bd 519e 13bd
00000330: b861 14bd 7c98 2cbd 4cfc 94bd 20d8 753c
00000340: 33b8 84bd 48d5 72bc e0a1 c83c 03ed 8abd
00000350: 498d 3ebd cde9 a43d 2d61 02bd 06ae 6c3d
00000360: a70c 9b3d 38cf 54bd 758d ad3d 0d38 833d
00000370: 21cc 97bd 8a42 d5bc 003d 96ba ddbb 973d
00000380: 4275 a4bd f8ae 4c3c 5517 983d 5dc6 81bd
00000390: 4090 43bb ba1a edbc a2b8 9dbd 5722 17bd
000003a0: 38eb 66bd c024 103d 1055 9e3c 5102 55bd
000003b0: 8751 9dbd 50be 9bbb d2cf 1d3d 1e01 f6bc
000003c0: 7e6d 86bd 788f 9c3c 46a7 5bbd 6752 67bd
000003d0: 573c 9a3d 904b 7cbc 2b4b 73bd 3c39 c93c
000003e0: 56f5 82bd a820 10bc e6b0 4a3d 85a9 8f3d
000003f0: 20cb bebb 4a7f 423d 9dba 6bbd 9fde 60bd
0.050028227 -0.088288 -0.048765756 0.08016031 0.033959918 0.034942023 -0.044807747 -0.010602705
-0.015837058 0.013551466 -0.02852172 -0.040575255 0.07777915 0.06679236 -0.04541308 -0.009987876
0.053727992 0.05246023 -0.07512933 -0.07428149 -0.08546467 -0.055732843 -0.0028641596 0.08236439
0.08174684 0.037695624 0.078799956 0.056529306 0.0032537803 0.047348626 -0.059431333 0.0637686
0.06580744 -0.07167994 0.07328569 0.057651468 0.03618802 -0.047506664 0.025030568 0.06016288
0.016739719 0.044073828 0.0101910755 0.035772823 0.053407468 -0.07389796 0.036969297 0.031223014
0.070372514 0.0028570518 -0.085604966 0.033256583 0.012047909 -0.019173458 -0.01707431 -0.0038563907
0.060294636 0.039263986 -0.051525764 0.05049237 -0.0693625 -0.0149657875 0.0878736 0.019887611
-0.018079467 -0.0072568133 -0.002584353 -0.046243217 0.040833913 0.027507782 0.085306786 0.056644626
0.07306626 0.0781882 0.008180514 0.022449814 -0.005236283 0.07925936 -0.027863659 -0.0021766424
-0.0719596 0.008010484 0.007962301 0.048039086 -0.052969493 0.038768508 -0.08537444 0.085372396
0.009138934 -0.04740319 0.0054851174 -0.062625095 0.02059117 -0.05818388 -0.072038576 -0.078529015
-0.028726269 0.082985766 0.022234201 -0.05599705 -0.08263369 -0.02409155 0.080430634 0.028259397
-0.067423515 -0.055579796 -0.017307907 0.062299974 0.069192894 0.06695988 0.06847679 -0.051701326
0.05759599 0.03030806 0.05152791 0.033253685 0.009501219 0.057340838 0.017889827 0.048603423
-0.07892195 0.06524143 0.07795092 -0.017634764 -0.037954386 0.071669556 -0.00681293 -0.036290985
-0.026522651 0.049646236 -0.023032017 0.03902971 0.040222622 -6.0215592e-05 0.06656877 -0.027615815
-0.011882506 0.013181329 -0.011283912 0.04868556 0.06840054 0.049270503 0.062018566 -0.036344692
-0.051833637 -0.083912455 -0.07914161 0.059574194 -0.086576335 -0.056597937 0.068580054 0.0017006248
0.08188858 0.07856574 -0.038098305 0.03283432 -0.04929276 0.041286044 0.018330425 0.0074803606
-0.08211463 0.040650524 -0.048607748 0.08448095 -0.031268474 0.061261512 0.0026946813 -0.048534825
-0.043944243 0.0857779 0.023837604 0.0398765 0.01346086 0.039278455 0.05984833 0.073776774
-0.04369081 0.06436177 0.06361566 0.014189675 0.075717874 0.02922789 0.072614335 0.013246909
-0.07563824 -0.0032822266 0.03935405 -0.076076746 0.0033142492 0.04350338 -0.020116888 0.081401266
-0.07541152 0.020809434 -0.0037215576 0.06762435 -0.08824411 0.04058551 0.023658514 0.00029994547
-0.011264302 -0.047271516 -0.058917195 -0.036039654 -0.036226004 -0.042137608 -0.07274684 0.0150051415
-0.06480446 -0.014821358 0.02449125 -0.06783488 -0.04652146 0.080524065 -0.031830955 0.05778315
0.075707726 -0.05195543 0.084742464 0.06407175 -0.074119814 -0.026032705 -0.0011462271 0.07408879
-0.08030178 0.012492888 0.07426325 -0.06336663 -0.0029840618 -0.028943408 -0.077012315 -0.036897983
-0.056376666 0.035191298 0.01932767 -0.052004162 -0.07681566 -0.0047529116 0.03852827 -0.03002983
-0.06563853 0.01911138 -0.05362632 -0.05647507 0.0753104 -0.015398875 -0.059397858 0.024563424
-0.0639445 -0.008796848 0.04948511 0.07014755 -0.005822554 0.047484674 -0.057551015 -0.054899808

actor.bias f4 [4]
00000000: fe24 453d 35e9 8e3d d92c 1fbf 2858 04bf
0.04813098 0.069780745 -0.6217781 -0.51697016

critic.weight f4 [1, 128]
00000000: 731a 883d a290 bcbd d1e7 ee3c a132 0b3e
00000010: 9370 7d3d a92b 3a3d aa08 8e3c 7aef 213d
00000020: 9cec bb3c 147f 793d a3e2 3abd 6886 5fbd
00000030: 5569 23bc 8a06 b8bd e52c 973d 4f68 18bb
00000040: ddd9 043d 814d 63bd 2fe1 afbc b55e c93c
00000050: 8aa2 0abd b182 ec3c 85d0 acbd ead5 1b3e
00000060: b0fc 5c3c 8894 933c 7263 903c 6332 3d3c
00000070: cad8 823d a44e 123e 6d05 263c e533 a63c
00000080: 8505 243d 6953 46bc d862 e5bc 02dd f73d
00000090: decc 9d3d d468 203d 46b1 cf3d 761c 743d
000000a0: ae63 2d3d a0ba 4b3d 7177 93bd df00 49bd
000000b0: 493a 3fbb ad62 d1bd bdd3 e1bb 19ac e33d
000000c0: b55a a8bc 5d7e 9f3c 522f b2bc 0dd4 e03d
000000d0: 76d1 c93c 966b 77bc e780 25bb 9ca9 623d
000000e0: 6784 0d3b c4b9 543c b23b a4bd 58bf 0f3d
000000f0: fb50 2c3d 0ac0 113d 893c e6bc a6a3 833b
00000100: d4bb 013d 854f aa3b ab87 76bc afe4 6d3d
00000110: 84b4 49bd 952d 0dbd 03b8 273d 6baa edbb
00000120: fefb 833c 126a a5bc b26a a4bc d803 c8bd
00000130: 3c8d c23d a3f9 0b3d ea79 aebd e43a 90bd
00000140: e3ec 563c 3343 613c 0132 113c 1f42 a2bc
00000150: 1ebf 5abd c196 ad3c bcea 983d 3edc 01bd
00000160: e8a4 543d 6dd2 073c b0a3 8bbd bff7 633d
00000170: ac19 13bd a47c 0b3e 6a97 4fbd 743e 0fbc
00000180: e0b6 243c e5df 2cbd 0551 02bb 47e8 a83d
00000190: ee9d 82bc fcd0 50bd 2c7a 2bbd b0d4 3e3d
000001a0: f26e 80bd 0f4a 02be d7ed d43c 43ce d9bc
000001b0: 1522 8f3d 8cc2 223d 8a74 42bd ac1a 5fbc
000001c0: 1cfd 1ebd 57c6 be3b 3b2a b5bc e91f e5bd
000001d0: 6c18 febc 11ef 8dbc 59a0 133d 70e0 5bbd
000001e0: a5b0 3fbe 1896 b73d e8db 913d 2a49 6ebd
000001f0: 0e4b 59bd e11d 453d 00b2 21bb ada1 af3c
0.0664567 -0.09207274 0.029163273 0.13593532 0.061874937 0.045451794 0.017338116 0.039535023
0.022939973 0.060912207 -0.045626294 -0.05457154 -0.009973844 -0.08985622 0.0738161 -0.0023255532
0.032434333 -0.055493835 -0.02146968 0.024581293 -0.033846416 0.028870912 -0.084382094 0.1521832
0.01348798 0.018015161 0.017625544 0.011547658 0.063890055 0.14287812 0.01013313 0.020288417
0.040044326 -0.0121048475 -0.028001234 0.12102701 0.07705091 0.039162472 0.10141234 0.059597455
0.04233139 0.049738526 -0.07200516 -0.049073096 -0.0029179028 -0.10223899 -0.0068916962 0.111168094
-0.020551065 0.019469434 -0.02175108 0.109779455 0.024636012 -0.015101334 -0.0025253834 0.055337533
0.002159381 0.012983743 -0.080191985 0.03509459 0.042069416 0.035583533 -0.028105037 0.004017311
0.031673267 0.0051974677 -0.015046994 0.058079418 -0.04924442 -0.0344673 0.04094697 -0.0072529814
0.01611137 -0.02019218 -0.020070408 -0.09766358 0.094995946 0.03417362 -0.08519347 -0.070424825
0.013118002 0.013748932 0.0088620195 -0.01980692 -0.05340492 0.02119005 0.07466647 -0.03170418
0.05191508 0.0082899155 -0.0681833 0.05565619 -0.035913154 0.13621765 -0.05068151 -0.008742917
0.010053366 -0.04220571 -0.0019884717 0.082474284 -0.015944447 -0.050980553 -0.04186456 0.046589553
-0.06271161 -0.12723564 0.025992317 -0.026587611 0.069889225 0.039736316 -0.04747442 -0.013617199
-0.038815603 0.005821984 -0.022114864 -0.11187727 -0.031017505 -0.01732591 0.03604159 -0.053680837
-0.18719728 0.08964175 0.07122022 -0.058175243 -0.053050093 0.048124198 -0.0024672747 0.021439398
