custom_implementations/models/a2c_ep4000.pth (torch, 42041 bytes, 5 tensors)

shared.0.weight f4 [128, 70]
-0.028205868 1.0597436 -0.09743174 1.2344 0.122402124 1.6964526 -0.003393956 -0.06687257
-0.044424683 0.19182412 -0.13349174 -0.21315858 0.099744715 0.06874271 -0.034052286 0.0032286274
-0.04962804 -0.023590105 -0.13746768 0.09866006 -0.09579313 -0.038943373 0.18499091 0.10485716
-0.07658218 -0.19240053 0.07140093 -0.050743803 -0.0446521 -0.052238196 0.044008784 -0.11322765
-0.13111247 -0.002883792 0.14675267 -0.23349941 0.03998726 -0.13478649 -0.1715625 -0.13682544
0.039499767 -0.0015563461 -0.15166198 -0.045886114 0.11700336 -0.14602873 -0.20871337 -0.02633784
0.05618578 -0.23326842 -0.093682535 0.08712535 0.15454465 -0.28064486 0.00811078 -0.10911458
-0.24076644 -0.07802963 -0.033023927 0.34124386 -0.23386209 -0.041057784 -0.032356527 -0.24580751
-0.041111805 -0.12471829 0.31964234 -0.100715555 -0.076741554 -0.01977545 -0.036695197 -0.059217975
-0.17573614 0.08324008 0.07022492 0.11628131 -0.03477857 -0.09711855 0.2834454 0.24892196
-0.100505106 -0.12527718 -0.33293205 -0.1028136 -0.017004648 0.089625865 0.079142965 0.118701436
0.031091215 0.098342896 0.5189602 -0.17830215 0.1114495 0.0684507 -0.04126772 -0.044585407
-0.18575498 -0.0884599 -0.30586925 0.27543682 0.13808537 0.042647574 -0.14355816 -0.010825882
-0.20386305 -0.12105552 -0.06655029 0.3167401 0.15251617 -0.0689317 0.0049870024 -0.06528943
-0.20362344 -0.061665505 0.053581055 0.09211699 -0.16924678 0.08474745 0.030098481 -0.06732853
0.049504645 0.16345797 -0.006813004 -0.18665047 0.09319609 -0.17532253 0.1290864 0.024283793
-0.18428169 0.12659459 -0.07102413 0.16524975 0.17526619 -0.108224936 0.10381793 0.17358872
0.35950688 -0.21019787 0.3072765 -0.05825369 -0.017070161 -0.093297 -0.072108015 -0.13572012
0.0836959 0.072189204 0.022546146 -0.019722756 0.09328295 -0.027782848 0.12049736 -0.0029203962
-0.0050290073 0.010281834 0.031087862 -0.054753404 0.0875155 -0.046642907 -0.10538402 0.026017487
-0.08242118 -0.033701222 -0.004718019 0.044761166 0.054522946 0.004903251 -0.069760285 0.01881303
-0.0496563 -0.044603996 0.07086279 -0.12635888 0.023733756 0.060806125 -0.053509325 -0.1042493
-0.124017365 0.14808923 -0.063624926 -0.1311335 0.0054453346 -0.024702303 -0.081108086 -0.017626207
-0.059554562 0.112556346 0.043064803 -0.01702737 -0.08633674 -0.03790804 -0.034068517 0.14287546
0.07676921 -0.05887757 0.116878636 0.004904702 -0.16202627 -0.08383395 0.14082587 0.23349059
-0.20643403 -0.021283327 0.09321554 -0.12621869 -0.068225935 0.06037929 0.26233602 -0.089471325
0.011628057 -0.12248222 0.043177888 0.62794524 -0.08336961 0.9917773 0.18306875 1.1294165
0.13334359 -0.16270414 0.0053515397 0.030858584 -0.41588002 -0.009064836 -0.11134922 0.029277492
-0.04459112 0.02481669 0.1652 -0.059326872 0.031364664 -0.019833578 -0.0032946975 -0.10282301
-0.11273618 0.19594134 -0.14260891 0.033977967 -0.03413086 -0.07986545 -0.11342798 -0.05806415
-0.02456435 -0.11366139 -0.11032883 0.062077593 -0.0011910987 -0.0268488 -0.10030414 -0.015556381
-0.07351317 -0.10591496 0.13078448 -0.020199025 -0.012041635 -0.023078589 0.22972266 -0.009652249
00000000: fe0f e7bc aea5 873f 4b8a c7bd d200 9e3f
00000010: f7ad fa3d 5c25 d93f 226d 5ebb 7cf4 88bd
00000020: a8f6 35bd 8b6d 443e 0fb2 08be 3e46 5abe
00000030: f546 cc3d fac8 8c3d 697a 0bbd 6197 533b
00000040: c646 4bbd 0940 c1bc 54c4 0cbe 490e ca3d
00000050: 302f c4bd 1683 1fbd 426e 3d3e 5abf d63d
00000060: 1ed7 9cbd a504 45be a73a 923d bcd8 4fbd
00000070: 1fe5 36bd b8f7 55bd 8e42 343d e6e3 e7bd
00000080: 5942 06be 00fe 3cbb 5546 163e 781a 6fbe
00000090: aec9 233d 7805 0abe 14ae 2fbe f81b 0cbe
000000a0: 82ca 213d 4ffe cbba 474d 1bbe 14f3 3bbd
000000b0: 759f ef3d 8e88 15be f5b8 55be 74c2 d7bc
000000c0: 0f23 663d ebdd 6ebe a1dc bfbd c76e b23d
000000d0: f440 1e3e afb0 8fbe 14e3 043c 7777 dfbd
000000e0: 7a8b 76be 00ce 9fbd 1944 07bd 84b7 ae3e
000000f0: 8b79 6fbe 352c 28bd 4788 04bd f7b4 7bbe
00000100: da64 28bd 4e6c ffbd 29a8 a33e f543 cebd
00000110: ad2a 9dbd 2000 a2bc b44d 16bd 8c8e 72bd
00000120: 2df4 33be c679 aa3d 15d2 8f3d e524 ee3d
00000130: f973 0ebd 17e6 c6bd c11f 913e 66e5 7e3e
00000140: 9fd5 cdbd a948 00be 1276 aabe f08f d2bd
00000150: 554d 8bbc c48d b73d b515 a23d bd19 f33d
00000160: 01b3 fe3c 0068 c93d 93da 043f d794 36be
00000170: a33f e43d e12f 8c3d 5708 29bd 309f 36bd
00000180: 8e36 3ebe 772a b5bd e59a 9cbe 0e06 8d3e
00000190: 4066 0d3e 39af 2e3d e900 13be 0a5f 31bc
000001a0: 7ac1 50be f5eb f7bd 854b 88bd c22b a23e
000001b0: 332d 1c3e 102c 8dbd 026a a33b 77b6 85bd
000001c0: aa82 50be f894 7cbd cf77 5b3d d5a7 bc3d
000001d0: 074f 2dbe 1290 ad3d 1791 f63c 8ae3 89bd
000001e0: 62c5 4a3d 8761 273e 9f3f dfbb 4d21 3fbe
000001f0: 97dd be3d c087 33be 3a2f 043e ceee c63c
00000200: 57b4 3cbe 03a2 013e 1975 91bd 3b37 293e
00000210: fb78 333e 09a5 ddbd 7f9e d43d 3ec1 313e
00000220: 4911 b83e 1c3e 57be 5853 9d3e 6c9b 6ebd
00000230: b9d6 8bbc 7f12 bfbd 5ead 93bd 37fa 0abe
00000240: c268 ab3d efd7 933d b2b2 b83c 9e91 a1bc
00000250: 220b bf3d db98 e3bc 52c7 f63d 1e64 3fbb
00000260: 5fca a4bb 2375 283c f9ab fe3c 1b45 60bd
00000270: 543b b33d a20c 3fbd 94d3 d7bd a022 d53c
00000280: 70cc a8bd 4b0a 0abd 9d99 9abb 7c57 373d
00000290: 7453 5f3d 73ab a03b 7bde 8ebd c91d 9a3c
000002a0: 6864 4bbd aeb2 36bd 8320 913d 3964 01be
000002b0: 4b6d c23c d80f 793d 982c 5bbd a880 d5bd
000002c0: d1fc fdbd b4a4 173e c94d 82bd dc47 06be
000002d0: c76e b23b 7c5c cabc ff1b a6bd d664 90bc
000002e0: 7cef 73bd f183 e63d b864 303d fc7c 8bbc
000002f0: 51d1 b0bd 7645 1bbd 6e8b 0bbd f24d 123e
00000300: 2d39 9d3d 9b29 71bd 115e ef3d 9fb7 a03b
00000310: 37ea 25be 22b1 abbd a834 103e 2818 6f3e
00000320: 7163 53be 5f5a aebc cae7 be3d 793f 01be
00000330: 0aba 8bbd 4650 773d e850 863e be3c b7bd
00000340: 9b83 3e3c f5d7 fabd 4cdb 303d 05c1 203f
00000350: b0bd aabd 1ee5 7d3f 6076 3b3e b890 903f
00000360: 398b 083e ea9b 26be f85b af3b 24cb fc3c
00000370: 3aee d4be ae84 14bc 0f0b e4bd 5ad7 ef3c
00000380: 2ea5 36bd 5f4c cb3c 302a 293e bc00 73bd
00000390: 3c78 003d 077a a2bc daeb 57bb df94 d2bd
000003a0: 3ae2 e6bd d9a4 483e 1208 12be 7b2c 0b3d
000003b0: cdcc 0bbd 7f90 a3bd ee4c e8bd add4 6dbd
000003c0: 2d3b c9bc 4ec7 e8bd 15f4 e1bd 1345 7e3d
000003d0: a41e 9cba 04f2 dbbc 426c cdbd 31e0 7ebc
000003e0: 138e 96bd f1e9 d8bd 5eec 053e 6d78 a5bc
000003f0: 474a 45bc 4f0f bdbc 6b3c 6b3e 7724 1ebc

shared.0.bias f4 [128]
-0.03242406 -0.03850234 -0.1335905 0.0118137095 -0.07956793 -0.03417923 -0.104821436 -0.10666706
-0.03887725 -0.00524307 -0.12984684 -0.16342293 -0.13942231 0.06670284 -0.13821259 -0.024501808
-0.18899809 -0.0930105 -0.04942055 -0.085708 -0.11693899 -0.06934317 -0.07935328 -0.100396276
0.012774364 -0.0012089683 -0.3060067 -0.29653478 -0.2168406 0.024789125 -0.13315229 -0.014782138
-0.048076473 -0.0166683 -0.14228113 -0.06283243 -0.09515763 0.21627147 -0.015003567 -0.08203818
-0.08388534 0.031185027 -0.021808172 -0.16482164 -0.010909956 0.023351574 -0.14954372 -0.15025671
-0.0069312896 0.029803317 0.032101605 -0.04225399 -0.1371295 -0.09305782 -0.0786581 -0.0036914859
0.019230884 -0.022659872 -0.15928991 -0.12588306 0.009763827 -0.076597236 -0.0002288888 -0.13923897
-0.09941027 -0.05838588 -0.061031945 0.05305172 -0.13131449 0.008747631 -0.14969216 -0.24902722
-0.09061655 0.018285867 -0.05264636 0.016025642 -0.0994075 0.061336547 -0.08466232 -0.10727511
-0.17254673 0.0060294108 0.013867983 0.08805044 -0.0067995694 -0.09189396 -0.15046774 -0.14266244
0.028407143 0.07700466 0.003063134 -0.2086643 -0.1413298 -0.058605447 -0.096258566 -0.07041092
-0.123025626 -0.046299573 -0.044190604 -0.051583372 -0.07868097 0.0137338 0.076991834 -0.01565703
-0.08076723 -0.11639257 -0.085883096 -0.13485484 -0.03001971 -0.16937098 -0.038451884 -0.19595344
0.010380522 -0.17801574 -0.036205776 -0.22865927 -0.10024363 -0.22301859 -0.16531907 -0.107357316
-0.052920993 -0.087868184 -0.054709077 -0.15461124 -0.06814193 -0.1869734 -0.15781392 -0.0559995
00000000: 17cf 04bd a1b4 1dbd f3cb 08be 4a8e 413c
00000010: 83f4 a2bd 85ff 0bbd 9fac d6bd 4274 dabd
00000020: c03d 1fbd 0fce abbb 92f6 04be 5758 27be
00000030: b9c4 0ebe 809b 883d 9a87 0dbe 04b8 c8bc
00000040: b788 41be 4a7c bebd 346d 4abd ad87 afbd
00000050: b67d efbd cb03 8ebd f983 a2bd 909c cdbd
00000060: 914b 513c 3f76 9eba e9ac 9cbe 68d3 97be
00000070: 760b 5ebe 9012 cb3c 1359 08be c830 72bc
00000080: d6eb 44bd f58b 88bc 25b2 11be 4aae 80bd
00000090: 01e2 c2bd 4576 5d3e 85d1 75bc a203 a8bd
000000a0: 14cc abbd be77 ff3c 0da7 b2bc 01c7 28be
000000b0: acbf 32bc cd4b bf3c fd21 19be e5dc 19be
000000c0: df1f e3bb 1626 f43c f97c 033d 8512 2dbd
000000d0: ad6b 0cbe 1995 bebd 7f17 a1bd dbec 71bb
000000e0: 168a 9d3c 32a1 b9bc e51c 23be 7de7 00be
000000f0: 75f8 1f3c 03df 9cbd df01 70b9 a994 0ebe
00000100: 9d97 cbbd 0826 6fbd a2fc 79bd c34c 593d
00000110: 4e77 06be 3952 0f3c e748 19be fe00 7fbe
00000120: 2b95 b9bd 3ecc 953c b6a3 57bd 3548 833c
00000130: 2996 cbbd 083c 7b3d 7063 adbd 0eb3 dbbd
00000140: 17b0 30be 5d92 c53b 8936 633c ca53 b43d
00000150: ecce debb e732 bcbd 3714 1abe 1a16 12be
00000160: 19b6 e83c 9fb4 9d3d dcbe 483b 18ac 55be
00000170: c2b8 10be 440c 70bd 3623 c5bd 9a33 90bd
00000180: dcf4 fbbd 9fa4 3dbd 3501 35bd 1649 53bd
00000190: 7d23 a1bd bb03 613c e5ad 9d3d 2c43 80bc
000001a0: 4a69 a5bd 3a5f eebd 7ae3 afbd 6317 0abe
000001b0: e5eb f5bc 966f 2dbe b97f 1dbd 05a8 48be
000001c0: 1113 2a3c c249 36be 824c 14bd a825 6abe
000001d0: 884c cdbd fc5e 64be 6749 29be 27de dbbd
000001e0: afc3 58bd 3cf4 b3bd a016 60bd 6952 1ebe
000001f0: ff8d 8bbd f475 3fbe f999 21be bb5f 65bd

actor.weight f4 [4, 128]
0.050028227 -0.088288 -0.048765756 0.08016031 0.033959918 0.034942023 -0.044807747 -0.010602705
-0.015837058 0.013551466 -0.02852172 -0.040575255 0.07777915 0.06679236 -0.04541308 -0.009987876
0.053727992 0.05246023 -0.07512933 -0.07428149 -0.08546467 -0.055732843 -0.0028641596 0.08236439
0.08174684 0.037695624 0.078799956 0.056529306 0.0032537803 0.047348626 -0.059431333 0.0637686
0.06580744 -0.07167994 0.07328569 0.057651468 0.03618802 -0.047506664 0.025030568 0.06016288
0.016739719 0.044073828 0.0101910755 0.035772823 0.053407468 -0.07389796 0.036969297 0.031223014
0.070372514 0.0028570518 -0.085604966 0.033256583 0.012047909 -0.019173458 -0.01707431 -0.0038563907
0.060294636 0.039263986 -0.051525764 0.05049237 -0.0693625 -0.0149657875 0.0878736 0.019887611
-0.018079467 -0.0072568133 -0.002584353 -0.046243217 0.040833913 0.027507782 0.085306786 0.056644626
0.07306626 0.0781882 0.008180514 0.022449814 -0.005236283 0.07925936 -0.027863659 -0.0021766424
-0.0719596 0.008010484 0.007962301 0.048039086 -0.052969493 0.038768508 -0.08537444 0.085372396
0.009138934 -0.04740319 0.0054851174 -0.062625095 0.02059117 -0.05818388 -0.072038576 -0.078529015
-0.028726269 0.082985766 0.022234201 -0.05599705 -0.08263369 -0.02409155 0.080430634 0.028259397
-0.067423515 -0.055579796 -0.017307907 0.062299974 0.069192894 0.06695988 0.06847679 -0.051701326
0.05759599 0.03030806 0.05152791 0.033253685 0.009501219 0.057340838 0.017889827 0.048603423
-0.07892195 0.06524143 0.07795092 -0.017634764 -0.037954386 0.071669556 -0.00681293 -0.036290985
-0.026522651 0.049646236 -0.023032017 0.03902971 0.040222622 -6.0215592e-05 0.06656877 -0.027615815
-0.011882506 0.013181329 -0.011283912 0.04868556 0.06840054 0.049270503 0.062018566 -0.036344692
-0.051833637 -0.083912455 -0.07914161 0.059574194 -0.086576335 -0.056597937 0.068580054 0.0017006248
0.08188858 0.07856574 -0.038098305 0.03283432 -0.04929276 0.041286044 0.018330425 0.0074803606
-0.08211463 0.040650524 -0.048607748 0.08448095 -0.031268474 0.061261512 0.0026946813 -0.048534825
-0.043944243 0.0857779 0.023837604 0.0398765 0.01346086 0.039278455 0.05984833 0.073776774
-0.04369081 0.06436177 0.06361566 0.014189675 0.075717874 0.02922789 0.072614335 0.013246909
-0.07563824 -0.0032822266 0.03935405 -0.076076746 0.0033142492 0.04350338 -0.020116888 0.081401266
-0.07541152 0.020809434 -0.0037215576 0.06762435 -0.08824411 0.04058551 0.023658514 0.00029994547
-0.011264302 -0.047271516 -0.058917195 -0.036039654 -0.036226004 -0.042137608 -0.07274684 0.0150051415
-0.06480446 -0.014821358 0.02449125 -0.06783488 -0.04652146 0.080524065 -0.031830955 0.05778315
0.075707726 -0.05195543 0.084742464 0.06407175 -0.074119814 -0.026032705 -0.0011462271 0.07408879
-0.08030178 0.012492888 0.07426325 -0.06336663 -0.0029840618 -0.028943408 -0.077012315 -0.036897983
-0.056376666 0.035191298 0.01932767 -0.052004162 -0.07681566 -0.0047529116 0.03852827 -0.03002983
-0.06563853 0.01911138 -0.05362632 -0.05647507 0.0753104 -0.015398875 -0.059397858 0.024563424
-0.0639445 -0.008796848 0.04948511 0.07014755 -0.005822554 0.047484674 -0.057551015 -0.054899808
00000000: 66ea 4c3d 57d0 b4bd 9abe 47bd 172b a43d
00000010: 8e19 0b3d 5e1f 0f3d 5488 37bd f8b6 2dbc
00000020: b8bc 81bc f806 5e3c 62a6 e9bc 3d32 26bd
00000030: ad4a 9f3d 6fca 883d 1103 3abd 30a4 23bc
00000040: e211 5c3d 8ae0 563d 68dd 99bd e520 98bd
00000050: 1a08 afbd 1f48 64bd a0b4 3bbb a9ae a83d
00000060: e36a a73d ba66 1a3d df61 a13d 468b 673d
00000070: 603d 553b a2f0 413d 456e 73bd 1d99 823d
00000080: 0dc6 863d efcc 92bd cf16 963d f223 6c3d
00000090: e439 143d 5996 42bd e80c cd3c 5a6d 763d
000000a0: bc21 893c c286 343d 78f8 263c 8686 123d
000000b0: cac1 5a3d d057 97bd 1e6d 173d 68c7 ff3c
000000c0: 771f 903d 603d 3b3b a851 afbd 0e38 083d
000000d0: 9864 453c a811 9dbc 6cdf 8bbc 80bb 7cbb
000000e0: 82f7 763d 46d3 203d ae0c 53bd 16d1 4e3d
000000f0: ed0d 8ebd 1033 75bc 13f7 b33d 58eb a23c
00000100: 641b 94bc 90ca edbb 405e 29bb 8769 3dbd
00000110: 7641 273d 0058 e13c 53b5 ae3d 3204 683d
00000120: c3a3 953d 2321 a03d 9007 063c ace8 b73c
00000130: 2095 abbb bb52 a23d 5442 e4bc 00a6 0ebb
00000140: 8e5f 93bd 683e 033c 5074 023c a2c4 443d
00000150: 8af6 58bd bacb 1e3d cbd8 aebd b9d7 ae3d
00000160: 78bb 153c d929 42bd 80bc b33b 9641 80bd
00000170: d0ae a83c 3852 6ebd f688 93bd d2d3 a0bd
00000180: 5a53 ebbc 71f4 a93d 8024 b63c 2a5d 65bd
00000190: da3b a9bd a45b c5bc d1b8 a43d 4080 e73c
000001a0: 5715 8abd a4a7 63bd 50c9 8dbc 422e 7f3d
000001b0: 01b5 8d3d 4322 893d 8f3d 8c3d c5c4 53bd
000001c0: c6e9 6b3d 9c48 f83c ee0e 533d 0435 083d
000001d0: 00ab 1b3c 3ade 6a3d b08d 923c 6214 473d
000001e0: d5a1 a1bd 4d9d 853d bba4 9f3d c876 90bc
000001f0: 0f76 1bbd 7dc7 923d 003f dfbb dba5 14bd
00000200: 0846 d9bc da59 4b3d a4ad bcbc 9edd 1f3d
00000210: 7ac0 243d 0090 7cb8 3555 883d 903a e2bc
00000220: d8ae 42bc 80f6 573c 28e0 38bc 826a 473d
00000230: 9515 8c3d decf 493d 2e07 7e3d 2cde 14bd
00000240: 824f 54bd 4bda abbd ff14 a2bd 1204 743d
00000250: ef4e b1bd 3dd3 67bd b373 8c3d 80e7 de3a
00000260: 33b5 a73d 13e7 a03d f80c 1cbd 487d 063d
00000270: 35e7 49bd 8e1b 293d b029 963c d01d f53b
00000280: b72b a8bd 2a81 263d eb18 47bd 5904 ad3d
00000290: 5f13 00bd 5aed 7a3d 4099 303b 74cc 46bd
000002a0: e1fe 33bd 53ac af3d 1447 c33c 8a55 233d
000002b0: f08a 5c3c 72e2 203d 8623 753d 4718 973d
000002c0: 23f5 32bd 1bd0 833d ed48 823d d07b 683c
000002d0: f911 9b3d 546f ef3c d3b6 943d 9009 593c
000002e0: 39e8 9abd a01a 57bb b631 213d 20ce 9bbd
000002f0: e033 593b 9a30 323d 2ccc a4bc b5b5 a63d
00000300: 5b71 9abd 8c78 aa3c 60e5 73bb a37e 8a3d
00000310: 54b9 b4bd fe3c 263d 80cf c13c 0042 9d39
00000320: e88d 38bc c79f 41bd 2853 71bd 519e 13bd
00000330: b861 14bd 7c98 2cbd 4cfc 94bd 20d8 753c
00000340: 33b8 84bd 48d5 72bc e0a1 c83c 03ed 8abd
00000350: 498d 3ebd cde9 a43d 2d61 02bd 06ae 6c3d
00000360: a70c 9b3d 38cf 54bd 758d ad3d 0d38 833d
00000370: 21cc 97bd 8a42 d5bc 003d 96ba ddbb 973d
00000380: 4275 a4bd f8ae 4c3c 5517 983d 5dc6 81bd
00000390: 4090 43bb ba1a edbc a2b8 9dbd 5722 17bd
000003a0: 38eb 66bd c024 103d 1055 9e3c 5102 55bd
000003b0: 8751 9dbd 50be 9bbb d2cf 1d3d 1e01 f6bc
000003c0: 7e6d 86bd 788f 9c3c 46a7 5bbd 6752 67bd
000003d0: 573c 9a3d 904b 7cbc 2b4b 73bd 3c39 c93c
000003e0: 56f5 82bd a820 10bc e6b0 4a3d 85a9 8f3d
000003f0: 20cb bebb 4a7f 423d 9dba 6bbd 9fde 60bd

actor.bias f4 [4]
0.04813098 0.069780745 -0.5345365 -0.42972913
00000000: fe24 453d 35e9 8e3d 62d7 08bf 7505 dcbe

critic.weight f4 [1, 128]
0.06310422 -0.095350675 0.029163273 0.011178167 0.061874937 0.045451794 0.061561 0.046881255
0.013649259 0.060912207 -0.028200334 -0.07474228 0.027558383 -0.035763368 0.07024677 -0.0023255532
0.00692205 -0.055493835 -0.02146968 0.024581293 -0.033846416 0.039329216 -0.084382094 0.15159288
-0.08724494 0.018296806 0.037127286 0.011547658 0.063890055 0.10791011 0.010124674 0.020288417
-0.060753394 -0.0121048475 -0.009099759 0.013046952 0.07705091 0.059830256 0.09635187 -0.016076434
0.030502196 0.027276887 -0.07200516 0.03340999 0.023059374 0.029501522 -0.01218854 0.111168094
-0.020551065 0.010369068 -0.029568108 0.109779455 0.0215929 -0.015101334 -0.0025175107 0.055337533
-0.028812101 0.007626034 -0.021047452 0.03509459 0.042069416 0.03547902 -0.028105037 0.004017311
0.032264844 0.007852664 -0.015019316 0.058079418 -0.04924442 -0.0344673 0.04094697 -0.0072529814
-0.024644624 -0.011323155 -0.027132591 -0.08641476 0.094995946 0.03960337 -0.08519347 0.006456637
0.0131961815 0.0059412927 0.0088620195 0.027005995 -0.05340492 0.02119005 0.07466647 -0.03450693
0.05257671 0.016759835 -0.051329236 0.04197172 -0.035913154 -0.012953634 -0.05389614 -0.008742917
0.010053366 -0.06824179 -0.0020211134 0.014920191 -0.021275762 -0.054631792 -0.0333212 0.037077896
-0.09688732 -0.004260776 0.032157157 -0.026587611 0.069889225 -0.014802126 -0.057414513 -0.020326758
-0.08658737 0.005722728 -0.05184537 -0.11187727 0.075337194 0.0258267 0.03604159 0.05278367
-0.07442904 0.08964175 0.0812308 -0.058175243 -0.053050093 0.06798815 -0.0024672747 0.024000445
00000000: c93c 813d 3747 c3bd d1e7 ee3c a124 373c
00000010: 9370 7d3d a92b 3a3d 6327 7c3d 8f06 403d
00000020: 24a1 5f3c 147f 793d 6304 e7bc 7b12 99bd
00000030: 1ec2 e13c 9c7c 12bd 8add 8f3d 4f68 18bb
00000040: 5dd2 e23b 814d 63bd 2fe1 afbc b55e c93c
00000050: 8aa2 0abd ac17 213d 85d0 acbd 2a3b 1b3e
00000060: 7aad b2bd 2fe3 953c c812 183d 6332 3d3c
00000070: cad8 823d faff dc3d f6e1 253c e533 a63c
00000080: 8dd8 78bd 6953 46bc 2817 15bc e2c2 553c
00000090: decc 9d3d 9210 753d 2154 c53d bab2 83bc
000000a0: bedf f93c c773 df3c 7177 93bd ead8 083d
000000b0: 03e7 bc3c 2dad f13c 71b2 47bc 19ac e33d
000000c0: b55a a8bc 06e3 293c d138 f2bc 0dd4 e03d
000000d0: 98e3 b03c 966b 77bc d2fc 24bb 9ca9 623d
000000e0: 5b07 ecbc cfe3 f93b b56b acbc 58bf 0f3d
000000f0: fb50 2c3d 7352 113d 893c e6bc a6a3 833b
00000100: 2428 043d 76a8 003c 9413 76bc afe4 6d3d
00000110: 84b4 49bd 952d 0dbd 03b8 273d 6baa edbb
00000120: 86e3 c9bc c184 39bc 2b45 debc 39fa b0bd
00000130: 3c8d c23d 2537 223d ea79 aebd 3292 d33b
00000140: cc34 583c 2daf c23b 0132 113c ad3b dd3c
00000150: 1ebf 5abd c196 ad3c bcea 983d 2357 0dbd
00000160: ad5a 573d ec4b 893c 9b3e 52bd 8aea 2b3d
00000170: ac19 13bd 7b3b 54bc 33c2 5cbd 743e 0fbc
00000180: e0b6 243c 5ac2 8bbd a874 04bb d173 743c
00000190: 824a aebc 96c5 5fbd d07b 08bd fede 173d
000001a0: dc6c c6bd fb9d 8bbb 39b7 033d 43ce d9bc
000001b0: 1522 8f3d 9e84 72bc 7b2b 6bbd 4d84 a6bc
000001c0: b854 b1bd b985 bb3b d05b 54bd e91f e5bd
000001d0: 634a 9a3d 8492 d33c 59a0 133d b133 583d
000001e0: 416e 98bd 1896 b73d 555c a63d 2a49 6ebd
000001f0: 0e4b 59bd 5f3d 8b3d 00b2 21bb 959c c43c
