models/models_simple/reinforce_ep300.pth (torch, 373835 bytes, 18 tensors)

0.weight f4 [128, 105]
00000000: 3ba2 65bb f0a1 5bbb 2ab6 9e2d dd3b 84ba
00000010: 05a7 62ae 1684 84bb c58d c72e b727 6a2e
00000020: 8626 362e f39d c62e 0cc4 bfad 8b75 b0ad
00000030: 9a92 062f ae62 21aa 7211 692e c36f c2ad
00000040: 7dac a8ad d008 6a2e d071 c4ae 992f 6aae
00000050: e127 3ead 4414 0c2e b0a3 b62e 27ca a9ae
00000060: 02f3 40ac 41b0 bdad 19e3 d72e 0283 c12e
00000070: 119a 3d2e e7a2 c4ad 2f9b 062c 2e62 56ae
00000080: 0d25 c82d 7e38 0cac 43a0 b1ad dd76 142c
00000090: 1da4 11af 785f 08ab 9319 532e e528 862e
000000a0: 1f80 ceab 895d ec2b 17d2 062c 9af9 b52d
000000b0: c8f9 a8ad c17c 532e 0b1f e82d 4a55 37ae
000000c0: c4ff 402e 74ca 1cad cbd9 472d 5442 bead
000000d0: 7ee8 2aae 2f7c 002f d8c3 34ac b5cb 37ae
000000e0: 6467 b7ae cb7d a6ad 70fc 142f 6ccb bdad
000000f0: 14d5 fe2d 91f2 31ae 4462 a7ad c553 ad2d
00000100: dea5 c2ad 956b 652d 1a25 0e2c 511e 152f
00000110: 96ee 91ae 775d ef2e 7ee8 0baf 297b 1f2e
00000120: cd21 9f2e 1ca9 c72e afbb 10af f527 622e
00000130: af24 c42e d8d0 c0ae f00d cbad 6f6a 682e
00000140: 4cc8 56ae 841f 252e 7552 392e 3333 a2ae
00000150: 00f7 24ac 8c70 daae 2ab3 fb2b cb58 962e
00000160: 3652 c0ae b964 592e ae9f c52e 69ee 63ae
00000170: 8d47 efad 1c36 3bab ffc3 592e 6517 b0ae
00000180: 2875 292e 3947 bdad 6773 19ab b7ac f22c
00000190: 84a7 7dac 0ef7 102e 4024 6aae 94dd 862e
000001a0: 56f9 20ae d137 f03d 854f d1bc d043 1cae
000001b0: b9af 8c3d 010f 932d 5de9 eb3d 56dc 13ae
000001c0: c029 852d 0634 11ae dede c22e ba89 a52e
000001d0: f03b 6a2e bc3d 3fae 4233 bdab 4a3f b7ae
000001e0: 8794 e4ad 9253 c22d e680 172e 791d 1eae
000001f0: 1293 142e 5cf5 022d b924 5aae 60bd 572e
00000200: 159b 2b2e 0a33 212d fae3 f2aa a562 6aae
00000210: b533 47ae 7f86 2d2a 9162 43ae 70bc 5e2e
00000220: 55b4 12af ffd2 142f 233f 2c2e 217e 3cae
00000230: 8053 bc2d e118 292e 8166 5a2e 1158 69ac
00000240: 4d8d 922d b5de ae2d ad20 0faf e1dc c1ad
00000250: d91b 14af 6134 c72e 8f31 ecac 7c21 15af
00000260: 08fd 3d2d 8a31 ecac 8144 87ad 6a3d 6a2e
00000270: 318e 592e 318c 122c 0874 a6ae 4a46 e02d
00000280: c2b7 08ac 3f7e 052e 9b01 bfad ec82 4aae
00000290: 3885 0bae db56 d5ad d524 272e fb59 272c
000002a0: d412 5d2e b612 4b2e 325c 562e ca86 342e
000002b0: 5cf0 7aae c9b0 91ae 2287 2aae 7db4 422e
000002c0: d860 0daf 5dab c72e 5432 bcad 8b79 03ac
000002d0: 774b 622e df66 222e a479 bd2d 2924 c92d
000002e0: 09cf a32d 91db a02d a426 87ad 1cad b92e
000002f0: a061 57ad 3e78 c6ae f05b 092f 05e4 f9ad
00000300: d7d1 402e 9172 33ae ffaa 3f2e 2823 0f2d
00000310: ec88 412e f3f3 892e 2a02 94ae 39b0 06ae
00000320: 8ac9 7cae afb9 562e d577 a6a9 9845 10af
00000330: 8bdb 15ae 1aae c72e 7d09 a6ad 6090 c2ae
00000340: f608 12ae 37aa b42e 60e0 5dbb ef41 b8bb
00000350: 02a1 e12e e56e e1bb b5c3 0a2c 9432 61bb
00000360: 0155 aeac 33fe c1ae 9a04 cb2d 7620 64ae
00000370: ad1f bf2d f58e 48ae a5ad 6f2c d31e 1f2d
00000380: e553 3e2d cdc0 4e2d cf48 9c2d 8f73 4c2e
00000390: 9cbd 292d f829 c52e fc57 8cae ecfe 572e
000003a0: 9e89 b52d cbd5 46ae ef5a b2ae 5bce a42e
000003b0: 15f5 afae b948 90ae 9fd9 872d 9bfd efad
000003c0: c6b6 9aad eefd 2fad cb47 872e 8523 672e
000003d0: c941 14af 9b0a aaae db3e 88ad 8043 b1ad
000003e0: 5ee0 ba2e f6fe d82a 7c38 a02e 08ea 0dae
000003f0: d40d cdac 2b53 7c2d 7361 842a c53f c0ae
-0.0035039324 -0.003351327 1.8043417e-11 -0.0010088641 -5.1534794e-11 -0.004044066 9.0746556e-11 5.3240714e-11
4.1416225e-11 9.032055e-11 -2.1801248e-11 -2.0061083e-11 1.2239312e-10 -1.4333909e-13 5.299356e-11 -2.2104879e-11
-1.9175989e-11 5.3213267e-11 -8.933265e-11 -5.3247715e-11 -1.08091045e-11 3.1850314e-11 8.3054785e-11 -7.72114e-11
-2.7419737e-12 -2.1565085e-11 9.817409e-11 8.7998955e-11 4.3110463e-11 -2.2354963e-11 1.912869e-12 -4.8745168e-11
2.2753821e-11 -1.9926556e-12 -2.019374e-11 2.1098047e-12 -1.3245978e-10 -4.8449396e-13 4.799856e-11 6.100879e-11
-1.4672741e-12 1.679477e-12 1.9159169e-12 2.0688163e-11 -1.9210314e-11 4.808665e-11 2.6389132e-11 -4.1685135e-11
4.388291e-11 -8.912527e-12 1.13602e-11 -2.1629955e-11 -3.886002e-11 1.1685651e-10 -2.5688254e-12 -4.179031e-11
-8.3402424e-11 -1.8927878e-11 1.3550205e-10 -2.157715e-11 2.8971082e-11 -4.0460583e-11 -1.902934e-11 1.9705024e-11
-2.2128906e-11 1.3041031e-11 2.020001e-12 1.3562242e-10 -6.636218e-11 1.08850644e-10 -1.2724574e-10 3.6261803e-11
7.236487e-11 9.079512e-11 -1.3163402e-10 5.142194e-11 8.9195644e-11 -8.768247e-11 -2.3084618e-11 5.2845225e-11
-4.8835866e-11 3.7544648e-11 4.2137367e-11 -7.376002e-11 -2.3442914e-12 -9.9334846e-11 1.7884351e-12 6.836983e-11
-8.745753e-11 4.9429547e-11 8.9868876e-11 -5.1825575e-11 -2.720293e-11 -6.651084e-13 4.9514167e-11 -8.007709e-11
3.8530207e-11 -2.1518442e-11 -5.451667e-13 6.897229e-12 -3.6046452e-12 3.2961238e-11 -5.3237637e-11 6.132975e-11
-3.6601243e-11 0.11729396 -0.025550613 -3.5530523e-11 0.06869454 1.6718628e-11 0.1151912 -3.3619628e-11
1.513889e-11 -3.301539e-11 8.861688e-11 7.5277964e-11 5.3258675e-11 -4.3483203e-11 -1.3443485e-12 -8.333119e-11
-2.5986558e-11 2.209236e-11 3.444791e-11 -3.5951218e-11 3.378193e-11 7.444125e-12 -4.9600078e-11 4.905354e-11
3.901864e-11 9.163123e-12 -4.3146026e-13 -5.3293054e-11 -4.5293286e-11 1.541215e-13 -4.442541e-11 5.0644322e-11
-1.334269e-10 1.3535482e-10 3.916435e-11 -4.2858276e-11 2.1410207e-11 3.8448248e-11 4.9658503e-11 -3.3160178e-12
1.6661028e-11 1.9880412e-11 -1.3017383e-10 -2.203965e-11 -1.3470415e-10 9.0587766e-11 -6.7130255e-12 -1.3563367e-10
1.079959e-11 -6.7130234e-12 -1.5378145e-11 5.3259987e-11 4.946638e-11 2.082567e-12 -7.569417e-11 2.5497066e-11
-1.9428768e-12 3.0352828e-11 -2.1714899e-11 -4.6045764e-11 -3.1723263e-11 -2.4253868e-11 3.8004117e-11 2.3782077e-12
5.0266305e-11 4.6173475e-11 4.8739852e-11 4.104698e-11 -5.70569e-11 -6.62524e-11 -3.8773547e-11 4.42708e-11
-1.2858281e-10 9.0799125e-11 -2.1395476e-11 -1.868369e-12 5.1453477e-11 3.6925903e-11 2.1540832e-11 2.2867113e-11
1.8622897e-11 1.8287401e-11 -1.5364883e-11 8.4435764e-11 -1.2243012e-11 -9.025357e-11 1.249274e-10 -2.8409284e-11
4.384212e-11 -4.0801643e-11 4.3580247e-11 8.136415e-12 4.400473e-11 6.273373e-11 -6.730645e-11 -3.062459e-11
-5.747717e-11 4.8822887e-11 -7.3926684e-14 -1.3121448e-10 -3.407367e-11 9.080399e-11 -1.8876229e-11 -8.847745e-11
-3.3204516e-11 8.2156885e-11 -0.0033855662 -0.0056230943 1.0260416e-10 -0.0068796747 1.9719619e-12 -0.0034362422
-4.9548148e-12 -8.821779e-11 2.3080472e-11 -5.187003e-11 2.1728253e-11 -4.5601706e-11 3.4060335e-12 9.044948e-12
1.0818878e-11 1.1752555e-11 1.776748e-11 4.6486866e-11 9.6486395e-12 8.965978e-11 -6.382092e-11 4.9111756e-11
2.0638432e-11 -4.5209874e-11 -8.110656e-11 7.4945126e-11 -8.001614e-11 -6.56128e-11 1.5444366e-11 -2.7283778e-11
-1.758894e-11 -1.0003982e-11 6.151842e-11 5.2554867e-11 -1.3483893e-10 -7.732589e-11 -1.5489323e-11 -2.0152546e-11
8.498156e-11 3.8546222e-13 7.285991e-11 -3.226755e-11 -5.8279857e-12 1.43430086e-11 2.351553e-13 -8.742477e-11

0.bias f4 [128]
00000000: 686f 7ebb d134 ee3d 5c87 5fbb 16fd 81bb
00000010: cef8 caba 8e6f 7f3d 2868 ad3d a75d ebb3
00000020: e0bb e1ba 9652 2bbb 81f3 53bb 4f6c 57bb
00000030: 022f 58ba 4bea 84bb a60d 44bc 43b5 2fbb
00000040: 95b7 17ba b083 d6bb 5ad1 d63d 65b8 0ebb
00000050: 46a4 b1b6 4d66 a33d aad8 22bc 0371 7bbb
00000060: dacd 12bc 2df7 1fbc 6de7 e03d 551d b73d
00000070: 5b2e bb3d 9747 cdba 24eb 953d 8934 a93d
00000080: 72a0 1bbb dd12 c83d 5745 e0bb 232e 49ba
00000090: 4b65 aa3d e78f 19ba b88a e93d f06a 5bba
000000a0: a4a7 dc3d 0058 b73d 2ecc a8bb 8a60 4bbb
000000b0: b3a3 9b3d aa28 943d a80e 9c3d e5f0 c1b8
000000c0: 19d1 9e3d 712d 923d 947f 0cbb c272 a73d
000000d0: 8cd0 bbb9 5a55 663d 8f0b 21bb 35d0 9cbb
000000e0: 4e65 ae3d 470b 37bb ee76 bc3d 1bcc fbba
000000f0: 3367 ceb8 2e01 95bb 2ae1 a9ba 7ff5 1cb6
00000100: a58c a63d 766a c43d 1aca 8dbb 9a0d e43d
00000110: cf01 c0ba 3fb6 03b9 9a7d 963d 8688 aa3d
00000120: 4965 0bbc 6dfc 953d 2d9e 58b9 846c a93c
00000130: 0381 acbc e9b8 09b5 b46f b4bb 24fd 54bb
00000140: 10aa 80bb 28b1 b13d ba3b 15bc 2e81 b13d
00000150: 15a1 d73d 4560 6dba 9b9d 5fbb c81e d43d
00000160: 87b1 aa3d 4242 ed3d 90e8 c8ba bb10 39bb
00000170: 3d9e 28bb cdf5 0ebb ae91 a63d e521 ff3c
00000180: e4b4 0bb7 d863 af3d 3b68 f8bb 11a4 97bb
00000190: 1b03 59bb 9024 e0ba 3de5 b93d 60b2 e83d
000001a0: 1df5 f03d f727 ab3d 426c aebc 0076 763d
000001b0: dea3 e2b3 2a5f 3dbb bc10 60ba dbf3 8cba
000001c0: 28c8 b53d 003d 6c3d 3c57 08bb 4885 1dbb
000001d0: 1b91 babb c84f c13d ccb4 cb3d c434 fab4
000001e0: 80bf 65bb e1ef ed3d e286 d53d 6a3a 8e3d
000001f0: 9124 03bb 3e43 1db9 5f2f 11bc 3362 83bb
-0.0038823728 0.11631168 -0.003410778 -0.003966938 -0.0015485527 0.062362246 0.08467132 -1.09600755e-07
-0.0017222129 -0.0026141754 -0.0032341185 -0.0032870953 -0.0008246751 -0.00405625 -0.011966145 -0.0026810921
-0.0005787549 -0.00654646 0.104891494 -0.0021777388 -5.294135e-06 0.07978497 -0.009939352 -0.003836692
-0.008960212 -0.009763521 0.10981641 0.089411415 0.09139701 -0.0015661594 0.0732024 0.082619734
-0.0023746756 0.09769223 -0.0068442035 -0.00076744164 0.08320101 -0.000585793 0.114034116 -0.0008370122
0.107741624 0.089523315 -0.0051512932 -0.0031032884 0.075995825 0.072343186 0.07619983 -9.247827e-05
0.07754726 0.071375735 -0.0021438347 0.08176185 -0.000358228 0.05623374 -0.002457354 -0.0047855624
0.08515416 -0.0027930306 0.092023715 -0.0019210608 -9.842068e-05 -0.00454726 -0.0012960781 -2.338871e-06
0.081322946 0.09590618 -0.004327071 0.11135407 -0.0014648977 -0.00012561026 0.07348175 0.08326821
-0.008508035 0.07323537 -0.0002065829 0.020681627 -0.021057611 -5.1305557e-07 -0.00550648 -0.0032499516
-0.003926523 0.08676368 -0.009108478 0.08667217 0.10528771 -0.0009055178 -0.003412104 0.103574336
0.08334642 0.11584903 -0.0015328098 -0.0028238732 -0.0025729083 -0.002181399 0.08133255 0.031144092
-8.3271625e-06 0.085639656 -0.0075807846 -0.0046277125 -0.0033113423 -0.001710074 0.09076927 0.11362147
0.11765502 0.08357232 -0.021291856 0.060171127 -1.05537524e-07 -0.0028895834 -0.00085474155 -0.0010753827
0.088760674 0.05767536 -0.002080395 -0.002403574 -0.0056935675 0.09439045 0.09946594 -4.660452e-07
-0.003505677 0.11618019 0.104261175 0.06944735 -0.002001081 -0.00014997736 -0.008861392 -0.004009509

3.weight f4 [128, 128]
00000000: 4757 bfae c407 33b9 8245 fc2d c1dd cfaf
00000010: 022c 54ba 5908 98aa d2fc c7b9 2f24 a22e
00000020: a2af 72b9 26d2 c22d 4848 fa30 b552 c9b9
00000030: 93ab 9db7 ef66 31af 474f 302e cbc9 32b9
00000040: 0595 7132 2346 8d2d a3ad 0ab6 2609 9931
00000050: ccfe 9cae 5471 602e bcb4 b2ae 5708 cb2e
00000060: 4d43 03ae 4f33 6d2e 2c0b 06b8 bb95 bead
00000070: 91b9 b9b6 90f5 fe32 d121 6fb0 fb41 023a
00000080: ba56 8ab8 4586 84ae 7177 0baf 2666 0830
00000090: c3d1 0239 3f92 beab f5c7 923a 5776 3d2e
000000a0: aa0e 6038 0493 fbaf afcc 2530 84dd 56b5
000000b0: ef5e a0af 901e 502e c7d9 0c2e d7bc ab2d
000000c0: e374 472d ccb5 3338 04ad 11b0 ff26 6fb8
000000d0: 0fef 7fb1 9f3c 0b30 1bd2 d3ae a37a 66b0
000000e0: 7b8d f0ad 35a4 cc2f 51f0 d2b9 9084 572d
000000f0: 67bb 322e f3dc 03b1 2d99 e330 65e7 a5ae
00000100: 6d09 edae 899e fd2d 907e 47b7 2742 8d39
00000110: b560 ba2c 79c8 22ad 4e8b e7b1 f559 8db9
00000120: 04f3 86ae 8410 79af 768c 202d c83e b4ae
00000130: 541f c12e 5859 672d 182c 08ae 2780 0dba
00000140: fc5f 8db6 9cf8 db39 edb2 39ae d1a3 97b9
00000150: 4092 0eb7 18a8 9cb9 0baf 5ab0 96ce 3d39
00000160: 55ea 67b7 9927 132e 9e40 16b1 0627 b2b8
00000170: a87a 9db5 adfd 28b3 a0b4 adb9 6ff6 3a2d
00000180: d6f1 38ae a8f2 b92e 1a96 e0ad af1c 9030
00000190: 6bdd 632f 94b0 b6ac d1dc 17ba 945f 91b7
000001a0: 3a08 96ba eaf0 1ab9 8caa 2ead f95d e7b9
000001b0: 952a 07af f334 292f a722 38b5 ce1b 6830
000001c0: d18d 212e f833 3630 8d04 a2b0 1f27 4f2f
000001d0: 93f3 1f2f 6266 97b9 7d26 2c31 f6b1 692e
000001e0: 9b7a 51b7 eb07 ba30 6ec2 a633 8805 14b8
000001f0: 0e47 b138 4488 b92d 0f2c 46ab abf2 2131
00000200: daae c82e f3e3 f5af 51ba d1ac e3da c82d
00000210: 6aa5 cf2f d8b1 692e f2e2 a22f 212e 43af
00000220: 5429 41ad cabb c52f 4304 2eae f388 10b0
00000230: a44c 222e 0748 faae 442f b8ae 3e92 fbad
00000240: a262 d2ae e65d 62ac 8f6c 12ac 7330 0fac
00000250: 441e 44ad 4888 4dae 6716 a7af 59a3 a22d
00000260: ed27 6eae 0c9b c8ad 57b0 af2f 2cd1 9cae
00000270: 3d01 17b0 4e2b e82b 00f0 afaf de27 c52f
00000280: eaf3 8fb0 1b0d 2130 9fed a42e 6dc5 beae
00000290: 27f8 3baf 28bc 70b0 d4b2 c1af e9bd ee2e
000002a0: 1a85 a8af b88a 4bac 5150 45ae 9e16 6dae
000002b0: 5977 812d aa50 49b0 cc57 0cad b023 bf2f
000002c0: 256c 1dad 7066 baae 7ed5 69ad fc0e e0af
000002d0: 2b81 81ac f57e 402e 04d1 492b e8a1 952c
000002e0: 55ee 9d28 b7ef 0baf bfb1 562f c572 b7ad
000002f0: bf51 10b0 b984 6cac 099e acae 30b2 a9af
00000300: ab19 48af c562 bd2e 3f79 a4af 5414 942e
00000310: cf70 96ae b450 be2f 101d b0ad 219a 5aaf
00000320: 66ef c22d 81e6 05ad 8c83 9b2f 6d04 342e
00000330: 5e2c c7ac 85d3 adac 738a bd2f 9315 ae2f
00000340: 2bc3 272d 7933 29ae 206b ed2f 1205 f4af
00000350: cdd0 4e2f 5597 74ad c86d 622e 4891 ccae
00000360: 3a55 57af 70bf 672e d868 5a2e 3288 1130
00000370: 2516 b3ac 2fc5 10ae bfe1 76ae 8c96 ffae
00000380: 7709 862f ebfd ca2f d3a4 b22d af44 c7ad
00000390: c523 0f2d 38d8 032e 47e7 782f cac3 052f
000003a0: fe1b 7cae c68c bb2d 71de 81ac 4c46 6caf
000003b0: 1cf3 2e2f b1cc ac2e 5456 fd2c 1cd5 552e
000003c0: 407a b5ac 2e2d c72e f94d a4ad 12b8 cd2d
000003d0: a25d 37ad 6d98 3aaf ea89 b52e 4e85 d52f
000003e0: 5717 252e fdeb 5eab bd2d e9ad e2bd 19af
000003f0: a1b1 ef2e 2642 1e30 a2e3 51ad ec84 872e
-8.701178e-11 -0.00017073663 2.867995e-11 -3.7810646e-10 -0.0008093716 -2.7006416e-13 -0.00038144604 7.3733346e-11
-0.00023144347 2.2148571e-11 1.8210438e-09 -0.0003839933 -1.8795754e-05 -1.6134626e-10 4.008818e-11 -0.00017050577
1.4061929e-08 1.6060991e-11 -2.0664672e-06 4.453926e-09 -7.13932e-11 5.103236e-11 -8.126608e-11 9.232853e-11
-2.9845727e-11 5.3933132e-11 -3.1958494e-05 -2.1666993e-11 -5.5350324e-06 2.968116e-08 -8.699575e-10 0.00049689383
-6.596507e-05 -6.026516e-11 -1.268441e-10 4.9621673e-10 0.00012475908 -1.3540903e-12 0.0011198508 4.307873e-11
5.341942e-05 -4.5761095e-10 6.0317523e-10 -8.004356e-07 -2.9171285e-10 4.732087e-11 3.202574e-11 1.9524311e-11
1.1337794e-11 4.2846237e-05 -5.299656e-10 -5.701836e-05 -3.7243273e-09 5.0654053e-10 -9.632491e-11 -8.384779e-10
-2.7347671e-11 3.722406e-10 -0.0004023337 1.225077e-11 4.063896e-11 -1.9188604e-09 1.6559959e-09 -7.544435e-11
-1.07791866e-10 2.8833174e-11 -1.1890792e-05 0.00026942903 5.2971746e-12 -9.253148e-12 -6.738822e-09 -0.0002696064
-6.136783e-11 -2.2652286e-10 9.126136e-12 -8.1966045e-11 8.782189e-11 1.3150668e-11 -3.0961983e-11 -0.00053978193
-4.2133015e-06 0.00041956163 -4.2223048e-11 -0.00028923017 -8.497911e-06 -0.00029879878 -7.955669e-10 0.00018101404
-1.3823233e-05 3.34591e-11 -2.1864603e-09 -8.49497e-05 -1.1733109e-06 -3.9346265e-08 -0.00033131707 1.0627595e-11
-4.205155e-11 8.4559304e-11 -2.553251e-11 1.0485531e-09 2.0724193e-10 -5.1923552e-12 -0.0005793097 -1.7329854e-05
-0.0011446544 -0.00014776332 -9.928624e-12 -0.00044129769 -1.2293307e-10 1.5389272e-10 -6.859577e-07 8.444062e-10
3.673312e-11 6.6285066e-10 -1.1788345e-09 1.8840439e-10 1.4547501e-10 -0.00028877245 2.5051172e-09 5.3136127e-11
-1.2485917e-05 1.3535532e-09 7.765344e-08 -3.52911e-05 8.453253e-05 2.1092579e-11 -7.0404874e-13 2.3566524e-09
9.126007e-11 -4.4727208e-10 -5.9608225e-12 2.2834573e-11 3.7770614e-10 5.3136023e-11 2.9628883e-10 -1.7751535e-10
-1.09799565e-11 3.5967523e-10 -3.9566805e-11 -5.258151e-10 3.6902606e-11 -1.13814784e-10 -8.375747e-11 -2.860034e-11
-9.567215e-11 -3.2168656e-12 -2.080811e-12 -2.0348417e-12 -1.114803e-11 -4.6732646e-11 -3.039304e-10 1.8489809e-11
-5.4150396e-11 -2.2806222e-11 3.1957612e-10 -7.131215e-11 -5.493524e-10 1.6496611e-12 -3.2002845e-10 3.5862419e-10
-1.0473944e-09 5.8590083e-10 7.5000665e-11 -8.6752695e-11 -1.7095712e-10 -8.757888e-10 -3.523356e-10 1.0856722e-10
-3.0653596e-10 -2.892504e-12 -4.486395e-11 -5.390765e-11 1.4718603e-11 -7.3238005e-10 -7.9775735e-12 3.4768055e-10
-8.94843e-12 -8.476497e-11 -1.3291921e-11 -4.075601e-10 -3.680741e-12 4.3768506e-11 7.169961e-13 4.25281e-12
1.7533862e-14 -1.272714e-10 1.9526335e-10 -2.085566e-11 -5.2503063e-10 -3.3611293e-12 -7.849727e-11 -3.086753e-10
-1.8199013e-10 8.61227e-11 -2.9917577e-10 6.733872e-11 -6.841249e-11 3.4618142e-10 -2.002179e-11 -1.9881742e-10
2.216156e-11 -7.611357e-12 2.8287805e-10 4.0931192e-11 -5.660846e-12 -4.940439e-12 3.4477274e-10 3.1665745e-10
9.536187e-12 -3.8471868e-11 4.3186166e-10 -4.4386944e-10 1.8809772e-10 -1.3903397e-11 5.1483956e-11 -9.302653e-11
-1.9584415e-10 5.269335e-11 4.966058e-11 5.294424e-10 -5.0899445e-12 -3.2916943e-11 -5.6134427e-11 -1.16228e-10
2.4381183e-10 3.6924006e-10 2.0309454e-11 -2.2654182e-11 8.136551e-12 2.9977992e-11 2.2637635e-10 1.2165838e-10
-5.732303e-11 2.1321955e-11 -3.6910965e-12 -2.148905e-10 1.5911578e-10 7.858015e-11 7.200277e-12 4.8619872e-11
-5.157902e-12 9.057498e-11 -1.8679268e-11 2.3387545e-11 -1.0423136e-11 -1.6970754e-10 8.2554255e-11 3.8839193e-10
3.7537386e-11 -7.9197743e-13 -2.6509345e-11 -1.3982729e-10 1.0900015e-10 5.757407e-10 -1.1930819e-11 6.162701e-11

3.bias f4 [128]
00000000: ec20 12bb 3a5e 3cbb b267 a0bb f274 973d
00000010: 8849 bbbb 7417 6c3d 0f04 33bb eb63 a73d
00000020: e362 9abb e798 b93d d71f 99bb 353e b5bb
00000030: 71dc ab3d 5b98 993d f109 6e3d 8e72 d0ba
00000040: f534 e1ba b28e 92bb 2a45 923d 77c8 883d
00000050: 318b 9c3d 14c9 753d c75a 9abb 10c8 6abb
00000060: 668d 873d b250 7bbb a44b 8dbb f515 a3bb
00000070: 140f 6ebb 4f7c a9bb 8b53 11bb 7a49 73bb
00000080: c2da 90ba 1820 65bb 4857 bfbb 83f4 863d
00000090: 0739 ffba a28e 62bb d2dc 453d b20c bbbb
000000a0: 030f 81bb b3af c5bb 9d35 8ebb ccaa a53d
000000b0: 7fa5 983d ab10 b3bb a401 313d 4fe1 aabb
000000c0: 2763 4bbb 70ac c1ba 86bf b0bb ec84 b43d
000000d0: f788 bcbb 1372 623d da94 6b3d 6c62 8dbb
000000e0: 60b1 92bb 8448 3abb 0ac9 a8bb a50b 5c3d
000000f0: 9e1b 95bb 3e97 9abb 6160 aebb ba2f bcbb
00000100: 3d55 77bb 50c0 a23d 1ba5 c7bb 58e5 c1bb
00000110: 10c1 96bb 2212 94bb 3b38 b13d d461 abbb
00000120: f8af e4ba 6847 bcbb 15f1 59bb 3878 7bbb
00000130: c833 19bb dd21 bbbb 238d acbb 5f47 bcbb
00000140: 8449 9dbb 1396 63bb bb94 c53d dd92 bebb
00000150: c9d0 cfb7 47c1 a5bb df1a 963d 4d4d 37bb
00000160: edb3 6b3d c9f8 7cbb de37 60bb 4b33 813d
00000170: c3b2 7fbb 4697 88bb f960 23bc fe12 b23d
00000180: fd06 a2bb c4d3 903d 6c81 acbb a8c3 8ebb
00000190: 62c4 74bb 0173 bdbb f7f6 b53d b1a7 c1bb
000001a0: 872b 29bc 3ee1 62bb ac7a 0abb 3d8e 08bb
000001b0: 5898 9f3d 0085 adbb 9753 7dbb ff00 833d
000001c0: f567 873d c3c1 07ba b1f7 9ebb e52c 9d3d
000001d0: bf3d b6bb a1b3 abbb d8a1 babb 9221 bcbb
000001e0: 1b84 aabb 9d6b 9dbb 8012 b3bb 3a62 a03d
000001f0: 7e6e 46bb 6d8c 833d 19e0 eeba 6796 adbb
-0.0022297455 -0.0028742687 -0.004895174 0.073953524 -0.0057155527 0.057639554 -0.0027315652 0.08173355
-0.0047114952 0.09062367 -0.004672985 -0.0055310973 0.08391655 0.074997626 0.05811495 -0.0015903281
-0.001718192 -0.004472577 0.07142098 0.06678861 0.07643736 0.060006216 -0.0047105285 -0.0035824813
0.066187665 -0.0038347659 -0.0043119956 -0.0049769827 -0.0036324905 -0.0051722894 -0.002217504 -0.0037122653
-0.0011051523 -0.0034961756 -0.005839262 0.06589606 -0.0019471952 -0.003456988 0.048306294 -0.0057083005
-0.003938557 -0.006032908 -0.0043398873 0.080892175 0.07453441 -0.0054646335 0.043214455 -0.005214847
-0.0031034441 -0.0014776122 -0.005393925 0.08814415 -0.005753632 0.05528457 0.057515003 -0.0043147113
-0.004476711 -0.002842457 -0.005150919 0.053722043 -0.0045504114 -0.0047177365 -0.005321548 -0.005742994
-0.0037740015 0.07946837 -0.00609268 -0.0059172325 -0.0046006516 -0.004518763 0.08653303 -0.005230168
-0.0017447462 -0.005745817 -0.0033255268 -0.0038371217 -0.0023376811 -0.005710824 -0.0052658482 -0.005745813
-0.0048000235 -0.0034726902 0.09647509 -0.0058158473 -2.4773546e-05 -0.005058441 0.07329344 -0.002796966
0.057544637 -0.0038600436 -0.0034212987 0.063086115 -0.0039016462 -0.004168424 -0.009971851 0.08695029
-0.0049446807 0.07071641 -0.0052644517 -0.00435682 -0.0037348499 -0.005781532 0.088849954 -0.005909883
-0.010325319 -0.0034619118 -0.0021130247 -0.0020836734 0.07792729 -0.005295396 -0.003865456 0.06396674
0.06611625 -0.0005178714 -0.0048513045 0.076745786 -0.00556156 -0.0052399193 -0.005695563 -0.0057413066
-0.0052037365 -0.0048040883 -0.005464852 0.07831235 -0.003027826 0.064232685 -0.0018224745 -0.0052974704

6.weight f4 [3, 128]
00000000: ddb1 92ba ccd9 9e30 ab4d c92f a8b2 a1bd
00000010: e788 90b0 6be5 42bd 3a05 303a 5f9c 87bd
00000020: d08d 0231 fed3 96bd 89a7 252f 0125 2aae
00000030: 3b04 99bd 62ec 9cbd 4124 6bbd a53e 26b0
00000040: dc6e 6dba 7312 2330 9740 81bd 0135 8ebd
00000050: 35b6 7abd 1adf 45bd 3710 9a2e 0a58 2731
00000060: 1563 68bd 0d66 fe2f 82de ecb2 a852 4030
00000070: 6415 83bb 1103 97b0 2f90 c6b0 6ee7 302f
00000080: 72e0 52bb 5d55 25ba 3973 8433 c576 8bbd
00000090: 1224 8b30 bd83 af3b 3058 26bd 13ba 0234
000000a0: d14e 7b3b 14c8 f5ba 2b91 362f 15b3 94bd
000000b0: b50a 98bd 3e7f 0c2f d019 22bd 9846 8fbb
000000c0: a109 372f 9911 2e3b 99fc 1a30 4a7d 6ebd
000000d0: 449e bdb0 3840 40bd 2659 0dbd ab23 a2bb
000000e0: e66a aeaf 272a 1fba 85a9 13ba a22e 33bd
000000f0: 2fed 86bb 963f 8139 36e7 1bb4 ad01 5d2f
00000100: e0fb 76af 101e 80bd 4976 babb 8694 58bb
00000110: 5c61 bf38 3e05 0539 d8c9 8cbd b9c7 a0b0
00000120: 343a 913a 329d 40b1 26cd 9b31 564f 8d30
00000130: fc63 23b0 f84c bf2f 56bc 8faf 5f99 67b1
00000140: 3788 553b 1dde 4ab1 6608 9fbd b56e a6b0
00000150: d4e6 0331 70de e030 fa61 7abd c5a0 0cb1
00000160: e066 68bd 0d63 69b9 896f 4ab1 d9b2 80bd
00000170: 87f3 e1b0 4b27 f831 841b 49bc 2fb3 8dbd
00000180: dc94 cbaf b69c 94bd bc86 faad 2046 7330
00000190: fd4f 8fb1 3008 8e2f 3bbe 8ebd ee6b a2b0
000001a0: 0bd5 2b3c 3945 f7b1 623a b12f 9f88 783b
000001b0: def4 8dbd 2734 90b1 cf30 e72f da49 62bd
000001c0: 2b06 81bd 2e71 b3ae cc96 1230 4012 73bd
000001d0: af87 e92f afc0 e9bb 5dc9 b0bb 344c a3b0
000001e0: 6d5c 40b0 e612 102f 018f 2bb1 ecb1 92bd
000001f0: 3143 a3b0 5b02 84bd 145e 6930 21d9 67b5
00000200: cc59 fa3a a5aa ccaf db2c 49ad 1640 8fbc
00000210: 43e6 60b0 1c17 d0bc dd9c 7f3a a537 4ebd
00000220: 3a44 0d30 fe1e 45bd bd54 8f30 cee8 2631
00000230: 949e 53bd af9c 9ebc 69d8 e4bc 3cdb 05b0
00000240: 7fe2 01ba 53d5 5030 7121 d1bc 9836 a0bc
00000250: 50aa 46bd d9f9 3fbd 4769 72af 2497 6c30
00000260: 5a67 56bd 8e9e 73b0 a636 82b0 63fe 9d2f
00000270: e1c7 e4ba d9bb 83b0 1c29 4db0 d9fe e92c
00000280: fbad a63a d89e 1fba e7ee ee30 fb5f f9bc
00000290: d761 03af 4e44 4b3b 2047 29bd a070 3ab1
000002a0: 9fcb a8bb 768c 243b 831a 80af 4a98 0abd
000002b0: 5966 bcbc ce06 f7ac 3229 4fbd afa3 ed3a
000002c0: 0ca6 e130 c766 1ab9 d14f 432e d3b0 74bd
000002d0: 49cc 9f30 5f78 58bd 5437 4dbd 8fc5 233b
000002e0: 1b89 692e 7107 67bb 84dd 9f3a 43d8 38bd
000002f0: 44dc 5cba 7c44 46ba 49d2 a7b8 1f61 9330
00000300: db13 2431 c904 29bd a961 77bb 1ae8 72bb
00000310: 6e2c a2bb c40f 3eb9 19a6 65bd 670e 0bb1
00000320: 19c6 d2ba 0721 2db1 21e8 cfaf 63cb 28b0
00000330: 7c55 4930 c95c 3833 698b 8830 1a6e 1530
00000340: 2104 843b dc46 6db9 a000 53bd 4886 782e
00000350: f40e 10b8 5c11 e730 aed7 30bd 12de d1b0
00000360: 7b0a 5cbd f1e2 c33a c60a 12b7 084f 78bc
00000370: ec99 3130 a9be 90b0 32be 3f3c bbfd 6bbd
00000380: 3fe7 86b0 f768 f1bc 0d84 b730 7fde 232e
00000390: 124b 31b0 1d73 08b3 f981 32bd 5733 1630
000003a0: 2e12 76bb 9ec7 e6b0 d6d6 a1b2 38fb 81bb
000003b0: 963f 11bd 4f0a 84b5 f47f 47b0 1a5c 40bd
000003c0: a072 eabc 756f b9b0 24d8 42b0 773b 4fbd
000003d0: 16a6 5530 3ee0 85bb bf85 153b 2cbb 9cb2
000003e0: adca 2031 a674 afaf 9cf2 98b1 00ca 31bd
000003f0: fae6 e4af 1cb1 e0bc 65cf 8830 64ce 17b0
-0.0011191923 1.1557915e-09 3.6616873e-10 -0.07895404 -1.0516289e-09 -0.04758207 0.0006714646 -0.06621622
1.89981e-09 -0.07364653 1.5066183e-10 -3.868639e-11 -0.0747151 -0.07662274 -0.05740762 -6.047947e-10
-0.0009057352 5.932527e-10 -0.06311148 -0.069437034 -0.061208922 -0.04830847 7.0059895e-11 2.4351743e-09
-0.056735117 4.6274842e-10 -2.75752e-08 6.9966655e-10 -0.0040003527 -1.0987568e-09 -1.4447376e-09 1.6089327e-10
-0.0032177237 -0.00063069706 6.167688e-08 -0.06809763 1.0123833e-09 0.0053562806 -0.040611446 1.2174887e-07
0.0038346539 -0.0018751645 1.6604378e-10 -0.0726072 -0.07423917 1.2778131e-10 -0.039575398 -0.004372429
1.6647174e-10 0.0026560782 5.6383836e-10 -0.058224954 -1.3796542e-09 -0.046936244 -0.034508847 -0.0049480996
-3.1726372e-10 -0.000607165 -0.00056328654 -0.043745644 -0.00411763 0.00024652173 -1.4519614e-07 2.0100428e-10
-2.2463054e-10 -0.06255734 -0.00569037 -0.0033047511 9.125724e-05 0.00012685821 -0.06874436 -1.1698297e-09
0.0011079968 -2.8029032e-09 4.5344164e-09 1.0281649e-09 -5.944114e-10 3.4797387e-10 -2.614537e-10 -3.3702106e-09
0.003258241 -2.9521126e-09 -0.07765274 -1.2109554e-09 1.919422e-09 1.6361366e-09 -0.061128594 -2.0464068e-09
-0.056738734 -0.00022257511 -2.945827e-09 -0.062841125 -1.6440119e-09 7.222217e-09 -0.012274627 -0.06918942
-3.7031256e-10 -0.07256453 -2.8481544e-11 8.850254e-10 -4.1709414e-09 2.5835467e-10 -0.06969877 -1.1817727e-09
0.010487805 -7.196516e-09 3.2237596e-10 0.003792323 -0.0693147 -4.1968806e-09 4.2053336e-10 -0.05524621
-0.063000046 -8.160082e-11 5.3328786e-10 -0.059343576 4.2478862e-10 -0.0071335654 -0.005395098 -1.1881469e-09
-6.998054e-10 1.3103438e-10 -2.4965063e-09 -0.07162842 -1.1878908e-09 -0.06445762 8.48986e-10 -8.637017e-07
0.0019100248 -3.7228634e-10 -1.1435487e-11 -0.017486613 -8.1817947e-10 -0.025401644 0.00097508525 -0.050346036
5.1392457e-10 -0.04812526 1.0428703e-09 2.4288513e-09 -0.051664904 -0.019361822 -0.027935224 -4.869667e-10
-0.000495471 7.597311e-10 -0.025528641 -0.019557282 -0.048502266 -0.046869133 -2.2047174e-10 8.6071084e-10
-0.052344657 -8.8628205e-10 -9.474277e-10 2.8738886e-10 -0.0017454588 -9.584894e-10 -7.4636985e-10 6.650552e-12
0.0012716645 -0.0006089038 1.7384679e-09 -0.030441275 -1.194914e-10 0.0031016055 -0.041327596 -2.7130582e-09
-0.0051512267 0.0025108135 -2.3301902e-10 -0.03383664 -0.022998022 -7.0209177e-12 -0.050576396 0.0018130447
1.6418098e-09 -0.00014724872 4.4408758e-11 -0.059738945 1.1626834e-09 -0.05284917 -0.050101593 0.002498958
5.309984e-11 -0.0035252238 0.0012196754 -0.04512812 -0.0008425156 -0.00075633056 -8.002349e-05 1.0723261e-09
2.3876428e-09 -0.04126433 -0.003774742 -0.0037064613 -0.004949144 -0.00018125685 -0.056066606 -2.023535e-09
-0.0016080766 -2.5193587e-09 -3.7818018e-10 -6.1407074e-10 7.3244855e-10 4.2925226e-08 9.934925e-10 5.436235e-10
0.0040288125 -0.00022628478 -0.051514268 5.6507937e-11 -3.43462e-05 1.6812396e-09 -0.04317444 -1.5269868e-09
-0.053720932 0.0014944953 -8.7047865e-06 -0.015155561 6.461096e-10 -1.0531568e-09 0.011703061 -0.057615023
-9.815507e-10 -0.029468996 1.3352534e-09 3.7259525e-11 -6.4498906e-10 -3.1769662e-08 -0.043580983 5.464264e-10
-0.0037547457 -1.6791437e-09 -1.8840563e-08 -0.003966715 -0.03546103 -9.837767e-07 -7.257761e-10 -0.046962835
-0.02861911 -1.34922e-09 -7.0883943e-10 -0.05059382 7.772497e-10 -0.0040855696 0.0022815315 -1.8245906e-08
2.3398272e-09 -3.1915198e-10 -4.4513637e-09 -0.043405533 -4.1637077e-10 -0.027428202 9.954247e-10 -5.522678e-10

6.bias f4 [3]
00000000: 913c 07bd 2275 9dbc 3d92 523d
-0.033016745 -0.019220892 0.051408995

exp_avg f4 [128, 105]
00000000: 40ed 18b3 657f 12b3 f1d8 a323 55e9 37b2
00000010: 5692 42a3 3380 30b3 aee7 70a4 a447 0ca4
00000020: a993 c3a5 8e8b 15a3 9920 7224 ec92 17a3
00000030: 5c45 3925 1272 0c25 173c 78a4 d4d7 1b23
00000040: dc0d a824 ebba 46a4 196b 92a3 03df 1024
00000050: e0f7 8525 757d f124 58bf 45a5 ae6b 7425
00000060: 480d 0925 7c1c 7825 d006 a125 cd63 0aa5
00000070: 4b0b 29a5 90d5 4f24 41b5 0ea3 d351 2ca4
00000080: 6db9 26a4 d7cf 9423 a6f2 0ca5 759a 74a3
00000090: cac4 2c25 1a23 0da5 8790 06a5 715a a4a5
000000a0: b027 10a4 0886 d4a2 bd50 0fa3 0b14 7aa5
000000b0: 3a98 a724 9342 4224 1ffe 6ba5 6413 3125
000000c0: 8373 de25 2a16 24a4 3e57 1a24 dcbc 7a24
000000d0: 57b4 c5a4 2454 6225 b2f3 18a4 91f6 aca4
000000e0: b709 baa5 484e ab24 7c76 9ca4 fd17 4d22
000000f0: 49b7 fe24 b979 3725 c616 0ea5 7cab a0a4
00000100: 9073 2123 2253 8e25 aeec 1424 5692 19a4
00000110: 36bb 9825 1cb5 8825 ed89 0ba5 f5ea 8625
00000120: 61c4 2825 8270 26a4 aeaa a4a4 e14e c1a4
00000130: 2f94 e8a4 e35e 0f25 0079 09a5 8dad 86a4
00000140: 3205 78a5 a52c e125 8399 2ea5 2272 c6a5
00000150: 3a62 17a4 79ae 9ea5 4066 0aa5 bde3 93a5
00000160: cec0 1225 7763 1324 bdcf a622 3ad9 b425
00000170: c0b6 6925 17a6 e723 e175 f0a4 1d3f f5a4
00000180: fb57 8525 c601 8024 3ffa 0b25 2988 2624
00000190: dab9 0725 5151 57a5 8cbd 3b24 13b4 a3a5
000001a0: fde1 d5a4 38ad 463c aa00 c23c 0d64 87a5
000001b0: af01 e93b 4873 ce23 22ad 463c 571e e8a4
000001c0: de83 82a5 a91f 5725 905d 0124 2145 1925
000001d0: 8124 1da4 8d41 9ca4 42db c823 4d1b 4325
000001e0: f117 6d25 bd40 8d25 4dd3 51a5 4624 daa4
000001f0: 1635 e724 aa5e 2624 dda8 ee24 bfc0 f9a4
00000200: f87f 3ea5 a95b e425 ccd3 04a4 9a75 b225
00000210: 613e 1b25 81c7 0c25 b02e dea5 f19c bf23
00000220: 0b12 43a4 2495 61a3 1dd0 3da5 f783 2a25
00000230: f3ed bba1 d7d2 c824 3479 0a24 13ac 0fa5
00000240: 4279 c4a4 3583 2a23 5e16 d0a4 ea16 0d23
00000250: e071 eb24 d4f8 ada3 3680 26a4 812d 2224
00000260: 5791 e425 28f4 e3a5 5c33 f1a3 2de6 24a4
00000270: 1869 db25 d235 84a3 7a7e 7e25 9af6 d3a5
00000280: 51ee 1423 0d46 8a25 ae8c 7624 4dde 7ca4
00000290: 8c54 ce25 86fa d425 4ba8 c7a5 9594 09a5
000002a0: e6dc dfa4 4f8a 7924 6f81 2c24 7fb2 b324
000002b0: 0cec ab25 cefc 9825 37c4 c625 0e9b 8025
000002c0: 06b7 f8a4 e8e9 4ca4 7c6a 8da5 16b1 13a4
000002d0: ec70 b5a5 4ab1 d324 603a 34a2 b9a5 00a4
000002e0: 0b74 0e25 5e5f d9a5 4082 f1a3 f0f5 ab24
000002f0: f0e9 11a5 3427 af24 d8e6 2225 4933 6625
00000300: 9d78 de25 3056 c425 be3d 26a5 ddc5 87a5
00000310: e33f c0a5 75cb a0a5 cdb8 3fa5 d24a e3a5
00000320: 8d03 62a5 a932 fea4 40fc ffa3 ace6 b1a4
00000330: d458 e2a5 3853 35a4 6f3a 0ea5 e51b 0ba4
00000340: 7e68 eaa4 3f19 d524 59dd 11b3 eb13 72b3
00000350: 52b7 9725 1b34 95b3 d88e 1ba3 470c 14b3
00000360: 0970 0525 3476 1ca4 1d8c 74a5 3fcb b224
00000370: bfe0 75a4 c71d 1925 cdbc 0f25 cd12 1225
00000380: 6b1d 1225 a701 1225 3a83 ad23 1edc bca5
00000390: eef0 2124 ddee d2a4 df76 9e25 d29b f8a4
000003a0: f893 8d25 88de 88a4 d3dd e5a4 f20f c525
000003b0: 02dd 5f25 7cfc cea5 c142 8e25 ae9b 8ba5
000003c0: 104d 0fa5 7baa 20a4 b451 a3a5 a410 d4a2
000003d0: 2f68 1aa3 cb18 0da5 eae6 e4a5 41da 9924
000003e0: 63bd b725 1373 5ca1 eedf 87a5 eeca cd25
000003f0: 83bb 25a4 d0ae 0324 f19f f6a3 585c 4ca4
-3.5606035e-08 -3.410914e-08 1.7764374e-17 -1.07050555e-08 -1.0547749e-17 -4.109479e-08 -5.2237945e-17 -3.0418343e-17
-3.3927166e-16 -8.106858e-18 5.2502996e-17 -8.216838e-18 1.6069692e-16 1.2181713e-16 -5.3827326e-17 8.44827e-18
7.2881865e-17 -4.3092732e-17 -1.587471e-17 3.141392e-17 2.323979e-16 1.0472962e-16 -1.7151856e-16 2.120011e-16
1.1887356e-16 2.1520222e-16 2.7933664e-16 -1.2003406e-16 -1.466224e-16 4.5066864e-17 -7.7362174e-18 -3.7365863e-17
-3.6152574e-17 1.6134216e-17 -1.2225277e-16 -1.3259974e-17 1.4985297e-16 -1.2241693e-16 -1.1671615e-16 -2.851075e-16
-3.125864e-17 -5.7604626e-18 -7.7691425e-18 -2.1690834e-16 7.268259e-17 4.2123435e-17 -2.04691e-16 1.5358873e-16
3.8589135e-16 -3.5580605e-17 3.3467324e-17 5.437008e-17 -8.574064e-17 1.9630883e-16 -3.3166164e-17 -7.501081e-17
-3.227244e-16 7.429204e-17 -6.7854936e-17 2.779538e-18 1.1046544e-16 1.5913961e-16 -1.2324253e-16 -6.9679445e-17
8.752299e-18 2.4689406e-16 3.229286e-17 -3.3300538e-17 2.6494656e-16 2.3714964e-16 -1.2103059e-16 2.3404508e-16
1.4638213e-16 -3.609081e-17 -7.1412805e-17 -8.3834034e-17 -1.00864994e-16 1.2435422e-16 -1.1923852e-16 -5.840724e-17
-2.1512331e-16 3.906153e-16 -1.5144106e-16 -3.4424864e-16 -3.2826107e-17 -2.7526858e-16 -1.2004236e-16 -2.5654757e-16
1.2728806e-16 3.1959794e-17 4.521434e-18 3.137222e-16 2.0271447e-16 2.5115412e-17 -1.042831e-16 -1.0635873e-16
2.313144e-16 5.5514156e-17 1.2141115e-16 3.6110844e-17 1.1772352e-16 -1.8675828e-16 4.0709714e-17 -2.8398016e-16
-9.2756864e-17 0.0121262595 0.023681957 -2.3486564e-16 0.0071107964 2.2383388e-17 0.012126239 -1.0066536e-16
-2.2640762e-16 1.8659004e-16 2.8051667e-17 1.3294056e-16 -3.4074868e-17 -6.776526e-17 2.1776903e-17 1.6922804e-16
2.0564585e-16 2.450347e-16 -1.8199452e-16 -9.460388e-17 1.0027021e-16 3.6075696e-17 1.0350211e-16 -1.0831306e-16
-1.652323e-16 3.9613807e-16 -2.8802336e-17 3.0957768e-16 1.3465242e-16 1.2210659e-16 -3.8542498e-16 2.0774729e-17
-4.2299168e-17 -1.2228856e-17 -1.6463648e-16 1.4789861e-16 -1.2734598e-18 8.709335e-17 3.0026643e-17 -1.2461574e-16
-8.520687e-17 9.243503e-18 -9.024351e-17 7.6484776e-18 1.02107916e-16 -1.886208e-17 -3.610411e-17 3.5166694e-17
3.9650181e-16 -3.954367e-16 -2.6151024e-17 -3.5756798e-17 3.8061658e-16 -1.4334262e-17 2.207384e-16 -3.676977e-16
8.0735615e-18 2.3986652e-16 5.3461907e-17 -5.4832086e-17 3.5792595e-16 3.69459e-16 -3.4635037e-16 -1.1933197e-16
-9.708505e-17 5.411042e-17 3.740619e-17 7.793126e-17 2.9823723e-16 2.6539104e-16 3.4480485e-16 2.230953e-16
-1.0786291e-16 -4.4433575e-17 -2.4531758e-16 -3.202554e-17 -3.1475014e-16 9.1807e-17 -2.4425452e-18 -2.7895948e-17
1.2355854e-16 -3.7708123e-16 -2.6184435e-17 7.457606e-17 -1.2656006e-16 7.5960565e-17 1.4129473e-16 1.9966696e-16
3.8592592e-16 3.4058983e-16 -1.4419124e-16 -2.3552844e-16 -3.3349982e-16 -2.7893443e-16 -1.6629222e-16 -3.9428923e-16
-1.9603578e-16 -1.1024076e-16 -2.7753987e-17 -7.715229e-17 -3.9264943e-16 -3.9318608e-17 -1.2336335e-16 -3.0164448e-17
-1.0165834e-16 9.2416794e-17 -3.3961758e-08 -5.636313e-08 2.6318547e-16 -6.947831e-08 -8.432815e-18 -3.44701e-08
1.157387e-16 -3.392723e-17 -2.1211099e-16 7.753951e-17 -5.3316274e-17 1.3280724e-16 1.2467241e-16 1.2669851e-16
1.2673449e-16 1.2664041e-16 1.8812274e-17 -3.2761959e-16 3.5115385e-17 -9.147763e-17 2.748918e-16 -1.07816825e-16
2.4559869e-16 -5.935758e-17 -9.9688704e-17 3.4184857e-16 1.9417047e-16 -3.5906394e-16 2.4678308e-16 -2.421815e-16
-1.2429383e-16 -3.4838872e-17 -2.8331357e-16 -5.7480334e-18 -8.3704185e-18 -1.2238201e-16 -3.970817e-16 6.672291e-17
3.1873773e-16 -7.46912e-19 -2.3570508e-16 3.5699342e-16 -3.59375e-17 2.855417e-17 -2.6739111e-17 -4.4313667e-17

exp_avg_sq f4 [128, 105]
00000000: 2822 322d 2d3a 142d 788f 701e 5cd7 682b
00000010: b8a5 cd1f d41c 322d df23 9720 f960 e01f
00000020: de47 c220 18b4 9120 e780 ee1e 3b6e 8a1e
00000030: 4e41 0d21 47ca 4e1f 1efe ea1f 33d5 a61e
00000040: 5975 091f f41d e61f 32b9 8e20 51d4 e01f
00000050: bd25 2d20 77b3 981f 7048 a620 c4e1 ab20
00000060: 4be5 461f dba2 2320 c480 0321 9795 9f20
00000070: 9834 0c20 9a0e e21e 5fa0 d21b a4d1 c01f
00000080: d47b d31e b560 9d1c ef8e 851f d3f9 691c
00000090: 0e6c 2221 7fac 501f 295f 0420 435d b720
000000a0: 8b36 7c1d e8ad 871b e4f4 d31b b270 2420
000000b0: de44 091f 4474 be1f 4516 1f20 1d27 0e20
000000c0: 33eb e920 30d0 041e 9056 1d1e e0ae f11e
000000d0: 0145 a61f c98d 0a21 5134 931d a6cf ac1f
000000e0: 840a fe20 7fce 0a1f 89ec 1c21 d572 9d1e
000000f0: daae 931f 3fbf 0f20 e7c6 831f a972 061f
00000100: bb54 a71e 72e3 4020 0cca 881d b3a0 1a21
00000110: 32f3 b320 0e41 0721 4721 1021 975d 5420
00000120: 98f2 7920 2d27 9520 d496 1321 e4d6 f81f
00000130: 0c2b 9d20 3122 a020 120f 8a1f db14 ed1f
00000140: 50d2 5f20 85f6 e620 e38b 0d20 04bf f820
00000150: 5df6 8e1d 97e2 0321 0ad0 491f f197 b220
00000160: f881 a020 a277 c31f 5f23 9020 3eb8 bc20
00000170: 934b 1e20 6cf6 211d 8b4d 0120 a3e0 8220
00000180: ed5c 5620 c6a4 f31e 7b94 4d1f 4d5c e31d
00000190: 923b 441f d06d 1820 8609 e51f b12a b720
000001a0: 6da2 a11f 7346 6238 d1f7 2c38 10ba 5320
000001b0: 6429 fd36 77ec 5c1e 7d46 6238 60eb 9b1f
000001c0: 6a66 2920 0c5f 1820 fe31 8d20 4410 7e20
000001d0: 9d08 e21f f1f3 b01f 9344 fd1c f8f9 a520
000001e0: cf79 1f20 9955 4820 63d2 1620 665a a01f
000001f0: 7738 9c1f 689c ed1d f31c 0120 bc49 0220
00000200: d38b 1120 ff11 da20 5186 521d c2e5 bb20
00000210: 9efa 0820 00af 4f1f 8c2c ea20 a3d6 c81f
00000220: 2f92 1521 d639 1921 2c5e 1120 dd8e 0c20
00000230: fbea 9a1e c366 a51f cd67 c41f 7f16 591f
00000240: c4cf 151f cc92 881e 5d4a 1221 3585 a51e
00000250: fe34 1f21 0b08 9320 ceec df1d 6dc0 1a21
00000260: a8ce da20 71f7 d820 0a1e 4b1e 78cb e21f
00000270: 4a90 ec20 5b80 831c 0125 ad20 4326 ca20
00000280: 245f e01b a344 4f20 2e22 f01e 88f2 b71f
00000290: 1224 c720 ebbd ca20 3705 c420 f602 481f
000002a0: 8d20 ff1f 4f53 b81f 87cc c01f a515 ab1f
000002b0: f9bb b920 de05 b420 87a1 c320 498b 5b20
000002c0: 7d0f 1121 f72d 9620 c4c1 4720 74e1 851d
000002d0: 2fed bc20 5b48 a21f 4ee2 9c1e e62f c61e
000002e0: ac28 831f 6b8d cd20 00f3 4a1e 2d33 8720
000002f0: e947 731f 6811 9a20 15ad 0e21 411b 1d20
00000300: 52e6 e920 bf98 c220 e089 0b20 796b 2f20
00000310: c8ef c020 e84a b620 2576 7320 b0c7 e320
00000320: 3e6f 6820 2cc3 0220 2f60 431d ed31 1321
00000330: 895c e520 d58c 9520 388b 831f c2ed 8c20
00000340: 6a27 9b1f c1cd 8420 4baa 8d2f 130b fb2f
00000350: d9fd 0421 4041 e82d a74c ef1b 3daa 8d2f
00000360: 4603 401f fe73 8c20 3b3b 2220 99e5 f51f
00000370: a7e2 ef1e 4d7e 0820 935a 591f a4e5 691f
00000380: 7a18 6f1f 92d6 711f a443 6c1e 23a0 bf20
00000390: 4602 0c1e c6fe 9b20 a49a b520 912a 0220
000003a0: 6c21 4720 b08c b51f 37ce 8320 0861 f920
000003b0: 975e a920 3382 f420 43db 4220 92ab 4c20
000003c0: 0f98 811f 5f88 0f1e df0c b720 4b2b d51f
000003d0: ecd9 1721 3397 8020 6ceb dc20 f3b9 031f
000003e0: a1f1 fe20 6330 1619 0e5d af20 c2df c620
000003f0: ba83 cf1d 8569 3e1e 4bd0 351d e221 8b20
1.0125713e-11 8.425744e-12 1.2735163e-20 8.272183e-13 8.7095036e-20 1.012453e-11 2.5604133e-19 9.502812e-20
3.2912436e-19 2.4683132e-19 2.5252543e-20 1.4656909e-20 4.785909e-19 4.3789517e-20 9.9523256e-20 1.766411e-20
2.9107946e-20 9.745834e-20 2.4178288e-19 9.521894e-20 1.4666157e-19 6.4671404e-20 2.816943e-19 2.9117926e-19
4.2117798e-20 1.3860521e-19 4.4554946e-19 2.7034638e-19 1.1875863e-19 2.393472e-20 3.4845223e-22 8.1661984e-20
2.2391708e-20 1.0414387e-21 5.6564155e-20 7.7416123e-22 5.5030744e-19 4.41884e-20 1.1212321e-19 3.1063121e-19
3.338012e-21 2.244626e-22 3.5065279e-22 1.3928628e-19 2.9067844e-20 8.0660475e-20 1.3475192e-19 1.2040809e-19
3.9627377e-19 7.031074e-21 8.3294115e-21 2.5589194e-20 7.041789e-20 4.694387e-19 3.896467e-21 7.318836e-20
4.3036232e-19 2.9393446e-20 5.316791e-19 1.6670515e-20 6.254619e-20 1.2175849e-19 5.5809714e-20 2.847045e-20
1.7716856e-20 1.6338288e-19 3.620781e-21 5.2389913e-19 3.0484713e-19 4.582588e-19 4.883314e-19 1.7988065e-19
2.1171388e-19 2.5267506e-19 5.0005157e-19 1.0538759e-19 2.662532e-19 2.712768e-19 5.8470205e-20 1.00407907e-19
1.8958421e-19 3.9126649e-19 1.1989449e-19 4.2139238e-19 3.784182e-21 4.4684416e-19 4.273549e-20 3.025492e-19
2.719106e-19 8.278363e-20 2.4417956e-19 3.197036e-19 1.3408126e-19 2.143557e-21 1.0952382e-19 2.217151e-19
1.8157252e-19 2.5796774e-20 4.353326e-20 6.0181836e-21 4.155389e-20 1.2911235e-19 9.700103e-20 3.1029657e-19
6.845486e-20 5.394821e-05 4.1238793e-05 1.7933958e-19 7.544806e-06 1.1695603e-20 5.3948246e-05 6.603445e-20
1.4348743e-19 1.2906349e-19 2.391941e-19 2.1520019e-19 9.572897e-20 7.4942467e-20 1.6759862e-21 2.8117503e-19
1.3508127e-19 1.6968981e-19 1.2775105e-19 6.791219e-20 6.616198e-20 6.2895098e-21 1.0936304e-19 1.1035825e-19
1.2328242e-19 3.6942545e-19 2.7862709e-21 3.1831073e-19 1.160257e-19 4.3978712e-20 3.967062e-19 8.505838e-20
5.0676636e-19 5.191496e-19 1.2313137e-19 1.1905731e-19 1.640257e-20 7.005022e-20 8.318095e-20 4.5970146e-20
3.1723837e-20 1.4460274e-20 4.9565143e-19 1.7525148e-20 5.394143e-19 2.490809e-19 5.927246e-21 5.2431903e-19
3.706739e-19 3.6755566e-19 1.07529425e-20 9.6051334e-20 4.0075438e-19 8.702032e-22 2.9331827e-19 3.424545e-19
3.7119175e-22 1.7556292e-19 2.5425125e-20 7.790475e-20 3.373578e-19 3.4345808e-19 3.3207142e-19 4.2354097e-20
1.0805055e-19 7.8064854e-20 8.1653525e-20 7.2457125e-20 3.146461e-19 3.0497069e-19 3.3141175e-19 1.8596107e-19
4.914841e-19 2.5441405e-19 1.6920067e-19 3.543792e-21 3.2005394e-19 6.872937e-20 1.661074e-20 2.0983876e-20
5.5547944e-20 3.4821933e-19 1.0744042e-20 2.2903755e-19 5.1516734e-20 2.6100133e-19 4.8340544e-19 1.3307435e-19
3.9624149e-19 3.2965957e-19 1.1819377e-19 1.4858636e-19 3.268474e-19 3.0881568e-19 2.0621991e-19 3.8587438e-19
1.9687971e-19 1.1076005e-19 2.585776e-21 4.9871614e-19 3.8855344e-19 2.5334777e-19 5.5710976e-20 2.3874257e-19
6.571026e-20 2.2497826e-19 2.576875e-10 4.5664503e-10 4.5059304e-19 2.6404323e-11 3.9588769e-22 2.5768712e-10
4.066029e-20 2.379368e-19 1.3741531e-19 1.04141373e-19 2.539885e-20 1.1561438e-19 4.602646e-20 4.9529623e-20
5.0630465e-20 5.1211223e-20 1.2507724e-20 3.2462628e-19 7.4120084e-21 2.6426616e-19 3.0764925e-19 1.1025512e-19
1.6867014e-19 7.688923e-20 2.2328725e-19 4.224645e-19 2.8692308e-19 4.1421366e-19 1.6504987e-19 1.733624e-19
5.4885185e-20 7.598558e-21 3.1009923e-19 9.028063e-20 5.1449207e-19 2.1784099e-19 3.742524e-19 2.7894143e-20
4.318917e-19 7.76459e-24 2.9707732e-19 3.3690575e-19 5.4928646e-21 1.0080337e-20 2.4062835e-21 2.3569938e-19

exp_avg f4 [128]
00000000: 9471 29b3 2ead 463c 6bf3 12b3 980a 31b3
00000010: 991b 86b2 b7d3 0d3c 4511 f83b b8d4 ceac
00000020: a5f7 94b2 4224 e2b2 f26e 0eb3 2e4b 0db3
00000030: de55 0fb2 6eee 2eb3 9cbe 00b4 10c1 f2b2
00000040: 8e02 c7b1 6363 91b3 356a 693c bda0 beb2
00000050: 1dff c5ae 281d 9fbc ecf0 d6b3 a910 03b3
00000060: 8843 c136 0c9f d2b3 651c 313c bcdd 183c
00000070: 2cf9 2c3c 8b55 87b2 98d5 173c f94d 223c
00000080: 0ce4 cdb2 b3aa 293c fcc0 9cb3 df5e 04b2
00000090: 25fe 293c 9182 06b2 73d1 413c 78f0 1eb2
000000a0: 55b1 313c 1771 2e3c 2e43 5fb3 3e7d 07b3
000000b0: c150 093c 5daf d0bb b30d 1d3c 6e07 a4b0
000000c0: 771f 7dbc c058 063c d858 c1b2 fd04 1b3c
000000d0: f4ff 89b1 4c52 5bbb b66f deb2 2748 50b3
000000e0: 90fa 0f3c 75a9 f0b2 1361 163c 0e04 adb2
000000f0: bac1 adb0 1be2 46b3 7b0f 73b2 5723 45ae
00000100: 28e2 71bc 26da 0e3c b0ef 39b3 2bc0 463c
00000110: d5be 89b2 14d2 d9b0 6a8c 133c 6a99 733c
00000120: e5b9 bab3 ac33 103c 09f7 2cb1 ee37 21ba
00000130: c857 62b4 a008 74ad 4253 70b3 bb8a 0cb3
00000140: 15fa 28b3 db07 483c ae86 cbb3 3eca 353c
00000150: 4cdc 4c3c d05e 1cb2 942a 16b3 1b63 333c
00000160: 9b9b 373c cdd3 2a3c bd0c 85b2 4d7e f5b2
00000170: a7a0 e2b2 5ebb beb2 cd17 ff3b bf01 cfba
00000180: 7c34 2eaf 6261 043c e70a aab3 74b7 47b3
00000190: d147 11b3 0b2d 9db2 b954 6d3c f6a7 3e3c
000001a0: ce13 433c f042 1d3c ca04 62b4 a801 083c
000001b0: d5be cbac 6ee8 fdb2 02f5 12b2 5e0d 4db2
000001c0: 97bc 2d3c b77a febb 8591 bcb2 b02f 15b3
000001d0: 93c7 74b3 210a 413c c7f5 303c 7880 64ad
000001e0: 18da 16b3 ae7f 473c 31ff 2d3c b8d5 f33b
000001f0: f78a acb2 e465 00b1 8ad3 c0b3 10aa 2eb3
-3.9451677e-08 0.01212625 -3.421466e-08 -4.122066e-08 -1.5612203e-08 0.008656434 0.007570418 -5.8784887e-12
-1.7342083e-08 -2.632635e-08 -3.3162856e-08 -3.2897496e-08 -8.3432194e-09 -4.0729383e-08 -1.1990272e-07 -2.8260303e-08
-5.7919527e-09 -6.770167e-08 0.014246513 -2.2192006e-08 -9.00384e-11 -0.019423082 -1.0008975e-07 -3.0515967e-08
5.75971e-06 -9.8078175e-08 0.010809992 0.009330209 0.010557454 -1.5754969e-08 0.009267233 0.009906285
-2.3968845e-08 0.010355639 -7.29942e-08 -7.704982e-09 0.010375534 -7.829514e-09 0.011829722 -9.251487e-09
0.010845502 0.01064708 -5.1982333e-08 -3.1546044e-08 0.00838107 -0.006368561 0.009585786 -1.1934682e-09
-0.015449396 0.008199871 -2.2508559e-08 0.0094616385 -4.0163233e-09 -0.00334658 -2.5895002e-08 -4.8494396e-08
0.008787766 -2.8016737e-08 0.009178418 -2.0141695e-08 -1.2642467e-09 -4.630611e-08 -1.41479815e-08 -4.4824002e-11
-0.0147633925 0.008719003 -4.3291664e-08 0.012130777 -1.603568e-08 -1.5848536e-09 0.009005645 0.01486812
-8.695114e-08 0.008801382 -2.5169717e-09 -0.0006149997 -2.1079825e-07 -1.3871709e-11 -5.5955077e-08 -3.2722465e-08
-3.9342996e-08 0.012208904 -9.477422e-08 0.011095582 0.012503695 -9.101953e-09 -3.496332e-08 0.010948922
0.011206533 0.010426474 -1.548903e-08 -2.8579189e-08 -2.6382919e-08 -2.2204116e-08 0.0077848197 -0.0015793367
-1.5843854e-10 0.0080798585 -7.918225e-08 -4.6500148e-08 -3.382576e-08 -1.8297689e-08 0.0144855315 0.011636725
0.011906577 0.009598479 -2.1049632e-07 0.008301176 -5.7907936e-12 -2.9558773e-08 -8.554027e-09 -1.193561e-08
0.010604045 -0.0077660936 -2.1952255e-08 -3.4735137e-08 -5.699219e-08 0.0117822 0.010800785 -1.2988825e-11
-3.512295e-08 0.012176437 0.010619924 0.0074412487 -2.008663e-08 -1.868437e-09 -8.9791754e-08 -4.0667203e-08

exp_avg_sq f4 [128]
00000000: 781e 322d 7646 6238 43aa 8d2f b9ea 032c
00000010: 9b4a 292e f950 4a37 9ccd ce37 dd39 ce28
00000020: 3089 682e a050 622e 8c14 952c 9241 8431
00000030: 62a1 a72d 73f4 242f d70d 0c30 fc3d 912b
00000040: b8e6 9431 18d7 292c df41 6238 13d7 012d
00000050: e1d3 1729 7982 9d37 bbd1 652e d708 bd28
00000060: 7c6b 802d 01ce 072f 5e71 6538 7fe9 b837
00000070: 48ec 3038 711c 9e2e 7674 c337 4b14 eb37
00000080: 950d 022e d964 c637 5b89 472b b48f 2e2f
00000090: 0e11 0338 ae32 6328 7b13 6438 b857 b52a
000000a0: 9aea 2538 d718 3538 dfe1 082e 8aa0 2a2d
000000b0: b8ce 8d37 49b5 0336 6c58 a937 ca1a a629
000000c0: 781e aa37 c0b5 9937 a1f5 a72b 4732 8b37
000000d0: 641e 902a 0373 d636 69a3 922b c87d 812d
000000e0: ebae e037 d33f 912f a986 c037 dc4e b12b
000000f0: e04f aa29 00bc 0b2d 2535 e52a 590c 0529
00000100: cb51 3237 de3b 0638 3780 3732 43f6 5338
00000110: c7c5 d82a f6bd bc29 cce4 dd37 23c1 0638
00000120: dbb0 c42c e34b 6c37 b118 ef29 b373 8133
00000130: 8fdd 1431 2ec8 e028 b742 322d 769e 6f2e
00000140: 69a9 3030 6940 0438 6ca9 f42b 311e e037
00000150: 0134 2e38 ca0c d22e ef86 9d2c 9594 2338
00000160: f9d6 0c38 34c0 5f38 bd38 cf2d 3e01 9e2d
00000170: 1103 952c 3b8f 122d ebbf 0138 58dd 5134
00000180: ffc9 3228 a3b5 db37 6644 cf2b 4a07 f12e
00000190: 8f28 cd2c f4c6 362b 9a82 2a38 b087 4738
000001a0: c19c 3738 2b76 0b38 374f 1631 a257 9937
000001b0: eff7 cd28 eb44 b52c dc18 9031 28fb a82a
000001c0: 14ff e237 b62a eb36 b8da 8b2b 1e1c 3229
000001d0: 03c6 2e31 0765 1b38 8c25 5438 1611 df28
000001e0: 1e51 4230 ab91 5f38 d50d 2738 bb36 c637
000001f0: 9141 422f 8c6d cc29 eb8c 822d f959 632d
1.0124894e-11 5.394822e-05 2.576873e-10 1.8746517e-12 3.8492414e-11 1.2058991e-05 2.4652858e-05 2.2895689e-14
5.287254e-11 5.145806e-11 4.237116e-12 3.84916e-09 1.905737e-11 1.5002559e-10 5.095137e-10 1.0320074e-12
4.3335966e-09 2.4135745e-12 5.3943946e-05 7.380557e-12 3.371251e-14 1.8776615e-05 5.225485e-11 2.0987049e-14
1.4599648e-11 1.2351366e-10 5.4703436e-05 2.204324e-05 4.2181724e-05 7.1900604e-11 2.3300043e-05 2.8023633e-05
2.957064e-11 2.36504e-05 7.088962e-13 1.5876261e-10 3.1248717e-05 1.2612021e-14 5.437758e-05 3.2212926e-13
3.9557555e-05 4.3176897e-05 3.1123434e-11 9.699028e-12 1.690477e-05 1.9626043e-06 2.0187545e-05 7.376528e-14
2.0279767e-05 1.8323655e-05 1.1934239e-12 1.6593503e-05 2.5600626e-13 6.391086e-06 1.0419279e-12 1.472146e-11
2.6784333e-05 2.6420696e-10 2.295089e-05 1.2598494e-12 7.563373e-14 7.94298e-12 4.0715448e-13 2.9542642e-14
1.0628671e-05 3.2003845e-05 1.0681155e-08 5.053567e-05 3.8506543e-13 8.38183e-14 2.6451795e-05 3.2127962e-05
5.59029e-12 1.4084365e-05 1.06180154e-13 6.028076e-08 2.1662776e-09 2.495581e-14 1.0132942e-11 5.448305e-11
6.4269173e-10 3.153124e-05 1.7384267e-12 2.671694e-05 4.1533265e-05 9.551966e-11 4.477189e-12 3.9000606e-05
3.357881e-05 5.3346346e-05 2.3558372e-11 1.7963072e-11 4.235175e-12 8.330943e-12 3.0934734e-05 1.9545166e-07
9.924786e-15 2.6191416e-05 1.4727219e-12 1.0960706e-10 5.8309533e-12 6.493549e-13 4.065279e-05 4.7571666e-05
4.377659e-05 3.3250235e-05 2.1872901e-09 1.8279829e-05 2.2867096e-14 5.151981e-12 4.1937778e-09 3.001707e-13
2.706008e-05 7.008518e-06 9.937251e-13 3.9548327e-14 2.543289e-09 3.704897e-05 5.0579707e-05 2.4765383e-14
7.0692063e-10 5.3303007e-05 3.9828785e-05 2.3628925e-05 1.7667491e-10 9.078423e-14 1.4841869e-11 1.2923434e-11
