models/models_simple/reinforce_ep700.pth (torch, 373835 bytes, 18 tensors)

0.weight f4 [128, 105]
000000 f2 23 21 bb 2e 43 7e bb f4 77 2f 9c fc 59 13 bb
       -0.0024588075 -0.0038797366 -5.805768e-22 -0.0022484055
000010 b9 f5 97 1e 4e 46 21 bb 8f 30 4a 9f 25 ad a0 9f
       1.6089375e-20 -0.0024608555 -4.281533e-20 -6.804908e-20
000020 06 d3 a3 1c c0 f7 ad 9f ca 45 e6 1c a1 32 d5 9d
       1.0840983e-21 -7.367822e-20 1.5238163e-21 -5.643298e-21
000030 60 66 da 9f 12 cf 6d 1b 50 07 80 9f b9 87 a3 1e
       -9.2495956e-20 1.9671089e-22 -5.4222206e-20 1.731443e-20
000040 0e a6 cb 1f 64 aa 7a 1c 84 72 47 9d de ed 80 1f
       8.624856e-20 8.2938286e-22 -2.6396634e-21 5.460363e-20
000050 85 68 26 1f 45 10 82 1f 6d d3 dc 1f 31 22 ce 1d
       3.5238324e-20 5.508406e-20 9.35234e-20 5.45631e-21
000060 73 17 31 9e dc 2e 2c 9f 66 84 64 9a 3f b8 0a 9e
       -9.375151e-21 -3.6461178e-20 -4.7256246e-23 -7.34376e-21
000070 2c b7 03 9e f7 49 01 1f 62 bd 80 9f 00 57 38 1f
       -6.972961e-21 2.7377995e-20 -5.4523416e-20 3.903548e-20
000080 fb c6 e6 9e d2 1c d4 1d 60 c6 64 9c 2b d8 89 1e
       -2.4434494e-20 5.6145732e-21 -7.5695266e-22 1.4594844e-20
000090 7b e6 a5 1f 15 6c 9f 9e 96 73 41 9e a5 67 c8 9f
       7.0261516e-20 -1.6879482e-20 -1.02412375e-20 -8.487476e-20
0000a0 16 b8 17 9f 95 16 15 1f f7 f6 fa 9e 68 71 4e 9e
       -3.2127766e-20 3.1570657e-20 -2.6571922e-20 -1.0929001e-20
0000b0 2d 4e b0 9e 51 20 62 9e 6e 48 ab 9f 01 19 9b 1e
       -1.8667058e-20 -1.1971023e-20 -7.254114e-20 1.6421605e-20
0000c0 a7 cb ff 1c 9c 4f 1c 1c 3f be d9 1f 5b d6 a1 1f
       1.6927127e-21 5.1718963e-22 9.221781e-20 6.8540774e-20
0000d0 3f cc b3 1e 0b e4 80 9c 22 b3 01 1d 2f 3a a0 9e
       1.9036836e-20 -8.529277e-22 1.7165617e-21 -1.6964723e-20
0000e0 78 b7 93 1e ce 47 ce 9e c3 41 c8 9f 3a a4 bf 9f
       1.5640111e-20 -2.1840796e-20 -8.481209e-20 -8.1163337e-20
0000f0 99 58 0e 9e d0 c8 d5 1e b9 ce b7 9f 00 7b 9e 1f
       -7.535739e-21 2.2635306e-20 -7.784551e-20 6.711909e-20
000100 ae 26 ba 9e 9e d7 ed 1e 48 d5 6d 1e e0 a2 a3 1e
       -1.9709514e-20 2.5182528e-20 1.2590781e-20 1.732566e-20
000110 1b 85 42 1f 57 01 0e 1f 17 28 77 9b 8a f7 40 1e
       4.11912e-20 3.0070778e-20 -2.0444315e-22 1.0215585e-20
000120 e3 78 1f 1f 60 94 e0 9e a8 f0 cf 9f 3e 8e 71 9f
       3.3769555e-20 -2.3778289e-20 -8.806604e-20 -5.1151395e-20
000130 df 2f 3e 1e 8a ee 5e 9e 67 da b0 9e 23 2c a2 9f
       1.0068416e-20 -1.1801911e-20 -1.8725054e-20 -6.868269e-20
000140 65 b7 e1 1d 47 07 28 9f 6c d2 20 9f 8b f6 3a 1f
       5.974663e-21 -3.5581403e-20 -3.4055375e-20 3.9590968e-20
000150 7f 19 c8 1b c1 f3 7d 1f 8e 2b 92 9e 31 2b 68 1f
       3.31037e-22 5.3776462e-20 -1.5476365e-20 4.9163638e-20
000160 73 c7 5a 9d 03 cb ab 1f 6e 6f 33 1f b9 e3 dc 1e
       -2.8955173e-21 7.275717e-20 3.7996897e-20 2.338759e-20
000170 79 84 39 1c 8a 12 c5 1e 9c a2 21 9e e4 01 de 9f
       6.138258e-22 2.0865854e-20 -8.556896e-21 -9.4023785e-20
000180 98 69 d3 1e db 41 9a 9c cb 1c b3 1e 94 44 d8 1e
       2.2384167e-20 -1.0207888e-21 1.896427e-20 2.2898253e-20
000190 f3 91 9c 9e d7 37 bf 1f aa 10 42 1e 27 ad 02 9f
       -1.6577506e-20 8.0984026e-20 1.02737205e-20 -2.76718e-20
0001a0 43 9a 75 1f 18 2d ff bb 6a e1 22 bc 9b a7 10 1e
       5.200837e-20 -0.007787358 -0.009941438 7.6579565e-21
0001b0 00 26 b4 bb 53 02 a9 1f 6a 2e ff bb 39 c3 5e 9f
       -0.005497694 7.157813e-20 -0.0077875154 -4.7171813e-20
0001c0 20 ef a2 9f 94 1d 98 9f 23 8f 5e 1e 1f 0c 66 1d
       -6.900527e-20 -6.442344e-20 1.1782182e-20 3.0446513e-21
0001d0 ba 84 7a 1f 98 68 a1 1e 85 41 c2 9e b4 11 43 1f
       5.3049348e-20 1.7089797e-20 -2.0567647e-20 4.13075e-20
0001e0 7a e6 2f 9f bd be 18 1e cf 45 4d 9e bd bb dc 1f
       -3.7248337e-20 8.086257e-21 -1.0867046e-20 9.348421e-20
0001f0 f4 b3 10 9f 94 1b 1a 9f ee 83 19 1e 8b 0f 1b 9f
       -3.064204e-20 -3.263358e-20 8.127035e-21 -3.2835384e-20
000200 56 a8 ad 9f f2 42 c3 1e 6e 8c 30 1f be 4c a2 9e
       -7.354684e-20 2.0674116e-20 3.738561e-20 -1.7184157e-20
000210 5c a2 01 9e 10 2c c2 9e 4a ab ac 9f b9 48 7e 1e
       -6.862778e-21 -2.0558773e-20 -7.312821e-20 1.3461687e-20
000220 a5 b3 b1 1f a7 8b 6d 1d bd e0 88 1f da af 1c 9f
       7.525961e-20 3.1438887e-21 5.797004e-20 -3.3179746e-20
000230 08 fd 98 1f d3 b6 7d 1e d6 f2 80 1f a5 69 2f 1e
       6.479311e-20 1.3431516e-20 5.461185e-20 9.28627e-21
000240 44 ef 7d 9f c4 8e ac 1f d9 ae 69 1d 21 f9 c7 1f
       -5.377275e-20 7.308102e-20 3.0927687e-21 8.469193e-20
000250 89 bc 16 9f fa ad 04 1e e6 ba 19 9e c7 d0 90 1f
       -3.1919688e-20 7.023999e-21 -8.138402e-21 6.1331765e-20
000260 98 f2 f5 9d 8c 40 12 1e aa c7 a0 1f 17 8d 40 9e
       -6.5101796e-21 7.742524e-21 6.809295e-20 -1.0193572e-20
000270 ee 4c 86 1f ca 9f 80 1f 7e 7f e7 1d b4 f6 34 1f
       5.687848e-20 5.447446e-20 6.1277015e-21 3.832055e-20
000280 5b a1 69 9d de 54 87 1f e8 5e 84 9f f8 56 76 1e
       -3.0920712e-21 5.7315125e-20 -5.6061184e-20 1.3041116e-20
000290 ea 2a ad 9f f7 75 a1 1f 64 fc cd 1f a3 ab 5b 1f
       -7.3339345e-20 6.838131e-20 8.723842e-20 4.651703e-20
0002a0 db c8 41 9e bc 1f da 1e fd 63 31 9f ab e7 5f 9e
       -1.0258871e-20 2.3094773e-20 -3.7563916e-20 -1.18534295e-20
0002b0 30 64 32 9f 47 99 3f 9e 3d d6 b4 1f c6 82 a5 9e
       -3.777584e-20 -1.0143153e-20 7.658739e-20 -1.7524141e-20
0002c0 af 55 c6 9e a5 46 56 9f a9 12 c9 1e 5c 36 82 1e
       -2.0999503e-20 -4.53747e-20 2.128942e-20 1.3786768e-20
0002d0 3d 69 49 9e 3e 2f 87 1f 28 99 a8 1e 64 cb ad 9f
       -1.0662614e-20 5.725288e-20 1.7851036e-20 -7.360483e-20
0002e0 8f aa 4d 1f 56 9d 9e 1f 99 b0 62 1d f9 48 2f 1e
       4.355152e-20 6.7175893e-20 3.000215e-21 9.279513e-21
0002f0 bc e7 dd 9f 99 80 2d 9d 8b 2b 39 1e 79 6c 40 9e
       -9.398051e-20 -2.2962843e-21 9.802823e-21 -1.0186827e-20
000300 54 4e b3 9b 2a 57 2e 1c 35 0b 36 9c 92 4a de 1f
       -2.9663684e-22 5.768443e-22 -6.0233233e-22 9.4144023e-20
000310 dd 5f db 1e be 16 83 9f dc c8 74 9f 5f fe 3f 9c
       2.3227175e-20 -5.551828e-20 -5.1835157e-20 -6.3525366e-22
000320 b6 59 89 1e e4 a2 8a 9f 22 e1 20 9f 2c 1d 05 1f
       1.4542543e-20 -5.8714753e-20 -3.4067543e-20 2.8187976e-20
000330 9b 8e a9 1f d5 df 87 9d 68 69 07 1f aa 7a 81 1f
       7.1810205e-20 -3.596564e-21 2.8674552e-20 5.4836556e-20
000340 81 94 b9 1e 7c 57 a8 9f ac 7d e0 3d 3c bd 8a bd
       1.9649057e-20 -7.12955e-20 0.1096147 -0.06774375
000350 18 a7 83 9e a1 2d 9c 3d 4b eb 04 9d 1d 80 df 3d
       -1.3939273e-20 0.076258905 -1.7591698e-21 0.109131075
000360 bb 98 95 9e 0c da 96 9d ca 05 29 1f a0 91 a7 1f
       -1.5839156e-20 -3.9930125e-21 3.579193e-20 7.096817e-20
000370 ed 5c 56 1e ef aa ec 9d 7d d4 27 9f 6e 55 0c 1e
       1.1348282e-20 -6.264542e-21 -3.5539392e-20 7.429205e-21
000380 5a 60 c9 1f 76 1d 58 9c ed 63 41 9e 92 d7 75 1c
       8.528621e-20 -7.150648e-22 -1.0237999e-20 8.134232e-22
000390 7e e4 81 9d 0d 9f 10 1f 52 af 65 1f 51 6d e3 9b
       -3.438227e-21 3.062475e-20 4.8637658e-20 -3.7624644e-22
0003a0 8c 30 22 9f b0 b0 a7 9f ac c3 98 1f b3 f6 f9 1d
       -3.434499e-20 -7.1019556e-20 6.4698216e-20 6.6164832e-21
0003b0 32 da a4 1e d3 f2 56 1c 41 e8 db 1e aa d8 0c 9f
       1.7454419e-20 7.1120503e-22 2.3283585e-20 -2.9825373e-20
0003c0 0d 8d 87 1e 12 97 42 9f e5 01 1e 9e 2b 66 74 9e
       1.4352018e-20 -4.120606e-20 -8.364842e-21 -1.293838e-20
0003d0 bc 43 cc 9e fc ca a7 9f 84 ea b6 1e 95 ef da 9d
       -2.1627354e-20 -7.106306e-20 1.9366993e-20 -5.795184e-21
0003e0 ab e8 e7 1e f0 ac 14 1f 2a 68 6e 9f 75 44 13 1d
       2.4554306e-20 3.148327e-20 -5.0484623e-20 1.949068e-21
0003f0 c7 97 76 9e 1f 28 82 9f c0 b0 3a 1e a8 8a 5a 1f
       -1.3054518e-20 -5.5123516e-20 9.883309e-21 4.627799e-20

0.bias f4 [128]
000000 05 27 21 bb c8 2d ff bb 6a 08 df 3d db 3f a3 3d
       -0.0024589908 -0.00778744 0.10890277 0.07971164
000010 03 46 be 3d d1 fb 89 ba 58 46 a5 3d 8f 05 8b bb
       0.092906974 -0.0010527318 0.08070058 -0.004242606
000020 25 6f 80 b4 6f cc 36 3e 9d b2 2b bb 53 1a 80 b3
       -2.3922726e-07 0.17851423 -0.002619899 -5.965253e-08
000030 47 c6 da 3c 6c af 3a b6 a6 f8 a9 bb e6 73 6c bc
       0.026705874 -2.7818269e-06 -0.005187112 -0.014431929
000040 b3 11 a4 3d 43 c0 4f b8 e4 08 aa 3d 04 8e 64 b8
       0.08011188 -4.9531704e-05 0.08302477 -5.44917e-05
000050 52 cd 60 3d 44 be 97 3d 24 af d3 3c 00 d5 ba 3d
       0.05488331 0.07409337 0.02584035 0.09122658
000060 16 84 fb b0 73 22 d1 bb 2a 54 c8 ba 58 b7 88 bc
       -1.8300195e-09 -0.0063822805 -0.0015283872 -0.016688988
000070 ae 68 a2 3d 61 a8 2f bc 9c 4c 8a b6 d4 18 b3 3d
       0.07930122 -0.010721297 -4.121639e-06 0.0874497
000080 6b ca 86 3d 57 55 5a b2 70 fa 76 29 3e df ba bb
       0.06581577 -1.2708674e-08 5.4840193e-14 -0.005702882
000090 90 3d 27 bc e7 a7 70 bb a2 fc 8d 3c 99 bb b6 b0
       -0.010207549 -0.0036721171 0.017332379 -1.3295561e-09
0000a0 26 5e be b3 d9 57 83 ae 8c 11 88 3d be 1c e4 3d
       -8.86469e-08 -5.972795e-11 0.06643972 0.11138295
0000b0 07 ee 93 3d 7c a5 87 3d f2 c6 99 3d 8e e5 e5 b9
       0.072231345 0.066233605 0.07508649 -0.00043849315
0000c0 a9 52 91 3d 10 36 45 b4 77 17 4f bb 2f 93 ce b7
       0.07095844 -1.8366723e-07 -0.003159968 -2.4625651e-05
0000d0 b9 c3 b6 b6 6b 6f 82 ba 7e 0b b0 3d bf 57 c3 3d
       -5.446808e-06 -0.0009951418 0.08595942 0.095382206
0000e0 a2 09 3f bc 29 b9 20 bb e6 56 02 3e 0e b3 84 ba
       -0.0116600115 -0.0024524427 0.12728462 -0.0010124163
0000f0 83 78 44 3d b6 67 2c bb 4c 36 8b 3d f4 b5 eb ba
       0.04796649 -0.0026306934 0.06797466 -0.0017983303
000100 eb d9 ad 3d 1a 1f 92 3d 2e aa e0 b1 3d 3d 40 b2
       0.0848883 0.071348384 -6.538605e-09 -1.1189795e-08
000110 51 06 08 bc 4e be 12 b7 b3 6c 74 3d ec 65 63 3d
       -0.008302287 -8.746587e-06 0.059673976 0.055517122
000120 cb c0 79 bb 16 62 b5 3d 35 cb ae 3d a6 6e f4 b8
       -0.0038109298 0.08856599 0.085348524 -0.000116554365
000130 14 40 81 b9 88 4d a3 3d b4 3b 30 bc 98 57 89 3d
       -0.0002465254 0.07973772 -0.010756422 0.0670616
000140 7d 96 ce ba cc 61 bd bb 82 61 bc 3d 0e 73 8f 3d
       -0.0015761402 -0.0057794806 0.09198286 0.07004367
000150 40 21 c0 bb 4e ad c0 3d b0 45 f1 ba 23 98 d7 3d
       -0.0058633387 0.09408055 -0.0018407609 0.10527065
000160 fd d1 4c bb 80 69 ba b6 0a 0c 48 ba d5 05 c7 bb
       -0.0031253092 -5.555514e-06 -0.00076311885 -0.0060736933
000170 64 34 9a 3d 7c ca e9 bb 6d 53 6b 3d d0 01 b6 ba
       0.07529524 -0.0071347337 0.057452608 -0.0013886038
000180 d2 a3 c9 3d 0b 3f c7 ba 12 de 06 b3 4a 0a 97 3d
       0.09845699 -0.0015201283 -3.1401278e-08 0.07375009
000190 ba 53 b0 3d 47 b8 80 3d 26 f3 a5 3d 68 b4 e7 3d
       0.086097196 0.06285148 0.081030175 0.11313707
0001a0 94 96 b4 3d 90 45 07 ba 62 fb 26 bb 71 32 0b 3e
       0.08817783 -0.0005160207 -0.0025479426 0.1359346
0001b0 55 fb 98 ba 0d 2d cf b2 3b 34 96 b4 c5 e3 b5 3d
       -0.0011671582 -2.4118458e-08 -2.797768e-07 0.08881334
0001c0 aa e3 d6 b9 7d c8 99 3d 37 43 98 3d 09 ce a3 bb
       -0.00040986884 0.07508943 0.07434695 -0.0049989265
0001d0 24 df a0 bb b5 ed a8 3d dd ae 49 bb e6 50 94 3d
       -0.004909413 0.08248464 -0.0030774393 0.07241993
0001e0 3a e9 9f bb 62 60 ae 3d 88 4c 93 3d 79 a8 73 bc
       -0.0048800977 0.08514477 0.071923316 -0.01487171
0001f0 58 79 16 bb 09 f3 08 bb a8 52 e6 3d 4a 1b f8 3d
       -0.002296051 -0.0020896813 0.11246234 0.1211458

3.weight f4 [128, 128]
000000 ad 73 f6 1e 1f 62 15 9f 91 55 dc a3 1f 00 ab 1f
       2.6094106e-20 -3.163314e-20 -2.3888687e-17 7.242152e-20
000010 d7 89 ca 9c f9 19 2b a0 ab c1 e5 a9 8b 4d dc a0
       -1.3402869e-21 -1.4492857e-19 -1.0203239e-13 -3.7320763e-19
000020 de 82 6d a0 95 f0 06 1e 03 86 f3 1e 04 6a c1 1e
       -2.0117981e-19 7.143652e-21 2.5784052e-20 2.0478517e-20
000030 66 b5 3c 9e 2b 7b b6 1f 44 6e 3a 9e aa 44 8d 9f
       -9.9901494e-21 7.728376e-20 -9.8695604e-21 -5.982942e-20
000040 cb be 96 a1 54 52 83 20 25 13 5d a9 44 60 ba 9f
       -1.0214898e-18 2.2246743e-19 -4.9088463e-14 -7.893332e-20
000050 55 9f 30 9f dc e3 fb 1f a0 b7 83 9f 2b f7 39 23
       -3.7401246e-20 1.06679597e-19 -5.578444e-20 1.008121e-17
000060 79 e1 ba 1d 01 64 2e 9f 38 e0 24 1f 60 4e ca 9f
       4.9466923e-21 -3.6928654e-20 3.491382e-20 -8.567999e-20
000070 38 74 a9 a2 fc d8 af 1e f7 50 0b 9f 73 4e 11 a3
       -4.5930593e-18 1.8618588e-20 -2.9501367e-20 -7.877078e-18
000080 7c fe fa 22 00 eb b1 9e cd f0 90 1d d4 53 56 9f
       6.803208e-18 -1.8837798e-20 3.8365465e-21 -4.5385604e-20
000090 89 a5 4a 9c 8a c8 f3 a1 d4 9d 9a 1e b7 66 85 9f
       -6.7050143e-22 -1.6519403e-18 1.637066e-20 -5.649762e-20
0000a0 30 3b 28 9f f2 ef 38 1f e2 0f 6e 24 fc 6d 72 a7
       -3.5624343e-20 3.9161994e-20 5.1621477e-17 -3.364387e-15
0000b0 7f e7 06 23 eb 79 2a 23 57 b5 90 1e 18 50 61 1f
       7.313176e-18 9.241536e-18 1.5321593e-20 4.7711855e-20
0000c0 b6 d9 ff 2b 33 9d 78 9f 13 e4 11 1f b9 e8 a9 a0
       1.8179267e-12 -5.2646075e-20 3.0893603e-20 -2.8783717e-19
0000d0 c8 60 a7 9e f9 5f a8 1f 5b ad 65 af 94 e5 25 9f
       -1.772184e-20 7.130954e-20 -2.0889017e-10 -3.5130012e-20
0000e0 da be ac 9f c8 9e 47 1f 12 75 16 1f 1f df 4f a4
       -7.316057e-20 4.227123e-20 3.1860574e-20 -4.507496e-17
0000f0 ae 0e a7 22 0a 1c 9a 27 f4 d0 70 a5 6e 60 21 21
       4.5280983e-18 4.2773986e-15 -2.0887478e-16 5.4676545e-19
000100 61 96 d6 a6 78 61 6e 1f 9b 02 c9 1f 64 94 a6 1f
       -1.4889993e-15 5.0479085e-20 8.513112e-20 7.0549226e-20
000110 6f e4 23 9f 5f 89 00 a0 82 d4 68 2c d5 5f 47 20
       -3.470555e-20 -1.0887474e-19 3.3087148e-12 1.6887664e-19
000120 3e 39 35 9e 43 e7 8c a1 fd 61 53 20 64 33 31 a2
       -9.593898e-21 -9.547983e-19 1.7904817e-19 -2.401518e-18
000130 1e 0c 35 9f 50 5c 0f 25 c0 2f df 1d 68 0f 38 1f
       -3.8338264e-20 1.243455e-16 5.907698e-21 3.897626e-20
000140 65 9f 10 a0 8d d3 56 9e 53 0c c1 a2 11 5c f7 b0
       -1.2250014e-19 -1.1372813e-20 -5.2325804e-18 -1.7997782e-09
000150 bc a8 06 a0 14 b0 94 22 7b 7e 75 a3 29 3f 67 21
       -1.1406071e-19 4.030191e-18 -1.330826e-17 7.8349436e-19
000160 dd 99 80 9f 73 14 8c 1e 2b a1 4c 1f 50 85 a4 1d
       -5.4464654e-20 1.4831534e-20 4.3331995e-20 4.354828e-21
000170 2f c1 12 1d f8 62 6d 1e 19 f5 dd 1f b3 5c 69 22
       1.9422813e-21 1.2567142e-20 9.400262e-20 3.1626463e-18
000180 38 a4 50 a7 49 0a 74 1f 7e e2 60 1f 62 7f 35 a7
       -2.8954822e-15 5.1677517e-20 4.7621195e-20 -2.518785e-15
000190 f1 0c 67 20 40 6f 4f a2 26 fa 22 aa 4f 7d 39 a3
       1.9570743e-19 -2.8112626e-18 -1.4475278e-13 -1.0055405e-17
0001a0 6d c8 b0 22 a7 30 c2 1e 17 91 74 9e ce a3 40 1e
       4.7917105e-18 2.0560671e-20 -1.2947256e-20 1.0198269e-20
0001b0 c4 87 18 1e 93 1e 28 9e 9d b5 48 1f eb 4b 08 25
       8.074889e-21 -8.9001685e-21 4.2501874e-20 1.1821842e-16
0001c0 39 78 17 9e 51 13 8f 9f 9e aa 6f 26 c0 32 aa 1e
       -8.018735e-21 -6.059481e-20 8.315101e-16 1.802044e-20
0001d0 ac 8c 98 1f 6c df 51 1f 6c f1 bf 1e e5 8b 54 1e
       6.4607226e-20 4.4442282e-20 2.0322761e-20 1.1252116e-20
0001e0 4a ff 75 1c 66 39 2a 26 d7 c4 9c 26 71 5e 65 1f
       8.1393653e-22 5.905839e-16 1.0878028e-15 4.8570756e-20
0001f0 6e 45 4d 9e f8 7b dd 1f 66 90 36 1f 50 7d 9d 1f
       -1.0866967e-20 9.380223e-20 3.8659443e-20 6.66994e-20
000200 fb 72 db 38 88 0d 09 2f 42 45 f8 3d 7f 26 c9 3e
       0.000104641505 1.2464885e-10 0.12122585 0.39287183
000210 2a f3 ea 3d bf aa b7 2b d6 d9 b5 3d 54 95 c1 b9
       0.11472161 1.3050324e-12 0.088794395 -0.00036923087
000220 f1 e0 3a 9f 07 f1 90 be 20 6f cf b1 a1 c4 ac 20
       -3.95731e-20 -0.2830889 -6.0371264e-09 2.9268051e-19
000230 75 b2 b8 bc ed 35 89 a2 e7 64 95 ba dc 69 14 bb
       -0.022546032 -3.719102e-18 -0.0011397869 -0.0022646105
000240 7a 49 b6 3d 8b 4a 5d a1 2c 60 b4 3d f5 12 b1 ac
       0.08900733 -7.497637e-19 0.08807406 -5.0327472e-12
000250 aa 47 91 3d b5 ca be 3d 32 87 4c 3c 91 1f e9 3d
       0.07093747 0.09316007 0.012483405 0.11382974
000260 64 55 26 ad 17 ac 92 b7 f7 42 81 34 5e e0 72 3b
       -9.454968e-12 -1.7484692e-05 2.4076846e-07 0.0037060003
000270 3c c2 c2 3d f1 da 6f b5 03 aa 64 b3 60 76 b9 3d
       0.095097035 -8.935304e-07 -5.324001e-08 0.09055781
000280 93 76 9e 3d 5b 1a a6 1e 1c d6 df a3 0d de 92 28
       0.0773746 1.7586834e-20 -2.4268387e-17 1.6305555e-14
000290 d8 4b 5d 3c 88 42 14 ba 1c 7e c2 bc 5a 75 37 a1
       0.013506852 -0.0005655666 -0.023741774 -6.2158125e-19
0002a0 16 96 f0 a1 b5 d6 95 a0 8a 63 a7 3d bd de f3 3d
       -1.630276e-18 -2.5383663e-19 0.081732824 0.11907718
0002b0 9c 8d 9c 3d 29 45 a8 3d 74 ad a0 3d df 70 98 a5
       0.07644197 0.08216316 0.078455836 -2.644428e-16
0002c0 29 b9 9e 3d 50 2c 72 23 dd f6 f8 b7 ee 42 e0 21
       0.0775016 1.312823e-17 -2.9678858e-05 1.5196547e-18
0002d0 9a 6e 39 34 c7 d7 d5 a5 35 35 d2 3d 9c 8c c4 bd
       1.7269704e-07 -3.7095826e-16 0.10264055 -0.095971316
0002e0 2b db c4 ba 07 cd 36 26 2e 35 e3 3e 9f 66 b6 b8
       -0.001501893 6.34218e-16 0.4437651 -8.697551e-05
0002f0 7f 91 a6 3d 62 97 01 37 d9 69 9c 3d be 2f 76 b2
       0.0813322 7.724246e-06 0.07637376 -1.432994e-08
000300 2b 2e cf 3d fb 75 ae 3d b9 27 e4 9f 9a 32 57 a3
       0.10116228 0.08518597 -9.662747e-20 -1.1665889e-17
000310 89 8c 1d 3c 60 37 69 20 cd c2 b6 3d db 20 c1 3d
       0.009616026 1.975419e-19 0.08923874 0.09430095
000320 2e 10 a2 b9 54 31 ce 3d aa 34 c5 3d af c0 1a a3
       -0.00030911103 0.10068002 0.096291855 -8.389159e-18
000330 1a 38 0a 28 b0 7d d2 3d 9d 15 f6 bb a4 51 c1 3d
       7.672704e-15 0.10277879 -0.0075099007 0.094394
000340 d5 c7 84 b3 0f 1d 67 33 d7 e5 c2 3d 3b 93 b9 3d
       -6.183078e-08 5.3810307e-08 0.09516495 0.09061285
000350 fb eb 39 bb c6 c3 ce 3d e5 ec cb 26 1a 7b d5 3d
       -0.0028369415 0.100959346 1.4150165e-15 0.104238704
000360 af 98 17 ba ac fa ae 23 69 d2 70 a0 1c 2b 32 3a
       -0.00057829445 1.8971281e-17 -2.039841e-19 0.0006796585
000370 2d d5 c4 3d d2 86 28 3a 9f 70 a4 3d c5 b6 c4 b7
       0.096109726 0.0006428781 0.08029293 -2.345013e-05
000380 38 11 de 3d f8 0c 80 3a 57 71 7e a5 38 65 a4 3d
       0.10843128 0.000976949 -2.2069389e-16 0.080271184
000390 3b 5c ca 3d cc 2b ab 3d 5f df c3 3d 8d 18 01 3e
       0.09880873 0.08357963 0.09564089 0.12607022
0003a0 37 21 cb 3d cd c3 33 b4 fe d1 25 b5 48 43 b8 3e
       0.099184446 -1.6741906e-07 -6.177287e-07 0.35988832
0003b0 92 b5 ae b4 37 85 81 21 32 cc c5 23 57 67 b9 3d
       -3.2542135e-07 8.776642e-19 2.1445263e-17 0.09052914
0003c0 0a 0a 8f ba 9a 30 aa 3d 1d 33 ae 3d bd 46 b3 ba
       -0.0010913026 0.08310051 0.08505843 -0.0013677698
0003d0 96 ca 35 bc 70 f7 b9 3d f2 89 cf b7 54 5f 16 3e
       -0.0110956635 0.09080398 -2.4740559e-05 0.14684802
0003e0 82 25 48 ba 77 f6 b9 3d 70 ca ae 3d 65 55 3d 3b
       -0.00076349836 0.090802126 0.08534706 0.002889001
0003f0 6b 52 fe af e9 fb 27 a6 c2 38 91 3e d0 19 ec 3e
       -4.6260892e-10 -5.8281166e-16 0.28363615 0.46113443

3.bias f4 [128]
000000 7d 53 88 bb ec 1a b0 3d 8d 9b 8a bb b4 fe ad 3c
       -0.004160343 0.08598885 -0.004229969 0.021239616
000010 f4 b8 84 3d 65 cc 87 3d 23 ef 97 bb de f7 38 3d
       0.064805895 0.06630782 -0.0046366616 0.04515826
000020 6c ad 8d ba 19 80 68 3d 41 84 9e bb 07 87 60 3d
       -0.001080913 0.05676279 -0.0048375432 0.054816272
000030 86 f2 94 bb e4 b2 ce b9 c7 e7 63 ba 0b 05 0c bb
       -0.0045455126 -0.00039424666 -0.00086939003 -0.002136531
000040 40 df 85 bb 3b ee 90 bb be 26 02 3d 3e 06 96 bb
       -0.0040854514 -0.0044229305 0.03177523 -0.004578381
000050 6a a7 7d bb ba fe 30 bb 11 6f 85 3d af 1a 65 3d
       -0.0038704523 -0.0027007298 0.06515325 0.05593365
000060 bd 9e 5d 3d 6a 54 a9 3d ea 85 4d 3d 9f 5a 47 bb
       0.054106463 0.08268054 0.05017654 -0.0030419005
000070 05 b1 ad bb 58 96 3b ba 6c 56 98 bb a4 3c 8f 3d
       -0.0053006434 -0.0007155887 -0.004648974 0.06993988
000080 8b a3 81 bb a1 75 f8 ba f5 e1 9a bb 47 86 b0 3d
       -0.0039562634 -0.0018955955 -0.004726643 0.08619361
000090 a1 c1 f4 b9 5e 6b a4 3d c5 1f 68 3d 8c b5 a0 bb
       -0.0004668357 0.08028291 0.056670923 -0.0049044546
0000a0 cb 7e ab bb 1b 30 58 bb 97 8e 5d 3d ab f5 8f 3d
       -0.0052336208 -0.0032987657 0.054091062 0.07029279
0000b0 4a 66 35 bb 92 36 8c bb 27 bb 15 bb f3 ad c3 3d
       -0.0027679377 -0.004278966 -0.0022847147 0.095546626
0000c0 dc 12 5e bb d5 b9 fc b2 65 a1 b2 bb bc ab bf bb
       -0.0033885753 -2.9421168e-08 -0.0054513686 -0.0058493298
0000d0 d4 02 5b 3d 71 36 7e bb 8b d1 83 3d ca 88 55 3d
       0.053469494 -0.0038789774 0.064364515 0.052132405
0000e0 fc 55 9f bb 88 5a b6 bb ea 58 68 ba 20 71 a9 b8
       -0.004862545 -0.0055649914 -0.0008863347 -8.079619e-05
0000f0 b7 77 a8 ba 1b 7f 55 3d a1 69 65 3d 27 b6 0e ba
       -0.0012853061 0.05212317 0.05600894 -0.0005444013
000100 eb b7 95 b8 d2 52 ce ba 90 81 1c b9 07 d7 98 bb
       -7.139131e-05 -0.0015741235 -0.00014925585 -0.004664305
000110 e6 4a fa b9 0f 13 07 bb 2f e1 74 b9 0a 74 5d 3d
       -0.0004773952 -0.0020610725 -0.00023353541 0.05406574
000120 e7 b0 64 3d 93 a8 b0 bb 94 82 87 bb d8 b7 ac bb
       0.05583277 -0.0053911894 -0.004135439 -0.0052709393
000130 e1 ba ab bb 1a 6b b5 b6 3b 28 4b 3d 7f 26 ac 3d
       -0.0052407836 -5.4066886e-06 0.049598914 0.0840578
000140 ce 5f a1 bb 2c de dd ba 8b a4 e4 ba d0 11 3a 3d
       -0.004924751 -0.0016927174 -0.0017444057 0.045427144
000150 17 66 90 bb 5f b9 8e bb a0 a6 fb ba a4 a4 8a bb
       -0.0044067013 -0.004355594 -0.0019199438 -0.0042310525
000160 af dd ac bb e9 60 32 bb df c3 9d 3d 6d 64 9c 3d
       -0.00527545 -0.0027218407 0.07703375 0.07636342
000170 16 23 74 bb 8d 81 85 3d f7 ae 74 3d 2b b5 97 3d
       -0.0037252358 0.065188505 0.059737172 0.07407602
000180 57 cf a9 bb 8a ec 7f 3d f7 11 3b bb 70 5d 81 bb
       -0.0051821875 0.06248144 -0.0028544643 -0.003947906
000190 0a 77 25 bb 5d 29 7c bb 91 cc 7f 3d db 6c 00 b9
       -0.0025247955 -0.0038476803 0.06245095 -0.00012247583
0001a0 80 e4 74 3d 09 05 2d bb 99 7a ae bb ec 00 a1 3d
       0.059788227 -0.0026400706 -0.0053246734 0.07861504
0001b0 19 1e 3a ba 49 77 3f bb 44 cd 71 bb 5b 5f 81 3d
       -0.0007099822 -0.0029215387 -0.003689603 0.06317016
0001c0 3f 36 83 3d 9a c4 c6 bb 0f a2 9e bb bb 90 ed b3
       0.06406831 -0.006065917 -0.0048410962 -1.1062499e-07
0001d0 7d c9 9f bb e7 c0 9a bb cd e1 ae bb 9a b9 b2 3d
       -0.004876314 -0.004722703 -0.005336976 0.08726807
0001e0 03 2b a6 3d 57 a9 90 bb 3e 3e 53 3d 7b d9 50 bb
       0.081136726 -0.004414718 0.05157303 -0.003186791
0001f0 fa ba 65 3d 9b 45 12 bb 68 99 4f 3d 5d cc 98 bb
       0.056086518 -0.002231932 0.05068341 -0.004663034

6.weight f4 [3, 128]
000000 51 55 12 bb f7 3f d2 bd 42 de 3c bb 7e 94 1c bd
       -0.0022328685 -0.102661066 -0.0028819 -0.03822755
000010 0f e8 b4 bd 10 28 b1 bd 25 8c c6 a0 7f 2f 7f bd
       -0.08833324 -0.086502194 -3.3635245e-19 -0.062301155
000020 48 b7 80 20 f8 90 a3 bd 68 25 13 22 79 55 97 bd
       2.180533e-19 -0.07986635 1.9942018e-18 -0.073893495
000030 2d d2 2d 26 95 e5 72 a1 4d 8f cf a0 3f 91 04 23
       6.0306274e-16 -8.229664e-19 -3.5161993e-19 7.186491e-18
000040 4b 7a 26 a1 c8 d0 9d 23 3d a0 5e bd 16 30 d7 24
       -5.640484e-19 1.7110396e-17 -0.054352034 9.332285e-17
000050 93 5c cd 24 64 3e a6 20 54 d7 a4 bd 3c d4 92 bd
       8.9061405e-17 2.816278e-19 -0.08048883 -0.07169387
000060 2c c5 a7 bd 5e af df bd b6 ac 9c bd 83 d2 0b a1
       -0.081919044 -0.109221205 -0.076501295 -4.737364e-19
000070 9d 5f 43 a0 03 09 c0 21 79 f3 9f a2 60 64 93 bd
       -1.6548778e-19 1.3012811e-18 -4.3354823e-18 -0.071968794
000080 39 51 03 a3 13 a6 8d a2 6a e5 2a 20 0a 6b c2 bd
       -7.118724e-18 -3.8393964e-18 1.4475467e-19 -0.09493072
000090 07 eb 88 a0 3e 62 c8 bd be b8 94 bd 9b d8 08 a4
       -2.3194824e-19 -0.09784363 -0.07261799 -2.967377e-17
0000a0 cb 3c 91 bb 5d da 38 bb 24 88 a0 bd 21 31 05 be
       -0.004432296 -0.0028206327 -0.07838467 -0.13007022
0000b0 c7 0f 01 21 ac 60 9d 9e c1 9c 7b 21 eb 47 d9 bd
       4.372778e-19 -1.6663004e-20 8.524957e-19 -0.106094204
0000c0 1f 18 99 bb 1a 07 62 a1 be 2d aa bb 7e 1c 47 bb
       -0.004672065 -7.6581177e-19 -0.005193441 -0.0030381973
0000d0 af 2b 91 bd 65 b8 e9 21 d3 67 51 bd 19 e0 87 bd
       -0.0708841 1.5837503e-18 -0.051124405 -0.0663454
0000e0 fa 00 af 23 5d f9 17 22 72 1d 56 1f 9c c3 4d a1
       1.8973952e-17 2.0596328e-18 4.534062e-20 -6.971559e-19
0000f0 3c c6 90 9c 42 dd 87 bd ce 75 a1 bd e2 8d 1f a4
       -9.580363e-22 -0.066339985 -0.078837976 -3.459781e-17
000100 0a e1 26 20 bd 20 54 a0 94 d6 10 21 60 09 75 a4
       1.4135206e-19 -1.7967931e-19 4.907309e-19 -5.3133847e-17
000110 51 a9 3b 9e 40 f3 c1 bb e3 b0 2f a0 d9 d7 9f bd
       -9.934711e-21 -0.0059188902 -1.4881603e-19 -0.078048415
000120 5c 33 91 bd db 19 a5 24 5e 96 7c 21 09 01 a0 a1
       -0.07089874 7.1601144e-17 8.557993e-19 -1.0842296e-18
000130 eb 4d d5 20 ee 6e c4 23 3e 01 97 bd 1e a8 cf bd
       3.6135165e-19 2.1297343e-17 -0.07373284 -0.10139488
000140 51 d7 a3 a0 60 a8 cb 1f d5 cc 4e 22 24 49 89 bd
       -2.7755759e-19 8.62524e-20 2.8026643e-18 -0.067034036
000150 42 74 d6 21 33 e6 ad 20 3a 24 a2 a1 eb 8e 88 22
       1.4531977e-18 2.9459673e-19 -1.0987136e-18 3.7014194e-18
000160 db da 0b 23 a1 31 61 a0 0b 44 d3 bd 2a 54 96 bd
       7.5815495e-18 -1.9074662e-19 -0.103157125 -0.07340272
000170 f4 ac 0a 23 a1 66 8d bd 5b 9f a2 bd f9 f1 98 bd
       7.517619e-18 -0.069043405 -0.07940551 -0.074680276
000180 07 61 82 21 fd 5d aa bd 30 4e e4 22 6f 27 ae 9c
       8.834826e-19 -0.08318708 6.188231e-18 -1.1524547e-21
000190 d9 e0 f7 a0 4c 8d cd a0 85 12 ca bd 7d 3b be 20
       -4.199222e-19 -3.4821853e-19 -0.098668136 3.2226618e-19
0001a0 8f 69 a4 bd 80 26 a5 bb 69 2e ad 23 65 f3 b0 bd
       -0.08027946 -0.00503999 1.8776353e-17 -0.08640174
0001b0 e4 84 5f 1f 93 ae 54 bb f8 0f 58 20 42 22 a8 bd
       4.733201e-20 -0.0032452687 1.8301195e-19 -0.08209659
0001c0 d7 0c cc bd 1b 5e 42 bb 89 24 15 26 c9 8e e0 a0
       -0.099633865 -0.0029658142 5.1744274e-16 -3.8041563e-19
0001d0 1e c6 ad a0 a4 8c e8 1f 6a 5f c3 24 5b 4c c4 bd
       -2.9438443e-19 9.848849e-20 8.472941e-17 -0.09584876
0001e0 c9 f8 dd bd 2c f6 e6 9f 44 1b 9c bd 7e b0 40 3b
       -0.10838468 -9.7816046e-20 -0.07622388 0.0029402073
0001f0 9f bb aa bd 8f 2d d6 3a 0f 2d 80 bd 2a 6b 93 a7
       -0.08336567 0.0016340482 -0.06258594 -4.0916884e-15
000200 a6 e7 d5 3a 71 76 f0 bc e2 f8 0c 3b 83 4c c7 bd
       0.0016319647 -0.029353352 0.002151065 -0.0973139
000210 5c 4b 25 bd 24 8e 39 bd d9 d1 bc 1f 3a 38 e6 bc
       -0.04035507 -0.04530157 7.996826e-20 -0.028102983
000220 33 07 51 20 e7 04 1c bd 67 66 74 20 83 f8 09 bd
       1.770537e-19 -0.038090613 2.0701486e-19 -0.033684265
000230 a4 27 6e a2 bd be 91 a1 56 07 b9 a0 20 6d 60 a3
       -3.2276e-18 -9.87607e-19 -3.1345074e-19 -1.21661724e-17
000240 51 1f 86 20 f6 e9 9e 9f f3 57 2b bd e1 24 89 a4
       2.2721206e-19 -6.730266e-20 -0.04183192 -5.9476754e-17
000250 22 a0 88 23 16 4a 6d a0 b6 32 3a bd 0a 8b 34 bd
       1.4812968e-17 -2.0099194e-19 -0.045458518 -0.04407791
000260 f6 d6 2f bd 96 b7 3e bc 98 26 13 bd 03 6c bd a1
       -0.042929612 -0.01164045 -0.035925478 -1.2835729e-18
000270 e6 d9 8d 9f ec c4 8c 20 b2 e8 a9 a2 d8 45 52 bd
       -6.0076306e-20 2.3847234e-19 -4.6053918e-18 -0.05133614
000280 a4 c2 af 20 72 22 ad 21 fb cb bc 20 7d c9 1c bd
       2.9774956e-19 1.1732054e-18 3.1983422e-19 -0.03827809
000290 48 96 44 20 e1 e6 91 bc c3 bc 28 bd 46 8e 0c 23
       1.665157e-19 -0.017810287 -0.041195642 7.619543e-18
0002a0 66 46 15 ba 18 26 38 3b fc f7 97 bc 93 6b bc bd
       -0.0005694389 0.0028098878 -0.018550865 -0.09200206
0002b0 b5 f2 3d a1 93 63 fa 1f 5f cd b4 21 0f e6 07 bd
       -6.435691e-19 1.0604385e-19 1.2251636e-18 -0.033178385
0002c0 a5 7d 04 3b 17 76 99 20 46 4c 6f ba 51 54 e9 ba
       0.0020216492 2.5997353e-19 -0.0009128492 -0.0017801618
0002d0 1b 21 cd bc f9 8a 74 21 61 97 9c bd e6 aa 14 bd
       -0.0250402 8.2854344e-19 -0.07646061 -0.036295794
0002e0 0d 02 36 22 ec 63 00 a3 fc 17 18 20 73 46 96 9f
       2.4666685e-18 -6.960053e-18 1.2882837e-19 -6.364402e-20
0002f0 37 17 a2 1f 0d 64 f3 bc 57 ac af bc 2f c6 96 21
       6.8648074e-20 -0.029710794 -0.021444483 1.0216854e-18
000300 67 ca 67 1f 9e 97 93 9f d5 85 04 a1 2f 5d 8a a2
       4.9083576e-20 -6.250775e-20 -4.4900465e-19 -3.7503637e-18
000310 bc ff d4 9e 86 59 ca ba 4c 5e 1a a0 9f 47 43 bd
       -2.2552142e-20 -0.0015438057 -1.3075508e-19 -0.047675725
000320 d7 93 9a bc a6 5f f0 21 cf 32 55 21 a3 6b 90 20
       -0.018869324 1.6288351e-18 7.223445e-19 2.4465777e-19
000330 e9 9d 79 a0 d8 0e 93 a2 84 9c 17 bd e9 5e 5c bc
       -2.1143368e-19 -3.9860146e-18 -0.0370145 -0.013450363
000340 f6 00 37 21 49 20 11 a1 c0 95 6c 21 55 9d ca bc
       6.2004084e-19 -4.917064e-19 8.0158103e-19 -0.024733225
000350 1f 09 32 a2 31 83 01 21 4b a4 2f 21 9d fe 46 a1
       -2.4128327e-18 4.388053e-19 5.9509746e-19 -6.7421987e-19
000360 de 62 0c a3 54 75 94 a1 86 b1 e0 bc fd 55 68 bd
       -7.610351e-18 -1.0059927e-18 -0.0274284 -0.05672263
000370 29 01 57 22 a0 ab 27 bd db 50 06 bd 07 b3 60 bd
       2.9138548e-18 -0.04093516 -0.032791954 -0.054858234
000380 0c bc 9b 20 ba 34 59 bc d9 d0 2d 21 8d a5 c3 21
       2.638246e-19 -0.0132572 5.889109e-19 1.3257535e-18
000390 41 d0 da 1e f4 61 b7 a0 02 00 c4 bc f9 2f 90 a1
       2.316778e-20 -3.1066226e-19 -0.023925785 -9.770518e-19
0003a0 1b 8e a2 bc 32 94 32 3b 53 7b 65 a2 28 6d 3a bd
       -0.019843152 0.0027248976 -3.1100574e-18 -0.045514256
0003b0 74 f9 89 a0 73 93 f9 b9 74 eb 71 a0 f6 ee 99 bc
       -2.3373777e-19 -0.0004760284 -2.0491399e-19 -0.018790703
0003c0 68 49 b5 bc 30 11 30 3a 68 60 16 23 52 83 82 9f
       -0.02212973 0.00067164283 8.151931e-18 -5.527439e-20
0003d0 be 1c c6 a1 7e b2 92 a2 fd 66 19 a1 a3 51 55 bd
       -1.342461e-18 -3.9762365e-18 -5.197472e-19 -0.052079808
0003e0 d1 ee 81 bc c2 af fb 9f 8b 64 f4 bc 4b d3 2c ba
       -0.015860947 -1.065934e-19 -0.029833099 -0.00065927644
0003f0 1d bc 3e bd 95 c6 c5 3a ba c0 4a bd 87 18 80 a1
       -0.046566118 0.0015089089 -0.049500205 -8.68011e-19

6.bias f4 [3]
000000 2d fa 4b bd 0d f3 91 3b 67 f8 35 3d
       -0.049799133 0.0044540227 0.044426348

exp_avg f4 [128, 105]
000000 36 82 d4 b2 42 d4 28 b3 12 38 86 94 10 1c c6 b2
       -2.4739261e-08 -3.9308595e-08 -1.3552658e-26 -2.3062995e-08
000010 c1 e9 b6 95 85 af d4 b2 18 73 f5 95 b0 76 7a 96
       -7.3878013e-26 -2.4759865e-08 -9.91363e-26 -2.023229e-25
000020 2f 18 42 96 58 48 1b 15 66 ca 95 14 4b 47 f0 15
       -1.5678826e-25 3.135907e-26 1.5124987e-26 9.704771e-26
000030 6b de c6 15 a2 9d 42 96 81 73 a7 94 af 7c ab 95
       8.0322477e-26 -1.5720935e-25 -1.6908249e-26 -6.9263066e-26
000040 67 41 3b 96 a3 be 00 94 04 44 f8 15 01 a4 5d 95
       -1.5126377e-25 -6.499945e-27 1.0027371e-25 -4.475997e-26
000050 0d 3d a9 16 6e a8 0b 95 88 c0 b3 14 b7 7b 5c 95
       2.734195e-25 -2.8203694e-26 1.8150321e-26 -4.452624e-26
000060 b3 7e 07 15 3d d8 e8 94 67 41 69 14 89 0c 3e 15
       2.736298e-26 -2.3511304e-26 1.1776392e-26 3.8380083e-26
000070 7c dc ff 95 47 54 2e 16 7c cd 66 15 47 99 94 96
       -1.0334154e-25 1.4082201e-25 4.661023e-26 -2.400742e-25
000080 f0 73 a5 16 d9 13 b3 16 e8 d5 85 13 61 38 5b 15
       2.6730355e-25 2.8931535e-25 3.3784848e-27 4.4271173e-26
000090 6b 23 ef 95 cf b7 3b 95 86 e3 9d 14 c0 57 15 96
       -9.658721e-26 -3.790935e-26 1.5942691e-26 -1.2063813e-25
0000a0 18 b7 22 96 9d 1e 8b 15 c8 9e 0b 16 3c ab ae 16
       -1.314403e-25 5.618995e-26 1.1278433e-25 2.821928e-25
0000b0 59 9d 26 16 5a c4 f9 95 af 22 07 95 e5 3a 2c 96
       1.3459023e-25 -1.0088009e-25 -2.7290393e-26 -1.3912633e-25
0000c0 25 a4 97 14 91 18 06 93 7b 0c d3 95 29 59 0c 96
       1.5311847e-26 -1.692529e-27 -8.524191e-26 -1.1337244e-25
0000d0 70 ef 12 15 5a bd 86 95 9b 0d 88 15 41 57 3a 95
       2.9673348e-26 -5.442091e-26 5.495143e-26 -3.7631232e-26
0000e0 01 bd ba 95 08 9d 84 96 26 f0 48 16 da 8c 32 96
       -7.5423e-26 -2.142485e-25 1.6231649e-25 -1.442317e-25
0000f0 8d 6b 88 96 f3 39 a0 13 b3 69 48 96 ed 22 d4 15
       -2.203986e-25 4.044682e-27 -1.6189224e-25 8.568122e-26
000100 e3 05 03 95 c1 5c 11 96 76 a6 d0 95 fe 31 3e 16
       -2.6459883e-26 -1.1742275e-25 -8.427316e-26 1.5363853e-25
000110 5f 6f 02 16 31 ec f4 95 5f ab fc 15 cb a7 27 94
       1.0536459e-25 -9.892346e-26 1.02052365e-25 -8.464437e-27
000120 4e ac c3 95 63 ac 16 16 35 de eb 95 19 71 81 95
       -7.903172e-26 1.2171299e-25 -9.5266325e-26 -5.228112e-26
000130 5c 98 de 95 2d ea b2 96 0b fb e5 95 2d 88 98 16
       -8.9905467e-26 -2.8905237e-25 -9.288844e-26 2.4642863e-25
000140 2b 3c 55 95 32 67 1c 95 76 f9 be 15 2e 59 09 16
       -4.3062472e-26 -3.1585356e-26 7.713397e-26 1.1094912e-25
000150 cb 2a 80 14 02 35 ef 14 b5 16 bc 15 f0 52 4e 16
       1.2941576e-26 2.415374e-26 7.596842e-26 1.6666718e-25
000160 82 ca ff 95 6d 72 96 95 97 fd 42 96 34 12 18 96
       -1.0331318e-25 -6.076505e-26 -1.5751214e-25 -1.2284206e-25
000170 3b 9e 30 93 ff fd 7a 95 2a c3 ef 93 1e 5d 4f 13
       -2.2292337e-27 -5.0687466e-26 -6.052453e-27 2.6172983e-27
000180 63 44 73 96 59 22 42 16 f2 d7 a9 96 64 f3 d1 15
       -1.9650963e-25 1.5682033e-25 -2.7439703e-25 8.479843e-26
000190 98 8b b2 15 3c d2 33 16 73 94 80 15 9a 4a b1 95
       7.211387e-26 1.4525843e-25 5.1933e-26 -7.160743e-26
0001a0 00 fd c8 95 61 72 a9 b3 6d 82 d8 b3 9b 6a 88 16
       -8.117852e-26 -7.890481e-08 -1.0082008e-07 2.2039263e-25
0001b0 3a a2 72 b3 2c 19 52 15 42 73 a9 b3 95 b2 10 16
       -5.649256e-08 4.242902e-26 -7.890641e-08 1.1688578e-25
0001c0 77 28 07 16 d7 1e a2 16 b5 1f fa 15 76 de 86 96
       1.0917982e-25 2.6191974e-25 1.0102422e-25 -2.178926e-25
0001d0 ef ed 96 16 5c 71 3e 16 fd 3d 21 16 5d 9c 66 16
       2.4383964e-25 1.5383848e-25 1.3025036e-25 1.8628592e-25
0001e0 09 20 46 16 7e 14 2e 95 7c 86 da 15 fd 86 8f 95
       1.6004421e-25 -3.5155186e-26 8.826168e-26 -5.7970214e-26
0001f0 1e b8 5d 16 dc e3 7b 95 af ec af 96 a6 85 76 95
       1.7910335e-25 -5.0868796e-26 -2.8422143e-25 -4.9784734e-26
000200 d9 ef a1 92 44 c3 80 95 e2 6f 73 14 1b b8 36 95
       -1.0219655e-27 -5.2006863e-26 1.229043e-26 -3.689984e-26
000210 2d eb ff 95 a6 80 d7 94 47 3e 81 15 76 ac 87 16
       -1.0336472e-25 -2.1760195e-26 5.220094e-26 2.1919264e-25
000220 2c 6e 57 16 ce 5b 89 15 c8 9e 5c 96 64 db cc 15
       1.7402326e-25 5.54787e-26 -1.7821561e-25 8.274108e-26
000230 51 55 a1 96 5f 3b cb 95 c9 84 30 14 89 e7 0a 95
       -2.6064795e-25 -8.208472e-26 8.9119165e-27 -2.8051527e-26
000240 aa df 94 15 2c 3b 84 95 2a ca 9e 14 1f 07 4a 96
       6.0129604e-26 -5.340773e-26 1.6033663e-26 -1.6319677e-25
000250 0e 8d de 15 6a d5 ff 15 d5 d5 2c 15 67 2e 15 16
       8.988763e-26 1.0333039e-25 3.4903807e-26 1.2050766e-25
000260 73 f1 4c 15 49 2f 37 14 20 ee 99 96 03 45 1c 14
       4.1387942e-26 9.248464e-27 -2.486876e-25 7.8895974e-27
000270 d9 9d 62 96 b9 f5 94 16 d4 1b 00 16 44 4c 71 94
       -1.8305943e-25 2.4065762e-25 1.0348539e-25 -1.2182431e-26
000280 a1 3f f7 15 97 c5 90 16 74 ee 66 16 12 cd cd 95
       9.9862894e-26 2.3389151e-25 1.8654495e-25 -8.3122385e-26
000290 9a 5b 2b 94 fb 3f 99 96 64 b2 fd 15 9c 4b 15 96
       -8.651359e-27 -2.475886e-25 1.0246734e-25 -1.2059982e-25
0002a0 5d 26 45 14 c5 31 00 95 13 80 3c 94 f5 94 42 96
       9.953524e-27 -2.5888655e-26 -9.5168326e-27 -1.5718198e-25
0002b0 01 5d 40 15 2b 86 06 14 a1 e9 4f 16 89 8e ea 95
       3.8847458e-26 6.791731e-27 1.6795047e-25 -9.473673e-26
0002c0 91 43 76 15 8a 29 a0 96 08 0a 1f 96 da 54 81 96
       4.9732605e-26 -2.587561e-25 -1.2847083e-25 -2.0894623e-25
0002d0 76 98 db 15 bf e8 2b 16 66 f3 a5 95 7a bd 08 13
       8.8693937e-26 1.3886712e-25 -6.7026984e-26 1.7259032e-27
0002e0 9d 0a a2 16 e3 0e 9c 96 e5 b8 9e 14 5b 28 0b 95
       2.617921e-25 -2.5212554e-25 1.6026851e-26 -2.810266e-26
0002f0 4f 32 3f 15 54 79 7c 15 09 33 af 96 17 0e 19 14
       3.861183e-26 5.0986706e-26 -2.8304983e-25 7.727305e-27
000300 cd ac 85 95 9b 2d 1f 93 8d 7e 33 14 07 48 d4 94
       -5.3990904e-26 -2.0091107e-27 9.062148e-27 -2.143494e-26
000310 53 ca d9 94 c9 50 34 96 cc 4b 65 95 b1 89 3b 13
       -2.1991203e-26 -1.4565776e-25 -4.6305975e-26 2.3670605e-27
000320 62 d5 5b 15 67 5d 58 16 c5 0d 1d 96 a3 8e 2c 16
       4.4395027e-26 1.7477814e-25 -1.2686704e-25 1.3939058e-25
000330 39 f3 41 15 8c eb b2 96 48 b2 a8 15 3e 42 64 13
       3.9167908e-26 -2.8906102e-25 6.813594e-26 2.8810306e-27
000340 df 88 04 15 58 a3 d0 15 98 2e 1c bc 15 5a 0e bc
       2.676516e-26 8.426824e-26 -0.009532593 -0.008688469
000350 b6 99 62 95 94 b6 91 bb 2b 10 fa 15 9d 2e 1c bc
       -4.5761593e-26 -0.004446814 1.00999704e-25 -0.009532598
000360 49 47 4b 95 86 50 88 96 5b 97 9d 95 63 ea da 95
       -4.1051758e-26 -2.2022802e-25 -6.365059e-26 -8.8419296e-26
000370 7e ec d7 95 1f a5 88 95 04 e5 4c 16 9b d4 4a 14
       -8.721093e-26 -5.519048e-26 1.6551253e-25 1.0240323e-26
000380 57 b1 11 16 c3 76 6b 13 d0 43 35 14 f2 9e 07 94
       1.1768965e-25 2.9719724e-27 9.151538e-27 -6.847105e-27
000390 62 6d f6 15 fa ac 95 15 a3 81 05 96 24 f2 4d 14
       9.9531184e-26 6.045353e-26 -1.078456e-25 1.0397609e-26
0003a0 a1 e2 a9 96 15 58 d9 15 ac e0 2f 96 4d 30 4b 95
       -2.7446446e-25 8.778457e-26 -1.4207281e-25 -4.1033626e-26
0003b0 b0 13 aa 95 e9 00 89 14 4b 57 c0 94 6e a2 f7 15
       -6.8693515e-26 1.3833824e-26 -1.9421477e-26 1.00018774e-25
0003c0 1d 76 87 16 c0 56 91 16 81 b2 08 94 45 a8 6c 95
       2.1884966e-25 2.348076e-25 -6.901449e-27 -4.7792562e-26
0003d0 a7 e2 74 16 31 fa 72 95 b0 b4 24 96 2a 0f 89 95
       1.9781682e-25 -4.9068877e-26 -1.330483e-25 -5.5357784e-26
0003e0 8e 58 a5 96 ad 78 24 16 fd 74 49 96 be 10 88 16
       -2.6713074e-25 1.3285893e-25 -1.6273566e-25 2.198255e-25
0003f0 cf 8f 6b 95 d1 08 94 96 b9 e5 70 93 15 af ce 15
       -4.7571317e-26 -2.3916254e-25 -3.040552e-27 8.347897e-26

exp_avg_sq f4 [128, 105]
000000 66 06 13 2f 2f 47 03 2e 7e fa 81 1c 26 b8 0f 2d
       1.3371845e-10 2.9849175e-11 8.601255e-22 8.169498e-12
000010 1e 29 1e 1f 66 06 13 2f 52 fd 01 20 00 da b0 20
       3.3491813e-20 1.3371845e-10 1.1010542e-19 2.995982e-19
000020 59 5a d3 1f 84 03 7e 20 25 a6 af 1c e3 a1 35 1f
       8.9511444e-20 2.15158e-19 1.1623476e-21 3.846215e-20
000030 cf c9 c8 20 fc 3a d4 1f e9 78 0f 20 4f c1 1a 1f
       3.4014864e-19 8.9883074e-20 1.2152577e-19 3.277067e-20
000040 38 92 ce 20 29 af 8c 1b 0d 89 3b 1f af 8f 18 20
       3.4994517e-19 2.3274252e-22 3.9712156e-20 1.2922442e-19
000050 c6 5d a6 20 b8 1e 16 20 05 15 c1 20 bd 4d 3b 1e
       2.8183548e-19 1.2715658e-19 3.2709381e-19 9.9157735e-21
000060 cd 2e 0e 1e 71 19 8d 1f a1 46 41 1c 94 f6 28 1e
       7.5270956e-21 5.975791e-20 6.394963e-22 8.944837e-21
000070 c2 c4 4d 1f 18 3f f0 1f e1 d5 18 20 89 d9 91 20
       4.3573193e-20 1.01748334e-19 1.2945667e-19 2.4707908e-19
000080 71 34 96 20 3b 59 9e 20 c8 f4 c9 1a dd 3c aa 1e
       2.544569e-19 2.682529e-19 8.352712e-23 1.8024623e-20
000090 d0 07 84 20 95 00 b5 1e 2b 22 ec 1d 01 b6 b8 20
       2.236684e-19 1.9164361e-20 6.250401e-21 3.1291253e-19
0000a0 91 b3 f5 1f b6 ae 82 1f bb 07 b7 1f 05 f0 99 20
       1.04058604e-19 5.5346177e-20 7.7516304e-20 2.607804e-19
0000b0 76 ed c0 1f 1d 53 57 1f c8 19 75 20 97 77 c3 1f
       8.170801e-20 4.559677e-20 2.0760838e-19 8.278356e-20
0000c0 84 98 b7 1c 56 28 05 1a b3 2d c9 20 32 60 85 20
       1.2149349e-21 2.753634e-23 3.4080966e-19 2.2594733e-19
0000d0 09 e2 c0 1e 7f bc 6c 1e dd f5 72 1e f5 6e b5 1e
       2.0422277e-20 1.2532716e-20 1.2862217e-20 1.9210011e-20
0000e0 da 59 1f 1f 27 58 4c 20 9a 83 cf 20 1d 9d b6 20
       3.3743883e-20 1.7308639e-19 3.515425e-19 3.0935968e-19
0000f0 c1 f2 44 20 1e db df 1e 4a f8 b4 20 bb cc 6b 20
       1.6682166e-19 2.3701668e-20 3.065749e-19 1.9973014e-19
000100 f2 23 c5 1e c8 ea b8 1f a6 d4 26 1f 7d 99 e5 1f
       2.0873053e-20 7.8315444e-20 3.5327766e-20 9.72392e-20
000110 1f c5 00 20 58 d3 b1 1f c7 35 40 1f 0d e3 cd 1d
       1.0907244e-19 7.5312055e-20 4.0702065e-20 5.4497813e-21
000120 b8 1f ab 1f 60 bf ba 1f 08 df ba 20 5b 0d 0a 20
       7.247379e-20 7.909067e-20 3.1657215e-19 1.1693474e-19
000130 ff 76 2c 1f 39 fd 9f 20 e8 ed 64 1f 90 66 d7 20
       3.6520848e-20 2.7103216e-19 4.847767e-20 3.6490287e-19
000140 7e 93 36 1e b9 a8 8a 1f 8e 84 aa 1f 9c 41 ff 1f
       9.6655004e-21 5.87244e-20 7.2217094e-20 1.0810524e-19
000150 d1 61 6a 1c e3 62 0e 20 28 c7 1f 1f 93 4a 5c 20
       7.755053e-22 1.2060587e-19 3.3834298e-20 1.86594e-19
000160 a3 14 46 1f 85 3e 81 20 cb 68 2b 20 a4 3e bb 1f
       4.19452e-20 2.1894822e-19 1.4518936e-19 7.930121e-20
000170 34 95 50 1a 56 99 0e 1f 51 8a 8f 1d 0e b5 c2 20
       4.3133917e-23 3.0196506e-20 3.79948e-21 3.298469e-19
000180 ed 30 35 20 51 6a d3 1f 83 bd 97 20 55 18 6e 1f
       1.5347485e-19 8.953786e-20 2.5705803e-19 5.0418587e-20
000190 76 d5 1c 1f 29 85 b6 20 6c 8e 98 1e 7b e0 79 1f
       3.3210856e-20 3.0920117e-19 1.615253e-20 5.2913487e-20
0001a0 59 11 1e 20 a8 03 02 2e 0e ca e4 2d ba 02 45 20
       1.338886e-19 2.9561825e-11 2.601033e-11 1.6687451e-19
0001b0 8a 58 fc 2c 5b c1 72 20 aa 03 02 2e b5 d9 23 20
       7.1721006e-12 2.0562173e-19 2.9561832e-11 1.387867e-19
0001c0 6d 09 85 20 7e 11 d9 20 5c f5 56 1f 87 89 3f 20
       2.2537314e-19 3.6772805e-19 4.551922e-20 1.6223833e-19
0001d0 f6 ab ab 20 01 5c e5 1f 2c b4 be 1f d3 42 57 20
       2.908232e-19 9.713748e-20 8.07662e-20 1.8233319e-19
0001e0 55 f0 2b 20 86 8a 20 1e cc b8 2a 1f f1 06 c7 20
       1.4563783e-19 8.4989754e-21 3.615176e-20 3.3716505e-19
0001f0 f4 4a 30 20 29 80 84 1f 3a b1 9a 20 f9 dc 84 1f
       1.493258e-19 5.61162e-20 2.6205893e-19 5.626974e-20
000200 a5 1c 79 20 64 67 0f 1f 7c 67 90 1f 3d 8e b6 1e
       2.1100598e-19 3.036695e-20 6.115757e-20 1.9328828e-20
000210 68 8f 4d 1f e4 1a cb 1e ec 96 80 20 dd fb 47 20
       4.352906e-20 2.1504583e-20 2.1783915e-19 1.693929e-19
000220 42 cb b3 20 02 2a 7d 1e 58 03 8b 20 a0 52 ac 1f
       3.0458284e-19 1.34023955e-20 2.3549729e-19 7.2981525e-20
000230 76 ed d8 20 19 db 24 1f 54 a9 10 20 7e b8 0f 1e
       3.6748962e-19 3.4909584e-20 1.22533e-19 7.608509e-21
000240 b6 da 1a 20 81 ae 80 20 49 28 f9 1c f4 96 cf 20
       1.3116673e-19 2.179952e-19 1.6487851e-21 3.5167056e-19
000250 5b b1 ae 1f 78 dd 4d 1f de e8 1f 1e b2 b9 65 20
       7.3985276e-20 4.3593633e-20 8.465546e-21 1.9458496e-19
000260 b7 79 31 1e fe 66 7e 1d 4e a3 d7 20 17 8f cb 1d
       9.395472e-21 3.3669866e-21 3.6530483e-19 5.3881604e-21
000270 15 7a 8b 20 ac 20 ac 20 0b 2c 4c 1f cb 6a 97 1f
       2.3628303e-19 2.9159554e-19 4.3235112e-20 6.412766e-20
000280 63 a8 3a 1f f5 0d ad 20 d1 d0 8b 20 ac c7 25 1f
       3.9526318e-20 2.9316576e-19 2.36857e-19 3.5105274e-20
000290 d2 f3 77 20 b7 85 d7 20 3e 44 ba 20 96 7c 24 20
       2.1002387e-19 3.6510902e-19 3.1554785e-19 1.3932562e-19
0002a0 a8 e7 d3 1d 91 5e 00 1f 9d 35 91 1f 13 1a e0 1f
       5.609076e-21 2.7183278e-20 6.1498584e-20 9.4910826e-20
0002b0 fd 04 9f 1f 1a 1a c7 1d 49 63 b4 20 e1 6b 62 1f
       6.734737e-20 5.270185e-21 3.0558888e-19 4.7946597e-20
0002c0 42 05 0e 1f 0f 4f a9 20 9e d6 bd 1f ee ea 39 20
       3.007402e-20 2.868203e-19 8.039967e-20 1.5747841e-19
0002d0 d8 2b 2b 1f 8f 3b 62 20 be 2c 19 1f 52 87 79 20
       3.6246925e-20 1.9162651e-19 3.243602e-20 2.1135894e-19
0002e0 47 c4 a8 20 aa 00 d8 20 14 ca f4 1c d8 d5 0f 1e
       2.8590192e-19 3.6592263e-19 1.6198802e-21 7.614579e-21
0002f0 75 83 c5 20 44 50 55 1e d9 3d 9a 20 ba e6 ca 1d
       3.346009e-19 1.1292725e-20 2.6129542e-19 5.370752e-21
000300 e7 b1 68 1e d6 48 30 1a 9e 95 f1 1b 9a 2c c4 20
       1.2318767e-20 3.6454783e-23 3.9966793e-22 3.3233206e-19
000310 47 74 fc 1e 0d de 60 20 2b fe 0a 20 19 b5 65 1a
       2.6729629e-20 1.9047008e-19 1.1773152e-19 4.750238e-23
000320 8f 01 aa 1e 57 b0 8a 20 12 0c f8 1f e8 26 f1 1f
       1.8000095e-20 2.34948e-19 1.05052054e-19 1.02131835e-19
000330 6b 43 73 20 68 d0 9d 20 ad 9e 7c 1f ae 8d 11 20
       2.0605207e-19 2.6734746e-19 5.349433e-20 1.2328856e-19
000340 31 be c4 1e ba 0f 83 20 83 76 27 39 b7 af 1e 39
       2.0830969e-20 2.220267e-19 0.0001597051 0.00015133513
000350 ca 5f a7 1e d4 f9 00 38 0a 3c 3d 1f 85 76 27 39
       1.772143e-20 3.075025e-05 4.007197e-20 0.00015970513
000360 5e ed af 1e d7 23 43 20 11 55 a6 1f f5 62 83 20
       1.8627018e-20 1.6529001e-19 7.0444465e-20 2.2257747e-19
000370 8a a7 29 1f ce ba 89 1e af 1d 2d 20 0d 46 73 1d
       3.5925727e-20 1.45827e-20 1.4663491e-19 3.2196998e-21
000380 6d f7 b8 20 85 03 a5 1a 6c aa d0 1d 23 d0 98 1b
       3.1334545e-19 6.8248087e-23 5.5233354e-21 2.5280796e-22
000390 cd fb 39 1f 8f 2c 81 1f 4f 55 22 20 16 53 19 1c
       3.938356e-20 5.470734e-20 1.375016e-19 5.073084e-22
0003a0 43 1d a6 20 31 56 83 20 dc c3 87 20 c1 6e 30 1e
       2.8140858e-19 2.22493e-19 2.2999498e-19 9.340266e-21
0003b0 3d 59 1a 1f 6b 82 88 1c 29 a4 f9 1e b2 37 b2 1f
       3.2684585e-20 9.033437e-22 2.6431796e-20 7.547807e-20
0003c0 43 71 48 20 ee 27 91 20 79 62 8b 1d 0e 26 a3 1e
       1.6978134e-19 2.459038e-19 3.689481e-21 1.7274035e-20
0003d0 98 9e 35 20 05 b7 71 20 10 1e c0 1f f8 0a 88 1e
       1.538377e-19 2.047405e-19 8.13649e-20 1.4404097e-20
0003e0 c0 2b 96 20 4f f0 f4 1f 62 32 5d 20 a9 18 42 20
       2.543994e-19 1.0373558e-19 1.8736098e-19 1.6440599e-19
0003f0 88 a1 a3 1e 4c 56 ac 20 c4 b2 b7 1d c5 dc 04 20
       1.7325104e-20 2.919504e-19 4.8624536e-21 1.1253881e-19

exp_avg f4 [128]
000000 44 86 d4 b2 d4 72 a9 b3 a0 2e 1c bc 84 7f f0 bc
       -2.4741105e-08 -7.890563e-08 -0.009532601 -0.02935768
000010 d5 4a b7 bb 9c 2e 3b b2 99 57 99 bb 5d 8d 37 b3
       -0.0055936375 -1.089543e-08 -0.004679632 -4.2736577e-08
000020 50 6a 62 ac 94 36 e0 3c 50 14 e5 b2 01 3e 6f ab
       -3.2175547e-12 0.027369775 -2.6668346e-08 -8.4995905e-13
000030 54 fb 7a 3a 51 57 16 ae 99 c5 5f b3 3e ab 1b b4
       0.0009574194 -3.4183604e-11 -5.2100948e-08 -1.4497797e-07
000040 74 83 a3 bb cf 4f 1a b0 e1 3a b4 bb a9 df d6 b0
       -0.0049900357 -5.613829e-10 -0.005500183 -1.5634117e-09
000050 68 50 9c bb 13 f3 a9 bb 2b 29 aa ba 8e 1e 88 b9
       -0.0047703274 -0.0051864474 -0.001298224 -0.00025962706
000060 c9 55 26 a9 b4 34 8a b3 73 02 88 b2 5f 54 ac 39
       -3.693381e-14 -6.4357124e-08 -1.5833598e-08 0.00032869258
000070 0c b8 ac bb fd 0e f7 b3 b5 7d 86 af b1 08 2a bb
       -0.0052709635 -1.150456e-07 -2.4463778e-10 -0.0025945122
000080 2d 46 8a bb ce b0 57 aa 1f db 17 21 67 62 7a b3
       -0.0042197914 -1.9157177e-13 5.1450794e-19 -5.8297157e-08
000090 b4 7d db b3 6f a5 1e b3 c4 bd 0e 3b 42 3d cd a8
       -1.02208475e-07 -3.6937703e-08 0.002178059 -2.2786138e-14
0000a0 60 35 ad ab 9c 78 cb a6 dc 96 80 bb cc 7d 21 bc
       -1.2307204e-12 -1.4118646e-15 -0.003924234 -0.0098566525
0000b0 5f 63 63 bb 4c 7b 89 bb 20 c0 cf bb 7f ae a3 b1
       -0.003469668 -0.0041956063 -0.0063400418 -4.7637623e-09
0000c0 1b 21 fb ba 5d 5b 31 ac 9e be 08 b3 37 3b 9b af
       -0.0019159646 -2.520393e-12 -3.1838333e-08 -2.823641e-10
0000d0 73 0a c0 ae 09 84 31 b2 85 be 54 bb 9a ff 09 3c
       -8.733005e-11 -1.0332777e-08 -0.0032462191 0.008422757
0000e0 0d 4d fe b3 79 57 d7 b2 bb a1 03 bd 83 91 2f b2
       -1.1841812e-07 -2.5069072e-08 -0.03213666 -1.0219426e-08
0000f0 0f c8 cf ba a9 94 e2 b2 d3 41 3e bb 8b 97 9d b2
       -0.0015852469 -2.6377466e-08 -0.0029030934 -1.834612e-08
000100 83 73 06 bc 54 c3 ed bb 4f ac e7 a9 bb ec 50 aa
       -0.008206251 -0.007255951 -1.02883515e-13 -1.8556244e-13
000110 ec c7 01 37 33 ef e4 ae 45 fd 4f bb 99 ca dd bb
       7.735547e-06 -1.041073e-10 -0.0031736654 -0.0067685363
000120 a8 26 24 b3 9a 9e 3a bb 52 17 c9 ba da 82 af b0
       -3.8219383e-08 -0.0028475882 -0.0015342033 -1.2770116e-09
000130 df 77 3d b1 13 1d 04 bb 1c 04 e9 b3 0f 52 dd bb
       -2.7571259e-09 -0.002015893 -1.08506555e-07 -0.006754167
000140 dc c7 89 b2 f6 b3 7d b3 af fe 03 bc be 5b 84 ba
       -1.6039785e-08 -5.9069826e-08 -0.008056327 -0.0010098142
000150 29 6b 7c b3 5a 78 ea bb b5 ac 9f b2 74 81 4e bb
       -5.8770784e-08 -0.0071554603 -1.8588574e-08 -0.0031510266
000160 aa 3b 07 b3 12 71 96 ae ac 21 0a b2 46 9e 83 b3
       -3.14864e-08 -6.8412956e-11 -8.040313e-09 -6.1289526e-08
000170 13 42 22 bb b8 54 9a b3 79 46 cb bb 1e 73 71 b2
       -0.0024758622 -7.186594e-08 -0.0062034694 -1.4054221e-08
000180 15 09 e0 bb 19 22 a0 b2 ad 65 00 ab 6c a6 54 bb
       -0.00683702 -1.8641957e-08 -4.561584e-13 -0.0032447828
000190 57 ad 04 bc 8a 47 b5 bb a7 26 e1 bb 23 c3 56 bc
       -0.008097968 -0.0055322098 -0.006871063 -0.013108048
0001a0 ec 0b f8 bb f2 7e 24 b2 1b 40 de b2 6f 04 a7 bc
       -0.0075697806 -9.57492e-09 -2.5873353e-08 -0.020387856
0001b0 fa 1c 4f b2 c1 fa c5 aa e4 7c 81 ac ce 31 4c bb
       -1.2055574e-08 -3.5168225e-13 -3.680266e-12 -0.0031157616
0001c0 26 f2 73 b1 6e ae c6 ba 9a e4 29 bb 57 f7 56 b3
       -3.54988e-09 -0.0015158185 -0.002592361 -5.0050712e-08
0001d0 93 1e 53 b3 c3 70 8c bb 3c e4 05 b3 c4 c9 e1 bb
       -4.9155073e-08 -0.004285903 -3.1174054e-08 -0.0068905074
0001e0 8a b9 51 b3 40 13 a2 39 a5 db 8d bb 3e 7a 6d 36
       -4.883035e-08 0.0003091339 -0.004329162 3.5386906e-06
0001f0 b4 64 c8 b2 34 10 bc b2 01 0c 39 bc ba 82 d1 bb
       -2.3328859e-08 -2.1893449e-08 -0.011294366 -0.0063937576
