models/models_simple/reinforce_ep100.pth (torch, 373835 bytes, 18 tensors)

0.weight f4 [128, 105]
000000 19 3c 94 bb 5f 5a 91 bb c0 a5 34 35 47 fa 25 bb
       -0.0045237658 -0.004435822 6.7296423e-07 -0.002532618
000010 a5 e2 9e b5 0c 17 ab bb f8 1f 0b b6 6a 96 bf 35
       -1.183788e-06 -0.0052212533 -2.0731222e-06 1.4274385e-06
000020 18 41 0e b5 aa f6 14 b6 83 27 36 b5 0a 8f 3b b5
       -5.2993846e-07 -2.2197296e-06 -6.785778e-07 -6.987108e-07
000030 dd c5 4e b6 55 6c 8c b4 8c 16 d1 35 4c c6 40 b5
       -3.0811564e-06 -2.6155854e-07 1.5578275e-06 -7.1814134e-07
000040 59 d2 26 b5 a3 25 c9 35 48 ee 19 36 a5 58 c0 b5
       -6.2145915e-07 1.4986621e-06 2.2937475e-06 -1.4330914e-06
000050 79 1b 29 b6 36 c6 e6 34 07 4d d6 b5 01 d1 bb 35
       -2.5198954e-06 4.2985056e-07 -1.596666e-06 1.3993414e-06
000060 13 cb a6 b4 dc c8 21 b6 11 45 1d b6 6d 19 f4 b5
       -3.1067665e-07 -2.4107785e-06 -2.3435025e-06 -1.8186817e-06
000070 5f 24 09 36 ae 09 3a b5 2c c4 96 b3 43 52 87 b5
       2.0435762e-06 -6.9304485e-07 -7.020603e-08 -1.0082225e-06
000080 7b 97 3d 35 20 ed 1e 34 bc 03 22 b4 b8 76 01 b4
       7.062842e-07 1.4801162e-07 -1.5088784e-07 -1.2057251e-07
000090 04 61 94 36 f3 02 86 34 15 a9 fd 35 84 cd 81 b5
       4.422038e-06 2.496159e-07 1.8899178e-06 -9.671062e-07
0000a0 74 8a b0 b4 c7 00 62 b3 e6 65 97 b3 9e 76 22 36
       -3.2883293e-07 -5.2620432e-08 -7.050021e-08 2.4208925e-06
0000b0 4b 02 27 b5 83 e3 82 35 66 bc 1d 36 f4 8b 0b b6
       -6.2215685e-07 9.751969e-07 2.3504485e-06 -2.0794077e-06
0000c0 55 03 9a b5 cb 03 0b b5 81 c1 17 35 4a 0b 35 b5
       -1.1474864e-06 -5.1787055e-07 5.653347e-07 -6.744418e-07
0000d0 42 b8 28 b5 d8 7f 41 b6 e8 40 c3 b4 4c 3d 42 b5
       -6.285301e-07 -2.8833656e-06 -3.6368806e-07 -7.235983e-07
0000e0 5d 32 05 36 3b 79 25 b5 c3 fa 89 b6 13 bf 3f b5
       1.984786e-06 -6.1643703e-07 -4.1121107e-06 -7.1431094e-07
0000f0 72 48 bf 34 be 77 0d b6 57 89 06 b4 86 bb 29 35
       3.5629233e-07 -2.1080336e-06 -1.2529686e-07 6.323029e-07
000100 a7 cf 40 b5 e8 78 33 b6 7c 32 ba 34 7c 5b 85 b6
       -7.182775e-07 -2.6743455e-06 3.4681932e-07 -3.974359e-06
000110 b5 82 93 35 c3 d0 30 b6 01 7e 5c 36 b7 9a 37 b6
       1.0990394e-06 -2.634756e-06 3.2855899e-06 -2.735918e-06
000120 a3 48 30 b6 39 d5 0e b6 a1 6a 6c 36 b0 af e6 35
       -2.6268324e-06 -2.128376e-06 3.5228807e-06 1.7187467e-06
000130 ed 48 fe b5 a5 bd f1 35 cf d7 67 b4 fe 6f d4 35
       -1.8945699e-06 1.8011093e-06 -2.1592062e-07 1.5827825e-06
000140 00 65 37 36 d0 29 89 b5 03 ce 0a 36 97 52 ed 35
       2.7327915e-06 -1.0219464e-06 2.0683517e-06 1.7681913e-06
000150 4a 9b bf b4 7a 49 1f 36 31 25 9d 34 e9 71 9a b5
       -3.568951e-07 2.3735615e-06 2.927059e-07 -1.1507046e-06
000160 0e 20 f0 35 3f 41 8c 35 93 9c 17 b6 2c be 4a 35
       1.7890723e-06 1.0449802e-06 -2.2591892e-06 7.55276e-07
000170 b3 fe 1c b6 f3 fa 82 34 80 08 f5 35 f9 54 2a 36
       -2.3394066e-06 2.4396977e-07 1.8256396e-06 2.5381435e-06
000180 2b b4 37 b6 1c 56 34 b5 77 84 90 b4 b9 e0 fe 34
       -2.7373997e-06 -6.718053e-07 -2.691847e-07 4.7474694e-07
000190 0c 7f af b4 84 2b 17 36 a0 5d c7 b5 45 d6 82 b5
       -3.268873e-07 2.2526083e-06 -1.4853904e-06 -9.748115e-07
0001a0 30 8a 16 b5 a8 12 54 3d 1f ed d2 3c 67 8f 37 36
       -5.6080444e-07 0.051775604 0.025747834 2.7352596e-06
0001b0 9f 08 2a 3d ec 95 2f 35 7d 75 4b 3d 2f 0f 00 b5
       0.041512128 6.5410745e-07 0.049672592 -4.770581e-07
0001c0 f2 67 26 36 13 1c 17 b6 aa 5a 1c b6 ca 63 2e b6
       2.4796432e-06 -2.2517095e-06 -2.3298585e-06 -2.5986105e-06
0001d0 13 5e c2 35 2a 49 52 b5 0a 18 5d 34 20 b6 d7 35
       1.4481506e-06 -7.8337564e-07 2.0590974e-07 1.6071754e-06
0001e0 92 18 1e b6 3c be 35 b6 9d 78 15 36 0e 81 11 b5
       -2.3558136e-06 -2.7081833e-06 2.2272936e-06 -5.420451e-07
0001f0 b4 3e 01 35 f2 b0 02 35 38 7d f4 b5 fe d5 f7 35
       4.814749e-07 4.8686263e-07 -1.821586e-06 1.8465214e-06
000200 74 95 0f 36 d2 1e fd b4 d0 87 9c b4 8b 91 53 35
       2.1395654e-06 -4.7147347e-07 -2.915608e-07 7.881542e-07
000210 9b 04 05 b6 27 63 89 b4 ea 76 9b 35 19 27 96 35
       -1.9821225e-06 -2.559038e-07 1.1583008e-06 1.118725e-06
000220 fa 3c 75 36 f3 74 82 b6 60 60 0f 36 08 95 09 b6
       3.6543338e-06 -3.8879166e-06 2.1364758e-06 -2.0501338e-06
000230 1c 5b 3f 35 f2 51 25 35 88 fe 8d 35 e4 bb 51 34
       7.1285626e-07 6.1586536e-07 1.0579397e-06 1.9532996e-07
000240 fa 7e 19 35 14 fd 3a 35 e2 83 66 36 71 ab 40 b5
       5.7181717e-07 6.9658677e-07 3.4349437e-06 -7.1775054e-07
000250 e0 69 8e 36 93 a6 12 b6 83 a5 fc b4 79 9c 85 36
       4.2442553e-06 -2.1852654e-06 -4.7059083e-07 3.9819247e-06
000260 c6 03 07 b5 d6 cd e3 34 c0 1d 2a b5 e2 a3 c3 35
       -5.029691e-07 4.243181e-07 -6.3373227e-07 1.4576328e-06
000270 e7 08 a9 b5 75 57 0c b4 68 aa b5 35 d8 da 5a b4
       -1.2594072e-06 -1.3070333e-07 1.3535146e-06 -2.0382447e-07
000280 0f 3e 9d 33 3c 15 37 b6 46 97 35 b5 a9 22 6d b5
       7.3221706e-08 -2.7281485e-06 -6.7647886e-07 -8.833982e-07
000290 6f d4 b0 34 1b 33 40 34 c7 27 f6 b4 b7 1d a3 34
       3.293712e-07 1.7899985e-07 -4.5850012e-07 3.0382736e-07
0002a0 4d 02 f0 35 8c 93 6e 35 c0 48 87 35 cb 85 3b 35
       1.7882063e-06 8.887662e-07 1.0079457e-06 6.9857623e-07
0002b0 26 a1 6a 35 1a 23 93 35 cc c1 fe 34 24 b1 37 b6
       8.7406295e-07 1.0962569e-06 4.7452193e-07 -2.7372234e-06
0002c0 e1 d6 60 36 dd ee 0c b6 22 99 35 36 23 9b b7 b4
       3.3503677e-06 -2.1000662e-06 2.7060237e-06 -3.4199283e-07
0002d0 bb 84 48 b5 e7 15 19 35 dd a9 3f 35 8b d2 3f 35
       -7.4698954e-07 5.7028814e-07 7.140023e-07 7.1459425e-07
0002e0 01 0d fa 33 60 8b 82 b3 75 0f 2a b5 75 00 25 b6
       1.16438976e-07 -6.078949e-08 -6.335243e-07 -2.4587182e-06
0002f0 4c 70 9b 32 3f 70 05 36 a7 9b 55 b6 c0 dc 1b b6
       1.8095442e-08 1.988388e-06 -3.1830075e-06 -2.3225293e-06
000300 51 e7 99 b5 bc c7 0a 35 d1 4d 08 36 45 a1 2a 36
       -1.146671e-06 5.169966e-07 2.0310874e-06 2.5425845e-06
000310 53 fe 1c b5 f7 65 87 b5 cd db 32 36 f8 ed 6d 35
       -5.848462e-07 -1.008796e-06 2.6652008e-06 8.863567e-07
000320 d6 07 36 36 94 2c f9 35 ed d6 94 b4 76 a2 6a 36
       2.7124674e-06 1.856492e-06 -2.7723527e-07 3.4963282e-06
000330 5f 03 80 35 0b 1a 0e b6 dd f2 02 b4 8d c4 1c 36
       9.537724e-07 -2.1174808e-06 -1.2195547e-07 2.336022e-06
000340 3f 17 fa b4 ea 0d 28 b6 e8 fb 68 bb 18 26 bf bb
       -4.6583042e-07 -2.504205e-06 -0.0035550538 -0.0058333986
000350 84 18 25 b6 28 d6 03 bc e3 26 a4 b3 ea 79 6c bb
       -2.4601186e-06 -0.008046664 -7.6439186e-08 -0.0036083409
000360 9f 13 bd b4 f1 7f 1d 36 7a 92 20 36 a5 37 e2 b5
       -3.521827e-07 2.3469295e-06 2.3927118e-06 -1.6854507e-06
000370 73 ad 35 35 e9 61 04 b6 30 de 4f b4 4c e2 b1 b3
       6.7680156e-07 -1.9726524e-06 -1.9359209e-07 -8.283368e-08
000380 d5 5f 4a b3 12 9e f1 b2 8f 9f 33 35 06 4d 2b b5
       -4.711895e-08 -2.8127975e-08 6.6914885e-07 -6.381455e-07
000390 43 fc 0e 35 7f 8e 01 b6 fd f9 8a 35 ba 7d f7 35
       5.326621e-07 -1.9305442e-06 1.0354557e-06 1.8439525e-06
0003a0 63 6f 35 b6 3a f8 63 b5 26 41 29 36 be d1 f0 b5
       -2.7035937e-06 -8.4925307e-07 2.5220884e-06 -1.7942436e-06
0003b0 5d dd c7 35 8c c4 d5 35 5c 28 34 b6 c4 aa 36 36
       1.4891081e-06 1.5926939e-06 -2.6845582e-06 2.7219512e-06
0003c0 03 07 ca b3 9a db 10 b5 2d 72 83 b5 93 47 ac 35
       -9.4076334e-08 -5.396374e-07 -9.79349e-07 1.283583e-06
0003d0 49 1c 7f 36 32 d3 2c 36 81 41 1f 35 f4 3d 2c b5
       3.8014425e-06 2.575293e-06 5.9327436e-07 -6.4165147e-07
0003e0 fd a6 07 b6 0d ff fa b1 89 b5 aa b5 32 c7 b6 34
       -2.0213768e-06 -7.3049535e-09 -1.2718821e-06 3.4045075e-07
0003f0 c3 9d f1 b4 f5 aa 25 35 eb be 8d b4 c7 7c 1f 36
       -4.5004535e-07 6.1716065e-07 -2.6402208e-07 2.3765476e-06

0.bias f4 [128]
000000 7f 3f a4 bb 8e 0c 50 3d ab b8 6a bb 35 53 eb bb
       -0.005012452 0.050793223 -0.0035815637 -0.00718155
000010 f6 35 e7 ba 7d ee 28 3c 88 4f 0d 3d 8f 21 d9 ba
       -0.0017639983 0.010310766 0.034499675 -0.0016565787
000020 1e 37 fc ba 2d ab 3f bb 2c af 9d bb 20 21 5a bb
       -0.00192425 -0.0029246316 -0.004812142 -0.0033283904
000030 62 21 82 ba 35 df 8d bb ed c5 1d bb 83 8f c7 bb
       -0.0009928162 -0.004329587 -0.0024074272 -0.006090106
000040 ac 69 19 ba 3a f5 3d ba 5a 58 6e 3d 36 9a 40 bb
       -0.0005852233 -0.00072463194 0.058189727 -0.0029388792
000050 7d eb 0b bb 0b 3d 86 ba f3 e7 36 b9 94 97 a9 ba
       -0.0021350079 -0.0010241581 -0.0001744328 -0.001293885
000060 6c 93 c9 b9 ca a0 94 ba 61 5a 7b 3d 7b 02 d8 3c
       -0.00038447545 -0.0011339423 0.06136549 0.02636837
000070 0f 62 5b 3d 4e b9 e1 ba 13 42 a2 3c a0 66 02 3d
       0.053560313 -0.0017221363 0.019806897 0.031836152
000080 ec 95 34 bb 23 e6 97 3c a5 83 2d ba 0f 9f 3e ba
       -0.002755518 0.018542355 -0.0006619043 -0.00072716264
000090 14 79 02 3d 99 d5 32 ba 71 c9 6f 3d 1b ca 79 bb
       0.03185375 -0.00068219897 0.05854172 -0.003811485
0000a0 52 dc 3e 3d 5a 18 45 3d 1f 1d c3 bb ae 05 84 bb
       0.046596833 0.048118927 -0.0059543992 -0.0040289974
0000b0 f2 1e 89 3c a7 72 7d ba 34 e5 01 3d f2 5d 48 bb
       0.016738389 -0.00096682686 0.031712726 -0.0030573574
0000c0 fe d6 a2 ba cc 63 d0 3c 74 56 96 bb f9 e1 88 3c
       -0.0012423692 0.025438212 -0.0045879427 0.016709315
0000d0 24 a8 02 bb 87 52 b6 ba 88 eb b5 bb 43 b8 c1 bb
       -0.0019936645 -0.0013910093 -0.005551759 -0.0059118583
0000e0 92 bb 39 3d 13 44 40 bb 26 1e ec 3c 47 e9 83 bb
       0.045344897 -0.002933745 0.02882297 -0.0040256116
0000f0 6a 2b 4a bb 26 e8 c6 bb b0 bf a1 bb 3f 3b 01 bb
       -0.003084863 -0.0060701547 -0.004936181 -0.0019719151
000100 fb c6 63 b9 37 02 23 3d 66 cd 8e bb 7d 12 7c 3d
       -0.00021722533 0.039797034 -0.0043579815 0.06154107
000110 29 9e bd bb 51 78 51 bb 48 54 18 3d 4c 37 14 3d
       -0.0057866764 -0.0031962583 0.037189752 0.036185548
000120 a1 2d 24 bc 9a 3e ac 3c 50 9b 61 bb e5 51 c8 ba
       -0.010020644 0.021025945 -0.003442485 -0.0015283196
000130 c7 3a 55 b9 97 13 e7 ba d8 e2 e8 bb a4 9a 6d bb
       -0.00020335159 -0.001762974 -0.00710712 -0.0036255503
000140 db c7 84 bb 12 45 36 3d 54 0c 8f b8 b8 07 12 3d
       -0.004052145 0.044499464 -6.821068e-05 0.035651892
000150 76 64 39 3d 83 e2 80 ba 06 88 a4 bb 91 83 51 3d
       0.045261823 -0.0009833131 -0.005021098 0.051150862
000160 37 e8 0f 3d b3 86 74 3d 08 5a ed ba 5b 0f 60 bb
       0.035133567 0.05969877 -0.0018108496 -0.003418884
000170 d8 e9 7a bb 1c 87 3d bb 04 c7 2e 3d 31 84 a5 b9
       -0.0038286354 -0.0028919643 0.042670265 -0.00031569743
000180 df 4f 36 ba 36 e7 1f 3d e1 f2 03 bb 2c b7 a3 bb
       -0.0006954651 0.03903886 -0.002013378 -0.004996201
000190 72 1c 98 bb a4 4b 9f bb 1d 9b 3e 3d 4a 99 62 3d
       -0.004642063 -0.004861312 0.046534646 0.05532197
0001a0 11 42 5b 3d 3c 08 34 3d fd b0 45 b9 10 ab ba 3c
       0.053529803 0.043953165 -0.00018853317 0.022786647
0001b0 d6 ed d8 ba a9 af 87 bb ae 99 62 ba f3 0f aa bb
       -0.0016550373 -0.0041408134 -0.0008644116 -0.0051898896
0001c0 cc 34 17 3d 87 f9 9c ba ea 62 9d bb 5b 51 a4 b9
       0.036915585 -0.001197622 -0.0048030512 -0.00031341132
0001d0 8f c5 c2 ba f1 d2 1d 3d 6e f1 70 3d b8 d5 e5 ba
       -0.0014859902 0.038531248 0.058823995 -0.0017535007
0001e0 00 b9 6c bb 1a 24 5f 3d 35 95 3c 3d c6 ee 06 3d
       -0.003612101 0.05447779 0.046040732 0.032942556
0001f0 81 43 0b bb 0d 06 57 bb 66 63 c6 b8 ea ab a4 bb
       -0.0021249952 -0.0032810003 -9.45989e-05 -0.0050253766

3.weight f4 [128, 128]
000000 35 5c 01 37 80 65 f6 ba 5b 92 0b 35 15 ea fc b7
       7.710468e-06 -0.001879856 5.199451e-07 -3.0149744e-05
000010 eb cc 76 bb 03 ea 8c 34 ce 1d f8 ba 12 70 2f b6
       -0.0037658762 2.6247298e-07 -0.0018929781 -2.6142266e-06
000020 cb 26 fe ba 20 85 38 35 52 41 37 38 be bf 35 bb
       -0.0019390223 6.8739064e-07 4.3691434e-05 -0.0027732695
000030 41 bf d2 ba 28 52 fb b6 13 bd 37 b6 46 47 14 bb
       -0.0016078727 -7.489947e-06 -2.737918e-06 -0.002262549
000040 a8 35 29 b9 b0 f1 2c 35 2d f6 21 b8 c5 2f 70 b9
       -0.00016137084 6.4426695e-07 -3.861466e-05 -0.00022905979
000050 61 65 e6 35 aa c0 99 35 ce 97 cd 35 bf 6b 13 b6
       1.716584e-06 1.1455461e-06 1.5317871e-06 -2.1967423e-06
000060 ba 11 cb b4 e0 4f 64 b5 23 17 4b ba 1a f2 3f b5
       -3.7824594e-07 -8.505285e-07 -0.0007747283 -7.150535e-07
000070 d7 1c 28 ba d7 69 dd b9 13 c1 82 b8 a8 02 4e 3b
       -0.0006412989 -0.00042231262 -6.234846e-05 0.0031434689
000080 ef ac c4 ba a7 d6 7e 35 0d 3f 5b 36 43 3a a0 b6
       -0.0015005152 9.4934734e-07 3.2670243e-06 -4.775154e-06
000090 ac 6d 07 3b 49 69 5c 34 c1 a8 94 3b f2 03 b3 35
       0.0020664735 2.0527399e-07 0.0045367186 1.3337688e-06
0000a0 3c bd 2e 3a 4c b6 ca b8 34 45 c0 37 62 7f 0d ba
       0.00066657714 -9.666066e-05 2.2920409e-05 -0.00053977047
0000b0 60 27 4b b6 59 26 30 b5 b1 44 37 b6 d1 eb b6 b3
       -3.0272276e-06 -6.562091e-07 -2.7309109e-06 -8.51793e-08
0000c0 0e f8 fc 34 aa d5 ea 39 81 a6 97 b7 d1 01 52 ba
       4.711914e-07 0.0004479115 -1.8078137e-05 -0.0008011135
0000d0 8a 16 7b b8 c0 aa 03 b7 c1 49 33 b6 b0 8f 08 38
       -5.9864054e-05 -7.847964e-06 -2.671601e-06 3.2558746e-05
0000e0 51 2c 38 b5 af bb 07 37 21 8b 5e bb 87 15 1c 35
       -6.860983e-07 8.0903255e-06 -0.003395744 5.8145855e-07
0000f0 85 be 37 b6 99 5f 90 38 5f cb d7 b5 45 45 2e 36
       -2.7380022e-06 6.8842615e-05 -1.6077937e-06 2.596834e-06
000100 4a c3 2e 36 d3 3c 09 36 6a b1 8b ba db d4 25 3b
       2.6041694e-06 2.0449995e-06 -0.0010657732 0.0025303874
000110 5b f2 cc b6 2e de 0c b5 8a 96 eb b9 80 ef 11 bb
       -6.1078877e-06 -5.247738e-07 -0.00044934853 -0.0022267997
000120 96 fd cb b5 fb 5d 99 b7 ba 39 32 b6 a4 fb 02 36
       -1.5198482e-06 -1.8282784e-05 -2.6557668e-06 1.9517984e-06
000130 c7 85 09 b6 68 96 2b 33 8b 51 19 b6 b0 41 44 bb
       -2.049246e-06 3.9950834e-08 -2.284624e-06 -0.002994638
000140 68 22 8a b9 1b 92 03 3b aa bd 37 36 ba 95 d5 ba
       -0.00026347046 0.00200761 2.7379524e-06 -0.0016295232
000150 be 97 ca ba 39 db 06 bb 8f 3c 1a 38 66 db ff 3a
       -0.00154566 -0.0020577444 3.677286e-05 0.0019520342
000160 e5 4c 92 ba 79 f8 fd b5 a2 9a 9c b8 1a b8 8f ba
       -0.0011161832 -1.8922284e-06 -7.467462e-05 -0.0010964901
000170 bc c3 96 ba ff 36 a4 ba fa 10 bd ba d2 36 29 36
       -0.0011502425 -0.0012528597 -0.0014424615 2.5214872e-06
000180 25 a5 44 b5 7e d0 24 b6 d9 62 36 36 6b ae 2d b8
       -7.3256007e-07 -2.4559263e-06 2.717765e-06 -4.1408854e-05
000190 b4 89 0d 35 a8 b5 a3 b6 ad 2f 27 bb d0 ac c4 ba
       5.272698e-07 -4.878926e-06 -0.0025510595 -0.0015005115
0001a0 84 22 79 bb 8d 56 31 bb 8a 76 10 b5 15 67 41 bb
       -0.0038014958 -0.0027059645 -5.381668e-07 -0.0029510905
0001b0 e1 2d 50 36 9e dc 10 37 b4 00 67 b9 31 96 27 b7
       3.102112e-06 8.634435e-06 -0.00022030139 -9.988945e-06
0001c0 93 aa 12 36 db c6 c1 37 2c 62 ea b7 a4 46 1a b7
       2.1854983e-06 2.3099992e-05 -2.7940689e-05 -9.195563e-06
0001d0 91 fa 18 37 74 d2 29 bb 1e 57 d0 b8 d1 c8 b9 35
       9.1182455e-06 -0.0025912793 -9.93444e-05 1.3842019e-06
0001e0 8a 78 ff b9 4e 05 ea 37 d8 1f 56 ba e0 de e7 b9
       -0.000487272 2.7897444e-05 -0.0008168197 -0.00044225808
0001f0 e9 d7 dd 3a 7b 8d 3e 35 48 17 7e 32 4c 71 72 38
       0.0016925308 7.0986397e-07 1.4790039e-08 5.7802812e-05
000200 80 62 80 b5 ac 0c 85 b7 b8 7f 1a 34 e5 80 40 35
       -9.56541e-07 -1.5860736e-05 1.4388831e-07 7.171314e-07
000210 8c fc 3d b7 25 c2 cc 35 2b 9e 46 37 83 00 52 37
       -1.13240785e-05 1.5255688e-06 1.1838546e-05 1.2517095e-05
000220 cc 9e fd b5 0f 92 dd b6 ea cb 0e b6 88 ec b6 b7
       -1.8896185e-06 -6.6033167e-06 -2.1278343e-06 -2.1806234e-05
000230 63 e2 e9 b4 ae e2 3a 36 28 bf 05 36 56 37 61 35
       -4.356435e-07 2.7848105e-06 1.9929812e-06 8.3899556e-07
000240 7e fe 18 36 f7 d7 92 b6 8b db c9 33 e4 82 17 34
       2.27979e-06 -4.3762807e-06 9.3997265e-08 1.4110589e-07
000250 ac d0 08 35 9e e9 01 b6 30 b4 80 b5 a8 44 36 35
       5.0967606e-07 -1.935848e-06 -9.589185e-07 6.790019e-07
000260 26 cb b5 35 1f 42 3e b5 f3 47 1c 37 f9 85 83 35
       1.3544675e-06 -7.0876735e-07 9.315077e-06 9.799252e-07
000270 bd f2 c0 b5 39 58 5a b3 48 09 3b 37 d2 b0 65 37
       -1.4375761e-06 -5.083732e-08 1.11482295e-05 1.3690633e-05
000280 4e 43 f9 35 3a c3 8c 36 76 7e 38 37 16 f3 20 36
       1.8571534e-06 4.1950525e-06 1.0996699e-05 2.3983353e-06
000290 97 01 79 37 a5 ec 28 37 7f 9c 20 b7 4d 43 30 b6
       1.4841927e-05 1.0068678e-05 -9.57318e-06 -2.6265218e-06
0002a0 bf c3 1d b7 b1 53 2d b6 f6 e0 05 b6 4b 4a 57 35
       -9.403505e-06 -2.5827724e-06 -1.994949e-06 8.020185e-07
0002b0 e1 4d 27 35 27 71 db b7 8e de f0 34 4c f6 90 37
       6.2325677e-07 -2.6159525e-05 4.4865413e-07 1.7280829e-05
0002c0 e3 5a d5 36 eb bf 38 b6 6f 98 27 b6 40 44 82 36
       6.3584753e-06 -2.7529848e-06 -2.4973667e-06 3.8822473e-06
0002d0 28 4e d4 b4 03 f6 07 36 02 fa 2e b6 fc 85 dc 34
       -3.9544943e-07 2.0259765e-06 -2.6073544e-06 4.107568e-07
0002e0 9f 0a a3 af 26 73 5b 36 6e 4d 3a 37 bf 4d 30 b5
       -2.9657074e-10 3.2700568e-06 1.1104492e-05 -6.5678245e-07
0002f0 97 9e 51 37 82 8f cf b4 2f d3 2b 36 80 dc 2e 37
       1.2494295e-05 -3.866117e-07 2.560391e-06 1.0422547e-05
000300 60 ab 1b b7 87 54 e7 b5 7e f5 19 b7 a6 39 33 b6
       -9.278621e-06 -1.7235442e-06 -9.176669e-06 -2.6706634e-06
000310 22 98 9a 35 71 56 99 37 3e df 87 33 d7 fa 82 35
       1.1518171e-06 1.8279274e-05 6.327035e-08 9.758759e-07
000320 d0 9c 38 35 2e 29 ef 33 f0 39 35 b7 7a 74 1b 35
       6.8773534e-07 1.1136795e-07 -1.080193e-05 5.7911495e-07
000330 d7 78 ef b4 51 b4 61 b6 13 f8 26 b7 8b d8 8a 37
       -4.4605142e-07 -3.363257e-06 -9.95213e-06 1.6551718e-05
000340 f9 6a 1c b6 46 93 72 37 94 6c 82 b7 42 f0 af b7
       -2.3308078e-06 1.4458614e-05 -1.5547768e-05 -2.0973504e-05
000350 97 11 56 b5 c1 ac b6 b6 12 83 ae b5 32 43 f7 32
       -7.974681e-07 -5.444134e-06 -1.3002157e-06 2.8785141e-08
000360 20 71 58 b7 68 b5 ae 35 a9 02 8e 35 e2 28 3f b7
       -1.2900942e-05 1.3016806e-06 1.0580599e-06 -1.1394006e-05
000370 0f fd e7 b4 66 72 0b b5 7c ee c3 37 04 5d 5b b6
       -4.3211227e-07 -5.1948007e-07 2.3356864e-05 -3.2687685e-06
000380 ca 1b 32 36 26 73 70 37 0a 09 29 b6 6b 1f 41 b5
       2.6540242e-06 1.4331925e-05 -2.5188224e-06 -7.194382e-07
000390 ce af 06 35 e2 8b 6a b5 3d eb 4d 37 98 c0 d6 36
       5.017472e-07 -8.737535e-07 1.2273723e-05 6.400118e-06
0003a0 25 aa af b6 0d a9 e6 37 33 4a 19 b6 b3 43 61 b7
       -5.235214e-06 2.7496857e-05 -2.2841966e-06 -1.34268075e-05
0003b0 9f e3 cb 36 7b a8 f7 b2 df 4f 00 b4 13 bf 37 b5
       6.07637e-06 -2.88312e-08 -1.1949986e-07 -6.845086e-07
0003c0 86 e4 e8 b4 e7 c9 12 b6 72 c4 2f 35 93 4d 6f 34
       -4.337964e-07 -2.1873218e-06 6.5478446e-07 2.2286831e-07
0003d0 1b cf f3 b4 13 29 3a b7 7b cb d3 b5 7a ba 2b 37
       -4.5412966e-07 -1.1096027e-05 -1.5779946e-06 1.0235812e-05
0003e0 67 4a 88 b6 5e 2b 96 b4 0c f5 6c b7 6b 0d cc 36
       -4.0617774e-06 -2.797123e-07 -1.4123751e-05 6.081236e-06
0003f0 03 36 cd 36 4e bf fa b6 f8 8b 1a b5 24 cc 83 b5
       6.115764e-06 -7.4728514e-06 -5.757315e-07 -9.819673e-07

3.bias f4 [128]
000000 65 13 15 bb 59 0c ad bb 35 d3 bd bb 49 21 4d 3d
       -0.0022747156 -0.005281013 -0.005793 0.05008057
000010 7d 11 c3 bb 6f fb 21 3d c8 20 34 bb 90 21 3d 3d
       -0.0059530125 0.039546426 -0.002748536 0.046174586
000020 88 8e bc bb 52 44 4e 3d 83 2c ab bb a9 f1 c1 bb
       -0.0057542957 0.050358124 -0.005223812 -0.0059187007
000030 c8 d4 0a 3d 07 49 26 3d 54 0d df 3c c9 16 93 bb
       0.03389433 0.040596988 0.027228035 -0.0044888
000040 07 1d e2 ba e3 d8 ba bb 47 1b 43 3d d9 3d 26 3d
       -0.0017251082 -0.0057021244 0.047633436 0.040586326
000050 cc 98 1a 3d 32 fc ef 3c cf 8c bc bb 34 c3 b3 bb
       0.037743375 0.02929506 -0.0057540904 -0.0054859165
000060 63 e1 d9 3c 2b c7 aa bb 3b a8 b9 bb be 60 be bb
       0.02659673 -0.005211731 -0.0056658066 -0.0058098724
000070 e5 77 6f bb 48 ab bf bb e7 86 a5 bb 6e e0 b4 bb
       -0.0036539969 -0.0058492757 -0.005051482 -0.005519918
000080 0e ff 92 ba b2 46 69 bb 76 ce c3 bb 45 ca 17 3d
       -0.0011214928 -0.0035595116 -0.00597554 0.037058134
000090 a9 e8 a1 bb ad d4 66 bb 79 d0 9a 3c 4f 06 c3 bb
       -0.0049410653 -0.003522198 0.018898236 -0.00595168
0000a0 f5 81 81 bb 1f ee c5 bb 0f 78 ae bb 6a 87 2d 3d
       -0.0039522597 -0.006040349 -0.0053243707 0.04236547
0000b0 a3 67 32 3d 18 88 c1 bb 98 d3 6e 3c 1b cc b1 bb
       0.043555867 -0.005906116 0.014576815 -0.0054259426
0000c0 10 5a af bb 53 a6 c2 ba a3 16 c1 bb 3b 25 5d 3d
       -0.0053513125 -0.0014850594 -0.005892591 0.053990584
0000d0 01 4c c3 bb 32 fc ce 3c 17 b8 ee 3c b1 bb 8d bb
       -0.005959988 0.02526674 0.029140515 -0.004325353
0000e0 9b e0 ba bb 4d 86 76 bb 22 f4 ac bb b3 f3 c6 3c
       -0.0057030446 -0.003761667 -0.0052781263 0.024286127
0000f0 e1 aa 99 bb a6 51 9b bb 4f a1 c0 bb b3 3b c3 bb
       -0.00468956 -0.004739958 -0.0058786045 -0.0059580444
000100 5a 65 b5 bb 42 eb 37 3d fc 75 cb bb b1 19 c8 bb
       -0.0055357637 0.044902094 -0.006209133 -0.0061065783
000110 c0 ad 9c bb ce cb ee bb a9 09 52 3d 58 0b c0 bb
       -0.004781455 -0.007287479 0.051278744 -0.0058607273
000120 16 a3 e5 ba 03 40 c3 bb 3d a1 9e bb 79 eb b5 bb
       -0.0017519917 -0.0059585585 -0.0048409984 -0.005551752
000130 3c ed 9c bb 38 0a c3 bb 26 46 c0 bb 01 40 c3 bb
       -0.0047890227 -0.005952146 -0.0058677373 -0.0059585576
000140 69 25 9d bb 7a cb b2 bb dd 6e 57 3d f0 aa c3 bb
       -0.0047957194 -0.005456385 0.05259596 -0.005971305
000150 07 86 27 bb cf eb be bb 91 b5 28 3d 10 3d ac bb
       -0.0025562064 -0.0058264504 0.04118878 -0.0052563027
000160 ad f1 b9 3c 99 cf 7d bb 5f 55 b2 bb 4b 54 1f 3d
       0.022698248 -0.0038728474 -0.005442306 0.038898747
000170 bd 49 ab bb 25 90 b8 bb f3 ca 7d ba 2f c7 20 3d
       -0.005227296 -0.0056324177 -0.0009681426 0.039252456
000180 17 29 be bb f3 8f ec 3c 1b 6c b4 bb 29 96 ae bb
       -0.005803238 0.028877234 -0.0055060512 -0.005327959
000190 40 11 b5 bb ad 76 c3 bb 87 03 68 3d e2 38 c4 bb
       -0.005525738 -0.005965075 0.05664399 -0.0059882263
0001a0 ea bc aa b9 d1 b2 b2 bb 12 2c a4 bb c1 15 09 bb
       -0.0003256568 -0.0054534455 -0.0050101364 -0.0020917507
0001b0 03 d8 48 3d 9c 76 c0 bb 4f 03 ab bb 55 69 0b 3d
       0.04903413 -0.0058735143 -0.0052189003 0.034036
0001c0 c9 25 1b 3d ad 1e 6e bb 8d 86 bd bb 11 18 1a 3d
       0.03787783 -0.0036334202 -0.005783862 0.037620608
0001d0 b9 21 c2 bb fb ea af bb 54 42 bd bb 16 39 c3 bb
       -0.00592443 -0.005368588 -0.005775729 -0.005957733
0001e0 90 df bf bb 6e 33 bd bb 6c 88 c1 bb 9d 5d 27 3d
       -0.005855508 -0.005773953 -0.0059061553 0.04086076
0001f0 63 9b ae bb 6e 5a 02 3d 97 1a a0 bb fc 79 c0 bb
       -0.005328582 0.03182452 -0.0048859823 -0.0058739167

6.weight f4 [3, 128]
000000 e0 e6 a2 ba a1 72 1b b8 c4 48 25 b6 9a 83 78 bd
       -0.0012428425 -3.7061636e-05 -2.4629271e-06 -0.06067238
000010 1c 09 af 36 28 be fd bc 8a 3b 32 3a 6e 66 4a bd
       5.216467e-06 -0.030974463 0.0006799033 -0.04941409
000020 37 98 5f 38 21 14 43 bd d8 17 03 36 c4 dd 9d 38
       5.3309104e-05 -0.04762662 1.95344e-06 7.5276505e-05
000030 cc 88 2e bd 78 98 49 bd c7 0c 02 bd 1c 23 b2 37
       -0.04261093 -0.04921767 -0.031750467 2.1235603e-05
000040 80 c7 70 ba ba d4 8c b7 24 f1 48 bd 6e 45 35 bd
       -0.0009185001 -1.6788359e-05 -0.049058095 -0.044255666
000050 a3 ea 1d bd e9 31 03 bd e2 c6 f8 b6 37 f9 cf b8
       -0.038553845 -0.03203002 -7.414129e-06 -9.916949e-05
000060 d0 b4 fe bc b1 dd aa b7 d7 df 7c ba d5 32 e9 37
       -0.031092077 -2.0368812e-05 -0.0009646392 2.7799435e-05
000070 42 d2 85 bb d5 80 c1 b7 df 7a 18 b8 15 f2 69 36
       -0.0040839026 -2.3067385e-05 -3.6354057e-05 3.4860616e-06
000080 88 38 5e bb 3a c5 29 ba af cd 85 ba 6a 29 3d bd
       -0.0033908207 -0.00064762274 -0.0010208393 -0.046182074
000090 39 69 a8 b5 0f 4b d7 3b 42 bd c3 bc 76 ef b7 ba
       -1.2547599e-06 0.006570227 -0.023893956 -0.0014033157
0000a0 a1 02 80 3b 35 2b f7 ba 7f 4d 82 37 37 d7 33 bd
       0.0039065634 -0.0018857481 1.5533295e-05 -0.043906417
0000b0 00 93 30 bd a6 df 31 b7 c0 ed 9f bc 4f 76 94 bb
       -0.04310894 -1.0602094e-05 -0.019522548 -0.004530705
0000c0 52 ed 01 b8 e5 ba 32 3b a7 ce d6 37 89 4d 2d bd
       -3.097702e-05 0.0027272042 2.5607018e-05 -0.04231027
0000d0 bd a3 f4 b7 f7 aa 13 bd c3 81 8f bc e0 75 a3 bb
       -2.9163313e-05 -0.036051717 -0.01751793 -0.004988417
0000e0 cd 87 f2 37 13 eb 52 ba c2 d7 17 ba 5c 0b f5 bc
       2.8911885e-05 -0.0008045893 -0.0005792343 -0.029912643
0000f0 93 8e 95 bb c7 f7 82 39 cf ea c4 3a a7 93 34 b8
       -0.0045641153 0.0002498014 0.0015023592 -4.3052856e-05
000100 1b bb 43 b7 5d 6b 3b bd f8 b1 cc bb 80 ef 73 bb
       -1.166647e-05 -0.045756686 -0.0062468015 -0.003722161
000110 bf a0 cb 38 fe 63 b0 3a cf 58 42 bd ec e7 23 38
       9.7097356e-05 0.0013457534 -0.047447976 3.9078222e-05
000120 01 e7 92 3a be 14 02 3a d8 0f 68 38 b2 98 05 38
       0.001120776 0.0004962197 5.5327866e-05 3.185188e-05
000130 81 bd 62 37 82 51 fd 37 4b dd 91 37 04 b9 73 b8
       1.3514772e-05 3.0197905e-05 1.7388395e-05 -5.8108024e-05
000140 9d 18 57 3b 0d 88 41 b8 4e bf 40 bd f2 0c 3c 38
       0.0032821067 -4.6141493e-05 -0.047057442 4.483475e-05
000150 64 b4 79 37 0f 5c 6c b8 8b 60 23 bd 3a d2 2d b9
       1.4883557e-05 -5.635252e-05 -0.039886992 -0.00016576881
000160 fb c5 01 bd b2 80 6c b9 a4 17 89 39 1e 4c 34 bd
       -0.03168295 -0.00022554657 0.0002614829 -0.044017904
000170 df 4f a3 b6 aa 11 15 3a ad 8d a8 38 36 e3 38 bd
       -4.8670768e-06 0.0005686531 8.0372534e-05 -0.04513856
000180 91 0a 85 b7 53 b5 31 bd 2d d1 db 36 56 ca 00 38
       -1.5859756e-05 -0.043385815 6.55106e-06 3.0706018e-05
000190 e0 03 62 ba 91 c0 f0 b8 1e 7f 46 bd 4e b0 24 b8
       -0.0008621793 -0.0001147996 -0.048461072 -3.9264844e-05
0001a0 ca dc 21 b8 bb f2 b4 39 8b 77 6c b6 51 9c 7e 3b
       -3.8591017e-05 0.00034513124 -3.5236324e-06 0.0038850496
0001b0 fa 88 41 bd f8 55 3a b8 9f b1 15 38 0c 69 29 bd
       -0.04724977 -4.442592e-05 3.568979e-05 -0.041359946
0001c0 d4 20 34 bd 54 a0 2c 37 a5 7b 85 b7 96 fd 2d bd
       -0.04397662 1.0289328e-05 -1.5912412e-05 -0.042478167
0001d0 74 ed 7d 37 81 d8 00 bc 44 fe ba bb b3 57 1b b8
       1.51352615e-05 -0.007864119 -0.0057065804 -3.7036556e-05
0001e0 14 33 72 38 a8 51 6a b6 8d ef d9 38 02 52 38 bd
       5.7744866e-05 -3.4916247e-06 0.00010391986 -0.045000084
0001f0 2b 11 0d 38 81 9d 1e bd f9 e7 4d b7 69 b1 0b bb
       3.363301e-05 -0.038724426 -1.22729625e-05 -0.0021315461
000200 a5 37 06 3b 5d fa f3 37 ee 41 a8 b7 78 9f 8e 3c
       0.0020479944 2.9084442e-05 -2.0057862e-05 0.017410025
000210 16 70 ad 38 66 70 38 bc 5f 25 81 3a 50 7f ba bb
       8.2701605e-05 -0.011257267 0.0009853056 -0.0056914464
000220 ba 11 d6 37 5a 56 2c bc 94 60 cb b7 a9 d2 70 38
       2.5519043e-05 -0.010518635 -2.4244458e-05 5.741665e-05
000230 97 4a 78 ba 33 a8 97 3c d7 75 f3 3a 07 4f 37 37
       -0.0009471564 0.01851282 0.0018574548 1.092605e-05
000240 1c 75 03 ba cf b1 4d b7 3d 3b b4 3b 2e 18 82 3b
       -0.0005014704 -1.22603515e-05 0.005500226 0.0039701676
000250 5f 5e bd bb 0d da 17 bc b9 eb 82 35 76 e3 cf b6
       -0.005779072 -0.009268296 9.754359e-07 -6.1955607e-06
000260 d3 9e 69 bc d5 bd e6 37 40 68 6e 39 4b a3 63 37
       -0.014259058 2.7506534e-05 0.00022736285 1.3568274e-05
000270 0b f4 ee ba 81 29 d1 37 db 85 a0 38 1d e4 2a 36
       -0.001823069 2.4934068e-05 7.654327e-05 2.5464753e-06
000280 39 e3 ad 3a a6 55 25 ba db 36 b4 37 7e 7e 0a 3b
       0.001326657 -0.0006307013 2.1483216e-05 0.0021132524
000290 78 80 44 b8 89 53 55 3b dc 59 8f bb 67 62 40 b9
       -4.6849687e-05 0.0032551012 -0.0043747257 -0.00018347205
0002a0 e5 fb ab bb 05 61 25 3b 89 1b d1 b6 c0 a2 bd bb
       -0.005248534 0.002523483 -6.231891e-06 -0.0057872236
0002b0 64 cc 0a bc f5 55 e9 b5 47 2c b3 ba a2 83 f7 3a
       -0.008471582 -1.738487e-06 -0.0013669812 0.0018883834
0002c0 33 0a 26 37 38 25 1c b9 ad f9 5d b7 30 c6 b2 bc
       9.896746e-06 -0.00014891184 -1.3230759e-05 -0.021823019
0002d0 d3 19 9e 38 23 d3 70 bb 10 35 8b bc 90 d7 24 3b
       7.538837e-05 -0.003674694 -0.016993076 0.00251529
0002e0 56 82 a8 b7 28 fc a7 bb 37 28 a4 3a 28 d4 1c bc
       -2.0087853e-05 -0.005126495 0.0012524192 -0.009572066
0002f0 a9 ae 71 ba 7c 11 48 ba d3 19 38 bb 86 cf 00 b8
       -0.0009219447 -0.0007632 -0.0028091564 -3.071085e-05
000300 8c fd 11 38 64 d1 2d 3b 1c ff 89 bb 69 d9 88 bb
       3.4806828e-05 0.0026522512 -0.0042113196 -0.004176308
000310 49 17 d6 bb 98 9e 2d bb 7b 5b 7e bc dc cc b4 38
       -0.0065335375 -0.0026492234 -0.01552474 8.621227e-05
000320 a6 36 d5 ba 53 4a 12 b9 08 7b 52 36 5c 21 93 36
       -0.0016266897 -0.00013951333 3.1364052e-06 4.384825e-06
000330 68 1e b0 36 b5 87 b0 ba 2d bc e7 37 43 06 04 38
       5.2487485e-06 -0.0013468178 2.7624972e-05 3.1477084e-05
000340 1a b4 84 3b 31 cc 4d bb e5 e5 52 bc 46 05 92 b7
       0.00404979 -0.0031402225 -0.012872194 -1.7407012e-05
000350 d8 0a 39 bb 2f 13 fb 37 bc 76 02 bc 0f e2 6d 38
       -0.0028235223 2.9930465e-05 -0.007962879 5.6715737e-05
000360 55 4f 19 bc c5 67 c5 3a fd 2e 17 bb ef 25 47 3c
       -0.009357293 0.0015060833 -0.0023068779 0.01215504
000370 a2 42 e1 38 60 13 e7 37 7e 4f 24 38 6a b5 d8 ba
       0.000107412474 2.7546368e-05 3.917468e-05 -0.0016533558
000380 96 b4 01 b8 dd 5c 2a 3c 24 69 53 b8 ed c0 4d b7
       -3.092418e-05 0.010398117 -5.040424e-05 -1.2263871e-05
000390 23 b6 72 37 3a 65 94 ba 6a 6e 53 bc 85 95 8f b7
       1.4466731e-05 -0.0011321672 -0.012904743 -1.7116554e-05
0003a0 cd 3c 39 38 e3 9f 4d 36 53 40 34 ba 5b e0 84 bb
       4.4164062e-05 3.0640447e-06 -0.000687604 -0.0040550656
0003b0 ef 92 05 bc c9 b7 c9 ba e1 94 20 38 f2 ac be bb
       -0.0081527075 -0.0015389855 3.8285627e-05 -0.0058189565
0003c0 a0 10 69 ba f4 22 a9 36 f1 29 6f 37 7f c8 3a bc
       -0.0008890722 5.0406616e-06 1.4255275e-05 -0.011400341
0003d0 95 f0 2e b7 eb 4a 99 bb e6 2c 1d 3b e9 7b 28 ba
       -1.0427223e-05 -0.0046781204 0.002398306 -0.00064271555
0003e0 39 a2 d6 37 7f df d0 36 8c fe 0e b8 f3 47 8e bb
       2.5586329e-05 6.2249014e-06 -3.4092503e-05 -0.004342073
0003f0 c6 81 dc 37 f2 c3 4d 3c e6 d4 4c b8 41 c8 79 37
       2.6286474e-05 0.012558924 -4.8835667e-05 1.4888182e-05

6.bias f4 [3]
000000 59 18 d6 bc 90 4e 21 bc 0e f5 11 3d
       -0.026134657 -0.009845391 0.035634093

exp_avg f4 [128, 105]
000000 c0 e9 41 b3 59 83 3e b3 e1 63 41 ab e3 ee de b2
       -4.514891e-08 -4.4357282e-08 -6.8705984e-13 -2.5952835e-08
000010 c4 00 bd ac 65 1f 60 b3 8c ef 28 2d 17 3d b2 2c
       -5.371788e-12 -5.2182617e-08 9.6028845e-12 5.0658466e-12
000020 5a aa 77 2d c2 5e 1b 2d 93 d1 30 2c 20 23 89 2b
       1.407815e-11 8.83177e-12 2.5127441e-12 9.744185e-13
000030 15 6e 75 ad 16 26 9f 2c 18 7a aa 2c bf a5 c8 2b
       -1.3951081e-11 4.52328e-12 4.8452457e-12 1.4256858e-12
000040 f0 27 54 2c cb 2e ae 2c 0c a2 13 ad b6 ee b1 ac
       3.0149182e-12 4.9505725e-12 -8.391964e-12 -5.057145e-12
000050 f2 a7 9c ab b5 de c2 2c 2c a6 4a 2d 22 7f 55 ad
       -1.1131081e-12 5.538537e-12 1.1519268e-11 -1.2135877e-11
000060 27 4c 9a 2c 28 61 04 ac 02 54 83 ad f7 80 3c 2d
       4.385398e-12 -1.881226e-12 -1.4930283e-11 1.0715199e-11
000070 42 24 7c 2c 74 1f 24 2c 44 fc a6 aa 0a fc c1 ac
       3.583148e-12 2.3323262e-12 -2.9662568e-13 -5.513372e-12
000080 48 e6 14 ac 64 08 f4 2a 20 46 ba ac 47 cb df aa
       -2.1159897e-12 4.334893e-13 -5.2942234e-12 -3.975381e-13
000090 13 b4 37 2d d8 42 a0 ac 4e 37 8f 2c d8 e0 68 2d
       1.044233e-11 -4.5548947e-12 4.0704445e-12 1.32375985e-11
0000a0 40 00 fd aa af e8 8a aa 36 69 a7 aa e5 d0 ff 2b
       -4.4942002e-13 -2.467518e-13 -2.9738164e-13 1.817682e-12
0000b0 a4 cd 53 2c 6d ac c2 2c c7 4a 1d 2c c4 1a 73 ac
       3.0099057e-12 5.5329547e-12 2.2352552e-12 -3.4547235e-12
0000c0 b0 f5 87 ad 5e af e7 a9 57 a9 8a a9 98 03 34 2c
       -1.545683e-11 -1.0288882e-13 -6.157807e-14 2.5581533e-12
0000d0 34 44 c5 ac 41 01 7b ad 7d 91 e9 aa 3c 66 c5 ac
       -5.606649e-12 -1.42679766e-11 -4.1490067e-13 -5.610427e-12
0000e0 e9 dd 85 2d a6 a8 56 2c 30 7c 4a ad a2 b8 b3 2b
       1.5218897e-11 3.0504848e-12 -1.1509946e-11 1.2769961e-12
0000f0 a7 39 c1 2c 72 90 6b ac 5e 25 b9 ac 56 82 4e ac
       5.4917906e-12 -3.3475692e-12 -5.262165e-12 -2.9346712e-12
000100 53 c1 c9 2b ec bd 1f 2b 0d cf f3 2a b6 ce 51 ad
       1.4335567e-12 5.6751717e-13 4.3309142e-13 -1.1926174e-11
000110 c6 85 63 ad 58 7f 80 ad 21 dd 6e 2d c8 a7 20 2c
       -1.293316e-11 -1.4608467e-11 1.3577834e-11 2.2830505e-12
000120 fb 75 c3 2c eb 0f 24 2d 27 23 66 2d 79 bb 9e 2c
       5.555332e-12 9.325855e-12 1.3081792e-11 4.5114437e-12
000130 12 19 37 2d e6 b5 3d ad 83 de bc ac 9f d1 a8 2c
       1.0407912e-11 -1.0783796e-11 -5.367985e-12 4.79812e-12
000140 51 e5 67 ac 73 d2 87 ad 6e f0 75 2c 0d ea 86 2d
       -3.295437e-12 -1.5441181e-11 3.495006e-12 1.5337976e-11
000150 f4 e1 ed aa 93 11 83 2d 43 20 9c ac 81 4c 61 2d
       -4.2256444e-13 1.490078e-11 -4.4373684e-12 1.28067565e-11
000160 0d 87 3e ad 44 20 c1 2c 17 55 17 2d f9 93 70 ad
       -1.0830237e-11 5.488972e-12 8.60225e-12 -1.3675277e-11
000170 c3 8e 21 ac f4 4d 08 2b a9 71 95 2c 05 f5 e5 ac
       -2.2958725e-12 4.842509e-13 4.2474535e-12 -6.535774e-12
000180 d9 18 2d 2c 7b f9 35 2c e2 6c 9e 2c 0a 94 77 2a
       2.4598572e-12 2.5860137e-12 4.5027185e-12 2.1989368e-13
000190 6a 97 98 2c 41 72 40 2c b5 f8 ae ac e6 93 68 2d
       4.33691e-12 2.7348265e-12 -4.9729895e-12 1.3220513e-11
0001a0 ba c6 c4 ac 33 a3 51 bb cd 68 07 bb 36 ad 1c ac
       -5.592718e-12 -0.0031988143 -0.0020661831 -2.2265085e-12
0001b0 ff 65 0f bb 39 3c 16 ab 8c a3 51 bb 97 b4 c3 ac
       -0.0021880863 -5.337428e-13 -0.003198835 -5.562283e-12
0001c0 cf d2 c7 2b 73 be 40 ac 21 96 0f 2d f3 9c cf 2c
       1.4198312e-12 -2.7390562e-12 8.161944e-12 5.9007187e-12
0001d0 89 1a b1 2c ae 27 c5 ac f3 22 06 2b 87 07 4a ad
       5.0335886e-12 -5.603482e-12 4.7654865e-13 -1.1484042e-11
0001e0 78 30 1b ac d4 b2 ab 2b b2 ac 48 2c de 94 c4 ac
       -2.205373e-12 1.2199916e-12 2.8517575e-12 -5.5871826e-12
0001f0 65 c6 c3 2c e7 9a 55 2a e7 d1 95 ac fa 79 93 2c
       5.5642596e-12 1.8971943e-13 -4.2581385e-12 4.1915334e-12
000200 6c e8 62 2c 92 d0 85 ad e1 39 05 ab 99 73 6f ad
       3.2245552e-12 -1.5212973e-11 -4.7331415e-13 -1.3611245e-11
000210 e6 56 85 ac ba ad 9f 2c 4a f7 87 2d 5d 1c bf 2c
       -3.789735e-12 4.5383393e-12 1.5457541e-11 5.4316955e-12
000220 62 c0 60 2d e3 1d 56 ad d1 c5 63 2c 0c 85 7a ac
       1.2775643e-11 -1.2171128e-11 3.236845e-12 -3.5600993e-12
000230 fd 0f ae ab 2a 33 c5 2c e5 cc c0 2c 13 04 a5 ac
       -1.2367881e-12 5.604757e-12 5.479716e-12 -4.6900344e-12
000240 0a 77 6a ac 17 fb 84 ab 19 84 69 2d 30 ba c5 2b
       -3.331948e-12 -9.448856e-13 1.3273848e-11 1.4049369e-12
000250 a8 e4 42 2d 21 c0 1e 2d 9e 5c 81 aa 95 6b 51 2d
       1.1078395e-11 9.023921e-12 -2.297927e-13 1.19041626e-11
000260 0c fe 85 ad c0 88 85 2d 9c 78 df 2a 79 92 b0 2c
       -1.5233169e-11 1.5181079e-11 3.9696447e-13 5.0184826e-12
000270 be fb 87 ad 41 03 e8 aa 5d d1 57 ad c1 0e 80 2d
       -1.5459519e-11 -4.1213737e-13 -1.2267823e-11 1.4558467e-11
000280 13 49 ab 2a a8 e9 00 2c 8c 75 32 2c 1a 2f c4 ac
       3.0426407e-13 1.83196e-12 2.5360573e-12 -5.5758844e-12
000290 25 1a 7d ad 9d 56 80 ad 3f b1 79 2d 7c 00 9b ac
       -1.438719e-11 -1.459038e-11 1.4193368e-11 -4.4054187e-12
0002a0 ac d7 98 2c aa 1c c4 2c 9a fd c1 2c 35 6d c5 2c
       4.3440442e-12 5.5738374e-12 5.5135453e-12 5.611201e-12
0002b0 1f 64 6c ad e4 a3 63 ad 21 3f 79 ad 56 57 4d 2c
       -1.3437278e-11 -1.2939847e-11 -1.4168029e-11 2.9180733e-12
0002c0 74 9a 6c 2d 94 97 26 2d 05 8c a4 ab f7 72 f6 aa
       1.3449342e-11 9.469665e-12 -1.1691764e-12 -4.377815e-13
0002d0 ae db 70 2d 6c dd c4 2c 87 75 b2 ab 9d b4 06 ac
       1.3691199e-11 5.595238e-12 -1.2680281e-12 -1.9142806e-12
0002e0 bb bd b8 2c 90 99 81 2d 75 c0 de 2a 06 72 fe 2c
       5.250659e-12 1.4733798e-11 3.9568666e-13 7.2317733e-12
0002f0 5c 9e b1 ac e4 ee 2f ad ac 43 72 ad 8f eb 27 ac
       -5.048224e-12 -1.0000643e-11 -1.37711335e-11 -2.3862889e-12
000300 8f f5 87 ad 48 0a 78 ad 21 31 7f 2c ab 26 82 2b
       -1.5456773e-11 -1.4099451e-11 3.6264952e-12 9.247788e-13
000310 85 09 76 2d 11 3c 67 2d 6b 11 b0 ac 8a 8a 87 2d
       1.3985595e-11 1.3144167e-11 -5.0041546e-12 1.5409247e-11
000320 d6 85 8e ac af 84 92 2c 05 cf 06 ab 04 2d 67 2d
       -4.0507415e-12 4.1643004e-12 -4.789366e-13 1.3140825e-11
000330 b7 b2 87 2d 4c 0b 25 2d 80 fe b8 ac 1c e0 0e ad
       1.5427088e-11 9.3816725e-12 -5.2578497e-12 -8.121528e-12
000340 a7 85 c3 ac d6 f4 f0 2c 7b 00 d5 b1 81 a6 4f b2
       -5.5570717e-12 6.8483925e-12 -6.1991705e-09 -1.2086844e-08
000350 a7 47 82 ad 9b b6 8f b3 a1 b9 af aa 42 57 e7 b1
       -1.4811109e-11 -6.692172e-08 -3.121505e-13 -6.732905e-09
000360 e5 d0 95 2c 39 9a 0d ad e7 24 0c 2c 82 5f a1 ac
       4.2580267e-12 -8.049166e-12 1.9915682e-12 -4.5864987e-12
000370 c3 35 32 ac 9b 68 86 ac 09 29 a5 2c 76 7b ad 2c
       -2.5325165e-12 -3.8201226e-12 4.694138e-12 4.9306626e-12
000380 50 d3 af 2c 79 02 b1 2c 34 e6 37 ab 98 65 74 2d
       4.9972596e-12 5.030917e-12 -6.533413e-13 1.38923525e-11
000390 8f af 7c 29 d4 6a 34 2d 08 29 66 ad a0 b8 93 2c
       5.6107513e-14 1.0255536e-11 -1.3083097e-11 4.1984888e-12
0003a0 51 cb 9c 2b 34 98 c4 ac 15 46 eb ac a8 ce 86 ad
       1.1140898e-12 -5.587553e-12 -6.6868824e-12 -1.532581e-11
0003b0 a9 bd 50 ad 7c 80 87 2d 67 19 50 2b bb 82 e1 ab
       -1.1865544e-11 1.5404782e-11 7.39317e-13 -1.6023497e-12
0003c0 6a af b7 ac fc 5c 13 a9 70 66 68 2d a6 27 b9 2c
       -5.2206477e-12 -3.2721208e-14 1.3210419e-11 5.262418e-12
0003d0 53 38 5a 2d c9 ba d8 ac 77 75 86 2d f7 55 49 2c
       1.2404372e-11 -6.1598266e-12 1.5286201e-11 2.8611538e-12
0003e0 81 a7 85 ad c7 f7 62 a9 b9 c8 5b 2d 76 d2 7c ad
       -1.5194736e-11 -5.0396993e-14 1.2493278e-11 -1.4371273e-11
0003f0 70 16 9b aa e1 87 a9 aa 49 c5 07 ab a0 0a 0a ad
       -2.75491e-13 -3.0114716e-13 -4.8235423e-13 -7.846751e-12

exp_avg_sq f4 [128, 105]
000000 65 96 59 2d 8d 0e 35 2d 19 ec 92 1e 5b 33 8e 2b
       1.2368416e-11 1.029189e-11 1.5555999e-20 1.0103961e-12
000010 f4 32 fb 1f 56 8f 59 2d ff 9d b8 20 2c 0a 09 20
       1.0638693e-19 1.2366849e-11 3.1275366e-19 1.1607717e-19
000020 5b 50 ed 20 e4 f9 b1 20 76 aa 11 1f c4 17 a9 1e
       4.0202536e-19 3.015033e-19 3.0845946e-20 1.79034e-20
000030 27 8b 2c 21 2a 98 7c 1f a8 85 0f 20 3d c9 cb 1e
       5.8460033e-19 5.3488943e-20 1.2156794e-19 2.1576691e-20
000040 c6 e7 27 1f 59 8b 0c 20 03 56 ae 20 9f 50 09 20
       3.5555344e-20 1.1904568e-19 2.9533664e-19 1.1631027e-19
000050 d2 7f 53 20 5e 86 ba 1f 3b 1d cb 20 0b f4 d1 20
       1.7914687e-19 7.8996356e-20 3.440888e-19 3.556747e-19
000060 8b f3 72 1f ad e1 47 20 9a a1 20 21 8a ee c2 20
       5.1446947e-20 1.6930626e-19 5.4423987e-19 3.302273e-19
000070 db 42 2b 20 77 10 0a 1f 09 a4 00 1c 6b 87 eb 1f
       1.4506384e-19 2.9236256e-20 4.256366e-22 9.97504e-20
000080 e2 29 01 1f e4 3c c0 1c 60 24 a3 1f cc e6 8e 1c
       2.7351457e-20 1.2721234e-21 6.909336e-20 9.456431e-22
000090 0d 66 46 21 42 e5 7e 1f 3a b1 21 20 b9 fa df 20
       6.722007e-19 5.397623e-20 1.369587e-19 3.7943584e-19
0000a0 25 0a 9a 1d ad bb a5 1b 00 74 01 1c 19 dd 48 20
       4.077395e-21 2.7418243e-22 4.2832446e-22 1.7013814e-19
0000b0 90 ac 27 1f fa a3 e8 1f 2a 53 42 20 cb a3 2d 20
       3.5506366e-20 9.85271e-20 1.6459956e-19 1.4707865e-19
0000c0 b9 dd 0e 21 4e 3b 22 1e 4a 30 40 1e 9a 9b 13 1f
       4.840492e-19 8.5884725e-21 1.0174381e-20 3.125717e-20
0000d0 58 19 cb 1f 6c 3e 29 21 86 cf b3 1d ec 16 d3 1f
       8.601577e-20 5.734204e-19 4.759548e-21 8.93999e-20
0000e0 eb 27 1b 21 62 8d 29 1f c4 ae 3f 21 bf 52 c0 1e
       5.2568874e-19 3.590409e-20 6.494462e-19 2.0363014e-20
0000f0 32 65 b4 1f 53 96 2f 20 4a f7 a0 1f 61 3a 24 1f
       7.640038e-20 1.4872815e-19 6.817174e-20 3.477664e-20
000100 03 65 cc 1e d6 9c 6b 20 a8 16 a7 1d bd e0 3c 21
       2.1641118e-20 1.9957167e-19 4.4227958e-21 6.3994316e-19
000110 07 cf db 20 95 36 25 21 14 0e 30 21 ad b3 81 20
       3.7237042e-19 5.5976413e-19 5.964975e-19 2.197235e-19
000120 ab a7 98 20 95 30 b6 20 d1 47 34 21 a4 fa 17 20
       2.5860755e-19 3.0864148e-19 6.108142e-19 1.2873128e-19
000130 f3 fa bf 20 49 9a c3 20 b5 a3 a8 1f 43 cc 10 20
       3.2522723e-19 3.3136382e-19 7.14216e-20 1.2264859e-19
000140 da b2 88 20 92 0f 0d 21 2b e6 2c 20 0d ec 17 21
       2.315765e-19 4.7793265e-19 1.4645123e-19 5.14732e-19
000150 10 a1 ae 1d 13 19 21 21 b5 83 76 1f e1 26 da 20
       4.622395e-21 5.4582107e-19 5.2201472e-20 3.6956364e-19
000160 45 0f c4 20 a5 c3 ee 1f 73 10 b0 20 5a 85 e6 20
       3.3213796e-19 1.0112059e-19 2.9826445e-19 3.905176e-19
000170 93 5b 41 20 93 d6 45 1d a1 f1 1d 20 c5 dd 9f 20
       1.6378035e-19 2.6183665e-21 1.3378366e-19 2.7082402e-19
000180 fc eb 82 20 26 ce 14 1f c9 1d 7b 1f 56 dc 0a 1e
       2.2179018e-19 3.151074e-20 5.3175955e-20 7.3512236e-21
000190 d8 b2 6f 1f 34 31 3a 20 87 e2 0b 20 ee bc df 20
       5.0758155e-20 1.5771093e-19 1.184871e-19 3.7902693e-19
0001a0 e7 6f c5 1f c8 f7 ff 36 6e a7 ba 36 d1 4f 81 20
       8.361787e-20 7.6284377e-06 5.5627233e-06 2.1906268e-19
0001b0 10 cd e2 35 db ed 86 1e de f7 ff 36 c5 74 be 1f
       1.6897993e-06 1.4286177e-20 7.6284477e-06 8.066131e-20
0001c0 09 ec 4e 20 21 1f 3a 20 2a 78 ac 20 34 2b 9b 20
       1.7526976e-19 1.5765113e-19 2.921745e-19 2.628661e-19
0001d0 e5 0c 0a 20 14 26 d8 1f 1d af 1a 1d 65 bd ca 20
       1.1693321e-19 9.1542553e-20 2.0472262e-21 3.4345462e-19
0001e0 c1 cc 42 20 33 b5 74 20 a1 3a 38 20 38 df c3 1f
       1.6500187e-19 2.0727558e-19 1.5604805e-19 8.2955e-20
0001f0 f2 d2 be 1f 09 1f 11 1e 40 b6 1d 20 af 25 1f 20
       8.081711e-20 7.682654e-21 1.3358719e-19 1.3480292e-19
000200 f1 c8 31 20 c1 2f 05 21 10 94 80 1d 3f 84 e5 20
       1.5058969e-19 4.5125355e-19 3.403441e-21 3.8881622e-19
000210 ed 51 27 20 96 af 7d 1f 9d 05 0f 21 27 53 f5 1f
       1.4172557e-19 5.3720075e-20 4.8457714e-19 1.038991e-19
000220 7d b3 36 21 6a 2a 3b 21 23 91 31 20 1d b1 2b 20
       6.190155e-19 6.34142e-19 1.5040505e-19 1.4542865e-19
000230 6a 3b bd 1e e1 09 ca 1f 03 e9 ef 1f 32 96 84 1f
       2.0035726e-20 8.556667e-20 1.0160592e-19 5.615265e-20
000240 ad fe 36 1f 0b d3 a6 1e ba b1 32 21 d2 2e ca 1e
       3.8750662e-20 1.7663219e-20 6.0543965e-19 2.1406946e-20
000250 ae 78 42 21 21 99 b3 20 3d c3 08 1e 86 07 3d 21
       6.5889475e-19 3.0425112e-19 7.240154e-21 6.404565e-19
000260 fb a2 05 21 30 83 04 21 96 1b 78 1e ea 83 0a 20
       4.5277856e-19 4.4896965e-19 1.3134715e-20 1.1732701e-19
000270 42 7b 10 21 35 a1 a0 1c e4 7e d3 20 f2 ec f6 20
       4.895223e-19 1.0629583e-21 3.582876e-19 4.1830818e-19
000280 21 09 09 1c 5f 2d 7d 20 52 a9 12 1f 48 b1 e0 1f
       4.5341296e-22 2.1444946e-19 3.105676e-20 9.516098e-20
000290 26 40 f3 20 35 a6 f7 20 55 70 ef 20 82 50 74 1f
       4.120825e-19 4.1953414e-19 4.056251e-19 5.1735604e-20
0002a0 bc d1 1b 20 7f 27 e1 1f 39 81 eb 1f 02 fb d0 1f
       1.3198406e-19 9.535655e-20 9.974015e-20 8.8506684e-20
0002b0 c5 df e2 20 c8 e5 db 20 96 f6 ee 20 0f 16 86 20
       3.8433967e-19 3.72521e-19 4.0481945e-19 2.271508e-19
0002c0 0d 31 31 21 98 71 b7 20 9f 00 74 20 29 89 a3 1d
       6.003485e-19 3.1076576e-19 2.066781e-19 4.328756e-21
0002d0 05 c6 e6 20 98 3a c6 1f 32 a2 bf 1e d3 15 f2 1e
       3.9094554e-19 8.39532e-20 2.0289994e-20 2.5631773e-20
0002e0 ff 35 a0 1f 0b 15 fb 20 09 e7 77 1e 6d 25 a5 20
       6.7851965e-20 4.253498e-19 1.3123848e-20 2.7976854e-19
0002f0 8f 95 94 1f 8b 31 bc 20 81 47 2e 21 d6 e7 3f 20
       6.292786e-20 3.1881224e-19 5.904813e-19 1.6255037e-19
000300 bc da 0e 21 26 b3 ed 20 51 72 2a 20 7a 46 56 20
       4.8400964e-19 4.0267912e-19 1.4437384e-19 1.8149824e-19
000310 0a ac eb 20 9b ab de 20 8f b1 94 20 eb 1d 0b 21
       3.9924394e-19 3.7721822e-19 2.5189674e-19 4.713463e-19
000320 74 f5 8d 20 ff b9 1f 20 05 a7 6e 1d 87 cc 33 21
       2.4048756e-19 1.3529365e-19 3.1585385e-21 6.091825e-19
000330 32 15 0c 21 c8 ac b6 20 6a ae a0 1f d3 24 ac 20
       4.7461897e-19 3.0946336e-19 6.805118e-20 2.9162302e-19
000340 64 85 bd 1f 1c 38 a2 20 15 0c ad 2f cb 53 19 30
       8.026529e-20 2.7480998e-19 3.1477101e-10 5.578015e-10
000350 0f 73 22 21 a7 d8 0d 2e 23 27 12 1c 02 0c ad 2f
       5.5040014e-19 3.2252114e-11 4.835793e-22 3.147705e-10
000360 37 8b 6a 1f 1b 90 ab 20 63 2a 46 20 90 2e 16 20
       4.9666583e-20 2.9063888e-19 1.6785277e-19 1.27209e-19
000370 87 82 12 1f 1a ba 26 20 bf bf 84 1f 5b da 8e 1f
       3.1024672e-20 1.4122323e-19 5.622139e-20 6.050058e-20
000380 2f 07 92 1f f2 b3 93 1f 60 4c 90 1e 06 12 ea 20
       6.184529e-20 6.2554616e-20 1.5278181e-20 3.965307e-19
000390 5f 05 2b 1e 33 8c be 20 42 d4 dd 20 9b ff 1e 20
       9.053775e-21 3.2280028e-19 3.7579317e-19 1.3467693e-19
0003a0 c2 3c 73 20 7d c3 dd 1f 00 00 a1 20 fc 4e 18 21
       2.0603004e-19 9.392055e-20 2.727446e-19 5.160414e-19
0003b0 70 e2 ce 20 7d 55 15 21 3e 04 6e 20 0b 01 7a 20
       3.50476e-19 5.0596306e-19 2.0160788e-19 2.1176169e-19
0003c0 a5 4c 9e 1f 4a 53 2f 1e 84 98 df 20 8c 31 02 20
       6.70424e-20 9.281647e-21 3.7878596e-19 1.1027822e-19
0003d0 95 7c 39 21 af 12 9d 20 43 ed 06 21 56 e7 20 1f
       6.284532e-19 2.6609198e-19 4.571498e-19 3.4072674e-20
0003e0 0b b5 1b 21 02 75 37 19 ca 34 d6 20 b8 ec f2 20
       5.275565e-19 9.484508e-24 3.6287943e-19 4.1153042e-19
0003f0 c7 7a fd 1d a4 96 68 1e 16 16 5e 1d 0e f3 a9 20
       6.709549e-21 1.23131295e-20 2.9392874e-21 2.8790554e-19

exp_avg f4 [128]
000000 3e 14 57 b3 5c a3 51 bb cf 20 de b1 02 af 28 b3
       -5.0077e-08 -0.003198824 -6.4647803e-09 -3.9274717e-08
000010 c2 82 94 b2 20 61 12 ba b1 5f 0b bb 6a 92 b2 b2
       -1.728893e-08 -0.0005583931 -0.0021266753 -2.0788509e-08
000020 a6 22 9c b2 ce d4 dd b2 16 e6 4f b3 d6 45 a5 31
       -1.8176546e-08 -2.5824558e-08 -4.8405205e-08 4.8100715e-09
000030 8c 2d 27 b2 f3 7a 03 b3 49 95 04 b3 03 b5 85 b3
       -9.7310355e-09 -3.0612636e-08 -3.086942e-08 -6.226221e-08
000040 5d b3 31 32 3c 77 a5 b1 c0 c5 3b bb 52 0c fb b2
       1.03435385e-08 -4.8156874e-09 -0.0028651804 -2.9225848e-08
000050 2b c0 da b2 f6 bb 75 b2 c6 0f 98 b1 a9 12 93 b2
       -2.5465928e-08 -1.4303614e-08 -4.4255755e-09 -1.7121538e-08
000060 0e 13 f4 b1 26 28 a6 b2 7b ba c2 bb fe 5f 27 bb
       -7.103501e-09 -1.93432e-08 -0.0059426404 -0.0025539394
000070 6e ca 7c bb b1 0f 86 b2 d2 c5 a9 ba bf 5b 39 bb
       -0.0038572806 -1.5606789e-08 -0.0012952632 -0.0028283445
000080 cd 85 e8 b2 64 eb eb ba 73 bb 31 b2 26 3e e9 b0
       -2.70692e-08 -0.0017999229 -1.0345377e-08 -1.6970645e-09
000090 40 c1 1d bb c4 a8 35 b2 46 90 f8 bb 38 76 2b b3
       -0.0024071485 -1.05739595e-08 -0.007585558 -3.992156e-08
0000a0 bc cd 87 bb 35 51 89 bb bf d7 76 b3 ac 3a 2c b3
       -0.0041443985 -0.004190589 -5.747256e-08 -4.0100232e-08
0000b0 5d 37 e3 b9 f0 3a 6b b2 29 5a 79 bb 73 8d 12 b3
       -0.00043338063 -1.3692201e-08 -0.0038048124 -3.412192e-08
0000c0 67 24 b2 b2 da 7d 05 bb bd 8f 48 b3 b9 fd 37 ba
       -2.0738481e-08 -0.0020369203 -4.6696858e-08 -0.00070187036
0000d0 80 8c b4 b2 82 b9 b5 b2 e3 11 68 b3 59 19 79 b3
       -2.101865e-08 -2.1155532e-08 -5.4032977e-08 -5.7997884e-08
0000e0 c8 c4 51 ba 9a 0c b9 b2 41 df 0d bb db c9 2f b3
       -0.000800204 -2.1542565e-08 -0.0021647962 -4.092895e-08
0000f0 eb a2 13 b3 16 63 82 b3 bb a5 5c b3 0d 34 cd b2
       -3.4374278e-08 -6.0716204e-08 -5.1373473e-08 -2.3888811e-08
000100 bf a0 ab b1 e7 34 02 bb d4 0f 97 33 9d a7 0b bc
       -4.9950297e-09 -0.0019867958 7.0343646e-08 -0.008523849
000110 21 52 6e b3 69 03 18 b3 63 fb 6b bb 68 be 5c bb
       -5.548839e-08 -3.539336e-08 -0.0036007992 -0.0033682827
000120 37 99 dc 35 df 00 9e ba 72 9e 21 b3 14 8d a7 b2
       1.6435869e-06 -0.0012054703 -3.762984e-08 -1.9505514e-08
000130 84 52 ca b1 8d a0 bb b2 f3 be 94 b3 d1 5d 17 b3
       -5.8883547e-09 -2.1842675e-08 -6.9265205e-08 -3.5242753e-08
000140 ef 40 ff b2 9e 0e 40 bb a8 28 49 b1 6c 24 65 bb
       -2.9715435e-08 -0.0029305588 -2.927246e-09 -0.0034964336
000150 38 99 88 bb 62 f8 1e b2 c9 7c 57 b3 41 48 91 bb
       -0.0041686557 -9.253286e-09 -5.017208e-08 -0.004433662
000160 80 55 84 bb a8 7d 23 bc 00 92 96 b2 0f bf 10 b3
       -0.0040385127 -0.009978689 -1.7528691e-08 -3.370138e-08
000170 8b 5a 25 b3 03 80 f8 b2 1e 16 03 ba e3 24 02 b0
       -3.8499405e-08 -2.8929213e-08 -0.0005000549 -4.7346144e-10
000180 a5 37 38 b2 bd ee 45 bb 1a ff 43 33 fc bf 2f b3
       -1.0722862e-08 -0.0030202114 4.563399e-08 -4.091997e-08
000190 74 eb 46 b3 a1 fe 56 b3 36 d0 11 bb 36 5d a0 bb
       -4.631461e-08 -5.005734e-08 -0.0022249348 -0.004893924
0001a0 8a ed a6 bb a5 9e a0 bb 7a 91 9e b1 6e f1 b9 ba
       -0.005094235 -0.0049017244 -4.614944e-09 -0.0014186332
0001b0 ad 70 b2 b2 e3 85 32 b3 cb 02 8c 32 fd cd 66 b3
       -2.0773166e-08 -4.1565624e-08 1.6299415e-08 -5.3738393e-08
0001c0 c7 54 8e bb 44 e5 9b b2 96 14 53 b3 20 f7 d1 b1
       -0.0043436023 -1.8148633e-08 -4.914599e-08 -6.1107954e-09
0001d0 56 02 ac 38 94 62 b2 ba 57 9b 07 bc ee d2 ba b2
       8.202034e-05 -0.0013609701 -0.008276782 -2.174917e-08
0001e0 27 ae be b2 26 9f 99 bb bf 89 9c bb 54 0a 39 bb
       -2.2198106e-08 -0.0046881614 -0.004777163 -0.0028234916
0001f0 fb 11 81 b2 6a 54 1b b3 d6 b6 63 b1 a2 19 57 b3
       -1.5025753e-08 -3.6165524e-08 -3.3136778e-09 -5.00819e-08
