custom_implementations/models/models_o1/reinforce_best.pth (torch, 321581 bytes, 18 tensors)

0.weight f4 [128, 70]
-0.0020862923 8.0545626e-27 -0.00014215964 -4.726057e-23 0.00058081665 -6.096955e-09 0.0029901043 -0.0019968194
0.00039865327 6.538786e-05 -6.817737e-05 -0.00028701712 -0.0013824694 0.00013868889 -0.0026728825 0.0009850021
0.000100890946 -0.0004176931 -0.0006267847 -0.0021099367 4.98662e-40 -0.003142528 0.0013194466 0.00012332502
-1.099506e-07 -0.00038245547 -0.00016303713 3.306506e-05 -0.0022952969 -0.00022470142 0.00016451633 0.00039325512
-0.00082098186 0.0017483196 -5.5459317e-33 -0.0025884402 -0.0011289516 0.00029622114 0.00055916084 -0.0009047448
0.0021814464 -1.215418e-18 -0.0028501928 -7.2775634e-05 0.0011459616 1.6207076e-05 -0.0015620948 0.00037273753
-0.0013198089 -0.0025727465 -0.00036431267 0.0010721779 3.1759232e-06 -0.0008835246 0.0004395943 -0.001217672
-0.002230993 5.177643e-13 0.001803438 4.6745445e-23 -0.0020782538 -5.59093e-40 -0.0022388382 -0.00041300693
-4.92122e-40 0.00022334133 9.8336655e-23 -0.00019327455 3.3496102e-19 -0.0003806657 0.05150796 0.100068465
-0.22303256 0.17818731 -0.032927334 0.17163117 -0.025558902 0.05299719 0.028749518 0.13967901
-0.024737664 0.08667406 0.01798448 0.072272114 0.06702188 -0.059515253 0.09758237 -0.03554184
0.04599528 -0.0037282794 0.048110217 0.065919094 0.009294478 0.04833761 -0.058527425 0.04536326
-0.014746078 0.047191534 0.049661994 -0.001527857 0.043710455 -0.018755652 0.024093384 0.042661633
0.027309502 0.0469754 0.01548397 0.016518146 -0.03074627 -0.0011755796 0.02494939 -0.013287535
0.05457566 -0.0074853017 -0.017952386 -0.02760292 0.012224678 0.017097997 -0.005169794 0.031855986
0.009592001 -0.014782088 0.0036268025 -0.0014060666 -0.025018826 -0.021618642 0.008043686 0.0020109368
-0.01527147 0.024862668 -0.013971428 -0.014731245 -0.008471865 0.0024229607 -0.0028312323 -0.03075322
0.031225234 -0.013333992 -0.0016473416 0.006897179 0.09100717 0.052390732 -0.106055066 0.11377264
-0.058372777 0.10361277 -0.06797217 0.09170245 0.0153252585 0.01668261 -0.004421804 0.07581018
0.028966248 0.005809009 0.096968524 -0.039948687 0.010406807 -0.0013983649 0.06687083 0.018008254
0.023719164 0.08947872 -0.007991646 -0.015613429 -0.01392851 0.04225657 0.013010946 0.008795999
0.06574863 -0.0033403174 -4.988505e-05 -0.0069298577 0.025951978 0.03337638 -0.0024321328 0.06752158
0.02415142 -0.045194816 -0.02735384 0.027751395 0.007514696 0.009523862 0.063278385 0.018240103
-0.058845688 -0.037501916 0.020766584 -0.023159161 0.008002979 0.03678966 0.0064988574 -0.045853324
0.004241642 0.006388987 -0.027741576 -0.012568321 0.006252956 -0.0038254552 -0.025746344 0.045420684
-0.009049429 0.0057848357 -0.0040298565 0.0028171276 -0.016929511 -0.030745305 0.0349518 -0.0130488705
-0.0050970614 0.011688002 -0.012891867 -1.72633e-28 -1.0376808e-05 -3.1005726e-13 0.002647323 -2.8532563e-06
0.012654699 -0.012892102 -0.006468782 1.4086442e-08 0.0004941783 -0.0011629356 0.005759072 0.0055338964
-0.012892059 -0.0010270753 1.4100254e-06 0.00054727844 -0.0017976683 0.0014127056 0.00021974434 -0.012891855
0.0017123584 6.234747e-06 0.00067636225 -0.0025747698 0.0073874355 0.0002019142 -0.012892052 -0.00047298986
1.5172603e-05 -1.6940068e-05 -0.0058305506 -0.0053390847 -0.0021458126 -0.011788389 0.0011405029 9.021889e-06
0.00015106813 -0.0031952958 -0.0001694094 -0.00074993743 -0.011672682 0.00050529547 0.0005070149 5.48769e-05
00000000: 2dba 08bb 7c89 1f14 b010 15b9 c089 649a
00000010: f241 183a 627d d1b1 a0f5 433b 12dd 02bb
00000020: 5602 d139 d720 8938 72fa 8eb8 c97a 96b9
00000030: fa33 b5ba 046d 1139 872b 2fbb 301b 813a
00000040: 6a95 d338 d2fd dab9 cf4e 24ba dd46 0abb
00000050: 116e 0500 dff2 4dbb 48f1 ac3a cf50 0139
00000060: fb1d ecb3 4e84 c8b9 f2f4 2ab9 56af 0a38
00000070: b16c 16bb d49d 6bb9 0482 2c39 cf2d ce39
00000080: 2937 57ba df27 e53a 765e e689 d2a2 29bb
00000090: 54f9 93ba 214e 9b39 a694 123a 652c 6dba
000000a0: 99f6 0e3b 325d b3a1 4dca 3abb 1f9f 98b8
000000b0: 1734 963a 6ef4 8737 34bf ccba fc6b c339
000000c0: 70fd acba 869b 28bb 3801 bfb9 5288 8c3a
000000d0: f221 5536 559c 67ba 5979 e639 4b9a 9fba
000000e0: da35 12bb dabc 112b 5661 ec3a 0f0c 621a
000000f0: 5033 08bb 8616 0680 79b9 12bb da88 d8b9
00000100: d65b 0580 bb30 6a39 71c3 ed1a bea9 4ab9
00000110: e1b9 c520 1694 c7b9 03fa 523d b2f0 cc3d
00000120: a662 64be bc76 363e d0de 06bd 15c0 2f3e
00000130: e760 d1bc 9513 593d 1c84 eb3c 0408 0f3e
00000140: a4a6 cabc 2b82 b13d 3054 933c 6703 943d
00000150: c442 893d 44c6 73bd 44d9 c73d 5294 11bd
00000160: 8c65 3c3d 2656 74bb 380f 453d 9700 873d
00000170: de47 183c a8fd 453d 74ba 6fbd d3ce 393d
00000180: 8999 71bc e94b 413d 606a 4b3d 6042 c8ba
00000190: bc09 333d 74a5 99bc 7d5f c53c f7bd 2e3d
000001a0: 2db8 df3c 4769 403d 7ab0 7d3c 1051 873c
000001b0: 9adf fbbc e815 9aba aa62 cc3c f6b3 59bc
000001c0: ba8a 5f3d 4347 f5bb e210 93bc 851f e2bc
000001d0: 044a 483c 1911 8c3c 6067 a9bb 6c7b 023d
000001e0: c527 1d3c 9230 72bc a6af 6d3b c44b b8ba
000001f0: 48f4 ccbc 9419 b1bc aac9 033c ecc9 033b
00000200: 3035 7abc cbac cb3c 6be8 64bc 525b 71bc
00000210: 94cd 0abc 89ca 1e3b 328c 39bb 2dee fbbc
00000220: 10cc ff3c d176 5abc 9deb d7ba bb01 e23b
00000230: f861 ba3d aa97 563d 6633 d9bd a101 e93d
00000240: 4b18 6fbd ef32 d43d fe34 8bbd 7ece bb3d
00000250: cb16 7b3c f8a9 883c c8e4 90bb 5e42 9b3d
00000260: a04a ed3c 8059 be3b 6f97 c63d 3ca1 23bd
00000270: 5081 2a3c 5749 b7ba 93f3 883d 0c86 933c
00000280: b14e c23c 9f40 b73d 65ef 02bc 78cf 7fbc
00000290: 6834 64bc 3a15 2d3d dd2b 553c 181d 103c
000002a0: 38a7 863d 3ae9 5abb aa3b 51b8 dc13 e3bb
000002b0: 3e99 d43c acb5 083d 6b64 1fbb c148 8a3d
000002c0: 33d9 c53c 331e 39bd 2915 e0bc e556 e33c
000002d0: d73d f63b f909 1c3c 1998 813d 456c 953c
000002e0: 2d08 71bd 9c9b 19bd af1e aa3c 48b8 bdbc
000002f0: ed1e 033c c1b0 163d 5ef4 d43b b2d0 3bbd
00000300: 79fd 8a3b b55a d13b 4d42 e3bc 5ceb 4dbc
00000310: 99e5 cc3b 7db4 7abb ffe9 d2bc 0a0b 3a3d
00000320: 0e44 14bc b88e bd3b e30c 84bb 8f9f 383b
00000330: c2af 8abc 94dd fbbc 9e29 0f3d eeca 55bc
00000340: 4005 a7bb 097f 3f3c 6938 53bc 9dd6 5a91
00000350: 0d18 2eb7 f68b aeaa b67e 2d3b 927a 3fb6
00000360: a855 4f3c 6539 53bc 14f8 d3bb d400 7232
00000370: bf8b 013a a56d 98ba 99b6 bc3b b055 b53b
00000380: 3739 53bc ee9e 86ba 1b40 bd35 3c77 0f3a
00000390: bd9f ebba 892a b93a 2c6b 6639 5c38 53bc
000003a0: 3771 e03a 1234 d136 e74d 313a 78bd 28bb
000003b0: 4d12 f23b eeb8 5339 2f39 53bc a0fb f7b9
000003c0: d58d 7e37 851a 8eb7 340e bfbb 7df3 aebb
000003d0: c3a0 0cbb 1624 41bc ed7c 953a b85c 1737
000003e0: 0b68 1e39 2b68 51bb 7da3 31b9 7397 44ba
000003f0: c73e 3fbc ce75 043a 32e9 043a 9f2b 6638

0.bias f4 [128]
-0.0026969465 0.052381627 0.08932478 -0.012892059 -0.011885022 0.05344545 -3.2669616e-09 -0.000677191
-1.878092e-15 -1.03739185e-05 -0.007147193 -0.001859726 -0.023128923 0.012775063 -7.967722e-05 -0.0410235
-3.555932e-21 -0.02565337 0.011310548 0.0015074548 -0.018368112 -0.006584919 -0.009423349 -0.0061677643
0.084796324 0.0009266121 -1.1990291e-21 0.028740237 0.0008823601 0.0043964037 -2.025663e-07 0.03510481
-0.029169073 0.075979784 -1.07011975e-17 -0.037506536 -3.443662e-11 0.07033096 0.0038775997 0.051032692
-0.030408539 0.03949856 -0.01671319 0.07126044 -0.02266737 -0.0007076215 0.0026084792 -0.0010126729
-2.5183446e-09 -0.002769606 0.06665083 0.04860792 0.005652842 -0.0029061974 0.076939054 0.06094353
-0.0014516618 -0.011734796 -0.019628406 0.05797889 0.060499594 0.053813178 -1.2075837e-11 0.041893117
0.04572012 -9.2893126e-05 0.05173923 -0.024854295 0.05401408 -2.1799883e-06 0.013364298 0.04846217
-0.01593031 0.06615838 -0.0031374393 0.05045247 -0.0040182513 0.0014057675 -0.00036804468 0.014994797
0.0033036321 -0.01518401 -0.011499721 0.018585488 0.054474622 -0.0064997193 -0.034252472 -0.009689737
-0.036787607 -8.982364e-05 -1.1779316e-05 -1.0103805e-05 -0.02279649 -0.0024078721 0.038133636 -0.0074343616
0.045481794 -0.009492336 -0.0002581718 0.064369485 0.044925477 -2.4940966e-06 0.008077556 0.006488573
0.002588124 -2.4458739e-08 0.006283177 0.0033326284 0.07441951 -6.4370597e-06 -0.0039265985 -0.005217078
0.033963002 0.05156588 -0.005517044 0.0035343578 0.0014013662 -0.0031690535 -7.431957e-08 -4.9866894e-06
0.06267506 -6.7385215e-15 -0.013184121 0.07695344 0.0012999818 -1.2243119e-13 0.025496552 0.12654173
00000000: 41bf 30bb 1e8e 563d e9ef b63d 3739 53bc
00000010: 65b9 42bc 9ee9 5a3d ff80 60b1 8585 31ba
00000020: af54 07a7 a40b 2eb7 0033 eabb 0dc2 f3ba
00000030: de78 bdbc 7f4e 513c 6218 a7b8 4208 28bd
00000040: dd56 869d 0427 d2bc e04f 393c ca95 c53a
00000050: b978 96bc 4ec6 d7bb 6464 1abc f51a cabb
00000060: b2a9 ad3d e3e7 723a 3131 b59c a570 eb3c
00000070: 2f4e 673a b50f 903b 0081 59b4 10ca 0f3d
00000080: fbf3 eebc 4a9b 9b3d fa66 45a3 74a0 19bd
00000090: 3074 17ae ae09 903d 541f 7e3b a807 513d
000000a0: 541b f9bc 3ec9 213d 1aea 88bc fef0 913d
000000b0: ecb0 b9bc ad7f 39ba 05f3 2a3b aabb 84ba
000000c0: 300f 2db1 4782 35bb 3b80 883d 1919 473d
000000d0: 7a3b b93b e775 3ebb 3992 9d3d ec9f 793d
000000e0: b045 beba 4d43 40bc c0cb a0bc 467b 6d3d
000000f0: 6cce 773d 356b 5c3d bc70 54ad 1e98 2b3d
00000100: 0545 3b3d 9ecf c2b8 84ec 533d 3c9b cbbc
00000110: de3d 5d3d ea4b 12b6 eef5 5a3c 4580 463d
00000120: 4880 82bc 0b7e 873d 7f9d 4dbb 40a7 4e3d
00000130: 89ab 83bb bb41 b83a 1ff6 c0b9 bdac 753c
00000140: c081 583b 5bc6 78bc 5369 3cbc 9840 983c
00000150: c820 5f3d 99fb d4bb 524c 0cbd b4c1 1ebc
00000160: 9aae 16bd b35f bcb8 c79f 45b7 8383 29b7
00000170: b4bf babc 64cd 1dbb 0432 1c3d f29b f3bb
00000180: 1e4b 3a3d be85 1bbc 3c5b 87b9 26d4 833d
00000190: c703 383d 4160 27b6 ba57 043c 189e d43b
000001a0: 849d 293b 5619 d2b2 1ce3 cd3b 3a68 5a3b
000001b0: 4269 983d ecfd d7b6 b2aa 80bb 06f4 aabb
000001c0: ca1c 0b3d bf36 533d 52c8 b4bb afa0 673b
000001d0: 0cae b73a e5af 4fbb 9e99 9fb3 5653 a7b6
000001e0: c85b 803d e4c7 f2a7 3602 58bc c499 9d3d
000001f0: 2764 aa3a 63d8 09aa 25de d03c 2894 013e

3.weight f4 [128, 128]
-6.5117465e-18 -0.0016374975 0.013555489 -0.00012045295 0.011028814 -0.0017760613 4.90628e-40 -7.054773e-16
5.89312e-40 4.95167e-40 -0.026071372 -1.4104321e-27 -0.0028461325 -0.015296316 -4.95223e-40 0.016338108
-4.9181e-40 -3.486068e-05 -0.011788327 -0.0031866892 -3.6501973e-05 -0.014990741 -9.706531e-33 1.3223819e-17
0.016458375 -0.018057687 -4.97984e-40 0.0094531495 -0.009265477 -0.019304337 -5.0112715e-20 -0.023488313
6.2302374e-06 -0.009027076 6.08554e-40 -0.005647349 5.3595533e-17 0.060682613 0.012872378 -0.010575417
-0.06709166 -0.00048374906 -0.0039524 0.0013754749 -2.2601985e-06 -1.3748665e-17 -0.012794277 -0.028445521
1.3162232e-11 4.8766674e-10 -0.0016303415 -0.0112801315 -0.024696268 -0.02516526 -0.0050811614 -0.010100916
-1.6446756e-36 0.0019560095 0.007536373 -0.0035510468 -0.012648356 -0.016221296 -5.1004e-40 -0.01440432
-0.006473855 -5.24456e-40 -0.00602971 0.010716709 -0.018903827 -5.15636e-40 0.0010324821 -0.012670217
-0.010245476 0.0036449074 -5.52884e-40 7.074936e-05 2.7353174e-15 -0.014457927 3.000885e-05 -0.01734615
-0.020961124 -9.695259e-06 4.6101306e-07 0.012872797 -0.0008409696 -1.7888958e-22 0.0006105223 -0.014006973
-0.00017895595 -5.09132e-40 5.895632e-29 -7.487473e-30 -0.005738776 4.9697e-40 -0.010208984 8.719198e-05
0.01768934 1.0337194e-07 -0.00495435 -0.0015510939 -0.014257201 1.4203988e-29 -0.008139998 -0.007644679
-0.017946957 3.5873622e-09 -0.007270033 -0.015135259 0.011297378 6.684603e-36 0.00011517155 -0.017360227
-0.008192194 -0.013696195 -0.02211295 -0.010055023 -0.018758982 -5.02947e-40 -6.8011703e-28 4.5112884e-32
-0.006859809 -1.1657615e-38 -0.0046923314 0.0105027985 -0.018382283 -5.07602e-40 -0.09890556 0.0040713414
-4.99385e-40 -0.09748316 -0.030419724 -2.9007985e-09 0.0011793283 -0.05995422 -5.09574e-40 -5.17223e-40
5.64827e-40 1.2873924e-23 0.15293606 5.97246e-40 -0.013768356 0.16249962 -5.05171e-40 -0.024004078
-5.8298e-40 0.0011294595 0.16932431 0.166125 0.00047801965 0.1573247 -0.0002214943 -7.09522e-05
-0.04069582 0.15543324 -6.00452e-40 -0.017833512 0.14903346 0.16927466 5.7007e-40 -0.11635318
0.0006423553 -0.0037839394 6.07997e-40 0.004274919 1.8158766e-15 -0.09290152 0.014824043 -0.065268636
0.03593166 -0.065412074 0.026189415 -0.066646025 0.0008958253 6.30493e-40 0.17064203 0.15600927
2.2341682e-11 4.7477023e-33 -0.06750278 -0.08555161 0.15477833 0.1480369 -0.050956815 -0.03540493
4.99675e-40 0.00054516323 0.0052558235 -0.049562063 -0.067392625 -0.09873539 -5.54974e-40 -0.09067263
-0.06783714 -4.94808e-40 -0.07784836 0.00013165516 -0.08797138 -5.82157e-40 0.16266169 -0.083349675
-0.0074549555 -0.049739566 2.557881e-09 -0.06927152 -2.7312362e-07 0.16043584 5.6212146e-05 0.18259937
0.18386078 -0.0023666283 -0.010394137 -0.0140589615 -0.07238432 0.0019091322 -0.001912361 0.06993216
-0.0125389295 5.79458e-40 1.8519261e-28 -1.1497538e-30 0.0013825463 6.21626e-40 -0.077606216 -0.005271477
0.14790633 1.7519277e-08 0.17427403 -0.046085663 -0.06658615 -6.15244e-40 0.1494759 0.1534536
0.16412008 -3.9206773e-11 0.14901485 0.18596959 -0.03569793 5.1659653e-35 6.94541e-13 0.14753272
-0.0669185 -0.06352122 0.15527594 0.17888387 0.16176039 -7.001223e-05 -9.189119e-08 -1.1202168e-33
-0.061428312 -5.47878e-40 0.0023218936 -0.054038566 0.15767092 -5.2822e-40 0.0050829644 0.06415028
00000000: b53d f0a2 4ca1 d6ba d717 5e3c af9b fcb8
00000010: 33b2 343c baca e8ba ac57 0500 0957 4ba6
00000020: c36a 0600 5364 0500 a193 d5bc ec7d df92
00000030: 2e86 3abb 669d 7abc 7b64 0580 7fd7 853c
00000040: f75a 0580 5f37 12b8 d423 41bc c6d7 50bb
00000050: b219 19b8 ba9b 75bc c598 498a b8ef 7323
00000060: b7d3 863c b7ed 93bc 2d6c 0580 62e1 1a3c
00000070: 3ace 17bc 2124 9ebc 8ea6 6c9f 906a c0bc
00000080: 550d d136 4de6 13bc 67a0 0600 660d b9bb
00000090: 702a 7724 558e 783d abe6 523c 8444 2dbc
000000a0: 5a67 89bd b39f fdb9 2283 81bb 4749 b43a
000000b0: eaad 17b6 3c9e 7da3 169f 51bc 9506 e9bc
000000c0: 6c8d 672d 7f0c 0630 2fb1 d5ba 4dd0 38bc
000000d0: d44f cabc 6027 cebc df7f a6bb 507e 25bc
000000e0: dde9 0b84 6530 003b aef3 f63b aeb8 68bb
000000f0: 0d3b 4fbc 86e2 84bc c98d 0580 1900 6cbc
00000100: a222 d4bb f8b5 0580 e094 c5bb 2395 2f3c
00000110: 33dc 9abc 629d 0580 5a54 873a be96 4fbc
00000120: a4dc 27bc 66df 6e3b 3705 0680 465f 9438
00000130: b319 4527 f1e0 6cbc 84bb fb37 8319 8ebc
00000140: aab6 abbc d2a8 22b7 2781 f734 6de8 523c
00000150: 8474 5cba a543 589b 750b 203a 817d 65bc
00000160: 1fa6 3bb9 418b 0580 d778 9510 2fdd 178f
00000170: 580c bcbb 5a69 0500 9543 27bc d6da b638
00000180: 3ce9 903c 53fd dd33 1a58 a2bb 134e cbba
00000190: 0997 69bc a90b 900f a05d 05bc 3780 fabb
000001a0: 7f05 93bc 8b85 7631 7539 eebb e1f9 77bc
000001b0: a318 393c 712a 0e05 4188 f138 0937 8ebc
000001c0: 8d38 06bc 0166 60bc 3826 b5bc d3bd 24bc
000001d0: 70ac 99bc 037a 0580 a689 5792 4f3d 6a0b
000001e0: 40c8 e0bb b0f0 7e80 21c2 99bb ee13 2c3c
000001f0: 7196 96bc fd86 0580 008f cabd e368 853b
00000200: 1570 0580 40a5 c7bd c932 f9bc 6357 47b1
00000210: b193 9a3a 8e92 75bd 7c8c 0580 cfa1 0580
00000220: 8226 0600 9504 7919 459b 1c3e e180 0600
00000230: ac94 61bc 4d66 263e 3680 0580 33a4 c4bc
00000240: 1c59 0680 5f0a 943a 5a63 2d3e ac1c 2a3e
00000250: b69e fa39 ba19 213e ec40 68b9 2ccc 94b8
00000260: a9b0 26bd e429 1f3e d189 0680 9617 92bc
00000270: 3a9c 183e 5656 2d3e 2035 0600 934a eebd
00000280: bc63 283a f8fb 77bb d99e 0600 9f14 8c3b
00000290: 03d9 0227 2743 bebd 8be0 723c 90ab 85bd
000002a0: 142d 133d c4f6 85bd 2f8b d63c b67d 88bd
000002b0: d1d5 6a3a 8fdd 0600 c9bc 2e3e e5c0 1f3e
000002c0: ff84 c42d 3b36 c509 e63e 8abd af35 afbd
000002d0: 367e 1e3e fc96 173e 18b8 50bd c304 11bd
000002e0: e470 0500 49e9 0e3a 0b39 ac3b 9701 4bbd
000002f0: 2505 8abd c835 cabd 0b0b 0680 92b2 b9bd
00000300: 33ee 8abd 5363 0580 f66e 9fbd ea0c 0a39
00000310: 572a b4bd d156 0680 c990 263e 3cb3 aabd
00000320: b348 f4bb b7bb 4bbd b8c6 2f31 3ade 8dbd
00000330: d3a1 92b4 4b49 243e 55c5 6b38 54fb 3a3e
00000340: 0046 3c3e 6f19 1bbb 2c4c 2abc 8f57 66bc
00000350: 3b3e 94bd d93b fa3a 30a8 faba 9838 8f3d
00000360: 1570 4dbc 4b4f 0600 70c2 6a11 e88e ba8d
00000370: 8e36 b53a d7c4 0600 02f0 9ebd 5bbc acbb
00000380: c274 173e 4c7d 9632 e474 323e 52c4 3cbd
00000390: 525e 88bd 0db3 0680 3610 193e f122 1d3e
000003a0: 180f 283e e76e 2cae 5997 183e d06e 3e3e
000003b0: fe37 12bd bd55 8906 f47e 432b d112 173e
000003c0: 910c 89bd 6a17 82bd a800 1f3e 552d 373e
000003d0: 84a4 253e 88d3 92b8 b755 c5b3 c120 ba88
000003e0: 419c 7bbd 43f7 0580 e92a 183b 8b57 5dbd
000003f0: 7c74 213e 76c0 0580 ff8e a63b 3961 833d

3.bias f4 [128]
0.04704343 0.049344692 -0.00015018813 0.041243613 0.054294676 -0.0068319268 0.108734764 -0.005715007
-0.0067323386 0.11819656 -0.0075384784 0.10067692 0.12427995 -0.0025280153 0.11587547 -0.0060783294
0.06646754 -0.009586515 -0.009688007 -0.0075056334 0.08893818 0.04832232 0.11360555 0.1105013
0.13578865 0.13142449 0.10274364 0.10067571 0.115925565 -0.0069071553 0.052327633 -2.660301e-05
-0.008119011 -0.0026546395 0.11200682 -0.007289952 0.104800865 -0.0014060776 -8.7219417e-20 0.1108423
0.094155364 0.09050986 0.105869606 0.11483474 0.10177071 -0.007566486 -0.0092196185 -0.00405746
0.05555105 -0.0057990183 0.046489295 -0.0018014556 -0.003399671 -0.0053430535 0.12950008 -0.009568174
-0.0051542115 0.120221205 -0.00026349627 0.12343281 0.11399197 -0.005878948 -0.0009110872 -0.0049813483
-0.003749014 0.04579274 -0.006455536 -0.0026222512 0.051090952 -0.0044748373 -9.319082e-05 0.13793172
0.11808716 -0.009760614 0.05376681 0.10201656 0.109728485 0.12477449 -0.007831798 0.035848327
0.048626278 0.047116637 0.1192387 0.12957954 -2.3615268e-11 -0.0031132202 -0.005037435 0.10361833
0.1149189 -2.0936827e-06 0.034973938 0.05958816 -0.0035260622 -0.0061135455 -0.002381634 -0.03721422
0.10517995 0.058854584 -0.0068297707 0.02739126 -0.0031994763 -0.002851473 -0.005102806 -0.007815711
-4.3210431e-07 -0.0012639461 0.042531904 -0.002291642 -0.0017909094 0.05696302 -0.00029083213 -9.051796e-05
0.123588204 -0.0026624887 0.111507595 -0.009655197 0.04782746 -0.0052452055 -7.068659e-07 -0.0025590116
0.11892385 -0.007455481 0.054606814 -0.0014897499 -0.0055801542 -8.810088e-22 -0.0069841524 0.13054602
00000000: 9db0 403d a91d 4a3d d27b 1db9 10ef 283d
00000010: 1864 5e3d 5bde dfbb 55b0 de3d f444 bbbb
00000020: f39a dcbb 0a11 f23d 5705 f7bb b32f ce3d
00000030: 7d86 fe3d 0fad 25bb 1e50 ed3d b92c c7bb
00000040: 2220 883d c210 1dbc 72ba 1ebc d1f1 f5bb
00000050: 3825 b63d a0ed 453d 07aa e83d 814e e23d
00000060: 2e0c 0b3e 2494 063e 426b d23d 112f ce3d
00000070: 626a ed3d 6b55 e2bb 8055 563d 8729 dfb7
00000080: 9a05 05bc 76f9 2dbb d563 e53d 8de0 eebb
00000090: d6a1 d63d 234c b8ba e7f0 cd9f 4a01 e33d
000000a0: 87d4 c03d 3c5d b93d 2ad2 d83d 7a2e eb3d
000000b0: 296d d03d 49f0 f7bb e20d 17bc 71f4 84bb
000000c0: 7f89 633d b105 bebb 8f6b 3e3d d21e ecba
000000d0: 04cd 5ebb c814 afbb ab9b 043e d5c3 1cbc
000000e0: a9e4 a8bb 8936 f63d df25 8ab9 57ca fc3d
000000f0: 9f74 e93d 31a4 c0bb 07d6 6eba 943a a3bb
00000100: 05b2 75bb 2b91 3b3d f688 d3bb 13da 2bbb
00000110: bf44 513d a8a1 92bb 716f c3b8 f93d 0d3e
00000120: aed7 f13d fbea 1fbc 963a 5c3d 0fee d03d
00000130: 54b9 e03d c589 ff3d f150 00bc b2d5 123d
00000140: 592c 473d 60fd 403d 6b33 f43d 80b0 043e
00000150: dbb8 cfad 2b07 4cbb 1111 a5bb d935 d43d
00000160: 9a5a eb3d 3281 0cb6 d540 0f3d b712 743d
00000170: 8215 67bb 2354 c8bb 3015 1cbb f06d 18bd
00000180: 9668 d73d 8111 713d 45cc dfbb a363 e03c
00000190: 4eae 51bb c7df 3abb 7035 a7bb 780d 00bc
000001a0: f7fb e7b4 feaa a5ba ef35 2e3d 5f2f 16bb
000001b0: f3bc eaba 0e52 693d d47a 98b9 76d4 bdb8
000001c0: d01b fd3d 267d 2ebb 185e e43d d530 1ebc
000001d0: bae6 433d f9df abbb 74bf 3db5 17b5 27bb
000001e0: 598e f33d 1c4d f4bb 65ab 5f3d b643 c3ba
000001f0: bad9 b6bb 6122 859c 51db e4bb dbad 053e

6.weight f4 [4, 128]
-5.79588e-40 5.17787e-40 -5.66815e-40 -5.50677e-40 4.97612e-40 -5.08042e-40 6.01726e-40 5.58748e-40
-5.08419e-40 -5.18024e-40 -5.86641e-40 6.22217e-40 6.05233e-40 -5.66332e-40 -5.09669e-40 -5.98004e-40
-4.94155e-40 6.19615e-40 -5.64756e-40 5.2009e-40 -5.53774e-40 -6.11597e-40 -6.08597e-40 5.53464e-40
5.20749e-40 5.5834e-40 -5.89417e-40 -6.18543e-40 6.03588e-40 5.05127e-40 -6.26445e-40 -6.16389e-40
-6.13175e-40 5.48509e-40 6.01779e-40 -6.06014e-40 5.84068e-40 5.83415e-40 5.51303e-40 -5.84625e-40
5.17473e-40 6.24252e-40 5.52511e-40 5.09955e-40 5.43562e-40 -6.30043e-40 -6.21882e-40 -5.99736e-40
6.24351e-40 -5.43101e-40 -6.1578e-40 5.16388e-40 5.8572e-40 -5.68517e-40 -5.54963e-40 6.0081e-40
-5.35381e-40 -5.4944e-40 5.91987e-40 5.60958e-40 -5.85917e-40 5.57207e-40 5.44168e-40 -6.03403e-40
5.91047e-40 -5.94012e-40 -5.81561e-40 -6.01831e-40 -5.96498e-40 6.05626e-40 5.85434e-40 -6.18748e-40
6.10948e-40 5.47427e-40 -5.13307e-40 -6.26022e-40 6.181e-40 6.00053e-40 5.3346e-40 5.35885e-40
-5.80531e-40 5.99096e-40 -6.0461e-40 5.29003e-40 5.39747e-40 -5.6735e-40 -5.21873e-40 5.61427e-40
5.87329e-40 5.38607e-40 5.56748e-40 5.8756e-40 5.53856e-40 -5.91986e-40 5.88192e-40 6.07393e-40
-5.18762e-40 -6.29725e-40 -6.23173e-40 5.07934e-40 5.69739e-40 5.21092e-40 4.98194e-40 6.24274e-40
-6.29037e-40 -5.53806e-40 -5.30799e-40 -5.17603e-40 6.28297e-40 -5.77755e-40 6.11457e-40 -4.95866e-40
5.47266e-40 5.40492e-40 5.4219e-40 -5.67178e-40 -5.30753e-40 -5.11803e-40 -5.37995e-40 -5.23074e-40
5.59282e-40 -5.17181e-40 -5.82014e-40 5.14243e-40 -5.21586e-40 -5.55634e-40 5.32489e-40 5.41937e-40
-5.89903e-40 5.84056e-40 -5.91338e-40 5.22614e-40 6.24117e-40 5.51799e-40 6.24175e-40 5.83785e-40
6.30263e-40 -5.55506e-40 -5.58382e-40 5.2749e-40 -5.31186e-40 -6.05368e-40 5.24102e-40 5.35026e-40
6.02425e-40 5.2329e-40 5.3574e-40 5.33403e-40 5.75262e-40 5.10384e-40 -5.78282e-40 5.99819e-40
5.63194e-40 -6.15616e-40 -6.11511e-40 5.56514e-40 -5.53982e-40 -5.47661e-40 -5.22354e-40 -5.51356e-40
-6.09024e-40 6.16465e-40 5.63979e-40 5.98978e-40 4.9607e-40 -5.80749e-40 5.72411e-40 5.8163e-40
-5.29265e-40 5.80042e-40 -5.77245e-40 5.7141e-40 -5.24866e-40 5.92227e-40 6.03284e-40 -5.41692e-40
6.19777e-40 -5.49952e-40 -5.58476e-40 5.45227e-40 5.47335e-40 -6.06692e-40 -5.31775e-40 -5.93991e-40
-6.07502e-40 -6.29313e-40 -5.46745e-40 -5.49916e-40 6.21437e-40 -5.90932e-40 5.83773e-40 5.58361e-40
-5.63852e-40 6.12488e-40 6.20426e-40 5.94652e-40 5.65867e-40 5.97364e-40 5.66398e-40 5.99047e-40
5.19279e-40 5.65584e-40 -5.56572e-40 -6.00482e-40 5.73804e-40 6.06282e-40 6.09495e-40 -5.64499e-40
-5.9935e-40 -5.85488e-40 6.30248e-40 -5.76945e-40 -5.96618e-40 -5.6848e-40 -5.51321e-40 -4.97219e-40
5.63265e-40 -5.93475e-40 6.03322e-40 -5.64046e-40 5.89582e-40 -5.11686e-40 -5.94272e-40 -5.09563e-40
5.58932e-40 5.6736e-40 5.30483e-40 -5.63826e-40 -6.00829e-40 5.39577e-40 -5.39231e-40 -5.79399e-40
-5.88463e-40 -5.80645e-40 -5.27826e-40 5.21235e-40 5.77488e-40 -5.2565e-40 5.35614e-40 5.65299e-40
6.22273e-40 -5.65797e-40 5.7171e-40 5.62159e-40 5.7214e-40 5.37912e-40 -5.23129e-40 -5.9246e-40
5.6449e-40 5.28522e-40 -5.34064e-40 -5.6837e-40 5.63571e-40 5.41249e-40 -5.39494e-40 5.6873e-40
00000000: a84f 0680 61a3 0500 0d2c 0680 10ff 0580
00000010: 246b 0500 3788 0580 5e8d 0600 9015 0600
00000020: 4489 0580 0aa4 0580 5163 0680 7dc6 0600
00000030: 2597 0600 b42a 0680 c08c 0580 fe82 0680
00000040: 8161 0580 3cbf 0600 4f26 0680 cda9 0500
00000050: b207 0680 e2a8 0680 85a0 0680 d506 0600
00000060: a3ab 0500 6d14 0600 0e6b 0680 3fbc 0680
00000070: 8f92 0600 1780 0500 46d2 0680 3eb6 0680
00000080: 48ad 0680 05f9 0500 848d 0600 5299 0680
00000090: 255c 0600 535a 0600 cf00 0600 b25d 0680
000000a0: 81a2 0500 29cc 0600 2d04 0600 8c8d 0500
000000b0: 3beb 0500 4edc 0680 8ec5 0680 d287 0680
000000c0: 70cc 0600 f2e9 0580 8bb4 0680 7b9f 0500
000000d0: c060 0600 cb30 0680 030b 0680 d08a 0600
000000e0: 6dd4 0580 9dfb 0580 3872 0600 b91b 0600
000000f0: 4c61 0680 4411 0600 ebec 0500 0b92 0680
00000100: 996f 0600 dd77 0680 2855 0680 a98d 0680
00000110: cb7e 0680 3d98 0600 f45f 0600 d1bc 0680
00000120: 13a7 0600 01f6 0500 e496 0580 18d1 0680
00000130: 03bb 0600 b488 0600 12cf 0500 d4d5 0500
00000140: 4952 0680 0986 0600 6895 0680 a5c2 0500
00000150: 98e0 0500 8a2d 0680 c5ae 0580 081d 0600
00000160: 3c65 0600 6bdd 0500 fd0f 0600 e165 0600
00000170: ed07 0600 3772 0680 a467 0600 2a9d 0600
00000180: 19a6 0580 6bdb 0680 27c9 0680 ea87 0500
00000190: 3334 0600 98ac 0500 c36c 0500 39cc 0600
000001a0: 80d9 0680 c907 0680 a7c7 0580 dea2 0580
000001b0: 70d7 0600 8c4a 0680 7ea8 0600 4666 0580
000001c0: 8ef5 0500 ace2 0500 68e7 0500 102d 0680
000001d0: 86c7 0580 b392 0580 b6db 0580 1eb2 0580
000001e0: 0d17 0600 b1a1 0580 6b56 0680 8099 0500
000001f0: f8ad 0580 e20c 0680 5dcc 0500 b3e6 0500
00000200: 696c 0680 1c5c 0600 6970 0680 d6b0 0500
00000210: c9cb 0600 3102 0600 f2cb 0600 5b5b 0600
00000220: ebdc 0600 860c 0680 8b14 0680 6dbe 0500
00000230: bbc8 0580 8597 0680 fcb4 0500 6fd3 0500
00000240: 518f 0600 b8b2 0500 6dd5 0500 e9ce 0500
00000250: 9943 0600 be8e 0500 044c 0680 0d88 0600
00000260: f521 0600 16b4 0680 a5a8 0680 560f 0600
00000270: 4708 0680 a8f6 0580 1cb0 0580 f500 0680
00000280: b6a1 0680 74b6 0600 2524 0600 b585 0600
00000290: d766 0500 e452 0680 a63b 0600 5955 0600
000002a0: 60c3 0580 ec50 0600 2049 0680 dc38 0600
000002b0: 1db7 0580 e372 0600 b691 0600 04e6 0580
000002c0: b0bf 0600 0bfd 0580 ce14 0680 dfef 0500
000002d0: bff5 0500 369b 0680 5fca 0580 ce77 0680
000002e0: 789d 0680 45da 0680 1af4 0580 f1fc 0580
000002f0: 50c4 0600 476f 0680 525b 0600 7c14 0600
00000300: ca23 0680 5eab 0600 7fc1 0600 a679 0600
00000310: 6829 0600 3581 0600 e32a 0600 e685 0600
00000320: 8aa7 0500 9e28 0600 7f0f 0680 e689 0680
00000330: 883f 0600 119a 0600 06a3 0600 9825 0680
00000340: be86 0680 1a60 0680 e0dc 0600 4a48 0680
00000350: 217f 0680 b130 0680 dc00 0680 0b6a 0580
00000360: 2722 0600 5e76 0680 d191 0600 5524 0680
00000370: 846b 0600 5f92 0580 9778 0680 748c 0580
00000380: 1316 0600 922d 0600 c5c6 0500 b823 0680
00000390: de8a 0680 1fe0 0500 28df 0580 214f 0680
000003a0: 6568 0680 9a52 0680 5dbf 0580 feac 0500
000003b0: cd49 0600 4cb9 0580 13d5 0500 d327 0600
000003c0: a5c6 0600 3629 0680 b239 0600 121f 0600
000003d0: e53a 0600 7bdb 0500 45b2 0580 8a73 0680
000003e0: 9225 0600 4ec1 0500 c1d0 0580 6230 0680
000003f0: 0223 0600 c8e4 0500 e4df 0580 6331 0600

6.bias f4 [4]
0.0 0.0 -0.07321238 -0.085474916
00000000: 0000 0000 0000 0000 5ff0 95bd 790d afbd

exp_avg f4 [128, 70]
-2.1017339e-08 2.830655e-31 -1.4661035e-09 -1.0797446e-27 5.9119025e-09 -6.930593e-14 3.012367e-08 -2.0115985e-08
4.0832444e-09 6.7688566e-10 -7.094602e-10 -2.9369776e-09 -1.3989906e-08 1.4330314e-09 -2.692666e-08 9.9421e-09
1.0434605e-09 -4.256743e-09 -6.379793e-09 -2.1255532e-08 0.0 -3.165788e-08 1.3344584e-08 1.2737357e-09
-1.2115527e-12 -3.9077306e-09 -1.6716167e-09 3.4523673e-10 -2.3122855e-08 -2.3037143e-09 1.6927193e-09 4.0026045e-09
-8.359131e-09 1.7612672e-08 -3.016521e-38 -2.6075986e-08 -1.1400934e-08 3.0459733e-09 5.6936256e-09 -9.20361e-09
2.1980826e-08 -1.8877339e-23 -2.8712885e-08 -7.511666e-10 1.1615699e-08 1.7022823e-10 -1.5777191e-08 3.812776e-09
-1.33453035e-08 -2.5917883e-08 -3.7377506e-09 1.0833042e-08 3.3794467e-11 -8.93714e-09 4.496664e-09 -1.2312546e-08
-2.2475056e-08 6.524901e-18 1.8199758e-08 1.0685195e-27 -2.0982032e-08 -0.0 -2.255409e-08 -4.2167834e-09
-0.0 2.2969289e-09 2.1188977e-27 -1.9895927e-09 5.322272e-24 -3.893874e-09 -0.0001692506 -5.179846e-05
-0.00011781298 -0.0003375112 1.8372739e-05 -0.000719082 7.338643e-05 -0.00018859576 -0.00046623682 0.00023244358
0.0009403988 -3.1088715e-05 0.0013089194 6.712807e-05 -0.00019075151 -0.0015212977 0.00034870816 0.0005893516
-0.00026152073 0.0008841231 -0.0005385247 -0.00017885692 0.0012124465 0.0004702752 -0.0006102695 -0.00014384837
-0.0014396159 -0.00031975846 0.00041255052 -0.00091184996 -0.00026498808 0.00088642386 0.0006461297 0.0017863846
0.0011771752 0.00058329105 -0.00014360882 -0.0006216157 -6.899468e-05 0.00046371546 -0.00068222993 5.7483494e-06
0.0005089328 0.0012151679 0.0002505991 -0.00041495767 -0.00025041835 -0.001545173 -0.0011348801 0.0011314052
0.0004211939 -0.00044177714 -0.00015729576 0.00068306795 -0.0004415277 0.0007425042 0.00046793863 0.00021911637
-4.9039965e-05 -8.818845e-05 0.0003500269 -0.0002325756 0.00028470816 0.00050433964 5.112581e-05 -0.00049061456
-0.00010497945 0.0005046949 -0.000241473 0.00076040043 -0.00027974407 -3.4613e-05 -0.00028366313 -0.00023166258
8.0142745e-05 -0.00047500335 0.00021720851 -0.00031212377 -0.0004879426 0.00038246255 0.0007288557 -3.5050878e-05
0.0014184768 0.000118198506 -0.00031640258 -0.0020155825 0.00042453498 0.0009669323 -0.0002372285 0.002313679
-0.00035159316 -0.00028361162 -0.0010460629 0.00051869627 0.00013516172 4.1537216e-05 0.0013557894 0.00025254954
7.6843906e-05 -0.0010979804 4.1808767e-06 0.00056663156 0.00034755305 0.0013385246 0.0010657653 0.000115018076
-8.394395e-05 0.00014885326 -0.000114694914 6.5162308e-06 -0.0005620796 -0.0003094777 0.00027011853 0.0016892724
0.00066909427 -0.0008277067 -0.0008676474 -0.0024870303 -0.002413746 0.0007603992 0.0008917636 0.00015364155
-0.00023665882 0.0003486377 -0.0008659241 6.671328e-05 0.0005375843 0.0003239745 0.00017289049 -0.00010230135
0.00047783466 -0.0003210369 0.00035859423 0.0006043215 -8.003988e-05 -0.0008250416 -0.0001491081 0.00081502466
-0.00035674789 0.0015199349 -1.3077349e-07 -2.981441e-33 -1.138749e-10 -4.5555487e-18 2.7287898e-08 -3.2145786e-11
1.2838575e-07 -1.3077587e-07 -6.561836e-08 1.6738337e-13 5.164178e-09 -1.2045124e-08 5.8351617e-08 5.6480694e-08
-1.3077543e-07 -1.0508364e-08 1.590839e-11 5.712583e-09 -1.855628e-08 1.4368523e-08 2.260205e-09 -1.3077337e-07
1.7730892e-08 6.886105e-11 7.0098474e-09 -2.6482706e-08 7.497391e-08 2.1074587e-09 -1.3077535e-07 -4.8697877e-09
1.6604568e-10 -1.8016612e-10 -5.953155e-08 -5.437132e-08 -2.1829996e-08 -1.1957763e-07 1.1697315e-08 9.912656e-11
1.574968e-09 -3.2870282e-08 -1.7190112e-09 -7.798016e-09 -1.1839681e-07 5.184429e-09 5.2557203e-09 5.818382e-10
00000000: 9e89 b4b2 53b8 b70c ee7f c9b0 a517 ab92
00000010: a521 cb31 2610 9ca9 5361 0133 85cb acb2
00000020: 994c 8c31 980f 3a30 d303 43b0 dbd3 49b1
00000030: 4258 70b2 4ff4 c430 5a4c e7b2 d1cd 2a32
00000040: 8169 8f30 b542 92b1 4135 dbb1 6995 b6b2
00000050: 0000 0000 35f8 07b3 1a42 6532 970f af30
00000060: c982 aaab c344 86b1 c9be e5b0 c0cb bd2f
00000070: b29f c6b2 5f4f 1eb1 44a5 e830 4887 8931
00000080: d99b 0fb2 ad4a 9732 2b3c 2481 b3fd dfb2
00000090: d7dd 43b2 5451 5131 a9a1 c331 e81d 1eb2
000000a0: 59d0 bc32 0792 b699 4da4 f6b2 a67a 4eb0
000000b0: 628e 4732 fd2a 3b2f 6986 87b2 8801 8331
000000c0: 4445 65b2 07a2 deb2 9a6d 80b1 391c 3a32
000000d0: 30a1 142e f589 19b2 1381 9a31 2687 53b2
000000e0: 2c0f c1b2 f3b9 f022 b155 9c32 4d50 a912
000000f0: fa3b b4b2 0000 0080 f8bc c1b2 38e3 90b1
00000100: 0000 0080 00d8 1d31 5ae0 2713 49b9 08b1
00000110: 3be5 cd18 e1ca 85b1 dd78 31b9 2c42 59b8
00000120: 5d12 f7b8 fdf3 b0b9 281f 9a37 c780 3cba
00000130: 0ae7 9938 cac1 45b9 3f71 f4b9 19bc 7339
00000140: 1885 763a 4165 02b8 0c90 ab3a 1cc7 8c38
00000150: 7804 48b9 4866 c7ba d1d2 b639 b77e 1a3a
00000160: b81c 89b9 7fc4 673a c82b 0dba 8a8b 3bb9
00000170: f4ea 9e3a 458f f639 7efa 1fba 01d6 16b9
00000180: 7eb1 bcba 41a5 a7b9 984b d839 3709 6fba
00000190: 19ee 8ab9 e65e 683a 0861 293a 1f25 ea3a
000001a0: 724b 9a3a 00e8 183a b395 16b9 ecf3 22ba
000001b0: 3db1 90b8 d61e f339 add7 32ba f2e1 c036
000001c0: e769 053a 4546 9f3a d862 8339 ad8e d9b9
000001d0: 954a 83b9 6787 caba 42c0 94ba a94b 943a
000001e0: b0d3 dc39 539e e7b9 c2ef 24b9 ea0f 333a
000001f0: d87c e7b9 9da4 423a a955 f539 9ac2 6539
00000200: 43b0 4db8 d0f1 b8b8 d183 b739 8adf 73b9
00000210: e244 9539 a935 043a ec6f 5638 969c 00ba
00000220: 6a28 dcb8 804d 043a ea33 7db9 9c55 473a
00000230: 9daa 92b9 6d2d 11b8 9fb8 94b9 73ea 72b9
00000240: 4f12 a838 df09 f9b9 77c2 6339 8ba4 a3b9
00000250: 8cd2 ffb9 4185 c839 ae10 3f3a 9803 13b8
00000260: 2fec b93a 57e1 f738 d6e2 a5b9 dd17 04bb
00000270: 1f94 de39 ba79 7d3a 8ac0 78b9 18a1 173b
00000280: 0956 b8b9 b5b1 94b9 0c1c 89ba 1ef9 073a
00000290: 33ba 0d39 3f38 2e38 beb4 b13a a068 8439
000002a0: 4227 a138 1cea 8fba 7549 8c36 008a 143a
000002b0: c837 b639 6f71 af3a 26b1 8b3a dc35 f138
000002c0: 110b b0b8 7e15 1c39 5d88 f0b8 ffa5 da36
000002d0: 8658 13ba 6541 a2b9 b29e 8d39 936a dd3a
000002e0: 2866 2f3a 75fa 58ba d572 63ba 72fd 22bb
000002f0: f02f 1ebb 8755 473a 3ec5 693a d71a 2139
00000300: 9e27 78b9 5cc9 b639 2fff 62ba 6be8 8b38
00000310: acec 0c3a 1fdb a939 f049 3539 9e8a d6b8
00000320: e285 fa39 d850 a8b9 b401 bc39 546b 1e3a
00000330: 15db a7b8 9b47 58ba e759 1cb9 61a7 553a
00000340: e409 bbb9 8d38 c73a be6a 0cb4 3db0 7789
00000350: df69 faae f111 a8a2 b966 ea32 f060 0dae
00000360: 68da 0934 666b 0cb4 13ea 8cb3 f974 3c2a
00000370: 9770 b131 04ef 4eb2 489e 7a33 2e95 7233
00000380: 476b 0cb4 4688 34b2 82ee 8b2d 6948 c431
00000390: b165 9fb2 6fd9 7632 f251 1b31 b66a 0cb4
000003a0: a54e 9832 536d 972e 45db f031 167c e3b2
000003b0: 5801 a133 ced2 1031 416b 0cb4 1b53 a7b1
000003c0: b491 362f 4118 46af a2af 7fb3 e685 69b3
000003d0: ab84 bbb2 4065 00b4 56f5 4832 4bfb d92e
000003e0: 4376 d830 422d 0db3 5442 ecb0 09f8 05b2
000003f0: 5641 feb3 b822 b231 ce95 b431 39ef 1f30

exp_avg_sq f4 [128, 70]
1.689695e-10 8.772246e-14 1.02740585e-11 1.0914774e-13 3.0114293e-11 7.6680155e-13 1.6700508e-10 1.6896995e-10
1.6693886e-11 8.2449126e-12 6.3072386e-12 1.8071985e-11 6.5871274e-11 9.160032e-12 1.6896622e-10 1.0666374e-10
8.675137e-12 2.6426127e-11 3.0114335e-11 1.6897155e-10 3.5345014e-15 1.6896308e-10 7.252657e-11 9.394063e-12
1.2323586e-12 2.059021e-11 1.5407443e-11 5.410295e-12 1.6896808e-10 1.5483176e-11 1.1951083e-11 3.0266498e-11
2.9074776e-11 1.6877104e-10 5.8106955e-14 1.6897239e-10 9.5870624e-11 1.2461979e-11 2.8898047e-11 3.2175488e-11
1.5928567e-10 1.4880654e-13 1.6897057e-10 9.76143e-12 5.1011476e-11 4.2458988e-12 9.3383856e-11 1.8627596e-11
7.5398236e-11 1.6896895e-10 1.4651726e-11 8.687081e-11 2.7453938e-12 7.062515e-11 1.862672e-11 7.539512e-11
1.6896856e-10 3.0933494e-13 1.10769054e-10 1.0913426e-13 1.01248704e-10 6.3269086e-21 1.6896844e-10 2.2033297e-11
6.7509254e-15 1.23272365e-11 1.10969603e-13 1.1563804e-11 1.4286219e-13 1.8627488e-11 5.9903774e-05 4.5186727e-08
8.2484485e-06 5.843746e-07 1.4722875e-05 2.3139053e-06 5.7929443e-05 5.9894675e-05 1.8582592e-05 6.162239e-06
7.4350337e-06 1.4083466e-05 5.0628536e-05 1.987212e-05 5.9831244e-05 2.9807901e-05 7.763897e-06 9.358983e-06
1.5954776e-05 6.303704e-05 5.215308e-06 5.9903654e-05 2.8729333e-05 9.814046e-06 9.786e-06 1.7320928e-05
6.046865e-05 7.5608687e-06 5.9939477e-05 2.4021023e-05 1.3475537e-05 8.688752e-06 2.1298374e-05 5.103461e-05
1.5562096e-05 5.741715e-05 1.8233028e-05 2.3162856e-05 5.1730026e-06 2.8848552e-05 3.1164323e-05 3.2027896e-05
4.9206912e-05 8.698587e-06 3.13518e-05 2.3884431e-06 3.0594394e-05 1.388149e-05 3.9887615e-05 2.9405477e-05
3.7078805e-06 2.2310789e-05 9.521705e-07 1.9313344e-05 5.498106e-06 2.6364001e-05 1.2443291e-05 1.2200418e-06
9.024668e-06 3.6072072e-07 7.979318e-06 2.0546101e-06 1.1743642e-05 7.401107e-06 5.392175e-07 4.8140187e-06
2.0346722e-07 4.5203246e-06 1.1302091e-06 6.246004e-06 4.439852e-05 3.6002035e-08 5.2027017e-06 3.3763575e-07
1.1063444e-05 1.3474285e-06 4.3226788e-05 4.442514e-05 1.4303596e-05 3.7179582e-06 5.5399614e-06 1.2904433e-05
3.981839e-05 1.7325052e-05 4.443408e-05 2.3427901e-05 4.85689e-06 6.9790453e-06 1.2134993e-05 4.917443e-05
5.715689e-06 4.4396864e-05 2.3054568e-05 5.958588e-06 7.264617e-06 1.2662401e-05 4.753247e-05 5.8471664e-06
4.507948e-05 1.9517978e-05 8.151336e-06 6.844157e-06 1.48896925e-05 4.2375486e-05 1.0343723e-05 4.352627e-05
1.7630657e-05 1.2443836e-05 5.089254e-06 1.864463e-05 3.2092525e-05 1.9544612e-05 4.066221e-05 1.1279214e-05
1.875345e-05 2.895566e-06 2.1936288e-05 1.8583443e-05 2.8443277e-05 3.2431468e-05 6.5153517e-06 1.9354511e-05
1.5577099e-06 1.8873825e-05 1.0289089e-05 2.5689395e-05 2.2475986e-05 3.02707e-06 1.4390484e-05 8.4937733e-07
1.3625102e-05 5.3370986e-06 2.0537029e-05 1.7089982e-05 1.4559272e-06 1.115145e-05 4.4132867e-07 1.02596005e-05
2.6779023e-06 1.4544946e-05 4.5840446e-11 4.2385647e-14 1.3291112e-12 1.6818049e-13 1.0614332e-11 8.6527904e-13
4.4966798e-11 4.5840446e-11 4.5855906e-11 4.7583514e-13 5.2145436e-12 8.0016445e-12 5.4133305e-11 2.278905e-11
4.5840446e-11 1.8284757e-11 8.482111e-13 5.478231e-12 9.7191985e-12 3.2791336e-11 1.22272305e-11 4.5840446e-11
8.122959e-12 1.182536e-12 7.734863e-12 1.2239095e-11 4.290872e-11 5.4960424e-12 4.5840446e-11 1.14434365e-11
1.4014212e-12 2.7865828e-12 2.1968623e-11 2.8535176e-11 3.1925563e-11 4.5962567e-11 1.5031294e-11 1.2991257e-12
5.7826187e-12 1.2108047e-11 4.3912436e-11 6.5412823e-12 4.634591e-11 1.4602318e-11 7.657314e-12 3.0645816e-12
00000000: b0c8 392f 8e88 c529 3fbe 342d 63c7 f529
00000010: ae71 042e e0d5 572b c09f 372f d0c8 392f
00000020: 4ad7 922d c90b 112d 8eea dd2c 7ef6 9e2d
00000030: 3bda 902e 1e25 212d c3c7 392f 598e ea2e
00000040: 589d 182d 5972 e82d ba71 042e 43c9 392f
00000050: 0bb0 7e27 e1c6 392f d47c 9f2e 1943 252d
00000060: 6670 ad2b 081d b52d 7a86 872d 9b5b be2c
00000070: 49c8 392f 0331 882d e53e 522d 0c1d 052e
00000080: 93be ff2d d390 392f 61d8 8229 80c9 392f
00000090: 5dd2 d22e c43b 5b2d 9e30 fe2d 6182 0d2e
000000a0: ee22 2f2f 918a 272a fdc8 392f 93b9 2b2d
000000b0: d159 602e a863 952c 705a cd2e 9ed9 a32d
000000c0: 6fcd a52e 88c8 392f c1e0 802d eb07 bf2e
000000d0: 9e30 412c 6d4e 9b2e a5d7 a32d aecb a52e
000000e0: 6cc8 392f dd23 ae2a 6f95 f32e 9ebf f529
000000f0: f4a5 de2e 1b06 ef1d 63c8 392f 93ce c12d
00000100: 4c3a f327 f0dc 582d 9fe1 f929 be6e 4b2d
00000110: 39d9 202a 60d9 a32d 3041 7b38 5513 4233
00000120: d162 0a37 ebdd 1c35 4402 7737 9748 1b36
00000130: 44f9 7238 6b37 7b38 d0e1 9b37 3bc5 ce36
00000140: 747a f936 0748 6c37 fa59 5438 0eb3 a637
00000150: 4ff3 7a38 fb0b fa37 af41 0237 8704 1d37
00000160: 9fd6 8537 c132 8438 28ff ae36 0f41 7b38
00000170: c6ff f037 02a7 2437 8d2e 2437 694c 9137
00000180: b89f 7d38 5eb3 fd36 8667 7b38 c180 c937
00000190: fe14 6237 e8c5 1137 e9a9 b237 ff0d 5638
000001a0: 598b 8237 32d3 7038 21f3 9837 db4d c237
000001b0: c193 ad36 cbff f137 70b6 0238 b155 0638
000001c0: 8563 4e38 26f0 1137 bd7f 0338 2449 2036
000001d0: 7b52 0038 8ce4 6837 004d 2738 c8ab f637
000001e0: e7d4 7836 0e28 bb37 a998 7f35 1703 a237
000001f0: 5f7c b836 4328 dd37 87c3 5037 51c0 a335
00000200: a768 1737 14a9 c134 e9de 0537 efe1 0936
00000210: 8f06 4537 0657 f836 bfbe 1035 1b88 a136
00000220: a578 5a34 4bad 9736 b0b1 9735 c494 d136
00000230: 8c38 3a38 a8a0 1a33 de92 ae36 4e44 b534
00000240: 219d 3937 4ad9 b435 694e 3538 2155 3a38
00000250: 7af9 6f37 0982 7936 e8e3 b936 1e80 5837
00000260: ac02 2738 4455 9137 bb5e 3a38 0987 c437
00000270: 5ef8 a236 8b2d ea36 6697 4b37 a440 4e38
00000280: 65c9 bf36 c536 3a38 4f65 c137 e2ef c736
00000290: 96c2 f336 9970 5437 9a5d 4738 c732 c436
000002a0: b913 3d38 8aba a337 b9c1 0837 dca6 e536
000002b0: bece 7937 55bc 3138 f489 2d37 fa8f 3638
000002c0: 8ce5 9337 dec5 5037 5cc4 aa36 0a67 9c37
000002d0: 169b 0638 bcf3 a337 b78c 2a38 db3b 3d37
000002e0: ba50 9d37 7251 4236 d203 b837 a4e3 9b37
000002f0: 7999 ee37 0607 0838 729e da36 7f5b a237
00000300: 8112 d135 3b53 9e37 4d9f 2c37 8e7f d737
00000310: d08a bc37 ab24 4b36 a86e 7137 c400 6435
00000320: 5e97 6437 5415 b336 ef46 ac37 755c 8f37
00000330: 4769 c335 1d17 3b37 c0ef ec34 a620 2c37
00000340: 03b6 3336 1106 7437 c19b 492e 53e3 3e29
00000350: 470e bb2b ba5a 3d2a b4ba 3a2d ed8d 732b
00000360: 1dc4 452e c19b 492e 29ad 492e 89ef 052b
00000370: 6f78 b72c 34c4 0c2d af14 6e2e 6174 c82d
00000380: c19b 492e 9dd5 a02d 0dc0 6e2b 85bf c02c
00000390: 61fb 2a2d c337 102e 8d1a 572d c19b 492e
000003a0: 8ee6 0e2d 596d a62b ba12 082d fc4f 572d
000003b0: edb6 3c2e f35f c12c c19b 492e a850 492d
000003c0: 853b c52b 9d16 442c f13c c12d 81ff fa2d
000003d0: fd68 0c2e 4025 4a2e 7737 842d f0d5 b62b
000003e0: 3375 cb2c cc01 552d 0221 412e a226 e62c
000003f0: dbd4 4b2e 7f71 802d 7ab5 062d 98a6 572c

exp_avg f4 [128]
-2.7169081e-08 -0.00016924199 -0.00027976083 -1.3077543e-07 -1.1894706e-07 -0.00013608215 -3.7284778e-14 -6.952844e-09
-2.5492445e-20 -1.10788594e-10 0.00057698693 -1.8795681e-08 -2.3182798e-07 -0.0013442339 -8.2892515e-10 -4.1051183e-07
-6.4183233e-26 -2.5696835e-07 0.00024707164 -0.0005123443 -1.8416509e-07 0.00034205688 -9.533043e-08 -6.3724066e-08
-0.00044901294 0.00077067525 -2.2579435e-26 -0.00027861446 -0.0011815424 0.0014325852 -2.219249e-12 0.0010690104
-2.9262551e-07 -0.0006998018 -1.5807907e-22 -1.9610648e-05 -6.438531e-16 -0.0029561806 -0.00030208964 -9.019089e-05
-0.00050550606 0.00022022684 -1.6830128e-07 -0.0014635719 -2.2738736e-07 -7.2097457e-09 0.00022222467 8.706464e-05
-3.0198907e-14 -2.8389229e-08 -1.1914721e-05 5.651996e-05 0.00037350896 -0.00015392159 -0.0002641852 -7.244287e-05
-1.4715625e-08 -1.17835626e-07 -1.9634133e-07 -4.3322354e-05 -0.00030601452 -0.0004388661 -1.4711555e-16 0.00011022357
0.00014655018 -9.622446e-10 0.00039649542 -2.4876007e-07 0.00052331097 -2.3340328e-11 0.0008145494 0.000281393
-1.5967213e-07 -0.00048926345 -3.159205e-08 -7.866579e-06 -4.0780954e-08 -7.89755e-05 -7.4333446e-09 0.00017985927
-0.00078512006 -1.534635e-07 -1.1652693e-07 -0.0002619453 0.00042800757 -6.5105674e-08 2.0134476e-07 -0.0003111496
-3.6810738e-07 -9.3022423e-10 -1.305271e-10 -1.1126847e-10 -2.2830339e-07 -2.4280332e-08 0.00017078302 -7.481764e-08
-0.0016991624 -9.627971e-08 0.0003107642 -0.00032477357 3.4061763e-05 -2.671359e-11 0.0007726889 -0.0013211486
0.0006402051 -4.109554e-13 0.001483932 0.0009669602 9.2952876e-05 -7.0491994e-11 -3.9750656e-08 -0.0014333621
0.0002524003 -0.00040863222 0.0017697162 7.2731e-05 0.00078354037 -3.1988872e-08 -8.86204e-13 -5.533659e-11
-9.873561e-05 -8.98924e-20 -1.3191749e-07 -0.00031444978 0.0005995904 -1.5704436e-18 -9.740701e-05 -0.00010787148
00000000: 7161 e9b2 8d76 31b9 ddac 92b9 476b 0cb4
00000010: d66f ffb3 46b1 0eb9 6cea 27a9 dde5 eeb1
00000020: f3c4 f09e 6fa0 f3ae f040 173a 2474 a1b2
00000030: 64ec 78b4 0131 b0ba 6cda 63b0 5164 dcb4
00000040: f5e8 9e95 76f5 89b4 6589 8139 d84e 06ba
00000050: eabe 45b4 1956 b339 75b8 ccb3 add8 88b3
00000060: 7f69 ebb9 2407 4a3a ab9d df94 0013 92b9
00000070: fcdd 9aba 95c5 bb3a 702a 1cac 091e 8c3a
00000080: 251a 9db4 e772 37ba 1a1b 3f9b 8c81 a4b7
00000090: f993 39a6 7bbc 41bb c961 9eb9 de24 bdb8
000000a0: f083 04ba b1ec 6639 4eb6 34b4 53d5 bfba
000000b0: c327 74b4 98b9 f7b1 fb04 6939 7996 b638
000000c0: f800 08a9 93dc f3b2 56e5 47b7 d80f 6d38
000000d0: 86d3 c339 0366 21b9 5682 8ab9 78ec 97b8
000000e0: 01d0 7cb2 d20c fdb3 e5d1 52b4 06b5 35b8
000000f0: 9370 a0b9 9c17 e6b9 d99c 29a5 d427 e738
00000100: 44ab 1939 f93f 84b0 b7e0 cf39 538d 85b4
00000110: ce2e 093a bf4d cdad 7c87 553a ee87 9339
00000120: 5772 2bb4 ea41 00ba d4af 07b3 b3fa 03b7
00000130: 2227 2fb3 a69f a5b8 6468 ffb1 9b98 3c39
00000140: 84d0 4dba bac7 24b4 5b3d fab3 b455 89b9
00000150: 3466 e039 39d0 8bb3 3a31 5834 cb21 a3b9
00000160: 4ba0 c5b4 b6b2 7fb0 1d84 0faf 94ae f4ae
00000170: 8f23 75b4 0491 d0b2 3814 3339 6fab a0b3
00000180: 6eb6 deba 55c2 ceb3 11ee a239 5f46 aab9
00000190: 8add 0e38 a8f9 eaad 468e 4a3a 642a adba
000001a0: 70d3 273a ea58 e7aa 7f80 c23a 9a7b 7d3a
000001b0: b2ef c238 7703 9bae 4fba 2ab3 a7df bbba
000001c0: 9854 8439 b03d d6b9 d2f5 e73a 2987 9838
000001d0: 8166 4d3a 2364 09b3 ba71 79ab 765f 73ae
000001e0: 4710 cfb8 9f40 d49f 34a5 0db4 bcdc a4b9
000001f0: d52d 1d3a afc1 e7a1 fe46 ccb8 0f39 e2b8

exp_avg_sq f4 [128]
1.6896612e-10 5.9903807e-05 4.439852e-05 4.5840446e-11 1.3615683e-08 4.2187177e-05 7.288696e-13 1.3882138e-11
2.1597712e-13 2.4738918e-12 0.000121843994 8.22653e-11 1.67545e-09 0.00012946576 6.3817853e-12 1.9842396e-08
1.2222477e-13 3.1592624e-09 0.00013427057 0.000113019356 1.3108126e-09 0.00010784063 6.9348485e-11 9.207559e-12
6.8101064e-05 0.00011123689 1.1835307e-13 8.514517e-07 0.00011120159 0.00012861827 1.3721872e-12 3.4866494e-05
8.8795177e-10 2.2952054e-05 1.6592355e-13 9.820527e-07 1.1893881e-13 4.9887654e-05 4.503797e-06 3.3324533e-05
2.366343e-06 3.2020776e-05 1.888169e-10 4.973422e-05 9.1976443e-10 2.70733e-11 0.00012714989 0.00013222775
8.911268e-14 1.5727489e-11 4.3667507e-05 4.4278408e-05 0.00012468475 0.00011699096 2.410202e-05 2.9128341e-05
5.0369684e-11 5.2985e-10 1.05943556e-07 3.8031158e-05 2.3890632e-06 4.107195e-05 3.8801812e-13 5.0041912e-05
3.3425058e-05 7.955495e-12 4.728945e-05 1.18466446e-08 4.829193e-05 2.3088916e-12 0.00012538716 4.480057e-05
1.6920241e-09 4.9610015e-05 1.9200477e-10 3.187149e-05 4.2857974e-11 0.00012727683 9.2868245e-14 0.00014991399
0.00012176415 8.1930344e-11 5.341952e-11 7.8126243e-07 4.776197e-05 3.2557006e-09 5.1399867e-11 1.0442058e-05
2.2849884e-08 8.060719e-12 1.1176884e-12 1.2456225e-12 4.11103e-09 1.3249252e-10 3.635821e-05 2.2684504e-10
7.714209e-05 4.6458365e-11 0.0001293255 4.2822874e-05 3.4503802e-05 2.285508e-12 0.000108873486 0.00011192556
0.000122027435 1.3167657e-13 0.00011720737 0.00015472203 5.15077e-05 1.3836389e-12 6.183251e-11 0.00012249837
2.5255042e-05 2.4619674e-05 0.00012570694 0.00014896315 0.00012689977 1.0519744e-10 4.613554e-13 1.0913399e-12
4.614019e-05 2.3180156e-13 2.6976464e-08 5.5477423e-05 0.000121755205 2.7977352e-13 1.1306871e-06 3.0586903e-05
00000000: bcc7 392f 3941 7b38 8c38 3a38 c19b 492e
00000010: 68ea 6932 23f2 3038 9728 4d2b 9737 742d
00000020: 2b2b 732a ac15 2e2c 7f86 ff38 3fe7 b42e
00000030: a845 e630 33c1 0739 038a e02c e471 aa32
00000040: e49c 092a 551a 5931 fbca 0c39 ce04 ed38
00000050: 1e28 b430 7f28 e238 ba7f 982e 29fb 212d
00000060: 7bd1 8e38 da47 e938 f340 052a 518f 6435
00000070: e634 e938 b4dd 0639 411e c12b 9d3d 1238
00000080: 0d14 7430 2989 c037 35d0 3a2a 13cf 8335
00000090: c7e9 052a 763e 5138 521f 9736 f2c5 0b38
000000a0: 77cd 1e36 0c4e 0638 3c9b 4f2f b699 5038
000000b0: abd2 7c30 a723 ee2d 8a53 0539 9ea6 0a39
000000c0: f6a9 c829 2857 8a2d a127 3738 94b7 3938
000000d0: cfbd 0239 0b59 f538 b22e ca37 a358 f437
000000e0: 3987 5d2e e1a4 1130 1683 e333 a583 1f38
000000f0: cb53 2036 ac44 2c38 4e6f da2a 18e4 5138
00000100: e231 0c38 5df4 0b2d a958 4638 1886 4b32
00000110: 118d 4a38 4b79 222c 5c7a 0339 3fe8 3b38
00000120: ce8c e830 5914 5038 8a1c 532f c0ad 0538
00000130: ca7d 3c2e 9d75 0539 e61e d129 3b32 1d39
00000140: a15b ff38 af2a b42e 08f1 6a2e f2b7 5135
00000150: 0654 4838 e4ba 5f31 1b0f 622e 4c30 2f37
00000160: 6d47 c432 40ce 0d2d f84c 9d2b 484e af2b
00000170: 0141 8d31 54ad 112f 557f 1838 346b 792f
00000180: 58c7 a138 7853 4c2e 8d9b 0739 b69c 3338
00000190: 2db8 1038 0dd4 202c 0253 e438 94b9 ea38
000001a0: fbe8 ff38 3041 142a 3acd f538 e13c 2239
000001b0: f909 5838 d8ba c22b 9cf8 872e e872 0039
000001c0: cada d337 5986 ce37 33d0 0339 fe32 1c39
000001d0: 6610 0539 e554 e72e 29dc 012b aa97 992b
000001e0: a786 4138 207e 822a dfb9 e732 6eb0 6838
000001f0: d456 ff38 9d7f 9d2a 1dc2 9735 704a 0038
