models_o2/reinforce_best.pth (torch, 115757 bytes, 18 tensors)

0.weight f4 [64, 70]
0.041301895 0.0034269092 -0.12632433 -0.0013910701 -0.025195321 -0.003710318 -0.029547825 0.041762576
-0.047688585 0.07665423 0.056016847 0.08176993 0.059527703 0.11401335 0.04562317 -0.023462992
0.06100771 0.0022449524 0.020549346 0.0034822063 0.0060128416 0.063556805 0.009076512 0.022906333
0.008034432 0.03826336 0.004213935 0.031084867 0.073748276 0.008444043 0.00088866294 -0.025456602
0.041242998 -0.02824412 0.0018996141 0.08327967 0.045659564 -0.03417315 -0.04077387 0.043989085
-0.052176945 0.0138824675 0.11040952 0.045474622 -0.06568555 -0.056359727 0.07261869 -0.06286174
0.028721584 0.0927309 -0.0012214713 -0.054860476 -0.0056888526 0.08446652 -0.00097150466 0.0669128
0.08248167 -0.03895496 -0.08075321 0.006059969 0.078365326 0.018703347 0.07669502 0.054524466
-0.024844885 -0.09155163 0.017627371 0.05826303 0.021784082 0.07381605 0.027931048 -0.0047905883
-0.1415999 0.0051218285 -0.010137164 -0.00024599108 -0.015189531 0.027299106 -0.05364058 0.095472425
0.056830265 0.084233284 0.05956617 0.12742797 0.031016631 -0.02353352 0.082870506 -0.00079920306
0.00026805696 0.0019403393 0.0008881578 0.053474713 0.013561072 0.043608222 0.0030433175 0.01684921
0.0016213913 0.016039858 0.062125266 -0.0037454686 0.012860345 -0.010492819 0.029532265 -0.012792481
-0.00068050367 0.07763424 0.036659826 -0.024144096 -0.032699257 0.034638885 -0.04750553 -0.0010062425
0.109761946 0.04582598 -0.05812024 -0.06196008 0.07056425 -0.06716336 0.025904017 0.09039832
0.010124606 -0.047418293 -0.016762683 0.07829453 -0.013903738 0.05336022 0.07548397 -0.031840995
-0.074534796 -0.00042392235 0.07111121 0.010626099 0.070530854 0.0475508 -0.024605934 -0.08750129
0.016675845 0.05042526 0.023354294 0.07193127 -0.0009411916 3.3593533e-16 -2.9395771e-06 5.121714e-17
0.00024992894 2.3895121e-14 0.000799303 -0.0008942176 3.4747503e-13 1.15723315e-08 6.319331e-16 -0.0008124592
-4.7813343e-14 -0.0011488504 -0.0006540349 0.0015593318 1.0285839e-06 -0.00032741748 -0.00022879636 -0.0012182994
2.057847e-06 -0.00080785406 -0.00018040145 2.7701674e-06 4.3507698e-05 -0.00031293035 0.0014601261 -1.8717385e-17
-0.0008857267 -0.0017966649 1.701082e-07 7.884358e-05 -0.00023292832 0.0017236065 1.9003827e-06 -0.00068931654
1.0370616e-16 1.4397878e-05 -1.7105031e-17 -0.0012792847 -2.3966083e-24 -0.00095022086 -0.0010364946 -1.4166766e-16
0.00057844317 -2.6248836e-16 -0.0010725284 1.3304932e-22 -0.0007792232 -0.0011539127 -1.1903795e-16 0.0016670186
2.1896998e-15 -0.0010689058 3.8204604e-22 -0.0016263002 4.618255e-15 -1.1470431e-17 3.480243e-17 1.6907454e-16
-3.116739e-15 1.2498567e-17 4.4644515e-15 4.795361e-15 3.368615e-16 4.8032706e-15 -1.4230533e-16 3.5459815e-15
5.466388e-20 3.1210149e-15 0.040566236 -0.0005551614 -0.13619539 -0.004260092 -0.026302662 -0.0063143712
-0.028126048 0.040779006 -0.058524456 0.080182455 0.07161414 0.09335514 0.07278049 0.13588327
0.045028258 -0.022356445 0.06974844 0.0034689952 0.017427433 3.744796e-05 -0.0037977742 0.06353081
0.0025391816 0.022749115 0.02006487 0.040452514 0.018067576 0.020951055 0.07377578 0.009429304
-0.00023954273 -0.02432801 0.04305888 -0.025838135 0.0009113882 0.08553911 0.051893454 -0.028133059
-0.04522208 0.042858228 -0.06304581 0.004549038 0.11339195 0.061117347 -0.05600447 -0.06676114
00000000: 2d2c 293d ff95 603b 2a5b 01be 9154 b6ba
00000010: 6b66 cebc ce28 73bb 480e f2bc 3c0f 2b3d
00000020: 1b55 43bd e5fc 9c3d ec71 653d fe76 a73d
00000030: 52d3 733d d57f e93d 5cdf 3a3d 7635 c0bc
00000040: 38e3 793d 0d20 133b 1a57 a83c ba35 643b
00000050: 5f07 c53b 122a 823d a7b5 143c 10a6 bb3c
00000060: daa2 033c 0aba 1c3d 0d15 8a3b b1a5 fe3c
00000070: 5609 973d e258 0a3c 29f5 683a 5d8a d0bc
00000080: 6bee 283d 3660 e7bc 79fc f83a 888e aa3d
00000090: 8605 3b3d 25f9 0bbd 8002 27bd e62d 343d
000000a0: 7eb7 55bd 4a73 633c 631e e23d 9943 3a3d
000000b0: 2586 86bd 75d9 66bd 1cb9 943d a8bd 80bd
000000c0: 8749 eb3c b3e9 bd3d c719 a0ba 61b5 60bd
000000d0: 8e69 babb c8fc ac3d 93ac 7eba 9409 893d
000000e0: 26ec a83d 3c8f 1fbd f061 a5bd b492 c63b
000000f0: 007e a03d c337 993c 4712 9d3d 0c55 5f3d
00000100: 8087 cbbc 6c7f bbbd 4767 903c 37a5 6e3d
00000110: 8874 b23c df2c 973d a7cf e43c 5efa 9cbb
00000120: 90ff 10be 03d5 a73b 5916 26bc 5df8 80b9
00000130: 83dd 78bc 60a2 df3c 3ab6 5bbd 0c87 c33d
00000140: dac6 683d 8082 ac3d a8fb 733d 7a7c 023e
00000150: 9716 fe3c 5ec9 c0bc 03b8 a93d 9c81 51ba
00000160: ff89 8c39 fc52 fe3a 43d3 683a 4d08 5b3d
00000170: 422f 5e3c 899e 323d 6572 473b 5b07 8a3c
00000180: dd84 d43a 0566 833c 1077 7e3d 8976 75bb
00000190: 32b4 523c 13ea 2bbc a6ed f13c 8e97 51bc
000001a0: d463 32ba b3fe 9e3d 9d28 163d d7c9 c5bc
000001b0: a8ef 05bd 81e1 0d3d 2995 42bd e5e3 83ba
000001c0: dfca e03d 06b4 3b3d 7d0f 6ebd dac9 7dbd
000001d0: fd83 903d f28c 89bd a934 d43c c122 b93d
000001e0: ade1 253c af39 42bd e551 89bc e258 a03d
000001f0: 81cc 63bc 3f90 5a3d 5797 9a3d b46b 02bd
00000200: b3a5 98bd e541 deb9 c1a2 913d 1719 2e3c
00000210: 7b72 903d a1c4 423d 6292 c9bc e033 b3bd
00000220: c89b 883c b88a 4e3d 8151 bf3c b450 933d
00000230: 4dba 76ba 4ea7 c125 8d45 45b6 8732 6c24
00000240: e508 8339 663a d728 5188 513a ed69 6aba
00000250: 6e9c c32a a7cf 4632 6f24 3626 37fb 54ba
00000260: 0855 57a9 0695 96ba 8a73 2bba 7e62 cc3a
00000270: e00d 8a35 3ba9 abb9 0ee9 6fb9 58af 9fba
00000280: 8b19 0a36 2bc6 53ba 252a 3db9 1de7 3936
00000290: 097c 3638 cd10 a4b9 b461 bf3a 2da3 aca3
000002a0: 1d30 68ba 127e ebba fca6 3634 d358 a538
000002b0: 383e 74b9 a3ea e13a a710 ff35 40b3 34ba
000002c0: 5021 ef24 6a8e 7137 1dc4 9da3 acad a7ba
000002d0: b86d 3998 3e18 79ba fdda 87ba ea54 23a5
000002e0: aaa2 173a 7250 97a5 1594 8cba c5d8 201b
000002f0: c944 4cba e33e 97ba cd3d 09a5 dd7f da3a
00000300: d5c8 1d27 871a 8cba c3ee e61b 9429 d5ba
00000310: e263 a627 9497 53a3 757f 2024 ffed 4225
00000320: b095 60a7 d08e 6623 4cd9 a027 66c5 ac27
00000330: fc2f c225 5a0e ad27 1f11 24a5 d083 7f27
00000340: 4a12 811f 90e4 6027 c828 263d 4088 11ba
00000350: ce76 0bbe 3e98 8bbb ae78 d7bc c9e8 cebb
00000360: 9968 e6bc e307 273d 57b7 6fbd b336 a43d
00000370: 6faa 923d fb30 bf3d f00d 953d fc24 0b3e
00000380: 8d6f 383d dd24 b7bc 45d8 8e3d 1558 633b
00000390: fac3 8e3c 7111 1d38 14e4 78bb 711c 823d
000003a0: 6668 263b 5a5c ba3c 155f a43c 89b1 253d
000003b0: 7402 943c 8ca1 ab3c c217 973d 5e7d 1a3c
000003c0: c32d 7bb9 894b c7bc 825e 303d 7faa d3bc
000003d0: 3aea 6e3a 212f af3d 3b8e 543d 4d77 e6bc
000003e0: ca3a 39bd 1c8c 2f3d 291e 81bd 1910 953b
000003f0: 0a3a e83d 2f56 7a3d f164 65bd 11ba 88bd

0.bias f4 [64]
0.041438423 0.026598547 -0.00093920564 0.039028008 -0.00063191395 -0.0015344281 -0.0014810886 -2.477131e-05
-6.8137854e-07 -0.0032246204 0.05534833 0.037226908 -9.922041e-06 0.064499654 0.04625011 -0.0021176096
0.05104532 0.044024702 -0.00037074913 -0.00024950373 -0.0026437033 -0.00032236704 -0.0026780693 0.014714908
-3.2368473e-05 -0.003469651 0.051972475 0.04465164 -0.0023289137 0.033720233 -0.0028111404 -0.001308995
0.043993782 -0.002967244 -0.00994841 -1.286459e-05 0.046769958 -0.00022760755 -0.00048122133 -0.0052676597
0.04204428 -7.3772346e-05 -0.001981384 0.045125887 0.010550386 0.050403345 0.0075397813 0.037095994
-0.00216126 -5.562756e-05 -0.007438366 0.039764866 -1.2023414e-05 -0.023480805 0.030099925 -1.0231985e-08
-4.1519152e-07 0.022150597 0.02682339 -3.2470626e-07 0.05965959 -0.0022006524 0.043860316 0.05162709
00000000: 56bb 293d 32e5 d93c 0635 76ba d5db 1f3d
00000010: 07a7 25ba dd1e c9ba 1621 c2ba fccb cfb7
00000020: fae7 36b5 2754 53bb eeb4 623d 3e7b 183d
00000030: d776 26b7 6518 843d c170 3d3d 98c7 0abb
00000040: e614 513d 3f53 343d 1b61 c2b9 d3cf 82b9
00000050: fb41 2dbb 5f03 a9b9 8c82 2fbb cc16 713c
00000060: 62c3 07b8 1663 63bb 17e1 543d a3e4 363d
00000070: b0a0 18bb 3a1e 0a3d 1c3b 38bb 9592 abba
00000080: d332 343d 1876 42bb a8fe 22bc fed4 57b7
00000090: db91 3f3d f0a9 6eb9 6f4c fcb9 559c acbb
000000a0: 9f36 2c3d 3ab6 9ab8 1bda 01bb ecd5 383d
000000b0: 87db 2c3c bd73 4e3d 4510 f73b f8f1 173d
000000c0: eda3 0dbb a351 69b8 89bd f3bb 7ce0 223d
000000d0: 2bb8 49b7 d15a c0bc 1e94 f63c bfc8 2fb2
000000e0: 7de7 deb4 2b75 b53c babc db3c 4a53 aeb4
000000f0: 9d5d 743d d238 10bb e0a6 333d ed76 533d

3.weight f4 [64, 64]
-1.4008097e-22 -2.977754e-06 -2.2395677e-18 -0.00025709227 4.158733e-07 2.536862e-22 1.6581971e-14 -0.0011564206
-2.0306841e-18 -0.0013525096 -0.0011808308 -0.00081890513 1.6335497e-12 -0.0017898508 -6.8066933e-22 6.493284e-07
-0.0005709226 -0.0002450681 -3.7526508e-05 -0.00070913316 7.200424e-22 2.4657126e-07 1.2986758e-24 -0.00039368746
2.6771695e-06 -1.0871831e-05 6.7850886e-23 7.6739343e-07 -0.00029053586 9.029635e-24 7.467389e-23 2.5910365e-09
1.8233772e-20 -0.00024082663 -1.0892672e-21 8.090873e-22 -0.00039600316 1.9035446e-05 -1.735359e-20 1.1100993e-21
-2.8421045e-05 -6.476418e-24 1.1547212e-22 -4.3242664e-22 -1.2346094e-06 -3.7057968e-11 -3.4411398e-22 1.0463069e-05
-0.0009288713 -1.4844958e-20 9.4383825e-23 -3.6098836e-06 1.0736975e-14 -5.325659e-22 -3.1114467e-09 2.4508866e-22
-0.0020497737 -5.434337e-10 -0.0014620101 1.4363174e-20 4.903001e-22 -0.0001955929 -0.0005271769 -6.651394e-22
0.12661757 0.124576524 1.2084492e-14 0.14371489 -1.6532955e-23 9.91725e-22 8.388237e-06 -6.659653e-22
6.346735e-23 3.6603767e-22 -0.030269573 -0.025348503 4.6927747e-22 -0.0014533527 -0.055287402 1.0352022e-21
0.14634344 -0.05190163 -1.2355164e-21 -7.5415017e-22 3.513458e-22 4.0719182e-23 4.2891465e-17 0.11430594
-1.9795043e-22 -1.4014785e-20 0.14464521 -0.046197806 1.981393e-22 -0.08121974 0.044692058 2.6638473e-15
-0.04063766 -1.0884855e-09 -0.001964278 -6.338068e-21 -0.04104812 4.792682e-22 -2.1977304e-22 1.9550163e-21
-0.051724847 -1.4873632e-22 -6.29497e-22 -0.031638194 0.026862131 -0.05922193 -0.011909939 -0.07043678
-0.00035954086 -1.01173614e-22 8.8724955e-05 0.154748 -1.2592566e-21 -0.005448999 0.13155071 8.469601e-21
-1.1026664e-22 0.122356184 0.13194239 2.3778323e-22 -0.006933699 5.572965e-22 -0.06403804 0.14633305
0.10475045 0.11150868 -8.4546805e-15 0.12310936 1.8845301e-16 4.8000805e-19 7.02555e-05 2.1163673e-09
-1.7631767e-20 3.5184017e-05 -0.031032093 -0.011513979 1.6036035e-20 -0.011874202 -0.05616534 2.931601e-14
0.12506363 -0.05888706 2.675881e-20 7.373549e-17 6.079854e-15 9.346978e-16 2.0183701e-09 0.103965886
1.5539981e-13 2.2871911e-05 0.11937553 -0.04504202 -1.5123178e-17 -0.075482935 0.023684766 -7.669897e-16
-0.05022967 -1.19511725e-17 0.00029998628 -1.0731708e-20 -0.043442883 -5.6062532e-09 -3.552175e-21 1.15451206e-20
-0.054328397 9.131943e-21 -1.06220085e-19 -0.03646314 0.030788695 -0.058874696 0.0005158149 -0.06721232
-3.5453334e-06 -1.3830405e-21 0.0014516031 0.13157101 -3.6930522e-20 -0.00050529337 0.10750941 4.5375748e-21
9.385853e-08 0.097496435 0.119928405 3.865568e-21 -0.016030308 -4.92402e-17 -0.061943576 0.131801
-0.005063973 -0.005031437 1.5918034e-18 -0.0003332559 4.8634693e-08 -6.4341343e-22 -4.3521234e-19 -2.0784622e-05
1.0103996e-21 -2.4280688e-20 -5.7570367e-05 -1.7371104e-06 -2.1919095e-19 -0.0001228315 -1.2533161e-16 3.239045e-07
-0.0017786955 -1.2553509e-06 -4.881392e-12 3.5877987e-13 3.6232112e-08 7.735131e-09 -1.5599843e-22 -0.0020660236
6.8638246e-07 -3.0122622e-19 -0.0034503685 2.0014226e-10 -4.1775063e-09 2.0480621e-23 -6.4674104e-22 1.52899e-20
-3.4061496e-21 1.527908e-14 3.3591033e-22 -3.481826e-22 -3.701268e-18 9.016961e-05 2.459346e-22 2.0934917e-22
-3.2964954e-17 3.1246228e-22 2.2733777e-22 -5.0956805e-06 -8.79428e-18 2.2146985e-15 -8.7177883e-23 1.2246477e-07
9.786875e-16 8.770972e-21 -7.37841e-22 -0.0074325157 1.335489e-18 7.1100177e-22 -0.0022516313 -5.803933e-23
-4.335323e-05 -0.0046273354 -4.126433e-10 1.6324759e-24 -0.0004218852 -2.3217384e-08 -9.438376e-08 -0.0049107275
00000000: f658 299b 6dd5 47b6 3d40 25a2 57ca 86b9
00000010: 3145 df34 0a58 991b 6c5b 9528 0993 97ba
00000020: 8ad6 15a2 b146 b1ba 1bc6 9aba cbab 56ba
00000030: d5e6 e52b 6d99 eaba 3db8 4d9c 824d 2e35
00000040: f8a9 15ba 7c7c 80b9 c865 1db8 1fe5 39ba
00000050: 959e 591c 7f60 8434 d9f5 c817 d667 ceb9
00000060: 6ca9 3336 2966 36b7 aa0d a41a e0fe 4d35
00000070: 1053 98b9 96a8 2e19 e68c b41a ff0d 3231
00000080: 8e36 ac1e 6886 7cb9 fc9a a49c 1988 741c
00000090: a59e cfb9 4fae 9f37 68e6 a39e e3c0 a71c
000000a0: bb69 eeb7 568b fa98 e498 0b1b 64b1 029c
000000b0: dbb4 a5b5 90fb 22ae 0f01 d09b 8a8a 2f37
000000c0: 7f7f 73ba e834 8c9e c234 e41a 5441 72b6
000000d0: 8f6b 4128 4af5 209c 26d1 55b1 a225 941b
000000e0: 7f55 06bb bf60 15b0 eba0 bfba 06a8 871e
000000f0: 222f 141c 1218 4db9 3e32 0aba ab06 499c
00000100: 09a8 013e fa21 ff3d e2b1 5928 ff29 133e
00000110: 9de5 9f99 81dd 951c 34bb 0c37 9246 499c
00000120: 6374 991a 9641 dd1b e5f7 f7bc aaa7 cfbc
00000130: 96d4 0d1c 6d7e beba 0b75 62bd 726f 9c1c
00000140: 0edb 153e ce96 54bd bab4 ba9c 8bed 639c
00000150: 2160 d41b e8e7 441a 4ecd 4524 3c19 ea3d
00000160: b14e 6f9b ac5d 849e e01d 143e e939 3dbd
00000170: 2589 6f1b 8956 a6bd 050f 373d 4ff3 3f27
00000180: ad73 26bd ae99 95b0 1ebb 00bb 0872 ef9d
00000190: 1322 28bd 95d9 101c 3bd8 849b 84b7 131d
000001a0: 6fdd 53bd a9cf 339b f940 3e9c 0d97 01bd
000001b0: f90d dc3c b292 72bd e821 43bc 2941 90bd
000001c0: c280 bcb9 6f9f f49a d911 ba38 4276 1e3e
000001d0: 214b be9c 848d b2bb 3bb5 063e 7afc 1f1e
000001e0: df4d 059b e195 fa3d e81b 073e 2cbb 8f1b
000001f0: 1534 e3bb ba6e 281c 6026 83bd 55d8 153e
00000200: 6787 d63d aa5e e43d 554e 18a8 c320 fc3d
00000210: 8345 5925 62ac 0d21 2256 9338 876f 1131
00000220: ff86 a69e 8d92 1338 0437 febc 21a5 3cbc
00000230: c174 971e 038c 42bc a10d 66bd 0f07 0429
00000240: ae10 003e 8f33 71bd d5ba fc1e c005 aa24
00000250: c10c db27 43b4 8626 8bb3 0a31 11ec d43d
00000260: f2f6 2e2a 0edd bf37 287b f43d fb7d 38bd
00000270: 987c 8ba3 cc96 9abd 8e06 c23c da11 5da6
00000280: a0bd 4dbd d175 5ca3 7a47 9d39 5bb7 4a9e
00000290: 2af1 31bd 20a1 c0b1 8732 869d c714 5a1e
000002a0: 7487 5ebd 5e7f 2c1e 1ace fa9f 605a 15bd
000002b0: 9338 fc3c 9826 71bd c137 073a 9da6 89bd
000002c0: 5dec 6db6 caff d09c b843 be3a 8dba 063e
000002d0: 4366 2e9f aa75 04ba e52d dc3d bb6c ab1d
000002e0: 468f c933 36ac c73d 069d f53d 7b09 921d
000002f0: fe51 83bc 9114 63a4 8cb8 7dbd d7f6 063e
00000300: afef a5bb c1de a4bb a2e8 ea21 dab8 aeb9
00000310: 69e2 5033 b475 429c b773 00a1 a35a aeb7
00000320: f1af 981c 1a53 e59e b677 71b8 a926 e9b5
00000330: 3363 81a0 54cc 00b9 5d7f 10a5 18e5 ad34
00000340: 1e23 e9ba 877d a8b5 acbf abac a1f9 c92a
00000350: a19d 1b33 77e3 0432 2d97 3c9b 2066 07bb
00000360: d83f 3835 05d0 b1a0 941f 62bb 0a0f 5c2f
00000370: bc89 8fb1 9013 c619 2a77 439c b668 901e
00000380: 42ae 809d 299f 8928 9b0b cb1b a676 d29b
00000390: 7d8d 88a2 7119 bd38 89a8 941b 6e16 7d1b
000003a0: 2606 18a4 32df bc1b d16a 891b 90fb aab6
000003b0: d039 22a3 fa95 1f27 7fc8 d29a dc7e 0334
000003c0: 320b 8d26 d1ad 251e afff 5e9c 768c f3bb
000003d0: 5915 c521 19e3 561c 1b90 13bb 9b54 8c9a
000003e0: 2dd6 35b8 e7a0 97bb 62da e2af 089d fc17
000003f0: 7930 ddb9 916f c7b2 05b0 cab3 2bea a0bb

3.bias f4 [64]
-0.0059208004 0.07054112 0.047946814 -0.010678316 -0.004206221 -0.009018612 -0.0031992956 0.045034695
-0.011224842 -0.005938294 -0.0050481874 0.058706023 -0.005681424 0.052736618 0.04995531 -0.008258101
0.04747194 0.052001342 0.06166447 -0.005876418 0.054033108 -0.00594744 -0.0055854674 0.05208199
0.05270839 0.0422044 0.04811826 0.04267554 0.060360286 -0.010542775 0.049168073 -0.007554206
0.047336772 0.06618284 -0.007874548 -0.003518963 -0.002882758 0.045810726 0.051798303 0.054279227
0.065871045 0.063860275 -0.0059371237 0.0505637 0.07168732 -0.0047660773 -0.004755589 -0.004665764
-0.0056394762 -0.009200888 -0.0042717494 -0.0059671793 -0.005862486 -0.0059148045 -0.008395893 -0.0057952567
0.033876907 0.07752416 -0.008747348 0.048956484 0.051434718 -0.0050445036 0.07050938 0.050221268
00000000: 4603 c2bb dd77 903d e163 443d 1af4 2ebc
00000010: 57d4 89bb cdc2 13bc 46ab 51bb 4d76 383d
00000020: 66e8 37bc 0596 c2bb 446b a5bb ba75 703d
00000030: 3d2b babb 5a02 583d f09d 4c3d fc4c 07bc
00000040: f071 423d 5cff 543d e293 7c3d f88e c0bb
00000050: d251 5d3d bee2 c2bb 4c06 b7bb ed53 553d
00000060: c1e4 573d 85de 2c3d a717 453d 8ccc 2e3d
00000070: 593c 773d 9abb 2cbc 7664 493d 4689 f7bb
00000080: 34e4 413d de8a 873d 4004 01bc 679e 66bb
00000090: a7ec 3cbb 07a4 3b3d 752a 543d e553 5e3d
000000a0: 66e7 863d 2dc9 823d 348c c2bb e21b 4f3d
000000b0: cdd0 923d c12c 9cbb c6d4 9bbb 44e3 98bb
000000c0: 5bcb b8bb 52bf 16bc 08fa 8bbb 5488 c3bb
000000d0: 191a c0bb fad0 c1bb ed8e 09bc 23e6 bdbb
000000e0: 83c2 0a3d fdc4 9e3d 0951 0fbc 9886 483d
000000f0: 36ad 523d 5d4c a5bb 3967 903d d1b4 4d3d

6.weight f4 [4, 64]
4.495892e-22 -2.6178843e-23 -1.1820209e-22 8.4790853e-23 6.6528343e-22 -2.14959e-22 -1.4773447e-21 -1.1939251e-21
4.257546e-22 -1.8905232e-22 2.138774e-22 6.0802566e-22 -3.814854e-23 -8.87358e-22 8.450704e-24 1.3967089e-22
1.046827e-21 1.4243728e-21 -4.7951873e-23 -6.052243e-22 -2.105459e-22 -1.9601212e-21 9.510341e-22 6.354038e-24
1.9159615e-21 -1.0135224e-21 3.267708e-22 1.2022084e-21 -6.4220023e-22 -1.6220564e-21 -4.2247922e-23 2.1492527e-22
1.3190196e-21 -4.133514e-22 -9.363683e-23 6.060883e-22 6.635175e-22 2.1444274e-22 -2.8908248e-22 -1.1928261e-22
-1.623565e-21 -8.390872e-26 -4.302939e-22 1.9186032e-22 9.285792e-22 -8.2429997e-22 7.4977763e-22 7.7972774e-22
5.418453e-22 3.9545325e-24 8.436263e-22 1.1580107e-21 -1.3019886e-21 5.6254945e-24 -1.0387128e-21 -3.3072222e-22
1.3051868e-21 -3.8266173e-22 -2.104238e-22 8.151072e-22 -2.9373898e-24 1.9048921e-21 5.9167944e-23 1.0856344e-21
1.0567362e-21 -1.9572362e-22 4.8214093e-22 -9.287708e-23 9.16572e-22 -3.3168733e-22 6.001569e-22 -7.877315e-23
3.0853842e-22 -1.6930936e-21 -1.9081572e-21 2.3023588e-22 -2.3867856e-22 1.1586025e-21 -4.1392463e-22 -5.1489024e-22
1.3331786e-24 1.694979e-21 -8.87053e-23 6.0961106e-22 -1.3684517e-21 -7.9751963e-23 -2.4734253e-22 -2.0477639e-22
1.7568673e-22 -1.245242e-22 -3.999917e-22 5.7065476e-22 3.771432e-22 -7.932175e-22 -1.0242802e-21 9.3641456e-23
-8.890544e-22 -5.917555e-23 -1.5670977e-21 -1.4458724e-21 -1.9839899e-21 8.341326e-22 9.2258854e-23 5.897773e-22
-1.2000815e-22 -4.4199844e-22 -1.8691527e-21 -3.1880323e-22 -8.503743e-22 2.1354248e-22 -2.1184538e-22 3.6271477e-23
2.468874e-22 1.2362802e-21 1.2542805e-22 -1.6643003e-21 3.5022519e-22 -8.099843e-22 -3.1639742e-22 -6.269368e-22
-8.051993e-24 -8.451505e-24 -7.7119476e-22 -6.007744e-22 -1.4740263e-21 1.5774912e-21 7.4949706e-23 1.719281e-21
-0.0012373577 -0.14217241 -0.12382279 0.0001352356 -0.004160618 -0.0014711334 -0.0014119996 -0.10673024
0.0013416916 0.0001724785 0.0046864306 -0.14446916 -3.8313274e-20 0.16732362 0.15628964 0.00016335079
0.1660228 0.15813789 -0.12550421 6.481076e-05 0.17943995 0.0006847274 4.547468e-17 0.17680728
0.17700645 -0.1046029 0.16231434 -0.11869961 -0.14782023 -0.0018171669 0.16161849 -0.00135126
-0.12405505 0.18797743 0.003334711 0.0013018129 1.8181484e-14 0.16404286 -0.15080373 -0.1438776
-0.14155923 0.20742507 -0.0009860336 -0.12574618 0.19249034 2.3914345e-06 -0.00018707811 -3.0248561e-21
0.000383233 1.1453236e-06 -0.004576276 -0.0005394292 0.0012667112 0.002644202 0.0012168578 -8.984805e-12
-0.103562646 0.20073694 -0.0017849208 0.15815303 0.14550073 0.003075135 -0.14153354 0.15947755
-0.0019873343 -0.14309289 -0.13030104 -9.884455e-05 -0.0038208677 -0.0012139574 -0.0018127463 -0.11448732
0.0019572135 0.00012755656 0.0054141856 -0.13312908 -4.4564956e-20 0.1632239 0.1520632 0.00010733351
0.16910525 0.15882345 -0.14437203 7.0544906e-05 0.17460556 0.00078456587 3.886049e-17 0.17632154
0.17470266 -0.12522732 0.16628769 -0.120583214 -0.1503291 -0.003775115 0.15824303 -0.002344062
-0.12893644 0.18783513 0.0041737994 0.0036030977 1.452283e-14 0.1667282 -0.1417132 -0.1445288
-0.1441315 0.20667413 -0.0012057268 -0.11828375 0.19665791 1.3385908e-06 -0.0004185564 2.0754816e-21
0.00078368624 -0.00012714458 -0.0047465013 -0.0006434537 0.0006506332 0.0019567101 0.00013264494 -1.2109065e-08
-0.121615954 0.1896527 -0.0055173435 0.15610377 0.15181352 0.0023846168 -0.15536487 0.15857524
00000000: 48e1 071c ad2f fd99 c6e5 0e9b ff02 cd1a
00000010: d011 491c 4bef 819b 0140 df9c bd6b b49c
00000020: 2bad 001c dc8c 649b ed47 811b b5c3 371c
00000030: 9b79 389a 0018 869c dc75 2319 0cda 281b
00000040: 2831 9e1c c13e d71c 8be1 679a f6ea 369c
00000050: cd88 7e9b 421a 149d 5ab7 8f1c 58cf f518
00000060: 16c4 101d c028 999c 5585 c51b 2fac b51c
00000070: d617 429c 451e f59c 654c 4c9a 13ea 811b
00000080: 1953 c71c 08db f99b 6466 e29a d02d 371c
00000090: 2e89 481c 689f 811b 59bd ae9b 2e34 109b
000000a0: a158 f59c 78bf cf95 610c 029c e5f1 671b
000000b0: ab52 8c1c 1f21 799c 3c9b 621c 83a8 6b1c
000000c0: 40c3 231c cbfb 9818 6cf8 7e1c 5efe ae1c
000000d0: 3fc0 c49c 33a0 d918 41f7 9c9c c9e8 c79b
000000e0: f83b c51c 094e e79b 0363 7e9b dd59 761c
000000f0: 0045 6398 f9ed 0f1d 2f0f 8f1a 720e a41c
00000100: 80b0 9f1c 879d 6c9b d9b7 111c 2190 e09a
00000110: 2982 8a1c 217e c89b e462 351c 3876 be9a
00000120: 0280 ba1b 63da ff9c 212d 109d 472b 8b1b
00000130: b845 909b 4315 af1c bc33 fa9b b49d 1b9c
00000140: a54c ce17 a911 001d ec79 d69a 5f3e 381c
00000150: 69cb ce9c 13d4 c09a 6782 959b 398f 779b
00000160: 6964 541b 608a 169b b8c7 f19b 4678 2c1c
00000170: 15f8 e31b 3bbc 6f9c ecc8 9a9c 4169 e21a
00000180: a059 869c e413 8f9a 28d0 ec9c 7b7e da9c
00000190: f2e7 159d e219 7c1c 7711 df1a cf3f 321c
000001a0: b914 119b f995 059c ac3a 0d9d 69b4 c09b
000001b0: 4381 809c 1914 811b 7c0d 809b ea65 2f1a
000001c0: fa3b 951b 46d2 ba1c 1aa2 171b 8080 fb9c
000001d0: b9b2 d31b 80cd 749c 2140 bf9b e37a 3d9c
000001e0: 8abf 1b99 d379 2399 4e14 699c ab92 359c
000001f0: a1bf de9c 3c62 ee1c 9f37 b51a bbe7 011d
00000200: d62e a2ba a595 11be ce96 fdbd 08ce 0d39
00000210: cb55 88bb 0cd3 c0ba d812 b9ba 6295 dabd
00000220: b3db af3a 58db 3439 a190 993b b9ef 13be
00000230: e8ed 349f e256 2b3e 640a 203e 2549 2b39
00000240: e201 2a3e e6ee 213e 2d84 00be 03eb 8738
00000250: 1bbf 373e 477f 333a 07b7 5124 f80c 353e
00000260: 2e41 353e 0c3a d6bd bb35 263e c818 f3bd
00000270: 305e 17be 012e eeba 517f 253e c31c b1ba
00000280: 9310 febd 287d 403e 2b8b 5a3b 98a1 aa3a
00000290: a6c3 a328 dafa 273e 4b6c 1abe a654 13be
000002a0: e7f4 10be 3d67 543e cc3d 81ba 9bc3 00be
000002b0: 301c 453e 887c 2036 662a 44b9 3a8d 649d
000002c0: aaec c839 05b9 9935 96f4 95bb 7b68 0dba
000002d0: c607 a63a 594a 2d3b f97e 9f3a f70f 1ead
000002e0: a718 d4bd fc8d 4d3e 01f4 e9ba def2 213e
000002f0: 25fe 143e 3488 493b 2bee 10be 154e 233e
00000300: f03d 02bb f186 12be a36d 05be c44a cfb8
00000310: 8667 7abb a71d 9fba ac99 edba 5478 eabd
00000320: 9844 003b b4c0 0539 7b69 b13b fd52 08be
00000330: ba73 529f 2b24 273e 75b6 1b3e 3d18 e138
00000340: ed29 2d3e 9da2 223e 43d6 13be 82f1 9338
00000350: cdcb 323e 53ab 4d3a 5e36 3324 a28d 343e
00000360: 41e5 323e 973b 00be 5247 2a3e 55f4 f6bd
00000370: dfef 19be eb67 77bb 760a 223e d69e 19bb
00000380: ea07 04be da57 403e 5ec4 883b f321 6c3b
00000390: 5ecf 8228 ccba 2a3e 441d 11be 5cff 13be
000003a0: 3597 13be 62a2 533e 7a09 9eba c03e f2bd
000003b0: b160 493e a1a9 b335 b071 dbb9 a7d1 1c1d
000003c0: 4b70 4d3a 1d52 05b9 8a88 9bbb 72ad 28ba
000003d0: 418f 2a3a 263c 003b 9b16 0b39 3b08 50b2
000003e0: c911 f9bd 5134 423e d5ca b4bb abd9 1f3e
000003f0: 0175 1b3e 3b47 1c3b f817 1fbe 8c61 223e

6.bias f4 [4]
0.0 0.0 -0.00037545804 0.0023657158
00000000: 0000 0000 0000 0000 20d9 c4b9 200a 1b3b

exp_avg f4 [64, 70]
-0.0016140215 -2.1035396e-05 -0.0010311787 -6.298317e-05 0.00082992 -0.000115126124 0.0016965688 -0.0016138211
0.0018150712 0.0011325739 -0.0010553966 -0.0006088148 -0.0030698287 0.00053776026 -0.0017302323 0.0019950496
0.0011000163 -0.0016136271 -0.0010616619 -0.0048638484 -0.00063655636 -0.0017130433 0.004196567 0.0011084415
-0.003089056 -0.0008155173 -0.008423913 0.00011461118 -0.0015754523 0.0065740934 0.00060835964 -0.0020468847
-0.00033061497 -0.00488951 0.0010456865 -0.0015280838 -0.0042950674 0.00035130166 0.0024537751 -0.0001597978
0.005860738 0.0015497536 -0.001995648 -0.0038818154 0.00043273717 0.001995279 0.00045305258 0.005484459
0.0032304828 -0.0020165304 -0.0022038904 -0.00039556567 0.001089401 -0.0008136947 0.0030150204 0.0011332402
-0.0031607025 -0.00020418562 0.0022635323 0.00033996455 -0.0028715867 0.00073345745 -0.003019952 -0.0018735419
-0.00035799405 0.0021116037 0.00030214165 -0.0018380362 0.00069107005 -0.0022069118 -0.0018218284 -2.6221354e-05
-0.001082631 -6.494336e-05 0.00094117626 -0.00012166282 0.0019047548 -0.0018216397 0.001954938 0.0011584791
-0.0011330716 -0.0007325117 -0.0033472537 0.0005254175 -0.0019524008 0.0023638522 0.0011131989 -0.001845716
-0.0011717093 -0.005562693 -0.0006230699 -0.0019353126 0.0044737626 0.0011228623 -0.0032903624 -0.0008856774
-0.009014812 0.0002417268 -0.0018195197 0.006887212 0.00061167433 -0.0022068897 -0.0003999362 -0.0052392096
0.0011947948 -0.0017704536 -0.0042973934 0.00027655403 0.0024798275 -0.00022991866 0.0059295 0.0017094146
-0.0023355484 -0.0041008955 0.0003717168 0.002133302 0.00033723525 0.0058706817 0.003376009 -0.0025084172
-0.0023709747 -0.000114080685 0.0011837999 -0.0011625354 0.0032973695 0.00089196337 -0.0035005119 -0.00022640446
0.002404126 0.00038196362 -0.0031788002 0.0008318149 -0.0033277625 -0.0021292316 -0.00035577605 0.0023903798
0.00034202205 -0.002072542 0.00077731337 -0.0024372377 -9.783152e-09 -1.6194537e-21 -3.5299375e-11 -2.3289244e-22
2.6541624e-09 2.0930801e-19 8.310075e-09 -9.294875e-09 5.2226265e-18 1.6378195e-13 1.2465521e-20 -8.41222e-09
-5.9973146e-18 -1.18462475e-08 -6.7982793e-09 1.6101444e-08 1.2720602e-11 -3.4922645e-09 -2.4608589e-09 -1.2562361e-08
2.4869549e-11 -8.39716e-09 -1.9583033e-09 3.3132042e-11 4.8794463e-10 -3.3341236e-09 1.5136008e-08 -4.7802987e-22
-9.206617e-09 -1.8528636e-08 2.2257946e-12 8.6189406e-10 -2.5022118e-09 1.777286e-08 2.2965739e-11 -7.170323e-09
1.1113708e-21 1.6638654e-10 7.27858e-22 -1.3295675e-08 1.0574906e-28 -9.884321e-09 -1.0744483e-08 -2.624178e-22
6.0885883e-09 -4.834456e-21 -1.1118952e-08 4.1307066e-28 -8.0775235e-09 -1.1898443e-08 7.562326e-23 1.718935e-08
2.6931343e-20 -1.1022298e-08 9.345213e-28 -1.676948e-08 3.9659543e-20 -3.2015866e-21 -3.252117e-21 -2.3447029e-22
-1.9302825e-20 7.7101e-22 4.018936e-20 3.8990738e-20 -2.8550664e-21 -2.9384008e-22 3.2607774e-23 2.6120323e-20
-4.3196145e-25 4.1224585e-20 -0.0016660141 -2.6247057e-05 -0.0011137911 -0.00010565628 0.0008576302 -0.00018950783
0.0017654414 -0.0016657854 0.0020107944 0.0012130473 -0.0010951272 -0.0005757837 -0.0033909092 0.00069800165
-0.0018843457 0.002296577 0.0012135479 -0.0018217062 -0.001157683 -0.005662678 -0.0007086077 -0.0018648597
0.004900853 0.0012209989 -0.0035662774 -0.0008741559 -0.009745488 0.00016308953 -0.0017210718 0.0075342115
0.00064431375 -0.0023569968 -0.00028124632 -0.005605653 0.0013355651 -0.001656462 -0.004960438 0.00029958377
0.0027131846 -0.0002238041 0.00645443 0.0015708491 -0.002279133 -0.0046597323 0.00024949535 0.0024482242
00000000: 938d d3ba 2b75 b0b7 9e28 87ba d515 84b8
00000010: fd8e 593a de6f f1b8 675f de3a da86 d3ba
00000020: afe7 ed3a e072 943a 3c55 8aba df98 1fba
00000030: 2e2f 49bb 7bf8 0c3a f6c8 e2ba 61bf 023b
00000040: 6c2e 903a 5780 d3ba 7627 8bba eb60 9fbb
00000050: 93de 26ba 3288 e0ba 5b83 893b 2049 913a
00000060: c271 4abb 71c8 55ba 7404 0abc 695b f038
00000070: 687f ceba 7e6b d73b 537a 1f3a 0725 06bb
00000080: 6456 adb9 2f38 a0bb 6b0f 893a fc49 c8ba
00000090: a3bd 8cbb e92e b839 84cf 203b 658f 27b9
000000a0: 6f0b c03b 1a21 cb3a 6bc9 02bb 0e66 7ebb
000000b0: 00e1 e239 3ac3 023b b087 ed39 fab6 b33b
000000c0: 82b6 533b c427 04bb 256f 10bb ed63 cfb9
000000d0: 3bca 8e3a 214e 55ba a697 453b 3b89 943a
000000e0: ca23 4fbb a91a 56b9 c557 143b 453d b239
000000f0: 3b31 3cbb 7f45 403a 63ea 45bb a291 f5ba
00000100: 26b1 bbb9 d562 0a3b c468 9e39 43ea f0ba
00000110: ed28 353a d6a1 10bb 6bca eeba eef5 dbb7
00000120: 11e7 8dba 3332 88b8 45b9 763a 3b25 ffb8
00000130: f7a8 f93a 16c4 eeba 6b1e 003b 1cd8 973a
00000140: 9383 94ba 0706 40ba 995d 5bbb 2cbc 093a
00000150: b3e7 ffba dcea 1a3b c2e8 913a f4eb f1ba
00000160: 0a94 99ba 4047 b6bb 8355 23ba 51aa fdba
00000170: a498 923b 022d 933a 1fa3 57bb ce2c 68ba
00000180: ddb2 13bc 0b78 7d39 f37c eeba 1fae e13b
00000190: c558 203a 77a1 10bb 87ae d1b9 adad abbb
000001a0: a99a 9c3a 910e e8ba 26d1 8cbb 74fe 9039
000001b0: 9a84 223b 5216 71b9 404c c23b 700e e03a
000001c0: 0010 19bb ce60 86bb fce2 c239 dece 0b3b
000001d0: f3ce b039 d95e c03b 0840 5d3b 4264 24bb
000001e0: 5b62 1bbb 9a3e efb8 bc29 9b3a 3760 98ba
000001f0: ae18 583b a6d2 693a d868 65bb fc66 6db9
00000200: 8b8e 1d3b 4a42 c839 6b53 50bb 270e 5a3a
00000210: 9716 5abb 948a 0bbb 7487 bab9 eba7 1c3b
00000220: 6c51 b339 7cd3 07bb 9ec4 4b3a 10ba 1fbb
00000230: c212 28b2 95b9 f49c 903f 1bae 5cc6 8c9b
00000240: 8564 3631 771b 7720 19c4 0e32 4baf 1fb2
00000250: 50ae c022 ef66 382a 9077 6b1e 5685 10b2
00000260: 0943 dda2 5984 4bb2 4c96 e9b1 734f 8a32
00000270: 80c8 5f2d 91fc 6fb1 e31b 29b1 d9d1 57b2
00000280: 3fc1 da2d 1a43 10b2 d692 06b1 5db7 112e
00000290: 0d20 0630 861e 65b1 6f04 8232 c579 109c
000002a0: 212b 1eb2 e728 9fb2 5aa0 1c2c 67ea 6c30
000002b0: 60f3 2bb1 efaa 9832 3f02 ca2d d45e f6b1
000002c0: 13f2 a71c a6f1 362f 49fb 5b1c ff6a 64b2
000002d0: 880d 0611 b4cf 29b2 bc96 38b2 309f 9e9b
000002e0: ca33 d131 fda3 b69d ab05 3fb2 46e8 0212
000002f0: 53c5 0ab2 e869 4cb2 88d8 b61a c8a7 9332
00000300: fe5b fe1e 945c 3db2 b014 9412 7a0c 90b2
00000310: 7249 3b1f b1e7 719d 17b9 759d 85ba 8d9b
00000320: 5e4f b69e 0206 691c f4c9 3d1f e920 381f
00000330: 04b9 579d 8d9d b19b 78ae 1d1a 11b3 f61e
00000340: 83af 0597 77ad 421f 285e daba 202d dcb7
00000350: a1fc 91ba c993 ddb8 97d2 603a 9fb6 46b9
00000360: 6266 e73a 7c56 daba 88c7 033b 1dff 9e3a
00000370: 5f8a 8fba 31f0 16ba 043a 5ebb 19fa 363a
00000380: 26fc f6ba 2b82 163b e90f 9f3a 51c6 eeba
00000390: 65bd 97ba fc8d b9bb dcc1 39ba 4f6e f4ba
000003a0: 5697 a03b ed09 a03a 35b8 69bb 9c27 65ba
000003b0: 8aab 1fbc 0303 2b39 9695 e1ba 8ce1 f63b
000003c0: 2ae7 283a d877 1abb 3e74 93b9 a0af b7bb
000003d0: 210e af3a a41d d9ba 2b8b a2bb 7411 9d39
000003e0: afcf 313b f5ac 6ab9 af7f d33b f3e4 cd3a
000003f0: 825d 15bb abb0 98bb b3ce 8239 6372 203b

exp_avg_sq f4 [64, 70]
9.6113225e-05 7.219596e-08 1.2321664e-05 1.1834604e-06 2.3464494e-05 4.722801e-06 9.351463e-05 9.6113006e-05
3.232402e-05 1.004531e-05 1.5784848e-05 2.7859256e-05 9.530483e-05 3.971913e-05 9.565573e-05 5.967461e-05
1.3328241e-05 1.921734e-05 2.5137228e-05 0.00012272957 1.4604486e-05 9.697221e-05 5.8569032e-05 1.5640768e-05
1.761197e-05 2.8021683e-05 0.00011538533 1.794017e-05 9.860691e-05 5.123392e-05 2.5303125e-05 1.6093381e-05
3.6740414e-05 0.00010725572 3.677492e-05 9.314461e-05 3.6640355e-05 3.7486992e-05 1.0365278e-05 4.4319964e-05
6.754167e-05 5.503761e-05 8.1646154e-05 2.7742075e-05 4.366775e-05 6.4991923e-06 4.72785e-05 4.1328443e-05
6.472442e-05 5.889195e-05 1.0984974e-05 3.6587902e-05 2.5519457e-06 3.684625e-05 1.7063137e-05 5.287914e-05
4.218164e-05 4.9226373e-06 3.301831e-05 1.5006295e-06 2.9203271e-05 9.7851325e-06 4.5156452e-05 2.8952616e-05
4.634244e-06 2.1301114e-05 1.2857007e-06 1.7894155e-05 9.419404e-06 2.4809264e-05 0.00010156655 7.8017784e-08
1.34538805e-05 1.3120372e-06 2.5008974e-05 5.3929607e-06 9.8773126e-05 0.00010156633 3.485138e-05 1.0708255e-05
1.661325e-05 2.9741906e-05 0.00010119461 4.4354336e-05 0.00010106363 6.521062e-05 1.4179002e-05 2.1311698e-05
2.6743939e-05 0.00013435734 1.5889294e-05 0.000101897596 6.35322e-05 1.7121023e-05 1.954561e-05 3.042546e-05
0.00012653744 2.1125732e-05 0.00010425727 5.439693e-05 2.7806953e-05 1.6890162e-05 4.0722287e-05 0.000112960704
4.1892126e-05 0.00010036465 3.875768e-05 4.3073094e-05 1.0896223e-05 4.9923503e-05 7.066961e-05 6.503714e-05
8.52582e-05 2.7523603e-05 4.807072e-05 6.7895885e-06 5.0005223e-05 4.2893287e-05 7.118492e-05 6.0605133e-05
1.2520935e-05 3.784326e-05 2.9175917e-06 3.751102e-05 1.962643e-05 5.5692897e-05 4.36733e-05 5.68485e-06
3.276869e-05 1.5302192e-06 2.9572682e-05 1.0293948e-05 4.4194097e-05 3.049985e-05 4.8560983e-06 2.1849366e-05
1.3619007e-06 1.8752757e-05 1.0030106e-05 2.5643023e-05 3.9602397e-12 7.0055895e-18 2.5778256e-13 1.8559173e-14
1.7331169e-12 4.050089e-14 3.9190326e-12 3.9604197e-12 4.9845297e-14 1.10224655e-13 1.6140868e-15 4.8477108e-12
4.3673253e-14 6.1738145e-12 3.961449e-12 5.666114e-12 2.0666852e-13 1.5237232e-12 1.2201281e-12 6.173872e-12
2.4476452e-13 3.960782e-12 9.847703e-13 2.666324e-13 5.489953e-13 1.5718999e-12 4.548978e-12 2.0555563e-14
3.9604487e-12 6.1216024e-12 1.4969447e-13 8.511238e-13 1.2584873e-12 6.172082e-12 2.4483345e-13 3.821138e-12
1.3389244e-15 3.731871e-13 1.9046522e-14 3.986169e-12 5.0597614e-22 3.820218e-12 4.5503566e-12 1.76364e-15
2.3312992e-12 2.5174727e-14 4.5301293e-12 1.4979394e-20 4.5515583e-12 6.1739286e-12 2.7925692e-15 6.17226e-12
3.184353e-14 6.1601327e-12 8.9485504e-20 6.1724068e-12 2.3369094e-16 1.4494957e-18 1.4388897e-18 3.8986894e-19
6.508962e-17 2.398057e-19 2.3336557e-16 2.340792e-16 1.3694606e-18 6.9126524e-17 1.4708992e-19 1.1281919e-16
4.422649e-19 2.3100486e-16 0.00011181696 8.143366e-08 1.40707525e-05 1.2919099e-06 2.7575252e-05 5.146636e-06
0.00010889267 0.00011181672 3.8040682e-05 1.1698184e-05 1.8060728e-05 3.3234242e-05 0.00011016104 4.733231e-05
0.00011056237 6.710866e-05 1.5276737e-05 2.1931462e-05 2.9372957e-05 0.00013970962 1.6986787e-05 0.00011199895
7.0679176e-05 1.7443004e-05 2.0779207e-05 3.295374e-05 0.00013475356 2.0594782e-05 0.00011273663 5.906548e-05
2.790897e-05 1.8562256e-05 4.2768774e-05 0.00012503873 4.2067553e-05 0.00010824274 4.3122152e-05 4.3640986e-05
1.2175447e-05 5.235136e-05 8.16947e-05 6.490457e-05 9.4426105e-05 3.314326e-05 4.8271413e-05 7.782567e-06
00000000: 6590 c938 260a 9b33 25b9 4e37 64d7 9e35
00000010: 9ed5 c437 8d78 9e36 491d c438 4790 c938
00000020: a793 0738 4788 2837 b469 8437 4cb3 e937
00000030: 64de c738 1798 2638 c79a c838 204b 7a38
00000040: 5c9c 5f37 ec34 a137 c9dd d237 f8b0 0039
00000050: ca05 7537 8f5d cb38 05a8 7538 4b34 8337
00000060: 6bbd 9337 1b10 eb37 07fb f138 397e 9637
00000070: 2fcb ce38 01e4 5638 0c42 d437 4600 8737
00000080: b819 1a38 7aee e038 c53e 1a38 a256 c338
00000090: 48ae 1938 5a3b 1d38 88e6 2d37 33e4 3938
000000a0: 28a5 8d38 2fd8 6638 7239 ab38 a7b7 e837
000000b0: e427 3738 a313 da36 e74c 4638 1458 2d38
000000c0: a9bc 8738 c002 7738 1b4c 3837 f675 1938
000000d0: 1842 2b36 5c8b 1a38 cf22 8f37 8bca 5d38
000000e0: 31ec 3038 222d a536 247d 0a38 3d69 c935
000000f0: 8cf9 f437 d32a 2437 5f66 3d38 45df f237
00000100: da7f 9b36 cbaf b237 5790 ac35 681b 9637
00000110: 0808 1e37 7d1d d037 2000 d538 bb8a a733
00000120: fab7 6137 4119 b035 5dca d137 2ef5 b436
00000130: 6b24 cf38 0200 d538 622d 1238 9ba7 3337
00000140: af5c 8b37 427e f937 7138 d438 1b09 3a38
00000150: 20f2 d338 afc1 8838 5ae2 6d37 86c6 b237
00000160: 2c58 e037 46e2 0c39 004a 8537 dbb1 d538
00000170: 973c 8538 1e9f 8f37 e1f5 a337 2e3a ff37
00000180: 23af 0439 2a37 b137 b2a4 da38 4228 6438
00000190: fa42 e937 59af 8d37 39cd 2a38 51e5 ec38
000001a0: 54b5 2f38 dc7a d238 be8f 2238 62a9 3438
000001b0: ecce 3637 f464 5138 7534 9438 8c64 8838
000001c0: a6cc b238 7de2 e637 8b9f 4938 1fd2 e336
000001d0: b3bc 5138 51e8 3338 1d49 9538 4432 7e38
000001e0: 0211 5237 e4b9 1e38 d8cb 4336 2755 1d38
000001f0: 70a3 a437 cb97 6938 d92d 3738 7dc0 be36
00000200: 1d71 0938 ee61 cd35 da12 f837 2cb4 2c37
00000210: 0d5d 3938 eed9 ff37 91f1 a236 2849 b737
00000220: 8dca b635 3d4f 9d37 fa46 2837 f91b d737
00000230: ab56 8b2c f63a 0123 621e 912a 8a2a a728
00000240: 1eea f32b 5966 3629 82e3 892c 4a58 8b2c
00000250: b77b 6029 3034 f829 4b9d e826 4c90 aa2c
00000260: d5af 4429 c738 d92c 8f61 8b2c d15b c72c
00000270: 25b0 682a ea71 d62b bfb7 ab2b 4c39 d92c
00000280: 49ca 892a 8d5b 8b2c 1798 8a2b c719 962a
00000290: 4887 1a2b aa39 dd2b 8d0d a02c e725 b928
000002a0: 8d58 8b2c 7e62 d72c 7e8a 282a ef91 6f2b
000002b0: c91d b12b 2c29 d92c 38d4 892a c071 862c
000002c0: 97f5 c026 ee15 d22a 4a8e ab28 3840 8c2c
000002d0: 02ec 181c 7769 862c f819 a02c d52a fe26
000002e0: f40c 242c f8c0 e228 c763 9f2c f479 8d1e
000002f0: cb24 a02c ce39 d92c cf39 4927 c72a d92c
00000300: 1769 0f29 8bbd d82c ab4a d31f 192c d92c
00000310: b2b6 8625 66e8 d521 b757 d421 5423 e620
00000320: 2116 9624 6a8e 8d20 ae86 8625 feef 8625
00000330: c218 ca21 1965 9f24 33a7 2d20 5912 0225
00000340: 9788 0221 4d2a 8525 467f ea38 a1e0 ae33
00000350: 6c11 6c37 b065 ad35 6751 e737 44b1 ac36
00000360: 4f5d e438 257f ea38 df8d 1f38 5143 4437
00000370: 1e81 9737 ff64 0b38 4206 e738 ae86 4638
00000380: b8dd e738 b0bc 8c38 8b26 8037 75f9 b737
00000390: f265 f637 047f 1239 d97e 8e37 fae0 ea38
000003a0: 9839 9438 9152 9237 024f ae37 cf37 0a38
000003b0: a24c 0d39 f5c2 ac37 046d ec38 14bd 7738
000003c0: 0f1e ea37 24b6 9b37 9f62 3338 d41c 0339
000003d0: b171 3038 6100 e338 0fde 3438 270b 3738
000003e0: 2645 4c37 d893 5b38 8253 ab38 601d 8838
000003f0: a106 c638 4e03 0b38 0977 4a38 df91 0237

exp_avg f4 [64]
-0.0016140201 -0.0018218419 -9.762509e-09 -0.0016660294 -6.6292833e-09 -1.5764352e-08 -1.5360563e-08 -2.802303e-10
-8.485678e-12 -3.2730302e-08 -0.0010521577 -0.0003004679 -1.1485917e-10 -0.0006114099 0.00095547485 -2.1642384e-08
-0.0025358836 -0.0015091002 -3.9357926e-09 -2.6724416e-09 -2.7086774e-08 -3.432942e-09 -2.746595e-08 -0.0006132441
-3.6377584e-10 -3.5381273e-08 -0.0037409577 0.00058982417 -2.3754044e-08 -0.00048614596 0.00039391665 -1.37528104e-08
0.00019294984 -2.9960905e-08 -1.0080357e-07 -1.4766136e-10 0.00026813633 -2.4430076e-09 -5.0789057e-09 -5.31292e-08
-1.2970681e-05 -8.113794e-10 -2.0245727e-08 -9.565349e-05 -0.00051792065 -0.0020523511 0.00027580152 -0.000910479
-2.2116412e-08 -6.1703914e-10 -7.451789e-08 -0.002316433 -1.3850382e-10 -2.350349e-07 -0.0012624637 -1.4588413e-13
-5.246853e-12 -0.0013550475 -0.0023868724 -4.133891e-12 -0.000730687 -2.247276e-08 -0.00044535683 -0.0018213553
00000000: 878d d3ba dfca eeba f8b7 27b2 ac5e daba
00000010: cbc7 e3b1 2d6a 87b2 3cf2 83b2 e90e 9aaf
00000020: 1948 15ad 5993 0cb3 8ee8 89ba 1e88 9db9
00000030: f793 fcae 0647 20ba d578 7a3a 1be8 b9b2
00000040: 1131 26bb 00cd c5ba 993b 87b1 17a6 37b1
00000050: 72ac e8b2 f4e8 6bb1 43ee ebb2 1dc2 20ba
00000060: e6fc c7af 1ff6 17b3 db2a 75bb 6e9e 1a3a
00000070: b20b ccb2 68e1 feb9 9986 ce39 8045 6cb2
00000080: 9452 4a39 5dae 00b3 5979 d8b3 fa5a 22af
00000090: a694 8c39 d8e1 27b1 8782 aeb1 2c30 64b3
000000a0: a79c 59b7 c007 5fb0 d3e8 adb2 9499 c8b8
000000b0: 11c5 07ba bd80 06bb 7499 9039 36ad 6eba
000000c0: 81fa bdb2 459c 29b0 a506 a0b3 4ccf 17bb
000000d0: 5c49 18af e75d 7cb4 4179 a5ba 3d40 24aa
000000e0: 739b b8ac d99b b1ba 136d 1cbb c872 91ac
000000f0: 938b 3fba 1f0a c1b2 c87e e9b9 8bba eeba

exp_avg_sq f4 [64]
9.61132e-05 0.00010156656 3.960247e-12 0.00011181695 2.643964e-12 7.883573e-12 4.4372657e-12 4.8544935e-13
1.9732082e-13 2.5103822e-11 7.2222225e-05 2.6729097e-06 3.661316e-13 5.3263368e-05 0.0001017609 1.19598e-11
0.00012384694 8.244423e-05 1.7527383e-12 1.3576333e-12 9.686623e-12 1.5950298e-12 8.968101e-12 0.00011014617
5.3242187e-13 1.4769295e-11 0.000120252975 8.511024e-05 1.4447244e-11 0.00012327329 3.8366393e-06 2.4969757e-12
8.191832e-05 5.8755285e-11 3.1965854e-11 4.0361947e-13 7.050041e-05 1.2856437e-12 2.1190692e-12 7.491974e-11
0.00010293749 7.576621e-13 1.2195508e-11 6.094639e-05 3.1202878e-06 0.00010977336 9.468164e-07 0.00010352195
1.0719796e-11 6.5278533e-13 1.6577437e-09 0.00014660723 3.869682e-13 5.766869e-09 0.00012517521 1.0775074e-13
1.8023011e-13 9.831737e-05 0.000117980475 1.7267138e-13 6.039237e-05 1.2881295e-11 0.00010681126 0.0001279511
00000000: 6290 c938 2200 d538 bc56 8b2c 457f ea38
00000010: 6c0d 3a2c 75b0 0a2d 561f 9c2c 50a4 082b
00000020: db29 5e2a c8d0 dc2d 0376 9738 3d60 3336
00000030: 201d ce2a 1b67 5f38 7868 d538 2766 522d
00000040: e9dc 0139 e9e5 ac38 0dad f62b e511 bf2b
00000050: ac68 2a2d 017b e02b bcc4 1d2d 46fe e638
00000060: 0add 152b 7fe9 812d 5330 fc38 367d b238
00000070: 9a28 7e2d ec42 0139 7bbc 8036 84b5 2f2c
00000080: 90cb ab38 4934 812e 5a96 0c2e b237 e32a
00000090: 9fd9 9338 32f0 b42b c21d 152c 10c0 a42e
000000a0: 25e0 d738 4f43 552b af8b 562d b0a0 7f38
000000b0: 2366 5136 2036 e638 ba28 7e35 ec19 d938
000000c0: ab95 3c2d 24be 372b acd6 e330 94ba 1939
000000d0: ffd7 d92a eb25 c631 7741 0339 13a2 f229
000000e0: cbeb 4a2a bc2f ce38 496c f738 2369 422a
000000f0: d04d 7d38 329c 622d dcff df38 9d2a 0639

exp_avg f4 [64, 64]
-3.9584762e-28 -3.5196693e-11 -1.9128893e-24 -2.7471228e-09 5.267431e-12 -4.652588e-27 -2.6367279e-20 -1.1930419e-08
-3.9836337e-23 -1.4034603e-08 -1.2135263e-08 -8.519505e-09 6.043957e-17 -1.8387766e-08 -3.4431283e-27 8.102477e-12
-5.9774417e-09 -2.6004379e-09 -4.1704254e-10 -7.414026e-09 2.4185928e-27 3.1309762e-12 -1.100365e-28 -4.168467e-09
3.1971117e-11 -1.2643211e-10 1.0134158e-28 9.452681e-12 -3.1087977e-09 9.419199e-28 7.922424e-29 3.9546176e-14
1.1189278e-26 -2.5704436e-09 -2.0106734e-27 -2.5204976e-27 -4.2265857e-09 2.1596921e-10 -3.8397047e-26 1.883066e-27
-3.2242803e-10 -5.029532e-28 -7.752773e-28 2.7673845e-27 -1.4949712e-11 -7.288669e-16 3.8941097e-28 1.218552e-10
-9.67064e-09 -3.254447e-26 -5.767247e-29 -4.2916563e-11 1.9285733e-19 2.5116118e-27 -4.724895e-14 2.5364091e-27
-2.1031457e-08 -8.939271e-15 -1.5028355e-08 3.0301756e-26 -3.4757662e-27 -2.09526e-09 -5.51119e-09 4.3205653e-28
-0.0014663108 -0.0017138091 8.233518e-20 -0.0020840454 -1.4578039e-28 9.8811155e-28 9.7447043e-11 -1.6272255e-27
5.0783364e-28 4.7215413e-27 0.00010474004 0.0005281352 4.505067e-28 3.2834923e-05 9.465127e-06 3.8052348e-28
-0.0025490467 1.7801478e-05 1.0299765e-27 -1.1727197e-27 3.385279e-24 4.011449e-27 1.7087891e-21 -0.0014299297
-1.4495615e-28 -1.3157076e-25 -0.002976183 7.693802e-06 -1.1640858e-27 5.7730744e-05 9.070725e-05 3.0291438e-20
0.00016188358 -1.6884858e-14 -2.0352791e-08 9.670042e-26 0.00012295188 -2.6566393e-27 1.7539623e-27 -1.788988e-26
9.952443e-05 -3.7206855e-28 -1.7695152e-27 2.8371618e-05 -0.00079655385 0.0001682638 -0.0004976496 0.00012814693
-3.776853e-09 -9.309606e-28 9.808809e-10 -0.002596458 1.2314673e-28 -5.454526e-08 -0.0019760013 1.5863007e-25
-9.243285e-28 -0.001406364 -0.0026696569 -2.388495e-27 0.0002690973 -2.436445e-27 0.00013943293 -0.0025031266
-0.0013474905 -0.0016280152 4.7439422e-20 -0.0020051098 1.0267783e-20 3.099751e-23 7.5637124e-10 3.2768784e-14
8.9951325e-26 3.9523135e-10 -1.1848716e-05 0.00036951218 8.61075e-26 -0.000105408384 -5.8997026e-05 1.1146885e-18
-0.002328055 -5.8595564e-05 1.2896632e-25 2.1349176e-21 7.0600654e-20 1.8932705e-20 3.0322766e-14 -0.0012620217
3.392303e-18 2.585583e-10 -0.0027948641 -6.388885e-05 -3.8719262e-22 7.4951454e-06 0.000102772356 8.915004e-21
8.413776e-05 -3.6758892e-23 3.1064207e-09 1.2536494e-26 4.407992e-05 -8.143928e-14 1.2476483e-26 -4.5079525e-25
2.8068729e-05 1.04157666e-26 -8.893008e-25 -3.8430342e-05 -0.0007117916 5.952036e-05 -0.00043486306 6.720875e-05
-3.9204986e-11 3.562724e-26 1.5058639e-08 -0.002355221 -4.5379465e-25 -5.058869e-09 -0.001842758 2.2019763e-25
1.2527134e-12 -0.0012458749 -0.0023843262 -6.7420043e-28 0.00016840895 -2.218557e-22 5.9921007e-05 -0.0022263327
-5.0945165e-08 -5.061412e-08 7.8316975e-24 -3.3529517e-09 6.645935e-13 -3.5174572e-27 -3.0456973e-23 -2.3616736e-10
-1.1426424e-27 -1.0242925e-25 -6.4422484e-10 -2.1117243e-11 -2.459967e-24 -1.3318572e-09 6.2826435e-21 4.0837693e-12
-1.789168e-08 -1.5414975e-11 -1.2982368e-16 2.2336538e-18 4.991604e-13 1.11220346e-13 -8.747894e-28 -2.0793566e-08
8.600526e-12 -8.451821e-23 -3.498121e-08 3.0613441e-15 -6.189844e-14 -4.7380284e-28 -1.7047163e-27 1.3918336e-25
-3.5198847e-26 1.1520013e-19 2.4409745e-27 1.4230148e-27 -3.5829832e-23 9.958561e-10 -4.659703e-27 1.9305838e-27
3.8599201e-22 3.177639e-27 1.9133871e-27 -6.036564e-11 2.0606033e-23 1.8576426e-20 3.9687504e-27 1.601099e-12
-2.9465043e-20 2.57461e-26 1.6533527e-27 -7.480234e-08 -1.5956723e-23 2.446562e-27 -2.2681691e-08 1.3954117e-27
-4.787693e-10 -4.663336e-08 -6.8980296e-15 2.6369143e-26 -4.4816555e-09 -3.228778e-13 -1.2551607e-12 -4.9433893e-08
00000000: f3e5 fa91 f4cb 1aae ad00 1498 e5c7 3cb1
00000010: cd54 b92c d94e b893 2b08 f99e 8af6 4cb2
00000020: ffa2 409a d61c 71b2 737b 50b2 2e5d 12b2
00000030: 3a5d 8b24 20f3 9db2 7865 8893 508a 0e2d
00000040: 2262 cdb1 63b3 32b1 8545 e5af 76be feb1
00000050: e49e 3f13 a752 5c2c e37c 0b91 393a 8fb1
00000060: 479c 0c2e 7a03 0baf 3977 0011 174b 262d
00000070: 8ca2 55b1 cf40 9512 79db c810 a319 3229
00000080: 61a0 5d14 b9a3 30b1 4d4d 1f93 c4b1 4793
00000090: 7139 91b1 ee75 6d2f 0a22 3e95 1e31 1513
000000a0: b641 b1af 6964 1f92 f8b1 7592 3a41 5b13
000000b0: c27f 83ad e214 52a6 8bd1 f611 31fb 052f
000000c0: ed23 26b2 0427 2195 9337 9290 c1bf 3cae
000000d0: 8daf 6320 8afd 4613 55ca 54a9 7df4 4813
000000e0: aaa8 b4b2 1c09 21a8 b417 81b2 0a0c 1615
000000f0: 75b0 8993 34fc 0fb1 f15c bdb1 97ec 0812
00000100: 3a31 c0ba e4a1 e0ba 9068 c21f 7b94 08bb
00000110: 71cc 3891 9192 9c12 cf49 d62e 0eec 0093
00000120: 5cf0 2012 1e0a bb13 e1a7 db38 8e72 0a3a
00000130: 72c5 0e12 3bb8 0938 69cc 1e37 772f f111
00000140: e80d 27bb 6254 9537 cf34 a312 2ad3 b992
00000150: 2ef6 8218 ede8 9e13 ca1c 011d 7b6c bbba
00000160: f6c0 3791 70e0 2296 110c 43bb a114 0137
00000170: ee74 b892 ea23 7238 163a be38 1a0c 0f1f
00000180: 4bbf 2939 d515 98a8 43d4 aeb2 2c6b ef15
00000190: a5ec 0039 0c7b 5293 95f6 0a13 3c2c b194
000001a0: c6b7 d038 93d3 eb91 0832 0c93 96ff ed37
000001b0: d3cf 50ba f86f 3039 b374 02ba 2e5f 0639
000001c0: 8dc5 81b1 4084 9392 aecf 8630 5629 2abb
000001d0: 661b 1c11 2645 6ab3 cd7f 01bb e05f 4416
000001e0: 3877 9292 bf55 b8ba 69f5 2ebb 6f3c 3d93
000001f0: a115 8d39 fa08 4193 be34 1239 7f0b 24bb
00000200: 479e b0ba 2063 d5ba be06 601f 2968 03bb
00000210: f4f3 411e 0fe5 151a e5e8 4f30 d693 1329
00000220: 6db5 de15 de47 d92f d9c9 46b7 16bb c139
00000230: 1d31 d515 b20e ddb8 9373 77b8 be7f a421
00000240: 4892 18bb 82c4 75b8 0fa7 1f16 504f 211d
00000250: 7ab3 a61f 79d0 b21e c58f 0829 6c6a a5ba
00000260: cb4e 7a22 d924 8e2f 0a2a 37bb 11fc 85b8
00000270: 280b ea9b cf7e fb36 7d87 d738 5066 281e
00000280: 1e73 b038 4ec1 319a bb78 5531 944f 7814
00000290: 74e2 3838 8c62 b7a9 491f 7714 ae83 0b97
000002a0: 2375 eb37 364e 4e14 d69c 8997 4430 21b8
000002b0: 8797 3aba 80a5 7938 55fe e3b9 6cf2 8c38
000002c0: e46c 2cae e46a 3015 4c5a 8132 0d5a 1abb
000002d0: 5171 0c97 48d2 adb1 b388 f1ba b54b 8816
000002e0: c24d b02b a04c a3ba 5b42 1cbb a3a9 5592
000002f0: ef96 3039 821a 869b b153 7b38 aae7 11bb
00000300: cdce 5ab3 d062 59b3 b07c 1719 c069 66b1
00000310: 0211 3b2b 4157 8b93 e847 139a 9ad5 81af
00000320: 150f b592 409a fd95 4b15 31b0 cebf b9ad
00000330: ab54 3e98 8f0c b7b0 005a ed1d 53af 8f2c
00000340: 38b0 99b2 7097 87ad 30ad 15a5 87d0 2422
00000350: 4c80 0c2b 2a72 fa29 ad9d 8a92 899d b2b2
00000360: 534d 172d 3d5a cc9a 3f3e 16b3 d597 5c27
00000370: 0562 8ba9 7427 1692 c10f 0793 f84c 2c16
00000380: d74b 2e95 1a01 0820 d864 4113 577c e112
00000390: 2f43 2d9a 92de 8830 0197 b893 e4f4 1813
000003a0: 5f51 e91b 2dc2 7b13 1a98 1713 d6be 84ae
000003b0: 114a c719 0b73 af1e e937 9d13 ac55 e12b
000003c0: 0d25 0b9f 1efa fe14 fafd 0213 05a3 a0b3
000003d0: ef52 9a99 2cd6 4113 91d5 c2b2 a01c dd12
000003e0: 659a 03b0 ec49 48b3 1887 f8a7 dc92 0215
000003f0: 0ffd 99b1 98c3 b5aa eea5 b0ab 2451 54b3
