models_o2/reinforce_ep1000.pth (torch, 115817 bytes, 18 tensors)

0.weight f4 [64, 70]
000000 65 b1 b1 3d 89 01 ff 3c f3 7f 87 3e 56 74 70 bc
       0.086764134 0.031128662 0.26464805 -0.014676174
000010 9e d9 e0 bd 35 a3 92 bc 2d d4 d5 bd f8 72 a3 3d
       -0.10979007 -0.017900089 -0.1044086 0.07980913
000020 7f 98 2a bd b9 45 7a be ed 8e ea 3c 8e 09 cb 3c
       -0.041649338 -0.2444066 0.028632605 0.02478483
000030 ed 82 d4 3c 77 55 f1 bd 7d a0 8e 3d 3c 08 4d bc
       0.025941337 -0.11783879 0.069642045 -0.01251417
000040 47 15 5e be 53 48 46 3d 14 7b a9 3d e3 dd 3c 3d
       -0.21687804 0.048408817 0.082754284 0.046110045
000050 d5 9f 0f 3b 24 ce f5 3c e7 17 83 b9 ae 09 2b be
       0.0021915336 0.030005522 -0.00025004076 -0.16702911
000060 ca 0a f7 3b 09 54 6d 3d 3a 39 b9 b9 cb ff e2 3c
       0.007539128 0.05794147 -0.00035328587 0.027709862
000070 76 3e 0d bd a4 f4 19 bd 8e 4e 7d bd fe da b9 3c
       -0.034483396 -0.037586823 -0.061842494 0.022687431
000080 cc e0 b4 3b e8 50 5b 3c 91 f8 7e 3c b2 82 99 bd
       0.005519962 0.013385989 0.015562193 -0.07495631
000090 31 d2 f8 bb e6 4c 65 3c 5b c9 a0 3c 0b 75 34 bd
       -0.007593416 0.013995385 0.019627264 -0.044056933
0000a0 03 6a 25 3b 90 42 4d bc 16 c0 f8 bd d5 57 b6 3c
       0.002524019 -0.012528077 -0.121460125 0.022258678
0000b0 23 62 a5 3d 8f a0 0a 3a b9 ed c6 bd cb bd ac 3b
       0.08075359 0.00052882073 -0.09713311 0.0052716485
0000c0 80 e4 89 bd 15 eb c7 bd 27 46 cc bc c7 47 5b 3d
       -0.06733036 -0.09761635 -0.024935795 0.05353525
0000d0 51 d6 9a 3c 66 06 99 bd 32 d7 c4 3c cf 69 34 bd
       0.018901022 -0.074719235 0.024028394 -0.04404622
0000e0 20 36 99 bd a6 bd c7 bb d4 7a 1e 3d 39 fa 7c 3c
       -0.07481027 -0.006095606 0.038691357 0.015440517
0000f0 8e 9d 76 bd a4 66 3e 3c c9 d6 07 bd 56 de 94 bd
       -0.06020885 0.011621151 -0.03316382 -0.0726897
000100 d6 02 75 3c a0 6f b3 3d 12 e5 57 3c 87 0a a4 bd
       0.014954289 0.08761525 0.013177173 -0.080098204
000110 cf 2e 67 3b 83 38 83 bd a4 80 9d 3c 2f bb 1d 3c
       0.0035275703 -0.06407263 0.01922638 0.009627148
000120 97 48 ed bd 59 71 88 3b 52 84 de b9 a8 af 5f 3b
       -0.11586111 0.0041639027 -0.00042441726 0.00341318
000130 43 5e a8 bb 81 75 a4 3c 91 5f 89 3a 1b ec d1 3d
       -0.00513819 0.020075561 0.0010480752 0.10250112
000140 c4 8f d3 3c af 4c 52 3d ba 4f d1 3c d6 da 75 3d
       0.025825389 0.051342662 0.025550712 0.06002315
000150 2d 73 d6 3c 17 91 40 bc 09 5a 60 3d cd f9 36 bc
       0.026177967 -0.011753342 0.054773364 -0.011167956
000160 c2 20 5e 3c dd a3 17 bc 43 a1 b7 3c e0 bb 08 3d
       0.013557615 -0.009255377 0.022415763 0.033382297
000170 53 50 de bc e6 22 63 3d dd 7e d9 3b ac 50 9b 3b
       -0.027137911 0.055453204 0.0066374377 0.0047398414
000180 f7 9e 21 3c 3e 3d 26 bc 82 3c 90 3d a2 f0 2f 3b
       0.00986456 -0.010146437 0.07042791 0.002684631
000190 04 68 50 3c a4 26 38 bc 49 3d a0 3c c7 36 81 3a
       0.012720112 -0.011239681 0.019560473 0.0009858244
0001a0 7f c5 32 bc 5c 67 ac 3d 97 ba 02 3d 7a 2e 10 bd
       -0.010911345 0.08418152 0.031916227 -0.035200574
0001b0 4e 73 37 bd 21 f2 31 3d 56 c8 2f bd ea 43 65 bc
       -0.044787697 0.043443803 -0.042915665 -0.013993243
0001c0 97 a7 e0 3d bf c0 5b 3d c3 68 94 bd 7c ab 69 bd
       0.10969465 0.053650614 -0.07246544 -0.057048306
0001d0 46 e8 a9 3d 1d c7 9c bd 5c bd fe 3c b8 a4 85 3d
       0.08296256 -0.07655165 0.031096153 0.06525558
0001e0 5d 14 82 3d d5 b4 75 bc 9b b8 28 bd eb c0 19 3d
       0.0635154 -0.014996727 -0.04119168 0.037537497
0001f0 cf f2 52 bd 8b 6f 8e ba d3 80 8c 3d 8d 31 22 bc
       -0.05150109 -0.0010866983 0.06860509 -0.009899509
000200 de 6d b5 bd 13 fa 73 bc 7a 63 a3 3d 7b 78 63 bc
       -0.08858846 -0.014891165 0.07977958 -0.013883705
000210 c2 3b 9d 3d 63 2a 7c 3d 79 ea b1 bc 36 75 0a be
       0.076774135 0.06156386 -0.02171825 -0.13521275
000220 11 d8 70 bc 7f 7e b7 3d 87 e6 a4 bb 0c 3e e4 3d
       -0.014699952 0.08959674 -0.005032364 0.11144647
000230 8c 43 85 3d c4 ea 2e 3c fa 58 8f 3e 01 e2 4e bc
       0.06507024 0.01067609 0.2799757 -0.012627126
000240 a0 ba af bd 86 55 76 bc da 3f ac bd d6 ab 71 3d
       -0.08580518 -0.015035039 -0.08410616 0.059001766
000250 d1 a7 be bc 46 1b 80 be db 57 d7 3c fe b1 96 bb
       -0.02327338 -0.25020808 0.02628701 -0.004598855
000260 68 a3 ba 3c f1 64 12 be 15 ad 49 3d 47 92 cc bc
       0.022782996 -0.14296319 0.04923733 -0.024972094
000270 95 d3 5d be a9 71 25 3d 30 d3 82 3d 01 ec 15 3d
       -0.21662743 0.040391598 0.06387937 0.036602024
000280 b8 64 43 bc 75 d7 3c 3c bf df 34 bc a2 26 1e be
       -0.011925869 0.011525978 -0.011039673 -0.15444425
000290 00 24 dd 3c e0 63 29 3d 59 1a a3 3c e9 45 bf 3c
       0.026994705 0.041355014 0.019910024 0.023348765
0002a0 ca b8 4e bd d7 93 18 bd ef 7b 7b bd 6b 94 d5 3c
       -0.050469197 -0.037250366 -0.06139749 0.026071748
0002b0 f7 24 b8 bb 75 0a a4 3c 35 e9 28 3c ed 1e cb bd
       -0.005619641 0.020024518 0.010309507 -0.09918008
0002c0 50 d7 12 bc f4 be e6 3c cf 94 e1 3b 31 72 88 bd
       -0.008962467 0.028167225 0.0068841944 -0.06662405
0002d0 a8 3b 07 bb 92 cd f4 bc 94 31 17 be 6b b2 42 3d
       -0.0020634923 -0.02988318 -0.14765006 0.047533434
0002e0 e1 9e dc 3d 10 8d 65 bc cf 14 ff bd 22 cd 2d bc
       0.10772491 -0.014010683 -0.12455141 -0.0106079895
0002f0 ea 2f be bd 6f 00 fe bd 19 34 36 bc 4c 3b 9c 3d
       -0.09286483 -0.124024265 -0.0111208195 0.076284975
000300 10 26 98 3c 5b f9 cb bd 4b 16 06 3d 84 e3 86 bd
       0.018572837 -0.0995967 0.032736104 -0.06586364
000310 e9 be b7 bd b6 d3 9e bc 77 06 19 3d a6 9b 7f 3c
       -0.0897196 -0.019388061 0.03735968 0.015601074
000320 ac 99 9b bd 7b c3 c9 3c 86 4d 39 bd f5 c6 b4 bd
       -0.0759767 0.024629345 -0.045239948 -0.088270105
000330 e0 af 60 bb e4 d8 80 3d 16 bf f8 3c 4f 5b ab bd
       -0.0034284517 0.062913686 0.030364554 -0.08367025
000340 2c 1f 40 3c ed 6e 2f bd b0 fa d3 3c 9a 43 2a 3c
       0.011726182 -0.042830396 0.025876373 0.010392094
000350 73 b4 01 be dd 7a f8 3b 2b 57 02 3b c0 58 ad 3b
       -0.12666492 0.007583006 0.0019888382 0.005290121
000360 74 07 2a bc 93 59 eb 3c 92 d8 f8 bb 00 f8 c0 3d
       -0.0103777535 0.028729236 -0.0075941766 0.09422302
000370 49 5e e2 3c f8 f9 57 3d f8 d8 ff 3c 2b df 98 3d
       0.02763285 0.052728623 0.031231388 0.07464441
000380 70 86 06 3d 15 16 e6 bc 95 81 88 3d b6 b2 5d bc
       0.032843053 -0.028086701 0.06665341 -0.013531378
000390 2c db ea 3b 35 31 71 bb 54 aa 2e 3c ba 10 2d 3d
       0.0071672406 -0.0036803011 0.010660727 0.04225228
0003a0 1d a4 e4 bc bf 60 45 3d 65 8f 1b 3b cc 53 33 3b
       -0.027910287 0.048187967 0.0023736593 0.002736318
0003b0 19 e8 bd 3b fd 9f 98 bc 8a ac 98 3d 62 07 48 3c
       0.0057954905 -0.018630976 0.07454784 0.012208791
0003c0 d7 5b fe 3b ce 87 bd bc 42 3e a2 3c cd b1 1a bc
       0.007762413 -0.023136046 0.019805077 -0.009441805
0003d0 28 a3 90 bc 22 50 b8 3d a6 d3 f7 3c 1e 61 4a bd
       -0.017655924 0.08999659 0.030252289 -0.049409024
0003e0 ad d2 3f bd f3 5a 4e 3d 98 8d 36 bd 10 9c 11 bb
       -0.046831775 0.050379705 -0.044568628 -0.0022218265
0003f0 19 93 d8 3d 99 38 74 3d ef a2 a1 bd 95 6b 60 bd
       0.10574932 0.05962429 -0.07892405 -0.0547901

0.bias f4 [64]
000000 51 3c b5 3d 4e 14 a2 3c 60 0d 85 3d 8d 4e d4 3c
       0.08849395 0.019785073 0.06496692 0.025916362
000010 c8 df e8 3c d4 cd 13 b8 da 3b 0a 3d dd a5 2d bb
       0.02842702 -3.5239224e-05 0.033748485 -0.0026496567
000020 ac 3c 80 b8 e2 96 a3 3c 66 4e 82 3c 19 09 ea 3c
       -6.114817e-05 0.019969407 0.015906524 0.028568791
000030 61 32 13 ba 0b 27 a0 3c 94 f7 8f bb 9c 78 fc b9
       -0.0005615112 0.019549867 -0.0043935273 -0.00048155047
000040 26 86 c2 b9 d2 31 b3 3c 7d fa 4c 3c 51 af b4 3c
       -0.00037102512 0.021874342 0.012510893 0.022056254
000050 71 d6 19 bb 74 85 fe ba 15 71 62 bb 57 31 36 bb
       -0.0023473764 -0.0019418434 -0.0034552265 -0.0027800405
000060 49 ac 88 3b cc 11 97 3d f1 e8 9c 3d 07 b8 ae 3c
       0.0041709286 0.07376441 0.076616175 0.021327985
000070 65 70 4b 3d 52 c3 3e 3c a6 f7 d3 3b 11 53 e9 ba
       0.049667735 0.011643248 0.006468731 -0.0017801245
000080 2e e8 67 3d ce 03 33 bb 69 bf cc 3d 60 9b 14 bb
       0.05661791 -0.00273155 0.09997446 -0.0022675619
000090 ed 08 86 b1 ce 95 2f ba 57 eb ea a7 a6 e7 46 bb
       -3.900928e-09 -0.0006698043 -6.5203203e-15 -0.0030350476
0000a0 22 cc 7f bc 51 1a c5 3c 7a f6 81 bb e1 52 ab 3b
       -0.015612634 0.0240604 -0.00396615 0.005228386
0000b0 44 3d e0 bb 1c b6 38 bb 93 d0 0f 3d 40 18 88 ad
       -0.006843241 -0.0028184718 0.03511102 -1.5472179e-11
0000c0 b1 5f b3 ba e1 40 62 bb 2c 93 98 ba 6c f1 39 b5
       -0.0013685134 -0.0034523534 -0.001164054 -6.9269186e-07
0000d0 d9 59 21 ac de 52 a6 b9 a6 50 bd ba c0 aa d0 3c
       -2.2929352e-12 -0.00031723728 -0.0014443591 0.025472045
0000e0 6d d8 a7 3c cd 20 97 3c 53 99 9b 3d 6c 53 89 3c
       0.020488942 0.018448258 0.07597604 0.016763411
0000f0 40 db b6 3d e5 c4 8e 3c be 50 d4 b7 2f f8 57 b7
       0.08928537 0.017427871 -2.5309968e-05 -1.2872783e-05

3.weight f4 [64, 64]
000000 d8 b8 b6 17 59 ba ab bb 0c 81 69 bb 96 56 ca ba
       1.1808135e-24 -0.00524072 -0.0035629896 -0.0015437182
000010 b7 cf 11 bb 6b ba 24 92 ef 25 d3 ba fc 55 2f 14
       -0.0022249052 -5.1979053e-28 -0.0016109328 8.8521996e-27
000020 1f 23 69 2c eb 4f 5f ba 67 e8 b5 ba 30 2e 03 bc
       3.3130788e-12 -0.00085186836 -0.0013878465 -0.008006617
000030 e8 37 66 14 5e a7 0b bc 48 34 68 19 da e3 00 ab
       1.1623058e-26 -0.00852379 1.2004677e-23 -4.579094e-13
000040 bb ae 80 99 9f d9 b1 bb dd 2e a8 bb 56 62 1a bb
       -1.3305463e-23 -0.005427554 -0.0051325397 -0.0023557148
000050 a9 8c 83 92 b7 e0 e6 14 a2 55 62 1b b2 1e 6c b6
       -8.301938e-28 2.33127e-26 1.8721951e-22 -3.5184607e-06
000060 a2 cc a8 bb 1e b0 b1 bb 00 7d 01 bb d3 6c a3 3a
       -0.0051513473 -0.005422606 -0.0019758344 0.0012468345
000070 26 d3 83 92 39 00 ad bb ab 93 1d bc a3 83 c3 1c
       -8.319314e-28 -0.0052795676 -0.009617726 1.2938045e-21
000080 98 3d 8b 93 c1 54 9b 14 95 19 b9 ba 76 fa 9d 0f
       -3.514927e-27 1.568443e-26 -0.0014122004 1.557787e-29
000090 fe 13 00 14 bd 69 6a 93 d2 9d 0d 94 ce 1e f7 94
       6.466291e-27 -2.9587085e-27 -7.149805e-27 -2.4952777e-26
0000a0 64 7c b9 9a d7 b4 8d ba 17 a2 b5 a9 67 a2 7d 3a
       -7.671517e-23 -0.0010811341 -8.066133e-14 0.0009675384
0000b0 7a a1 0f b7 f9 cc 42 16 a8 e8 a7 bb 4b 3c 8a 93
       -8.561061e-06 1.5735873e-25 -0.0051241703 -3.489555e-27
0000c0 52 f2 fe 17 7f 65 88 9d db e5 47 a4 95 3a 90 94
       1.6475536e-24 -3.6103845e-21 -4.334594e-17 -1.456339e-26
0000d0 b3 d8 e6 12 fc 39 30 ad ac e4 a9 98 c0 d5 13 bc
       1.4568461e-27 -1.0017317e-11 -4.3916376e-24 -0.00902313
0000e0 58 ab cb 3a 77 cd 30 bc f3 fe 3e 17 aa 1e 62 bb
       0.0015538735 -0.010791174 6.17141e-25 -0.003450314
0000f0 64 3c 56 af 68 70 b1 18 ba 12 45 b2 3c de c1 13
       -1.9484642e-10 4.586693e-24 -1.1471167e-08 4.893919e-27
000100 ba c2 68 bd b8 44 cc 3d a0 a8 71 bd 08 32 c7 3d
       -0.05682633 0.099740446 -0.058998704 0.097263396
000110 40 c8 d8 3d e5 fa 5c 33 49 9f e4 3d 25 79 29 3b
       0.1058507 5.145093e-08 0.11163194 0.0025859561
000120 7e ee 84 38 e4 4c e0 3d 8f 82 d0 3d 07 b2 ca 3d
       6.338673e-05 0.10952166 0.10181152 0.09897237
000130 b7 df 83 39 33 fd e3 3d 44 bd d9 38 ce ed 11 b8
       0.00025152948 0.11132278 0.0001038262 -3.4792167e-05
000140 7b dc 17 35 52 56 c7 3d 90 f1 cc 3d 2c b7 d1 3d
       5.6572725e-07 0.09733261 0.10007012 0.102400154
000150 af 76 32 3a 59 76 da 16 df 29 93 3a d9 10 c7 3a
       0.00068078464 3.5294487e-25 0.0011227689 0.0015187516
000160 91 eb c1 3d 0c 3b 39 bd cb da 25 bd e5 a0 be 3d
       0.09468759 -0.045222327 -0.04049186 0.09308032
000170 09 52 b0 bd 65 06 dc 3d 2d e2 ac 3d c5 5f 83 37
       -0.08609397 0.10743407 0.08441577 1.5661013e-05
000180 5f 9b 7b bd 0b 3f 13 36 26 eb 1a bd 4a 7a bb bb
       -0.06142747 2.1941403e-06 -0.03782191 -0.005721365
000190 bc f4 ad 1b ed 48 ac 38 5a d5 18 9a 14 39 77 38
       2.8778605e-22 8.2151826e-05 -3.1605207e-23 5.8942547e-05
0001a0 bb 2a 92 3c 63 0e cf 3d f6 b1 6c 3b 02 f5 b0 3d
       0.017842641 0.10110166 0.0036116815 0.086404815
0001b0 5a 83 8e ba 53 13 64 3a ec 0b db 3d a7 16 05 95
       -0.0010872886 0.00087003893 0.10695633 -2.6877006e-26
0001c0 47 79 c4 39 97 a6 47 ba 74 45 63 35 d6 96 32 9a
       0.00037474392 -0.00076160714 8.466516e-07 -3.693138e-23
0001d0 30 da 82 b7 0e 2f 9a b6 5e 6c d5 35 71 cd b6 3d
       -1.559881e-05 -4.5950355e-06 1.5901276e-06 0.089259036
0001e0 ef ce aa 3d 4b d5 e5 3d e5 c0 5d bd 06 ff c8 3d
       0.08340251 0.11222323 -0.054139037 0.09814267
0001f0 f8 1e 72 3c e3 81 47 3d c6 b5 8f b8 66 bd 86 33
       0.014777891 0.048707854 -6.852629e-05 6.2743126e-08
000200 94 40 48 bd ac 47 e2 3d 4c 3a 8b bd 60 dc d7 3d
       -0.04888971 0.110488266 -0.067982286 0.1054008
000210 32 89 eb 3d 86 39 b5 9e 63 37 eb 3d 02 65 c7 ba
       0.11500777 -1.9187912e-20 0.114851736 -0.0015212598
000220 9d 2f e0 13 df 02 f2 3d 53 67 e1 3d 47 f6 d4 3d
       5.65925e-27 0.11816954 0.11006036 0.10398536
000230 07 36 14 b8 dd ef f9 3d d2 67 2d bb e6 ed c9 b7
       -3.5336267e-05 0.122039534 -0.0026459587 -2.4071847e-05
000240 fb dc 61 b7 2f aa e8 3d 05 dc cc 3d 24 b6 e8 3d
       -1.3462496e-05 0.11360585 0.10002903 0.113628656
000250 fb 7e 3f 33 df 07 a8 96 d2 6b c5 37 c2 ea f2 ba
       4.458614e-08 -2.714683e-25 2.3534438e-05 -0.0018533098
000260 0c f3 e0 3d 6c 77 4d bd 53 79 23 bd 37 0b f0 3d
       0.109838575 -0.050162718 -0.039910626 0.11720889
000270 dc 6d c1 bd 32 64 e4 3d b6 3c ad 3d 0d 8f a9 18
       -0.09444782 0.11151923 0.08458845 4.382992e-24
000280 8b 84 88 bd 7b 67 22 9f 35 8b f7 bc 74 87 53 bb
       -0.066659056 -3.439043e-20 -0.030217746 -0.0032276781
000290 d8 be fe 95 3f 96 89 b6 36 2b f2 95 18 db b7 34
       -1.0289088e-25 -4.100409e-06 -9.7811196e-26 3.4245818e-07
0002a0 22 c7 8d 3c b6 3e de 3d a1 b0 a7 ba fb be b3 3d
       0.017306868 0.10851805 -0.0012793728 0.08776661
0002b0 59 69 20 3c 03 1b fa b8 61 33 d0 3d 7f 90 37 15
       0.009790742 -0.0001192596 0.1016605 3.7070543e-26
0002c0 e4 ad 85 b7 db ae 69 bb a5 4f 46 35 be dc e7 16
       -1.593581e-05 -0.00356572 7.3876646e-07 3.745937e-25
0002d0 ee d7 09 37 7e 46 b8 b6 03 58 65 20 98 18 e2 3d
       8.216111e-06 -5.4918337e-06 1.9426175e-19 0.11039847
0002e0 53 86 bb 3d ea c2 e0 3d 35 87 56 bd 98 4b df 3d
       0.0915648 0.10974677 -0.052375037 0.1090309
0002f0 6a 2a 7b 3b 21 17 87 3d ea de a1 35 84 23 89 1f
       0.0038324841 0.06596208 1.2060311e-06 5.808051e-20
000300 e1 19 3a bd 01 6d bf 3d a7 43 39 bd 51 20 ba 3d
       -0.045434836 0.09346963 -0.045230534 0.09088195
000310 41 f1 ce 3d a6 96 80 37 fb 74 d5 3d 78 aa 2b 3b
       0.10104609 1.532894e-05 0.10422703 0.0026194137
000320 1b 4c 24 3a ca 76 c1 3d 6e 13 bb 3d 0d e4 cb 3d
       0.0006267444 0.09446485 0.09134565 0.099556066
000330 27 b4 49 3a 47 d5 bb 3d 44 4c 1d 3b ec 41 96 b7
       0.00076943863 0.09171539 0.0024001757 -1.791209e-05
000340 bb f1 dc b4 a0 bd c6 3d 16 88 af 3d 69 38 c9 3d
       -4.1154075e-07 0.09704137 0.08570878 0.098252125
000350 99 58 88 3a 22 61 63 9a 54 3c 43 3b 7b 51 9b b9
       0.0010402381 -4.7020963e-23 0.0029790597 -0.00029624611
000360 73 a5 c3 3d 61 cd 1a bd 5e 69 02 bd 17 0e b0 3d
       0.09553041 -0.03779352 -0.031838767 0.085964374
000370 05 08 91 bd 46 cf bd 3d 34 7b 8c 3d 29 f4 05 39
       -0.07081608 0.0926805 0.06859437 0.00012774825
000380 68 7b 43 bd ce 7b c8 37 44 34 e2 bc 38 13 2d bb
       -0.04772511 2.3899509e-05 -0.027612813 -0.002640916
000390 b5 cc 2a 21 30 ca c4 39 5f 3d cc ab 85 97 2f b9
       5.786917e-19 0.00037534675 -1.4512106e-12 -0.00016745746
0003a0 21 18 8d 3c ee 68 b5 3d d5 d6 42 3b 4e 68 9c 3d
       0.01722342 0.088579044 0.00297301 0.07637082
0003b0 c0 15 03 bb de 67 c4 3a bb 36 b0 3d 72 ef e7 13
       -0.0020001978 0.0014984568 0.08604189 5.854871e-27
0003c0 ca d7 ef 3a 2d 91 a9 3a c0 36 29 35 63 13 03 23
       0.0018298563 0.0012936943 6.303708e-07 7.1056295e-18
0003d0 6c e2 9e b9 5a af 9c 39 ef 83 81 35 95 89 bb 3d
       -0.00030304806 0.00029885286 9.649647e-07 0.09157101
0003e0 01 af 9b 3d e8 e7 c7 3d ab 15 3f bd 68 4c b4 3d
       0.07601739 0.097610295 -0.046651524 0.08803636
0003f0 a5 37 03 3c 9f 86 1d 3d 72 fc fb b8 52 d1 b0 37
       0.008008872 0.038458463 -0.00012015634 2.1078307e-05

3.bias f4 [64]
000000 45 06 35 bc 54 5d d5 3c 86 72 c0 3c 31 b7 ee 3c
       -0.011048858 0.026045479 0.023492109 0.029140087
000010 c0 a6 a2 bb 3c 7c c1 bb f6 0b 05 3d 3b e2 9c 3d
       -0.004963726 -0.0059047025 0.03248211 0.076603375
000020 cd ce 9a bb bd e0 c2 bb a8 8a bd bb cf a0 1f bc
       -0.0047243596 -0.005947201 -0.0057843514 -0.00974293
000030 03 8e a7 3d ce 45 ba 3c 40 f9 2a bc 31 fd b7 3d
       0.081813835 0.022738364 -0.010435402 0.08983839
000040 1e 93 aa bb 4c f3 9c 3d ef 1d c1 bb 28 84 58 bb
       -0.005205526 0.07663593 -0.005893461 -0.0033037756
000050 62 55 95 3d 3c a4 ac 3d 70 e0 03 bc 40 07 db bb
       0.07291676 0.08429763 -0.008049116 -0.006684214
000060 19 0d 52 bb 5b b7 90 3d 8a 7c 1e bc 8a 0c 64 3c
       -0.0032051264 0.07066222 -0.009673247 0.013919005
000070 54 66 89 bb ee e9 bc bb e5 1b c1 bb c2 7d 6f bb
       -0.0041931067 -0.0057651913 -0.005893218 -0.0036543463
000080 2d 1f a2 bb 6c 62 bb bb 9f 94 c1 bb 61 a2 b4 bb
       -0.004947564 -0.00571852 -0.0059076096 -0.005512521
000090 aa 93 8b bb 9f 47 b4 bb 4f 0e 59 bb 91 b5 e6 bb
       -0.0042595463 -0.005501702 -0.00331201 -0.0070406874
0000a0 b6 af 95 bb af 85 07 3d 47 33 a9 bb a4 ec cf 3c
       -0.0045680655 0.033086475 -0.0051635834 0.025381394
0000b0 5d 74 81 3d 6f d6 51 bb b5 32 7a bb b5 32 a4 bb
       0.06321023 -0.0032018682 -0.0038177196 -0.0050109276
0000c0 43 ab a3 3c b5 30 9b bb 1c 05 bd bb f5 9b 96 3c
       0.019979125 -0.004736031 -0.0057684314 0.018384913
0000d0 e6 5b 9f 3d 19 3d 8e bb 8e b5 b4 bb 1b 4c cc 3c
       0.077812 -0.0043407795 -0.005514807 0.024938634
0000e0 32 55 3a 3d 24 f9 65 bb c9 89 be bb 53 60 93 3d
       0.045491405 -0.0035091126 -0.005814765 0.07196107
0000f0 3e ec 73 bb a9 f6 03 3d cc c5 a3 bb 8f 18 c1 bb
       -0.0037219669 0.032217655 -0.0049979445 -0.00589282

6.weight f4 [4, 64]
000000 84 8e 7d 12 1a a8 e2 94 a2 f8 8f 14 be 10 aa 14
       8.000839e-28 -2.2886473e-26 1.4537378e-26 1.7172217e-26
000010 cf 7a e5 93 35 da 51 11 b2 7c 13 11 30 e8 87 94
       -5.7928826e-27 1.6554433e-28 1.163468e-28 -1.3723098e-26
000020 1a b7 f4 13 3f 27 53 13 8a b7 e7 92 6b 32 9c 94
       6.177481e-27 2.6651294e-27 -1.4623395e-27 -1.5771861e-26
000030 1d 38 f1 14 7f 0b 48 12 aa fd db 91 b3 5a 44 14
       2.4356914e-26 6.3123042e-28 -3.470844e-28 9.9133585e-27
000040 54 71 07 15 67 98 c8 90 54 0f 33 93 66 da 01 93
       2.7352433e-26 -7.9120904e-29 -2.2600534e-27 -1.6389768e-27
000050 79 22 f7 13 2b 7e db 14 76 e7 e0 93 93 fe 5e 14
       6.238556e-27 2.2163113e-26 -5.6773788e-27 1.1258342e-26
000060 62 14 e6 8f 62 ed bc 13 7e d9 0c 15 f0 d5 82 14
       -2.2687602e-29 4.769195e-27 2.8444346e-26 1.3211029e-26
000070 fe 21 b3 12 9d f5 74 93 f6 34 a7 14 43 18 a8 14
       1.1304868e-27 -3.0918226e-27 1.688358e-26 1.6973234e-26
000080 90 c6 6f 14 48 1c 82 92 26 fa fe 14 b9 1d 25 92
       1.2105576e-26 -8.211125e-28 2.5746112e-26 -5.2101456e-28
000090 d1 25 61 91 a9 31 dd 93 66 4b c6 12 b7 33 86 94
       -1.7761023e-28 -5.583721e-27 1.2514144e-27 -1.355094e-26
0000a0 71 e1 b4 94 59 7b 54 14 18 e4 73 13 eb 59 ea 93
       -1.8264276e-26 1.0727591e-26 3.078337e-27 -5.915857e-27
0000b0 ad 6d 85 93 9f d3 61 93 c5 f9 56 94 e9 23 bc 14
       -3.368207e-27 -2.850333e-27 -1.0853497e-26 1.8997313e-26
0000c0 d6 b4 82 93 67 92 14 94 a9 31 f9 92 54 df 6f 94
       -3.299493e-27 -7.500963e-27 -1.5726351e-27 -1.211046e-26
0000d0 cd 62 ac 14 30 80 25 14 99 6c 9d 92 c5 1c 1e 94
       1.7406532e-26 8.355652e-27 -9.934864e-28 -7.982635e-27
0000e0 1b d9 6e 14 cc d2 32 93 b6 c4 3f 94 a6 fb df 12
       1.2058746e-26 -2.257069e-27 -9.68183e-27 1.4135315e-27
0000f0 c2 0c 5d 92 0c 3b c5 93 5b 15 bf 93 8e e4 a2 11
       -6.975103e-28 -4.9788016e-27 -4.8236237e-27 2.569995e-28
000100 53 e7 a2 10 e5 59 6e 14 bb 3f 90 94 18 93 bb 94
       6.4254145e-29 1.2033658e-26 -1.4565421e-26 -1.8940193e-26
000110 0d 04 e8 94 b4 d4 33 93 50 a4 4f 12 4d a7 88 93
       -2.3427611e-26 -2.2697847e-27 6.5520214e-28 -3.4496198e-27
000120 04 e4 ec 93 68 47 82 12 30 c7 bf 14 b4 da 99 14
       -5.9799616e-27 8.221756e-28 1.9364637e-26 1.5535315e-26
000130 2a 6a 9e 14 af 47 b8 14 2f 4e 25 93 21 05 9e 94
       1.5995797e-26 1.8607526e-26 -2.0864475e-27 -1.5955946e-26
000140 db 22 eb 14 8b bc df 13 b1 4c a3 94 a9 2d fb 93
       2.3742684e-26 5.647903e-27 -1.6489043e-26 -6.3406332e-27
000150 a4 ee 1e 13 10 b6 ba 13 1d 17 e4 93 0b 1c 33 13
       2.0060063e-27 4.713253e-27 -5.7578083e-27 2.2606803e-27
000160 cd 31 8f 13 01 8b 0e 94 33 09 47 14 bd 5b e7 93
       3.6147382e-27 -7.1965816e-27 1.0048747e-26 -5.840306e-27
000170 06 9a 1b 94 d7 12 05 14 12 fd 77 93 0b 2c 72 14
       -7.855876e-27 6.7184995e-27 -3.1300556e-27 1.2226564e-26
000180 82 95 86 14 9e 9e f1 93 de 5d 00 15 e5 e9 bb 94
       1.3589513e-26 -6.099336e-27 2.5923442e-26 -1.897443e-26
000190 cf b0 c2 13 8a 6c a4 13 97 85 4a 94 14 47 87 10
       4.914683e-27 4.150645e-27 -1.022474e-26 5.3357624e-29
0001a0 f5 19 7b 13 ef 27 07 14 fb 38 a4 94 bb 0a 00 95
       3.1693452e-27 6.823634e-27 -1.6582243e-26 -2.585786e-26
0001b0 2f ba a1 93 f4 1c 51 13 a6 3c 70 12 b5 22 84 12
       -4.0825705e-27 2.6393784e-27 7.58054e-28 8.338927e-28
0001c0 d7 c7 5a 14 04 36 0d 14 7d f2 f8 13 9f 1e 33 93
       1.1045599e-26 7.1293335e-27 6.2843113e-27 -2.2608074e-27
0001d0 ee 45 f4 12 ce b5 0a 91 e5 e8 95 13 29 21 8f 92
       1.5415804e-27 -1.0942303e-28 3.784254e-27 -9.032743e-28
0001e0 04 91 3d 93 60 95 57 14 3a 74 e0 93 96 01 82 94
       -2.3926652e-27 1.0884185e-26 -5.6660158e-27 -1.3127271e-26
0001f0 14 2d 32 93 60 a2 ff 14 dc 3a c2 14 69 11 68 93
       -2.2488984e-27 2.5812466e-26 1.961221e-26 -2.92911e-27
000200 fc 42 c1 39 cd 0e d8 bd a7 c1 d7 bd ce b3 d3 bd
       0.00036861736 -0.10549698 -0.10534983 -0.103370294
000210 a3 e5 a9 ba c7 f4 ef ba 34 31 d4 bd 31 d7 56 3e
       -0.0012962114 -0.0018307202 -0.10360947 0.20980527
000220 77 71 ac 35 b0 ea 02 bb 74 bc f5 b4 9a 6f eb ba
       1.2848021e-06 -0.001997631 -4.5771924e-07 -0.0017962337
000230 a8 bc 67 3e 74 51 c2 bd 67 25 02 3a 12 6e 75 3e
       0.2263056 -0.09488192 0.000496468 0.2396777
000240 22 0d 94 3b 47 56 6b 3e fc 02 9f 39 39 6b fc a0
       0.004518167 0.22982131 0.00030329067 -4.2761415e-19
000250 31 5b 5c 3e f9 ff 6a 3e 99 8f 90 bb 85 d3 67 bb
       0.21519162 0.22949208 -0.0044116494 -0.0035373878
000260 6d 0c c3 ba c8 ab 7a 3e a6 9f 69 36 a6 e1 b4 bd
       -0.0014881023 0.24479592 3.4812633e-06 -0.088321015
000270 ad b0 8d 3b 4d 3d a0 2a aa 48 92 39 95 41 9d 9b
       0.00432404 2.8464245e-13 0.0002790143 -2.6015853e-22
000280 14 3f b0 1c 95 84 48 b6 73 1a 9f 95 dd 99 35 ba
       1.1663008e-21 -2.9879495e-06 -6.426132e-26 -0.00069275295
000290 ae c1 9d bb 83 9f 0a 21 7d 25 b7 16 37 a6 e9 ba
       -0.004814348 4.696733e-19 2.9588903e-25 -0.0017826025
0002a0 3f e3 6e ba aa ac d2 bd d0 bd e4 ba c7 a8 e2 bd
       -0.0009112842 -0.10286839 -0.0017451588 -0.11067348
0002b0 cd 29 5e 3e ab ed 92 95 c2 5e 28 96 d8 fc 41 b0
       0.21695633 -5.9343904e-26 -1.3600832e-25 -7.0572304e-10
0002c0 07 c1 dc bd 60 f8 2d bb 03 ab 94 b2 2d 3a c6 bd
       -0.107790045 -0.0026545748 -1.7307235e-08 -0.09679065
0002d0 7f a9 70 3e a4 a2 81 35 25 b3 82 96 c4 01 d0 bd
       0.23502158 9.658584e-07 -2.111569e-25 -0.10156587
0002e0 30 2a f9 bd c8 47 c5 9b e1 61 01 99 30 bd 64 3e
       -0.1216625 -3.2637304e-22 -6.68891e-24 0.22337794
0002f0 70 46 2f 3a 34 a3 cc bd 1c 27 e4 38 48 c9 c2 3a
       0.0006686216 -0.09992066 0.00010879172 0.0014861012
000300 0d 9e 1b bb 0a 4a e6 bd 94 58 f9 bd 1c 9a d5 bd
       -0.0023745329 -0.112445906 -0.12175098 -0.10429785
000310 14 72 a5 ba 8c f8 cd ba a4 66 08 be 07 d7 5b 3e
       -0.0012622499 -0.0015714332 -0.13320404 0.21468745
000320 3e d4 fc 35 b1 8e b3 ba 20 d2 8a b6 00 fc 9b ba
       1.8837234e-06 -0.0013699142 -4.1371823e-06 -0.0011900663
000330 a6 fd 6a 3e b8 d7 ff bd c9 66 8a 39 70 62 7f 3e
       0.22948322 -0.12492317 0.00026397992 0.24939895
000340 44 ec d4 3b ac e3 70 3e 89 e0 1b 39 d0 4a 19 a0
       0.0064978916 0.2352435 0.00014865598 -1.2984357e-19
000350 0c 2c 5f 3e b3 37 73 3e 77 d2 a2 bb 83 69 d0 ba
       0.21794146 0.23751716 -0.004968937 -0.0015900586
000360 bf a8 70 bb 81 13 80 3e 8b 8e 69 36 68 b1 e6 bd
       -0.0036721674 0.2501488 3.4802677e-06 -0.11264306
000370 49 75 c1 3a 20 e9 66 98 61 c0 41 39 b7 04 54 b3
       0.0014759685 -2.9844501e-24 0.00018477581 -4.9364385e-08
000380 89 0d 3b 97 cb ed 83 b5 a2 f6 14 18 f4 fa 17 ba
       -6.0440043e-25 -9.829467e-07 1.925307e-24 -0.0005797588
000390 55 d8 a3 bb f7 48 aa 26 64 66 a9 14 35 3a e1 bb
       -0.005000154 1.1815897e-15 1.7105025e-26 -0.006873394
0003a0 cf 41 bc b9 34 be f7 bd 97 05 6e bb e5 e8 de bd
       -0.00035907186 -0.12096825 -0.003631925 -0.10884265
0003b0 a5 89 5f 3e ad ca 80 96 bc b8 e2 96 11 40 fe b0
       0.21829851 -2.0807422e-25 -3.6628853e-25 -1.8499141e-09
0003c0 4c 86 d9 bd 05 f2 2b bb 15 c2 23 b6 18 5a e0 bd
       -0.10621318 -0.0026236784 -2.4401863e-06 -0.10954684
0003d0 b1 63 72 3e a2 94 61 35 96 c0 12 17 27 6a f4 bd
       0.23670842 8.403532e-07 4.741822e-25 -0.119343095
0003e0 12 3c 10 be f3 72 e3 9b 4b bf c9 b2 ed c8 6a 3e
       -0.14085415 -3.7628284e-22 -2.348647e-08 0.2292821
0003f0 4a f6 87 3a bf 18 f5 bd 99 1a 88 39 ee f7 9d 3a
       0.0010373082 -0.119676106 0.00025959758 0.0012052038

6.bias f4 [4]
000000 00 00 00 00 00 00 00 00 36 b7 52 3c b1 74 30 3c
       0.0 0.0 0.012861064 0.010770009

exp_avg f4 [64, 70]
000000 5e 00 5b b9 b4 36 41 37 bb fd ab b9 20 3b 6f 38
       -0.00020885604 1.1516433e-05 -0.00032804706 5.7037105e-05
000010 52 64 a5 37 3a 2b 0e 39 90 17 90 39 12 13 5b b9
       1.9716248e-05 0.00013558278 0.00027483376 -0.00020892572
000020 bd fd 81 b6 ff 43 8b 39 c0 6b 3a ba 8a 58 56 37
       -3.8740386e-06 0.00026562807 -0.0007111393 1.2776009e-05
000030 97 84 14 bb 0c 3f c9 38 5a 2e 5b b9 a3 99 93 3a
       -0.0022662038 9.59617e-05 -0.00020902735 0.0011260997
000040 4b bb 97 39 5f 35 97 ba 12 2b 61 39 72 72 37 bb
       0.00028940508 -0.0011536292 0.00021473717 -0.0027991799
000050 74 df 03 3a c2 98 5b b9 1b 07 8f ba dd ab f7 39
       0.00050305505 -0.00020942374 -0.0010912152 0.0004723956
000060 ec 5c bd 3a 37 c0 d6 ba c6 87 58 3b 9a f1 78 bb
       0.0014447249 -0.0016384189 0.0033039912 -0.0037985803
000070 e5 80 5c b9 40 ba be 3a ef 06 a0 3a 6c e4 e9 b9
       -0.00021028852 0.0014551356 0.0012209098 -0.0004461141
000080 57 32 09 ba 57 b5 84 ba c4 a1 ab ba a3 2f 5d b9
       -0.00052336365 -0.0010124844 -0.0013094475 -0.00021093948
000090 bd 6d 70 b9 00 b0 98 39 11 93 92 36 17 81 18 39
       -0.00022929064 0.0002912283 4.36826e-06 0.0001454394
0000a0 72 0d 8d 37 27 8a 58 b9 96 f5 89 39 a1 22 b0 39
       1.681477e-05 -0.00020650831 0.00026313652 0.00033595136
0000b0 41 cf 11 b9 98 41 5f b9 d1 c6 7c 38 49 6c 3f ba
       -0.00013905486 -0.00021291373 6.0266644e-05 -0.00073022075
0000c0 0c 87 ac b9 ab 13 e7 38 ff e8 1a 3a b4 84 74 39
       -0.00032907014 0.00011018602 0.0005909353 0.00023319089
0000d0 22 95 0e b9 cd 42 35 b9 a8 3c 12 ba e3 7d 30 ba
       -0.00013597732 -0.0001728639 -0.00055784965 -0.0006732626
0000e0 52 1e b7 39 45 87 4c b7 4a d3 f4 b8 43 d3 24 38
       0.0003492707 -1.2190842e-05 -0.00011674182 3.92974e-05
0000f0 33 78 b0 39 c7 bc 0f 37 e2 07 b7 39 09 50 23 3a
       0.0003365889 8.567417e-06 0.00034910353 0.0006229883
000100 db 89 a9 b7 b8 68 1e ba 0b fb d6 37 d0 30 1d 3a
       -2.0210564e-05 -0.0006042826 2.5627689e-05 0.00059963483
000110 8c e5 ed 33 76 64 24 3a 2c 15 1b 3b 9d f9 77 37
       1.1077927e-07 0.00062710734 0.0023663742 1.4780465e-05
000120 a3 e2 31 3a 80 bd 94 b8 34 da 8f ba c7 70 19 b9
       0.00067857857 -7.092487e-05 -0.0010975064 -0.0001463323
000130 a3 30 1c bb 50 15 1b 3b 1c 40 9a b9 68 2e 12 ba
       -0.00238327 0.0023663826 -0.00029420934 -0.0005576373
000140 01 6c 77 3a 7a 30 ad 3a 88 f0 1c 3b c3 92 15 3a
       0.0009438396 0.00132133 0.0023947079 0.0005705768
000150 a6 de 1a 3b 87 58 12 bb 5c 47 1a ba a3 30 04 3b
       0.0023631244 -0.0022330598 -0.0005885267 0.0020170591
000160 08 0b 6f 3a 5e 84 9f 3b 85 e7 d4 b9 dc df 1a 3b
       0.000911877 0.0048680743 -0.00040608287 0.0023631966
000170 cf 1a f1 38 95 09 3e ba 2e d7 37 ba 77 d0 07 3b
       0.00011496769 -0.00072493526 -0.000701296 0.002072362
000180 da 42 06 bb a9 0b 14 3b 5f e8 1a 3b 50 d9 56 bb
       -0.0020486624 0.0022589958 0.002363704 -0.0032783337
000190 eb 50 88 ba d7 da 79 3a 55 57 9e 3a fa 33 22 3b
       -0.0010400092 0.0009531206 0.001208047 0.0024750219
0001a0 ab 52 9c 39 ee 5d 1b 3b 8e cb d2 3a 90 e7 fb b9
       0.0002981623 0.002370711 0.0016082393 -0.00048046978
0001b0 0d e2 62 ba db c3 5f 3a 1b a1 0d bb 91 60 a0 b9
       -0.00086549 0.00085359596 -0.002161092 -0.00030589526
0001c0 0a 1b 15 3b 6c 08 b2 3a 43 a8 19 ba 2d 21 89 b9
       0.0022751712 0.0013582832 -0.000586156 -0.00026155394
0001d0 a5 36 b5 3a e9 9d 90 ba d1 dc 63 3a e9 81 1f 3b
       0.001382549 -0.0011033389 0.0008692267 0.0024338907
0001e0 7c 67 b1 b9 55 c7 b4 ba ac ea 14 b9 5b 3f fa 3a
       -0.00033837173 -0.0013792316 -0.00014201802 0.0019092368
0001f0 58 74 25 ba b8 21 00 3b 3a e1 eb 3a 77 2e 06 3b
       -0.0006311587 0.0019551348 0.00179962 0.0020474473
000200 92 18 bf b9 ef f4 2d ba 13 07 35 3a 56 af 0d bb
       -0.00036448665 -0.0006635924 0.0006905656 -0.00216194
000210 f5 70 c0 b9 2b 31 9d 3a 8e 3a 6c b7 03 06 d8 b8
       -0.00036705253 0.0011992803 -1.40803295e-05 -0.000103008024
000220 50 4a a8 38 c2 2a 82 3a 70 ad 0a 36 51 f9 99 3a
       8.024706e-05 0.0009930956 2.0664556e-06 0.0011747276
000230 92 98 d3 3a 58 a7 80 38 98 7a 04 3a 08 5a a7 38
       0.0016143492 6.134686e-05 0.0005053668 7.97995e-05
000240 8c 15 48 ba 0a 49 31 39 05 79 c6 ba 88 96 d3 3a
       -0.0007632605 0.00016907245 -0.0015142268 0.0016142884
000250 2b 51 82 ba 72 0a 10 ba f9 d8 f8 b8 f2 5b 55 3a
       -0.0009942403 -0.00054947205 -0.00011865976 0.0008139006
000260 84 79 4b ba 85 71 15 39 42 93 d3 3a 49 bb b3 3a
       -0.00077619427 0.00014252037 0.0016141909 0.0013712432
000270 b7 8a 12 ba ab 29 b5 ba b1 90 64 3a 04 6b 66 bb
       -0.0005590128 -0.0013821622 0.00087190705 -0.0035159
000280 d4 b6 60 39 97 86 d3 3a 4d 89 c7 b9 10 52 f7 b9
       0.00021430413 0.0016138133 -0.00038058535 -0.00047172653
000290 a2 e0 62 3a 11 78 3f ba 23 71 f3 3a ef 11 60 bb
       0.0008654689 -0.0007303963 0.0018573146 -0.0034190377
0002a0 d2 68 d3 3a 6e 67 b1 3a cd 5b f4 b8 91 4c 11 ba
       0.0016129261 0.0013534853 -0.00011651926 -0.00055427203
0002b0 8c d3 6d 3a eb 34 96 ba 09 ca db 39 ce 8b d1 3a
       0.00090723555 -0.0011459863 0.00041921463 0.00159871
0002c0 b2 0f 88 b9 50 7e c8 ba da 34 03 38 40 94 d2 3a
       -0.00025951635 -0.0015296433 3.1282056e-05 0.001606591
0002d0 83 72 48 39 6d 08 eb 3a ff fa 32 39 07 a0 90 38
       0.00019116145 0.0017931588 0.00017068906 6.8962625e-05
0002e0 df 5e c5 b8 f5 eb 2a b8 37 a7 d8 38 ee c6 0d b9
       -9.411363e-05 -4.075091e-05 0.00010330829 -0.00013520915
0002f0 95 9a 26 38 c8 1e 12 39 85 a1 d5 38 21 ea bf b8
       3.972145e-05 0.00013935112 0.00010186717 -9.1511996e-05
000300 a8 cd 0f b8 db fc ae 38 ec 96 d7 b8 71 f4 1a 38
       -3.428539e-05 8.3440646e-05 -0.0001028011 3.6944115e-05
000310 45 51 d9 38 16 8e 80 b6 8a 22 ab b8 08 0d 6a 36
       0.00010362504 -3.8312382e-06 -8.160349e-05 3.4876302e-06
000320 9d e7 c3 38 4c c8 86 35 58 7c d4 38 54 c8 2e 35
       9.341466e-05 1.0042072e-06 0.000101321086 6.5111567e-07
000330 c0 6f cd b3 36 bb 77 b5 47 8b 9e 34 2f 95 04 35
       -9.5663836e-08 -9.22871e-07 2.953113e-07 4.939092e-07
000340 34 56 fd 33 d3 e1 96 35 10 1d 00 3b a4 26 17 37
       1.1796911e-07 1.1241594e-06 0.0019548573 9.009298e-06
000350 5a 86 f1 39 b8 cf 30 b8 ee db 6c ba 72 97 b5 b8
       0.00046067202 -4.2155123e-05 -0.00090354576 -8.6589615e-05
000360 16 7e 01 bb 8b 1d 00 3b 5f 4f 11 b9 28 34 c0 b9
       -0.001975899 0.001954886 -0.00013857846 -0.00036659953
000370 75 69 4d 3a 77 14 99 3a d1 23 07 3b 24 f9 31 3a
       0.0007835844 0.0011679073 0.0020620713 0.0006789139
000380 e2 d5 ff 3a cf 3b 0d bb 53 47 c5 b9 24 58 f5 3a
       0.0019518698 -0.0021550541 -0.0003762791 0.0018718285
000390 29 3a 42 3a eb 8d 95 3b 45 fb b7 b9 0a d9 ff 3a
       0.0007409179 0.004564037 -0.0003509169 0.0019519639
0003a0 af c0 98 39 fe 53 fb b9 b1 66 49 ba 9a c1 e7 3a
       0.0002913526 -0.0004793703 -0.0007682844 0.0017681599
0003b0 08 f6 07 bb 18 95 02 3b 17 e8 ff 3a a9 6a 4a bb
       -0.0020746011 0.0019925293 0.0019524124 -0.0030886328
0003c0 eb 78 2e ba 7e 72 68 3a 79 0c 67 3a 1c 59 1c 3b
       -0.00066555914 0.00088671583 0.0008813809 0.0023856824
0003d0 fc 5c 0d b8 33 60 00 3b d9 ef b7 3a 42 c2 09 b9
       -3.3703618e-05 0.001958859 0.0014033272 -0.00013137705
0003e0 c9 ea 59 ba c8 4c 27 3a 7d a2 00 bb 99 56 e0 b9
       -0.0008312879 0.0006381986 -0.00196281 -0.0004278913
0003f0 2f e5 04 3b bd 99 a9 3a b0 42 f0 b9 61 b1 74 b9
       0.0020278206 0.0012939494 -0.00045826053 -0.00023335732

exp_avg_sq f4 [64, 70]
000000 87 c1 c5 38 20 cd a0 33 99 54 86 37 1e 1e ce 35
       9.429739e-05 7.4878926e-08 1.6013439e-05 1.5356961e-06
000010 0b 66 bf 37 d8 7f c5 36 16 aa be 38 37 03 c1 38
       2.2816492e-05 5.8859405e-06 9.091587e-05 9.203556e-05
000020 1a 85 eb 37 a7 66 3e 37 4f 64 65 37 1e 22 98 37
       2.8076163e-05 1.1348783e-05 1.3672819e-05 1.8135699e-05
000030 4b 7d a7 38 0c 58 09 38 63 cb c0 38 05 ba 48 38
       7.986518e-05 3.2745345e-05 9.193157e-05 4.785696e-05
000040 b4 3c 80 37 18 86 8f 37 8d a4 d0 37 d9 ba e4 38
       1.5287056e-05 1.710937e-05 2.4872157e-05 0.0001090669
000050 d9 7d 68 37 d2 05 c5 38 7c 52 47 38 16 62 af 37
       1.3857579e-05 9.394776e-05 4.7522117e-05 2.09073e-05
000060 6f 49 84 37 2a d6 04 38 5f 47 cc 38 ed 33 c8 37
       1.5769821e-05 3.167071e-05 9.740772e-05 2.3866038e-05
000070 ca 93 d4 38 3e 32 25 38 fc 5b 2c 38 50 66 58 37
       0.000101364756 3.9385857e-05 4.1093663e-05 1.2898425e-05
000080 37 e2 45 38 5a c9 99 38 8b bc 62 38 2f a6 b4 38
       4.717914e-05 7.333113e-05 5.4058193e-05 8.614023e-05
000090 32 81 63 37 a6 73 7d 38 e9 33 b8 36 11 fd 62 38
       1.3560335e-05 6.0427607e-05 5.4896705e-06 5.4118285e-05
0000a0 56 27 da 37 c2 17 96 38 8f 59 23 38 e8 ea fb 36
       2.6005942e-05 7.1569826e-05 3.8945636e-05 7.5077296e-06
0000b0 45 87 f9 37 e4 14 18 36 50 6b d9 37 7b 9f 4a 37
       2.9746103e-05 2.2661925e-06 2.5918387e-05 1.207727e-05
0000c0 12 b8 13 38 8a 25 60 37 80 5e d6 35 32 de 31 37
       3.521896e-05 1.3360181e-05 1.5971746e-06 1.0601756e-05
0000d0 6c ad 29 35 e4 8b 16 37 6e 1b 4f 36 8a c5 51 37
       6.320977e-07 8.9732675e-06 3.086137e-06 1.2503364e-05
0000e0 0d 12 a8 36 3d 76 83 35 4a 6a 56 36 61 53 70 34
       5.0088915e-06 9.794672e-07 3.1950353e-06 2.2382075e-07
0000f0 21 80 3d 36 f7 ea be 35 be 38 88 36 33 90 22 36
       2.8237775e-06 1.4224487e-06 4.0597215e-06 2.4223816e-06
000100 71 54 34 35 9b 56 c2 35 7d bd 05 34 80 e5 ab 35
       6.7178104e-07 1.4479332e-06 1.2455526e-07 1.2807286e-06
000110 f8 c5 77 35 8c 3a e3 35 3d fe 70 38 4e c1 4f 33
       9.230275e-07 1.6929857e-06 5.7457237e-05 4.8371753e-08
000120 cd 80 05 37 60 a8 56 35 96 5f 6c 37 d8 42 4f 36
       7.9574065e-06 7.996623e-07 1.40889515e-05 3.0884312e-06
000130 83 81 69 38 60 74 71 38 42 ea b3 37 38 06 c1 36
       5.5672146e-05 5.756726e-05 2.1447548e-05 5.752572e-06
000140 07 04 1a 37 f3 e3 6e 37 ee 21 73 38 ab dd b9 37
       9.180053e-06 1.4238979e-05 5.7967314e-05 2.215694e-05
000150 f9 36 75 38 11 cd fe 37 07 b4 06 37 bc 9f 3a 37
       5.846375e-05 3.0374651e-05 8.028938e-06 1.1123655e-05
000160 f5 85 82 37 98 8a 95 38 48 83 f3 36 1b 8e 76 38
       1.5559586e-05 7.130689e-05 7.2572475e-06 5.8783316e-05
000170 55 12 11 38 8c 37 33 37 4a 28 3a 37 66 fd 97 37
       3.4587767e-05 1.0682164e-05 1.10958445e-05 1.81186e-05
000180 3e f0 91 38 dd 08 47 37 c5 fb 80 38 b4 9a 00 38
       6.9588874e-05 1.1863388e-05 6.150411e-05 3.0661657e-05
000190 04 02 a6 37 37 f1 18 37 41 21 d4 37 9d cf 70 38
       1.978968e-05 9.116068e-06 2.5287854e-05 5.7413814e-05
0001a0 69 e1 e9 37 70 c5 6a 38 8c a5 87 37 81 0d f0 37
       2.788073e-05 5.5973826e-05 1.6170343e-05 2.8616518e-05
0001b0 29 b1 aa 36 15 fc fc 37 1f c2 fa 37 46 f6 25 38
       5.087019e-06 3.0158126e-05 2.9892717e-05 3.9568426e-05
0001c0 0e 19 2a 38 85 5d 33 37 54 c2 c5 37 39 f6 3d 36
       4.0554492e-05 1.0691006e-05 2.3574721e-05 2.8306515e-06
0001d0 e7 70 c4 37 a6 03 8d 37 2f 45 0b 38 61 7a da 37
       2.3417595e-05 1.6810209e-05 3.3204615e-05 2.6044612e-05
0001e0 dc c1 c1 36 c1 4e 85 37 05 0a b6 35 c7 01 85 37
       5.7744164e-06 1.5891508e-05 1.3562973e-06 1.5855663e-05
0001f0 ec 58 10 37 8a 98 c7 37 bc 03 99 37 b7 4e 3b 36
       8.603773e-06 2.379368e-05 1.824076e-05 2.791099e-06
000200 5e 31 54 37 ac e8 42 35 4e 4e 47 37 8e d3 a4 36
       1.2647679e-05 7.2609214e-07 1.1879556e-05 4.912209e-06
000210 43 76 9d 37 d0 6c 68 37 56 62 d8 35 ef b7 27 37
       1.8770928e-05 1.38536125e-05 1.6121874e-06 9.996801e-06
000220 c2 33 06 35 1d f5 11 37 4e 28 5e 36 20 64 47 37
       4.999421e-07 8.699743e-06 3.3104038e-06 1.18846365e-05
000230 0c 84 e3 38 26 69 b5 33 bb a5 99 37 af e2 f8 35
       0.00010848799 8.447596e-08 1.8316196e-05 1.8543413e-06
000240 c7 82 db 37 68 60 ee 36 29 90 da 38 0f 24 e3 38
       2.6167732e-05 7.104176e-06 0.00010421902 0.0001083092
000250 0b 51 18 38 75 07 5e 37 ff b5 88 37 9d a1 be 37
       3.63151e-05 1.3233967e-05 1.6297212e-05 2.2725022e-05
000260 97 29 cb 38 24 ff 11 38 43 b0 e1 38 b9 ac 59 38
       9.687541e-05 3.4808312e-05 0.00010761667 5.1897692e-05
000270 6e 26 94 37 30 14 ac 37 5b 64 f4 37 ca 80 07 39
       1.766087e-05 2.0513398e-05 2.9133798e-05 0.00012922581
000280 a2 54 88 37 10 42 e6 38 6f 54 60 38 e6 e8 dc 37
       1.6251874e-05 0.0001097956 5.3484397e-05 2.6334495e-05
000290 25 1e 9a 37 54 f7 23 38 93 c1 e4 38 0c 62 04 38
       1.8372268e-05 3.909257e-05 0.00010907943 3.1562566e-05
0002a0 44 11 f4 38 20 d4 40 38 ec a6 48 38 51 ab 74 37
       0.000116380426 4.5973924e-05 4.7839174e-05 1.4583421e-05
0002b0 41 cc 60 38 e0 a4 b0 38 00 af 7e 38 bb 1f d5 38
       5.3595988e-05 8.423044e-05 6.07213e-05 0.00010162542
0002c0 2b 76 88 37 d7 64 97 38 42 16 d5 36 98 a2 85 38
       1.626749e-05 7.219024e-05 6.350486e-06 6.37222e-05
0002d0 0d 5b f9 37 4d 69 b2 38 ab c9 41 38 32 85 05 37
       2.9725512e-05 8.507315e-05 4.6202604e-05 7.95843e-06
0002e0 51 66 17 38 a4 1b 28 36 50 e2 01 38 90 26 54 37
       3.6096495e-05 2.505004e-06 3.0966767e-05 1.2645163e-05
0002f0 a5 0f 35 38 61 4c 7f 37 fd 1d db 35 fa 08 4f 37
       4.3168333e-05 1.5216968e-05 1.6325499e-06 1.23402515e-05
000300 d5 dd 33 35 e9 1f 33 37 25 55 4b 36 17 4d 68 37
       6.7005504e-07 1.0676661e-05 3.0298918e-06 1.38462265e-05
000310 26 d8 82 36 f1 72 43 35 36 49 28 36 c7 7f 36 34
       3.899465e-06 7.281042e-07 2.5076565e-06 1.6996556e-07
000320 75 ae 1d 36 df a1 8b 35 40 94 3f 36 2b 4a b3 35
       2.349637e-06 1.0403418e-06 2.854751e-06 1.3358125e-06
000330 46 ce 2a 35 15 57 07 35 13 cd a3 33 d7 c4 17 35
       6.36301e-07 5.041814e-07 7.627582e-08 5.6538323e-07
000340 19 7e 44 35 85 8c 2d 35 66 24 5b 38 97 02 4a 33
       7.3199186e-07 6.4652005e-07 5.2247568e-05 4.7034145e-08
000350 6c 83 f1 36 c9 f1 54 35 94 07 56 37 2a e6 4f 36
       7.197659e-06 7.9328e-07 1.2757158e-05 3.0979377e-06
000360 e4 6f 54 38 bc 37 5b 38 fd 54 ae 37 30 a3 b4 36
       5.0648945e-05 5.2265576e-05 2.0781992e-05 5.3834156e-06
000370 5b bb 13 37 4b 4b 5c 37 b3 7d 6a 38 66 63 b1 37
       8.805505e-06 1.3130552e-05 5.5907014e-05 2.114633e-05
000380 16 67 5e 38 22 0a 04 38 c9 5b f0 36 f3 60 34 37
       5.302493e-05 3.148069e-05 7.1632426e-06 1.0751409e-05
000390 df ff 68 37 0c 20 8f 38 98 ad db 36 35 ae 63 38
       1.3887852e-05 6.8247406e-05 6.5469176e-06 5.428326e-05
0003a0 13 00 0f 38 cc 13 22 37 61 a3 38 37 82 f2 8a 37
       3.4093926e-05 9.660562e-06 1.1005294e-05 1.6563808e-05
0003b0 ee 5e 90 38 b9 12 48 37 d6 b6 71 38 3b d0 08 38
       6.884137e-05 1.1925288e-05 5.7629157e-05 3.2618856e-05
0003c0 c8 0b 98 37 de e7 20 37 d3 b1 c3 37 27 9c 7d 38
       1.8125298e-05 9.590729e-06 2.3328617e-05 6.046533e-05
0003d0 ce 3d de 37 00 79 66 38 83 73 8a 37 19 49 ea 37
       2.6493242e-05 5.4948963e-05 1.6504671e-05 2.7929013e-05
0003e0 14 38 ac 36 2b a7 f8 37 58 c4 fb 37 75 2d 29 38
       5.132528e-06 2.9641747e-05 3.0012961e-05 4.0335075e-05
0003f0 22 9a 2c 38 af 77 37 37 c9 42 cf 37 68 d4 3a 36
       4.1151543e-05 1.0935516e-05 2.4707422e-05 2.7839797e-06

exp_avg f4 [64]
000000 c2 fb 5a b9 44 15 1b 3b 88 98 d3 3a 12 1d 00 3b
       -0.00020883887 0.0023663798 0.001614348 0.0019548577
000010 36 c9 fd 3a 02 c6 d3 af b6 ca 46 3b 34 29 e6 b2
       0.0019362334 -3.852137e-10 0.0030333227 -2.6794261e-08
000020 57 3a 36 b0 9f 8d 1b 3b d7 8c 18 3b 47 67 27 3b
       -6.629412e-10 0.0023735536 0.0023277306 0.0025543736
000030 f4 a5 c8 b1 cf 96 01 3a 43 39 3e b3 3f a0 ac b1
       -5.8396328e-09 0.00049434317 -4.42899e-08 -5.0240767e-09
000040 2e bb 85 b1 a2 59 2c 39 ba a5 21 3b 9a 49 13 3b
       -3.8920893e-09 0.00016436589 0.002466543 0.002247429
000050 b1 c1 cc b2 f1 01 aa b2 b7 4d 16 b3 d5 a4 f2 b2
       -2.3836806e-08 -1.9791488e-08 -3.4995278e-08 -2.8247465e-08
000060 21 be 65 3b 59 6e 0e ba 93 e3 9d b8 65 16 47 3b
       0.0035055953 -0.0005433313 -7.5287324e-05 0.0030378338
000070 cb b0 e4 39 d8 da 18 3b 04 1f ed 3a c2 14 9c b2
       0.0004361927 0.00233238 0.0018090908 -1.817023e-08
000080 5d 58 e6 b9 88 68 ef b2 21 dc d9 39 3a 81 d2 b2
       -0.00043934854 -2.7870797e-08 0.00041553474 -2.4505983e-08
000090 06 6c 6c a9 06 9b ee b1 f7 ad cd a0 0a ce 04 b3
       -5.2496222e-14 -6.9443358e-09 -3.484347e-19 -3.0921036e-08
0000a0 89 b4 28 b4 52 0d d4 3a 82 8d 2c b3 82 5d 89 3a
       -1.5711898e-07 0.0016178286 -4.017557e-08 0.0010480138
0000b0 df fe 92 b3 c6 7c f5 b2 92 e0 20 3b 26 2b 91 a5
       -6.8450156e-08 -2.8578494e-08 0.0024547917 -2.518273e-16
0000c0 4f 24 71 b2 c7 b2 15 b3 30 a0 4d b2 81 90 10 ad
       -1.4036302e-08 -3.4854363e-08 -1.1968993e-08 -8.217539e-12
0000d0 84 17 3d a4 95 6e 65 b1 4f 65 7e b2 3f 8c 1c 3b
       -4.100276e-17 -3.3386744e-09 -1.4807781e-08 0.0023887304
0000e0 7b 52 1b 3b af 01 22 3b 1d 74 9f b9 38 33 44 3b
       0.0023700285 0.0024720242 -0.00030413354 0.0029937755
0000f0 ba 9c d8 39 3a e8 27 3b 8f 65 99 af 0c c0 1d af
       0.000413155 0.0025620596 -2.79027e-10 -1.4347296e-10

exp_avg_sq f4 [64]
000000 86 c1 c5 38 3d fe 70 38 0c 84 e3 38 67 24 5b 38
       9.4297386e-05 5.7457237e-05 0.00010848799 5.224757e-05
000010 ac 6d 82 38 f6 53 8b 2b b8 b6 7f 38 19 0a 62 2e
       6.219311e-05 9.899848e-13 6.0966908e-05 5.139542e-11
000020 59 a3 a5 2b 5d b4 8c 38 d9 00 99 38 cb 8e 4b 38
       1.1769293e-12 6.7093155e-05 7.2957664e-05 4.8531958e-05
000030 74 df 9d 2c 3e 0f 74 38 a5 86 d8 2e 94 1e 88 2c
       4.4870167e-12 5.818833e-05 9.8464605e-11 3.8687473e-12
000040 77 c6 58 2c 49 42 6d 38 cc 4f 79 38 6e 11 74 38
       3.0805616e-12 5.6566936e-05 5.9440543e-05 5.8190366e-05
000050 67 2a f2 2d 26 07 9f 2d f5 89 2e 2e d3 78 e0 2d
       2.7531045e-11 1.8079382e-11 3.968555e-11 2.5519508e-11
000060 45 ca 72 38 d0 f4 ab 38 59 ed c9 38 4f d2 86 38
       5.7885674e-05 8.199515e-05 9.628636e-05 6.428791e-05
000070 bf 68 ce 38 62 e0 86 38 73 30 3f 38 55 56 89 2d
       9.842356e-05 6.4314125e-05 4.558307e-05 1.5613436e-11
000080 d2 c6 cf 38 9d 94 8e 2d 8d ba b4 38 0b fc b1 2b
       9.907562e-05 1.6209529e-11 8.617817e-05 1.2646562e-12
000090 e3 3b 2d 2a dd 9c b8 2c 16 96 98 29 55 d6 a5 2d
       1.5386264e-13 5.24701e-12 6.776192e-14 1.885351e-11
0000a0 1f 6f 2d 2f c4 25 51 38 6c df 2a 2e e1 82 3e 38
       1.5773736e-10 4.9864655e-05 3.8851963e-11 4.542142e-05
0000b0 5b 3d c7 33 6c 97 13 2e c2 89 2e 38 12 d8 d3 29
       9.27782e-08 3.355842e-11 4.161313e-05 9.4077646e-14
0000c0 89 55 36 2d fa 71 9a 2e 90 2a 18 2d cb 97 bb 2a
       1.0364495e-11 7.0233555e-11 8.6496504e-12 3.33232e-13
0000d0 c2 e7 bc 29 fe b7 3f 2c 9c 8f 3c 2d 90 e3 7e 38
       8.389081e-14 2.7244869e-12 1.071845e-11 6.0770253e-05
0000e0 c3 7e 63 38 11 e9 98 38 b2 cd c9 38 42 cc 5a 38
       5.4239074e-05 7.291337e-05 9.6227406e-05 5.216548e-05
0000f0 6e a0 30 38 a4 d5 11 38 f6 89 6d 2b 5c aa 45 2b
       4.211108e-05 3.4769662e-05 8.4390773e-13 7.022488e-13
