models_o2/reinforce_best.pth (torch, 115757 bytes, 18 tensors)

0.weight f4 [64, 70]
000000 cb 9e 4b 3d b5 dd d1 3c 70 7b f7 bd 34 9a 26 bb
       0.049711984 0.025618413 -0.12084091 -0.0025421502
000010 b3 a9 3d bd ee 63 e5 bb cb 3c 2a bd 5e 0d 4e 3d
       -0.046304416 -0.007000438 -0.041561883 0.050305717
000020 5e 45 db bb a6 1c 62 3d 9b 10 3a 3d 8e dc 97 3d
       -0.006691619 0.055203103 0.045425992 0.07415114
000030 cc ed 0e 3d 83 7a 8c 3d 2f 30 7c 3d 0b ec f4 bc
       0.03489475 0.06859305 0.06156939 -0.02989771
000040 f7 e9 0b 3d 0a 92 81 3c 0d 0b 6d 3d 62 c3 52 3c
       0.034158673 0.015816707 0.057871867 0.012863966
000050 b7 f1 2b 3d d3 27 a7 3d 84 2a 81 bc b5 33 49 3b
       0.041978564 0.08161893 -0.015767343 0.0030700986
000060 4e 2d 47 bc ec b4 8c 3d f9 c3 39 bb b2 1c f4 3c
       -0.012156798 0.068704456 -0.0028345569 0.02979884
000070 48 00 9a 3d 12 63 98 3c 21 95 51 bc 13 4e d7 bb
       0.07519585 0.018601928 -0.012791903 -0.0065705865
000080 98 12 51 3d 46 77 c2 bb 6f 37 e7 3b 3d 28 a6 3d
       0.051043123 -0.0059346287 0.0070561687 0.081131436
000090 6c 94 ec bb e1 5f 2f bd f1 6e 8a bc 65 57 4b 3d
       -0.0072198417 -0.042816047 -0.016898604 0.049643893
0000a0 9c 76 15 bc e2 96 23 bb 5a 27 ce 3d c5 0f 0a 3d
       -0.009122517 -0.002496176 0.100660995 0.033706445
0000b0 6f 79 94 bd a8 81 bf bc 2f db 91 3d 6d 80 4b bc
       -0.07249724 -0.023377255 0.07121884 -0.012420756
0000c0 0f d2 dd 3c 87 c5 9e 3d 72 9a 01 bb 6a 0c 7f bd
       0.027077703 0.07752519 -0.0019775894 -0.0622677
0000d0 f9 10 93 3c 9e 38 77 3d be 53 54 3c 7e dc e6 3c
       0.01795243 0.06035673 0.012959419 0.02818131
0000e0 dd ed 93 3c 41 c4 3c bc 5d 3b 25 bd 62 1e a0 3c
       0.018057758 -0.0115214 -0.040339816 0.019545738
0000f0 09 20 95 3c fa 5a c7 3c 4f 2f 89 3c 27 2d f3 bc
       0.018203752 0.024335373 0.016746191 -0.029684616
000100 48 b8 8b bc b7 c2 c3 3b 37 4f 3b bb c4 f5 01 bd
       -0.017055646 0.0059741396 -0.0028581151 -0.03172852
000110 a0 e0 d4 3b 2a cd 60 bc 2e 16 ce ac a9 3f c3 1b
       0.006496504 -0.01372079 -5.8573346e-12 3.2301183e-22
000120 3c 01 39 9c 9b 84 89 1c 66 e7 f6 21 5d 46 51 1d
       -6.121296e-22 9.100177e-22 1.6730859e-18 2.7697297e-21
000130 c7 72 5c 2b 76 03 c2 ac fd 23 f5 a2 cb 63 e5 1c
       7.8318986e-13 -5.514196e-12 -6.6445487e-18 1.5179745e-21
000140 37 5e 4c 9c 9f 88 9f 24 20 70 03 23 1c c6 3c 9f
       -6.761971e-22 6.91867e-17 7.125268e-18 -3.997442e-20
000150 98 6a ad ac 42 76 4a 1c 59 8a 10 9e a8 cf ed 9e
       -4.92879e-12 6.698904e-22 -7.651906e-21 -2.5179236e-20
000160 4b 64 8d 25 cd e6 09 a3 03 8b 7d 9f 59 83 a0 ac
       2.4527562e-16 -7.475659e-18 -5.3689822e-20 -4.562056e-12
000170 b4 cc 28 a0 de e3 58 a0 c7 92 49 1f a5 e5 d8 a2
       -1.4297884e-19 -1.8371307e-19 4.2684817e-20 -5.8790063e-18
000180 37 e7 1a a3 3b f8 3b 9f fa 16 ad ac f9 ac 33 1d
       -8.397318e-18 -3.9804122e-20 -4.9195066e-12 2.3779878e-21
000190 bd 35 3f 1b c3 ff 49 9b d7 07 21 a2 6b 08 10 9d
       1.5816513e-22 -1.6708971e-22 -2.182372e-18 -1.9062593e-21
0001a0 92 48 19 18 d0 c9 b1 ac fa 0a c5 9f 2c 35 48 9b
       1.9811425e-24 -5.0530483e-12 -8.3450905e-20 -1.6560793e-22
0001b0 6d d5 71 9b ab dd 4d a6 be 2a 5a 9f f7 43 36 23
       -2.0004014e-22 -7.142408e-16 -4.619865e-20 9.880632e-18
0001c0 e6 5f 8b ac 5d 21 a1 1b 9b 5c a5 a2 f0 5e c6 1d
       -3.9612645e-12 2.6656776e-22 -4.482139e-18 5.2508327e-21
0001d0 9d 8a 90 27 01 55 57 1f cd e8 16 23 05 3b c7 ac
       4.0118314e-15 4.5598334e-20 8.180814e-18 -5.6624727e-12
0001e0 f0 7f 73 1d a8 c4 04 20 01 5f eb 9d ac 42 73 25
       3.2226924e-21 1.1245903e-19 -6.2302214e-21 2.109948e-16
0001f0 8b cf 7b 1f fd 01 05 23 53 7c 3e 9f c8 09 a0 1e
       5.3322993e-20 7.2103655e-18 -4.0336904e-20 1.6944704e-20
000200 e9 37 a7 1b b0 f5 9c 9c 0a fa 6f 9d e9 bf 58 1f
       2.7663964e-22 -1.0386723e-21 -3.1760654e-21 4.5898524e-20
000210 cc c3 5f 1a 54 b0 64 1a 20 7b 84 96 b2 38 07 1a
       4.6273483e-23 4.7291732e-23 -2.1403453e-25 2.7963144e-23
000220 d1 eb 6b 1a 15 5e 30 9a fa f9 7d 99 d5 18 93 96
       4.8787352e-23 -3.6471946e-23 -1.3130276e-23 -2.3764802e-25
000230 75 04 61 bb 4a b7 8b 1f cd 73 7b ba 3c 27 98 a2
       -0.0034334932 5.9172016e-20 -0.0009592146 -4.1241224e-18
000240 a6 76 97 3a f6 ad e8 2e 78 49 56 3b f8 91 3f bb
       0.0011555746 1.058104e-10 0.00326976 -0.0029231291
000250 0b 75 1d ba 51 c9 40 3a 3e 41 3c 3a 53 6c 94 ba
       -0.00060065155 0.0007354217 0.00071813527 -0.0011323787
000260 7a 45 07 3b 53 86 3e 16 d7 8a 53 bb 36 fa 42 b5
       0.0020640776 1.5390463e-25 -0.00322788 -7.2634737e-07
000270 2e 3d 67 3a 5b c5 7e 3a ac 78 8a ba f0 01 1d 3b
       0.0008821067 0.00097187393 -0.0010564527 0.0023957454
000280 80 70 14 30 5b 52 4f bb 2f 12 3d 2e 14 93 e7 3a
       5.400196e-10 -0.003163478 4.2989775e-11 0.0017667734
000290 24 5e 07 26 d7 18 0e bb eb 7e f1 b2 d5 a1 13 bb
       4.696512e-16 -0.0021682286 -2.8113808e-08 -0.002252688
0002a0 15 7b 2a 9b d8 e9 4c 1f 82 a9 9f 9c df a2 be 9c
       -1.410184e-22 4.339211e-20 -1.0565554e-21 -1.2615247e-21
0002b0 7b 91 0c 1c 10 e4 36 1c b3 14 9b 1c 97 eb 0e 1b
       4.6510143e-22 6.051351e-22 1.026239e-21 1.1822088e-22
0002c0 f3 b3 6e 9d 35 49 e3 99 38 e2 01 1c 89 19 50 9b
       -3.159207e-21 -2.3500818e-23 4.29749e-22 -1.7213608e-22
0002d0 d0 19 fa 1b 6b 6a 91 1c 3e 8e cc 24 af 6a 94 20
       4.1375712e-22 9.622804e-22 8.8711865e-17 2.5142773e-19
0002e0 89 ff 1e 9c 8d be 49 9d 4d 56 8e 9d 84 cc bf 23
       -5.2608086e-22 -2.670064e-21 -3.767632e-21 2.0794877e-17
0002f0 99 1d 24 9c 44 7e 46 25 5c a4 f0 9b 80 59 ad 1c
       -5.43013e-22 1.7216543e-16 -3.9810884e-22 1.1471315e-21
000300 c0 fa 3c 1b 8f 35 f6 9b 11 d8 9c 1b c0 64 51 23
       1.5632017e-22 -4.0731898e-22 2.5947665e-22 1.1351247e-17
000310 ea 2e 35 25 32 9b bb 9b 6a 35 53 a4 b6 da dd 1b
       1.5715143e-16 -3.1036848e-22 -4.5798575e-17 3.6702722e-22
000320 bb c0 a0 1f 38 f8 27 9c 96 a4 38 22 00 46 2b 9a
       6.808148e-20 -5.557648e-22 2.5023781e-18 -3.5418517e-23
000330 75 47 60 1a 6e 78 cd 99 f5 c9 68 1a 41 aa b7 99
       4.6379837e-23 -2.1245144e-23 4.8139615e-23 -1.8990522e-23
000340 c3 ca d4 18 41 b1 6a 18 1a 26 0e bb 28 a2 11 a4
       5.5005453e-24 3.0333281e-24 -0.002169019 -3.1579215e-17
000350 52 40 4c b9 d4 81 e7 a3 fc 56 51 3a 00 fd 76 b0
       -0.00019478917 -2.5100055e-17 0.0007985679 -8.9853813e-10
000360 c3 43 31 3b cb 2e 3a bb e1 67 99 39 8b 8d 9c 38
       0.0027048446 -0.0028409238 0.0002925983 7.465024e-05
000370 3c b5 c3 b4 19 12 00 bb 15 3e d6 b9 1b 79 74 bb
       -3.6453446e-07 -0.0019542037 -0.00040863515 -0.003730363
000380 8a 03 d7 ba b7 c4 20 3b 95 ab cc 38 7f 79 21 ba
       -0.0016404253 0.0024531314 9.759438e-05 -0.0006159767
000390 d2 17 56 ba 9c a2 59 bb b8 83 13 39 39 28 3b bb
       -0.00081670017 -0.0033208495 0.00014068082 -0.002855791
0003a0 c2 1b 6e ba 01 69 b6 38 de 01 8e 3a bd da dd b9
       -0.0009083116 8.697995e-05 0.0010834297 -0.00042315378
0003b0 2e 34 6a 3b b1 cb 4e 39 26 98 c7 ba 7d 26 65 bb
       0.0035736668 0.00019721572 -0.0015227839 -0.0034965568
0003c0 10 08 d8 36 88 42 4b 3a d5 06 69 ba 13 2e 4f 3b
       6.4382402e-06 0.00077537494 -0.00088892627 0.0031613156
0003d0 4a 3c 16 39 a9 c4 1b bb 39 6b a7 2b 98 74 a0 39
       0.00014327574 -0.0023768342 1.1895824e-12 0.00030604447
0003e0 44 f7 3f 24 33 0b 15 bb a0 6d 7e 17 a4 01 0a bb
       4.1625965e-17 -0.002274227 8.2210193e-25 -0.0021058107
0003f0 e6 56 1e bb 8e 42 54 30 b5 19 05 3b 59 02 89 a7
       -0.0024160682 7.721973e-10 0.0020309512 -3.8027684e-15

0.bias f4 [64]
000000 df 38 4e 3d bd 19 b1 ac 36 04 51 bb 06 59 14 bb
       0.050347205 -5.0335e-12 -0.003189338 -0.002263607
000010 63 44 9c b9 67 02 61 3d 9a dc b8 3c a7 53 06 3d
       -0.0002980559 0.05493393 0.022566129 0.03279462
000020 fa 44 31 3d e1 8a ae 3c 30 a0 91 b2 5b d2 a3 b8
       0.04327867 0.021306457 -1.6953067e-08 -7.8116274e-05
000030 37 c0 6e bb 17 0b 08 3d a8 4a e5 b9 57 3c 55 3d
       -0.0036430487 0.0332137 -0.00043733907 0.052059498
000040 72 d9 35 3d 35 67 be bb 46 fd 17 3d b4 ff ed ba
       0.044396825 -0.005810643 0.037106775 -0.001815787
000050 dc ad 13 bc 29 7d 48 3d 33 1b b8 3c 1b 00 03 bc
       -0.009013619 0.048947487 0.022473907 -0.007995631
000060 3d 75 1d 3d de 4b 1c 3d 71 e3 cd 3c 3c 94 09 3d
       0.038441885 0.03815829 0.025132867 0.033588633
000070 c7 42 e4 bb 70 69 e8 bb 75 b2 bc ba 8f d9 f8 ba
       -0.0069659683 -0.0070926473 -0.0014396446 -0.0018985736
000080 3f 39 09 3d 51 bd 04 bb b3 00 46 3d 1c be b2 b9
       0.03350186 -0.0020254443 0.04834051 -0.00034092448
000090 5e d2 86 ba ae d0 26 3d ec 01 f7 ba da 27 9c b9
       -0.0010286083 0.040726356 -0.0018845177 -0.0002978433
0000a0 38 4e 67 3d cf ac 70 b8 73 47 80 bc 18 d3 3a bc
       0.05647108 -5.73814e-05 -0.01565907 -0.011402868
0000b0 f1 a4 2e 3d b4 e7 41 3d d0 51 d9 3c 9f 09 9a b9
       0.04263777 0.04734011 0.026528269 -0.00029380337
0000c0 d3 5e db 3c c1 0b 17 3d 60 44 c6 3c 91 98 28 b8
       0.026778614 0.036876444 0.024202526 -4.019641e-05
0000d0 9f a1 a7 ba 87 51 2e 3d 40 6f 15 3d ec 98 e4 3c
       -0.0012789256 0.04255822 0.03648305 0.02790495
0000e0 99 9e 24 3d da 74 2b 3d bd 30 b6 3c 7d 3d 15 3d
       0.040190313 0.041859485 0.022240037 0.036435593
0000f0 20 c6 4b ad c9 d4 2f 3d e9 09 fb 3c 4f f5 2a b7
       -1.1583207e-11 0.042927537 0.030644374 -1.0189905e-05

3.weight f4 [64, 64]
000000 7a ef 08 bb d1 98 54 9a 95 e1 23 99 da fb cd 1b
       -0.0020894692 -4.3964017e-23 -8.4724584e-24 3.407716e-22
000010 d0 ea 52 b6 6e 7a f2 39 15 26 3d b4 25 fd 3e 3a
       -3.1429117e-06 0.00046249054 -1.7615851e-07 0.0007285646
000020 4e 8d 10 9d 85 53 96 b6 9a 26 fa 9a 74 c5 20 97
       -1.9131294e-21 -4.4800713e-06 -1.0345994e-22 -5.194801e-25
000030 87 c1 a4 99 91 03 cb bb e1 f5 fb 29 a3 5c 78 b5
       -1.7035368e-23 -0.0061954935 1.11892924e-13 -9.2522004e-07
000040 bf 91 03 b3 0c ec b7 22 f2 3b 51 3a 12 0e 93 af
       -3.063337e-08 4.9852174e-18 0.000798165 -2.6749142e-10
000050 dc 10 04 19 80 d3 81 bb 80 77 f7 ba 7a a3 28 31
       6.827645e-24 -0.0039619803 -0.0018880218 2.4540143e-09
000060 96 31 aa ba 12 31 84 bb f4 ec a7 ba fd 6b 88 bb
       -0.0012984748 -0.00403417 -0.0012811706 -0.004163264
000070 9e b8 9a 1b 6b e9 bb b7 ab 6e 78 ae cc fd d9 b7
       2.559647e-22 -2.240083e-05 -5.6486964e-11 -2.59866e-05
000080 e9 25 0c bc e8 f4 51 1e 32 82 94 b9 87 78 c5 33
       -0.00855396 1.1115013e-20 -0.00028325763 9.195451e-08
000090 1b 22 44 24 75 53 54 b3 4b c9 93 99 19 40 55 99
       4.2529614e-17 -4.9436e-08 -1.5280745e-23 -1.1024786e-23
0000a0 8a 41 b2 bb 03 11 d2 a7 8c 98 3d 1a ca 76 50 19
       -0.005439942 -5.8305153e-15 3.920751e-23 1.0777337e-23
0000b0 79 e4 f5 b9 72 11 dc af da 50 e3 ba ce 4f 0a 99
       -0.00046900267 -4.0030163e-10 -0.0017342821 -7.150549e-24
0000c0 87 d8 be bb b4 17 03 b7 09 06 6a bb 72 db c6 35
       -0.005824152 -7.813727e-06 -0.0035709164 1.4816017e-06
0000d0 e9 a7 b1 18 99 b7 1e 9e 3e 1e 43 b6 c4 e7 07 3a
       4.5922974e-24 -8.4024175e-21 -2.9074868e-06 0.0005184377
0000e0 38 e6 de 1f 00 87 95 b9 da fb 9d 18 74 58 37 b9
       9.440152e-20 -0.00028520077 4.0837854e-24 -0.00017485191
0000f0 05 56 0f 1a 76 f0 74 bb 88 74 f5 bb 5b 7e 07 b7
       2.9641193e-23 -0.0037374771 -0.0074906982 -8.0760465e-06
000100 4d cb b0 3d 41 f2 2b 23 6d 3d 69 39 8d 7c 28 1d
       0.086325265 9.321228e-18 0.00022243494 2.2299006e-21
000110 84 0a d2 b5 d1 9e b3 3d e7 cd a8 3d 16 5b a7 3d
       -1.564928e-06 0.08770526 0.08242398 0.0817167
000120 98 90 6e bd 0e 49 ac 3d 00 2b a3 a9 72 84 fb 34
       -0.058243364 0.084123716 -7.2461134e-14 4.684876e-07
000130 aa 1a 10 37 47 7d a9 3d 4a 04 91 20 ea de 4a bd
       8.589277e-06 0.08275848 2.4566794e-19 -0.049528994
000140 8b b8 93 bd 86 77 6b 3b 66 e1 98 3d dc 6e 70 a1
       -0.07212933 0.0035929396 0.07464866 -8.1461884e-19
000150 fa 5b 4b b6 49 6e c1 3d df ee 97 3d 65 d2 32 3a
       -3.0302895e-06 0.09444863 0.07418608 0.00068215124
000160 93 0c be 3d 06 ae d0 3d 96 88 95 3d cc 3d 9e 3d
       0.09279742 0.10189442 0.07301442 0.077266306
000170 19 01 6d bb 90 3d 29 bb ff 2a a4 1d 28 31 6e a6
       -0.0036163984 -0.0025824048 4.3454895e-21 -8.2639457e-16
000180 b3 e5 a8 3d c7 42 b0 a5 aa 6c b0 3d f3 c4 7a 37
       0.08246937 -3.0576383e-16 0.08614476 1.4947017e-05
000190 10 1e b0 a4 98 d7 5a bd 0e 20 38 3a 36 6c 0c 33
       -7.637876e-17 -0.053428262 0.00070238195 3.2694707e-08
0001a0 4c 4b c8 3d 0e 04 8b 9c bc 8c 6f 3b eb a3 cb 3a
       0.09779987 -9.199297e-22 0.003655239 0.0015536522
0001b0 b4 e1 22 bd 88 b4 6a bd b3 16 99 3d f5 8c 60 3a
       -0.03976603 -0.057301074 0.07475033 0.0008565926
0001c0 91 bc 97 3d 46 d2 4a bd df bb a2 3d a4 9d 88 38
       0.07409013 -0.04951694 0.0794599 6.514348e-05
0001d0 fb 99 4a b7 b4 58 6e bd 48 cd 8c bd 51 7c a6 3d
       -1.207599e-05 -0.058190063 -0.06875092 0.0812918
0001e0 97 88 5d bd b9 4d 5e bd 69 08 64 3d c3 b2 a9 3d
       -0.05408534 -0.05427334 0.055672083 0.08286049
0001f0 a3 c6 6e 22 7e b2 bf 3d 43 5c a8 3d 25 8b 97 2f
       3.2360172e-18 0.093602166 0.082207225 2.7565608e-10
000200 9e 69 ba 3d f1 bb cc 2f 8c de 66 3a 93 4b 96 37
       0.09102176 3.7240924e-10 0.0008806966 1.7916585e-05
000210 c4 be f2 b6 8f 87 b0 3d d2 50 a9 3d 42 8e a6 3d
       -7.23437e-06 0.08619606 0.082673684 0.08132602
000220 7f d3 5f bd a3 5a a0 3d e8 4d fe 2a d7 f4 89 38
       -0.054645058 0.078297876 4.5173522e-13 6.578274e-05
000230 ac e6 1d 39 76 eb ab 3d fb b1 71 b8 11 55 31 bd
       0.00015058619 0.0839452 -5.7624635e-05 -0.043294016
000240 03 7b 97 bd 66 55 33 3b cc d9 8b 3d cf 11 2f b9
       -0.073965095 0.0027364134 0.06828651 -0.00016695935
000250 02 00 e2 b6 ae 8e b7 3d 74 3a 9d 3d ae 90 ad 3a
       -6.7353258e-06 0.08962761 0.07677165 0.001324197
000260 67 94 be 3d d6 e6 c7 3d 9c c6 94 3d fe 56 a1 3d
       0.09305649 0.09760825 0.07264444 0.078779206
000270 76 e8 4f bb c8 d3 3b ba a0 09 b8 b8 ae 6a 42 ba
       -0.003172425 -0.0007165042 -8.7755965e-05 -0.0007416409
000280 f4 68 ab 3d 62 de aa 38 3c 0e a8 3d 55 71 1a 3b
       0.083696276 8.147654e-05 0.0820584 0.0023566086
000290 ad 43 3d 38 ad d9 43 bd a3 d8 05 3b 37 c4 e9 37
       4.512414e-05 -0.047815014 0.0020423315 2.7867134e-05
0002a0 f6 97 c6 3d 35 dc de b7 ce 87 0c 3c d4 e8 a6 3a
       0.09696953 -2.6567004e-05 0.0085773 0.0012734183
0002b0 ab 7e 40 bd 31 e5 4a bd f5 2b 93 3d 4a 5e f2 3a
       -0.0469958 -0.04953498 0.071861185 0.0018491235
0002c0 88 60 9c 3d 70 35 5c bd 24 32 9c 3d 97 8e 03 3b
       0.076355994 -0.0537619 0.07626751 0.0020074004
0002d0 64 b1 cb b8 c2 d1 3e bd 16 e3 83 bd 21 f4 9d 3d
       -9.712836e-05 -0.04658676 -0.064397976 0.077125795
0002e0 57 40 3d bd 45 76 21 bd 92 1b 56 3d 82 66 a9 3d
       -0.046203937 -0.03941943 0.052272387 0.08271505
0002f0 9e e7 29 b1 65 3b c5 3d 20 31 b0 3d 1a dd 99 ba
       -2.4724396e-09 0.09630469 0.0860312 -0.0011738867
000300 fc 74 37 9b d3 c7 68 9a 99 e5 9d 98 9c ee 4b 1c
       -1.5175205e-22 -4.8137892e-23 -4.0815383e-24 6.747546e-22
000310 f2 87 9d 9b 3b 87 cc 9b b8 1f 65 98 a7 90 21 21
       -2.6061324e-22 -3.383636e-22 -2.961357e-24 5.474037e-19
000320 c4 c8 0a 19 e1 04 9f 1e 73 b1 a1 9b 27 44 33 99
       7.174977e-24 1.6836798e-20 -2.674989e-22 -9.267846e-24
000330 09 67 31 1a ed f4 1b a1 65 6d cd 9b 66 61 6e 9c
       3.6685973e-23 -5.28402e-19 -3.39851e-22 -7.887348e-22
000340 b0 c0 2d 19 31 ff 78 1c 57 e4 31 a4 94 79 ff 9b
       8.982803e-24 8.2386144e-22 -3.8574168e-17 -4.226478e-22
000350 b9 5b 56 1a c7 d8 85 98 83 39 1c 29 7b f6 06 23
       4.4328256e-23 -3.4598583e-24 3.4688842e-14 7.316349e-18
000360 81 ae ad 9f d8 dd cf 18 16 90 7d 9f 25 5f d1 19
       -7.355704e-20 5.373225e-24 -5.369402e-20 2.1648522e-23
000370 11 01 61 9b 2f 3d 6a 9b 24 8c a9 9b d9 6a ef 9b
       -1.8611908e-22 -1.9375796e-22 -2.8049268e-22 -3.9608282e-22
000380 68 fd 41 24 a1 0c 80 9c 82 3e 90 19 da 85 b4 1f
       4.2064847e-17 -8.473594e-22 1.4914498e-23 7.6454404e-20
000390 0b e5 ba 9c 66 05 17 9c e2 67 3b 9a ab 3d a5 19
       -1.2367654e-21 -4.9968686e-22 -3.875461e-23 1.7085508e-23
0003a0 29 55 2c 1c b8 9b ff 1a 8c 7a 95 9a 72 9c 85 99
       5.7020093e-22 1.05717105e-22 -6.182294e-23 -1.3815065e-23
0003b0 7c 7d 0a 1f ae 32 1d 9b 0b 9f 1e 9d d9 17 c8 98
       2.9326435e-20 -1.3003111e-22 -2.099335e-21 -5.172287e-24
0003c0 2b 54 c6 9d 30 70 c4 19 5b 0c 77 99 f7 8a 4f a0
       -5.249719e-21 2.0311237e-23 -1.2772096e-23 -1.7579562e-19
0003d0 f6 fd 30 9a fe 4f b4 1a 91 e5 0d 9c cc 80 16 9e
       -3.6601095e-23 7.457549e-23 -4.6949694e-22 -7.9675684e-21
0003e0 d5 94 ce 1a 0f 31 78 9b 44 8f d0 99 33 78 cc 9a
       8.5440054e-23 -2.0529931e-22 -2.156456e-23 -8.4566615e-23
0003f0 eb 6b da 19 9b f0 26 1a fe 70 3b 1b b8 8e 8d 9a
       2.258426e-23 3.4522355e-23 1.5504787e-22 -5.854681e-23

3.bias f4 [64]
000000 d5 2a 17 bc 3c 10 7a 3d dd f3 65 3d fa ec 84 bb
       -0.009226521 0.06105064 0.05614077 -0.00405657
000010 ed 1f 7a 3d 2c 76 c2 bb e7 27 1f 3d 8d 5e 8a 3d
       0.061065603 -0.0059344973 0.038856413 0.067563154
000020 a1 7d 4a bb 19 00 9b bb 73 64 af bb cb ef 04 bc
       -0.0030897635 -0.0047302363 -0.0053525507 -0.008113812
000030 1c 94 aa bb 10 cb 1a bc 60 20 b4 bb 31 db 18 bb
       -0.0052056443 -0.009447828 -0.0054970235 -0.0023324008
000040 85 77 33 3d 30 e4 05 bc c0 ad a5 bb 21 da c0 bb
       0.043815155 -0.00817208 -0.005056113 -0.005885378
000050 89 e0 1f 3d e9 09 19 3d ce 8e 4a 3d ef e3 50 3d
       0.039032493 0.037362967 0.049452595 0.050998624
000060 17 5b 28 3d 78 b1 36 3d d7 6d 67 bc a5 da 91 3d
       0.041102495 0.04460284 -0.014125309 0.07121781
000070 13 37 6e 3d c1 55 c2 bb e3 0a 5e 3d 4e 89 2f 3d
       0.05815799 -0.005930633 0.0542096 0.042855553
000080 f6 0c d7 3d ae b5 92 bb 3e 74 14 3d f9 25 bb bb
       0.10500519 -0.0044772243 0.03624367 -0.005711314
000090 14 2d 96 bb 10 a4 d1 bb cf 46 4f 3d 6b ac d2 3d
       -0.0045830105 -0.0063977316 0.050604638 0.10286792
0000a0 d9 3d c2 bb cd 3a 5d 3d 7c 85 be bb 52 9a 21 bb
       -0.005927783 0.054011155 -0.0058142524 -0.0024658632
0000b0 9c fb 9f bb 6e 0b 86 bb 23 99 99 bb 1b 37 28 bc
       -0.004882289 -0.004090718 -0.004687445 -0.010267044
0000c0 10 17 39 bb 4d bc 42 3d 34 0a a3 3d fa 21 96 bb
       -0.0028242506 0.04754286 0.079609305 -0.004581687
0000d0 98 00 28 3d 2a 49 62 3d a3 4e 84 bb 73 fc 76 3d
       0.04101619 0.055245556 -0.0040376945 0.060299348
0000e0 cb c1 cb 3d 5a 71 2d 3d 62 1f 78 3d 86 98 29 3d
       0.099490725 0.04234443 0.060576804 0.041405223
0000f0 fa e9 bc bb 24 2e 65 3d f8 00 7e 3d 98 9b 16 bc
       -0.005765197 0.055952206 0.062012643 -0.00919237

6.weight f4 [4, 64]
000000 ec 0b 35 19 cc 7b cc 16 a9 37 d2 18 d3 00 61 9a
       9.359888e-24 3.3036104e-25 5.433993e-24 -4.6529575e-23
000010 5c 96 35 99 c5 a1 22 9a 2d b8 9f 9a 70 7b ef 97
       -9.3878455e-24 -3.363149e-23 -6.605841e-23 -1.5476173e-24
000020 0f f1 0d 9a 74 f8 9c 9a d2 93 9a 19 01 4f 94 99
       -2.9352842e-23 -6.4921485e-23 1.5982931e-23 -1.533475e-23
000030 0c 3d 7f 19 49 91 bc 98 bb 94 d1 19 cc df c5 18
       1.3195519e-23 -4.874356e-24 2.1670165e-23 5.1149284e-24
000040 9d be 91 19 52 f8 72 9a 0b 64 7e 98 1a aa e9 19
       1.5069637e-23 -5.024502e-23 -3.287924e-24 2.4160339e-23
000050 8e f9 d7 18 b3 9a 91 9a 20 31 61 1a 8f 6a 24 1a
       5.5828183e-24 -6.0220524e-23 4.6568592e-23 3.4000482e-23
000060 87 84 6f 19 d5 f3 79 1a 1a 4b 33 19 d8 cb 92 1a
       1.2382774e-23 5.168896e-23 9.26925e-24 6.071351e-23
000070 16 39 84 1a 4c 91 29 18 6b 7b 4f 9a 16 df 7f 1a
       5.468615e-23 2.1916094e-24 -4.2906293e-23 5.291297e-23
000080 b3 6a fa 99 19 c4 ec 99 ca d8 b0 9a 22 1e 52 9a
       -2.589249e-23 -2.4481031e-23 -7.3142136e-23 -4.3451323e-23
000090 38 ae 84 1a c2 36 2a 19 e3 26 04 19 df 64 3c 19
       5.4875386e-23 8.799852e-24 6.832093e-24 9.739743e-24
0000a0 73 2a b1 19 52 07 1f 99 a6 ac b1 19 0a a7 36 9a
       1.8318516e-23 -8.221586e-24 1.8371103e-23 -3.777165e-23
0000b0 c0 25 8e 99 97 86 70 9a 33 03 aa 19 10 b0 37 19
       -1.4697703e-23 -4.9739558e-23 1.757888e-23 9.496434e-24
0000c0 95 45 74 98 dc 65 9b 18 dc fc ec 99 d6 50 c1 98
       -3.157139e-24 4.0169413e-24 -2.4503957e-23 -4.9970954e-24
0000d0 0a 69 02 97 93 0d 9d 18 20 d1 97 99 2d 92 0d 99
       -4.2137843e-25 4.0597255e-24 -1.5697499e-23 -7.319049e-24
0000e0 e1 9a 8f 99 c8 7f aa 1a 57 83 63 99 ca 68 3a 1a
       -1.4848409e-23 7.0516794e-23 -1.1762149e-23 3.8548546e-23
0000f0 fc 39 e5 98 84 5f e9 19 ff 33 3d 1a 15 7a 9b 99
       -5.925366e-24 2.4130214e-23 3.9126286e-23 -1.6075933e-23
000100 2b a4 73 1a 6e d4 03 19 9b 72 2d 99 41 05 66 9a
       5.0383836e-23 6.815441e-24 -8.967035e-24 -4.756713e-23
000110 88 bf fa 99 cb b0 98 18 50 19 09 9a 9e 69 5a 1a
       -2.5926753e-23 3.9469594e-24 -2.8351383e-23 4.516666e-23
000120 cf 9e 51 96 b7 b3 91 18 0d c7 9f 9a 9a 5f 6f 9a
       -1.6932997e-25 3.7663087e-24 -6.608244e-23 -4.9501268e-23
000130 01 95 f0 99 c7 c8 43 1a 2c a7 fe 19 26 9d f2 98
       -2.48756e-23 4.048724e-23 2.6330505e-23 -6.2714213e-24
000140 2b f3 9f 16 37 c2 e9 17 18 cd f3 19 0f 1f c2 9a
       2.5841296e-25 1.5106299e-24 2.5208448e-23 -8.02867e-23
000150 b4 55 f6 98 04 55 0f 99 6f 50 14 9a 00 9b 00 1a
       -6.3676048e-24 -7.4100955e-24 -3.0670656e-23 2.6594988e-23
000160 ce 58 34 1a fd f7 30 99 94 31 bc 99 a5 d5 25 99
       3.7294863e-23 -9.1490676e-24 -1.9458769e-23 -8.573445e-24
000170 ed a5 96 18 15 6a 13 18 d2 c8 e2 18 16 cd b3 18
       3.8941633e-24 1.9052862e-24 5.8622407e-24 4.64775e-24
000180 b3 b2 86 9a 3f 55 8c 19 eb 87 6e 98 b1 08 0b 1a
       -5.5709805e-23 1.4510091e-23 -3.08294e-24 2.8751547e-23
000190 f1 a2 48 1a ad 3e f2 17 aa f6 81 19 b0 c6 d6 19
       4.1490654e-23 1.5654705e-24 1.3437914e-23 2.220733e-23
0001a0 60 31 65 9a 43 2d ad 1a 0e b0 64 19 e6 64 c5 98
       -4.7395975e-23 7.162425e-23 1.1822878e-23 -5.1025188e-24
0001b0 4e 31 12 1a 12 4b bc 99 3c 8b 1e 98 5a be a7 17
       3.023192e-23 -1.9469065e-23 -2.0491317e-24 1.0840174e-24
0001c0 5a c7 11 99 0b 5a b2 19 7a 67 e9 19 6d 1c 9e 9a
       -7.536583e-24 1.8441137e-23 2.4133429e-23 -6.539319e-23
0001d0 e6 42 f8 15 eb 60 8a 99 01 11 0e 19 d0 f6 fc 19
       1.0027195e-25 -1.430801e-23 7.344662e-24 2.6155876e-23
0001e0 8a 7f 00 19 e9 a7 06 19 a0 dd 31 19 a0 20 61 98
       6.643201e-24 6.961547e-24 9.195442e-24 -2.909704e-24
0001f0 ac 51 9d 98 3a e2 a2 9a f1 7a 6b 1a c5 f6 8a 1a
       -4.0666016e-24 -6.736712e-23 4.8696172e-23 5.747414e-23
000200 2f d9 09 3b b9 3d be bd bb 47 bb bd 30 27 da ba
       0.0021033993 -0.092891164 -0.09144541 -0.0016643759
000210 89 ca 3c 3e 65 9f a0 b9 24 70 98 bd 40 b3 41 3e
       0.18436636 -0.00030636336 -0.07443264 0.18916035
000220 ee b9 62 9c 03 f7 29 3a c6 a1 b0 ba 0f 78 fd 1f
       -7.5017436e-22 0.0006483646 -0.0013475947 1.0734829e-19
000230 72 b7 13 bb 73 0e 81 ba 82 b3 28 3a 1b cd b3 a1
       -0.0022539762 -0.0009846225 0.000643544 -1.2183803e-18
000240 64 01 ae bd b1 8c f6 ba 10 f3 d5 30 c6 ce 92 38
       -0.08496359 -0.001881024 1.5566872e-09 7.000337e-05
000250 3a d7 a3 bd 48 22 b9 bd cc 5c b3 bd 84 81 ad bd
       -0.080000356 -0.09039742 -0.08757934 -0.08471969
000260 72 66 af bd dd 27 93 bd 03 46 ef 3a c5 ad 4b 3e
       -0.08564462 -0.07185338 0.0018255118 0.19890507
000270 8a 4a 42 3e fa b2 7c ba 35 7c b7 bd 52 75 b2 bd
       0.18973747 -0.00096397067 -0.089592375 -0.08713783
000280 51 62 75 3e 6c 20 d4 ba ec 46 9b bd d8 a0 91 a7
       0.23963286 -0.0016183979 -0.07581887 -4.041997e-15
000290 ec 79 83 bb 0f 42 58 37 07 14 c4 bd ae a2 51 3e
       -0.004012337 1.2889984e-05 -0.095741324 0.20472214
0002a0 dd 54 34 b8 68 5b 43 3e 9d 0d a5 39 2e f8 a9 bb
       -4.299438e-05 0.19077837 0.00031481395 -0.005187056
0002b0 8b 78 bc ba f3 59 3f ba 5c 21 01 bb fe d6 83 3a
       -0.0014379186 -0.0007299475 -0.0019703722 0.001005858
0002c0 7d 30 09 9a 84 78 ad bd 56 b5 4b 3e a7 90 46 9c
       -2.8370105e-23 -0.08470252 0.19893393 -6.5699663e-22
0002d0 8b 2e a9 bd 79 f4 3c 3e 0b ed 87 bb d9 64 43 3e
       -0.082608305 0.18452634 -0.004148131 0.19081439
0002e0 07 3d 5d 3e 3a 63 a2 bd ea 70 3f 3e f0 f4 93 bd
       0.21605311 -0.07929082 0.18695417 -0.072244525
0002f0 b0 23 54 ba 77 bd 50 3e 5f ff ca bd 49 45 f4 bb
       -0.0008092476 0.20384775 -0.099119894 -0.0074545485
000300 4a d2 95 39 90 e6 b5 bd 11 6b c0 bd 2a 75 1f bb
       0.00028576172 -0.08881867 -0.09395421 -0.002433131
000310 83 81 41 3e af 97 8e b9 cf e9 bf bd 7a 6a 49 3e
       0.18897061 -0.00027197364 -0.09370767 0.19669524
000320 8e f0 78 9c 20 62 04 3a ad 48 3e bb 8d 5b 4a 9f
       -8.2367226e-22 0.0005050022 -0.0029035017 -4.2850893e-20
000330 bf c0 8f bb df d6 8e ba 6d fb 17 3a e5 fb 80 a0
       -0.004386991 -0.0010897777 0.0005797658 -2.1850733e-19
000340 91 dd b9 bd ed e9 00 bb f6 02 4d 35 f4 b8 24 38
       -0.090754636 -0.001967068 7.637276e-07 3.9272898e-05
000350 50 bb b4 bd 55 90 b4 bd db 5f bb bd b4 ff bf bd
       -0.088247895 -0.08816592 -0.09149142 -0.093749434
000360 93 91 a1 bd 34 b3 c7 bd 9e a8 b8 3b 07 d3 53 3e
       -0.07889094 -0.09750977 0.005635335 0.2068597
000370 60 91 4b 3e 7c 5f 7c ba ff 5a c7 bd 05 37 ab bd
       0.19879675 -0.00096272654 -0.09734153 -0.083601035
000380 16 0c 78 3e cd 7d 97 bb 70 34 c0 bd b5 bc 1b a7
       0.2422336 -0.004623151 -0.09385002 -2.161287e-15
000390 97 2c 88 bb ea ae 0f 3a cb d7 c9 bd f7 f3 5c 3e
       -0.004155706 0.00054810813 -0.09855612 0.2157744
0003a0 5a 75 a3 b7 eb f8 4d 3e c4 a7 11 39 c5 2e c4 ba
       -1.948576e-05 0.20114486 0.00013890775 -0.0014967552
0003b0 75 d7 4b bb 7d f6 d6 ba 0d f7 15 bb cf e8 13 ba
       -0.0031103764 -0.0016400364 -0.002288285 -0.0005642296
0003c0 0b 3a 8c 9c 3d 09 b4 bd ed d7 4e 3e ac 8d 15 9b
       -9.279427e-22 -0.087908246 0.20199557 -1.2370768e-22
0003d0 05 98 bc bd 08 0e 39 3e a7 55 5c 39 2e 9a 4e 3e
       -0.09208683 0.18071759 0.00021012743 0.20176002
0003e0 11 f7 65 3e 17 48 c4 bd e3 66 46 3e b4 e7 a2 bd
       0.2245753 -0.095840625 0.19375186 -0.0795435
0003f0 ed d2 44 38 e0 74 54 3e e6 18 b7 bd b0 0e b1 3a
       4.692648e-05 0.2074771 -0.08940296 0.0013508406

6.bias f4 [4]
000000 00 00 00 00 00 00 00 00 11 bd 33 3a c2 5a 90 bb
       0.0 0.0 0.0006856481 -0.0044053504

exp_avg f4 [64, 70]
000000 5e 43 20 ba ec 4e bc b7 a8 00 81 38 ee 2c 38 37
       -0.0006113554 -2.2448097e-05 6.1513216e-05 1.0977716e-05
000010 c9 56 70 39 12 b7 fb b7 a3 73 10 3a 16 7e 24 ba
       0.00022920514 -3.000678e-05 0.0005510395 -0.0006274892
000020 50 64 76 39 a9 f7 c6 37 aa bd 32 b8 22 c9 96 b9
       0.00023497758 2.3718765e-05 -4.2615146e-05 -0.00028760085
000030 3f ce e4 b8 7d 51 b0 39 c0 28 20 ba b4 7c 09 ba
       -0.000109103035 0.0003363005 -0.0006109588 -0.00052447175
000040 e5 0f 41 39 20 02 ce b9 b4 1a a9 b9 a1 ce 6e ba
       0.00018411835 -0.00039292965 -0.00032254087 -0.00091097696
000050 1b c7 c5 38 06 56 88 ba 20 39 1a 38 f9 7d d3 39
       9.430778e-05 -0.0010401614 3.6769663e-05 0.00040338913
000060 0d f4 43 b8 83 b4 3f ba 2e 00 0f ba 58 9e 83 ba
       -4.6718913e-05 -0.000731297 -0.0005455044 -0.0010041697
000070 c2 0f 89 ba 04 11 18 3a ec e6 04 3a c1 29 32 ba
       -0.0010456967 0.00058008754 0.00050698104 -0.0006796383
000080 16 8b 39 ba e7 35 03 bb ab 94 4f ba 76 b8 17 b7
       -0.00070779154 -0.0020021142 -0.00079185766 -9.0432495e-06
000090 13 02 fa 3a 70 75 3d 3a 1a cb 49 ba cb e1 ee b9
       0.0019074104 0.00072272774 -0.0007697806 -0.00045563126
0000a0 6e 1d 07 bb 4b 23 8e ba af 2b 09 3a 7c 4c eb b9
       -0.0020616907 -0.0010844258 0.00052326446 -0.00044879678
0000b0 a7 7b d9 b8 3e 7e 2c 39 11 45 11 3a 6e 73 eb 39
       -0.000103703984 0.00016450227 0.0005541603 0.00044908695
0000c0 b1 96 50 3a 64 a7 38 3a a3 b6 32 38 67 1a 9d ba
       0.0007957025 0.0007043986 4.26086e-05 -0.0011986018
0000d0 61 09 da b8 64 65 83 3a ec 7a dd b9 dc ec e1 3a
       -0.00010396797 0.0010024724 -0.0004224399 0.0017236727
0000e0 bd c6 2b 38 94 24 20 3a 3e 39 23 ba 07 80 96 b9
       4.0954666e-05 0.0006108966 -0.00062264863 -0.00028705617
0000f0 ea 93 95 39 42 b7 67 ba 9f ea f9 39 4b 6b 56 ba
       0.000285297 -0.0008839258 0.00047667787 -0.000817944
000100 2f 4c 6f 39 7d 84 2a 3a c3 fe 31 b9 27 e3 2c ba
       0.00022821197 0.00065047276 -0.00016974942 -0.00065951276
000110 d9 90 ea b9 4a 81 51 ba 87 00 11 a5 5a 73 4a 92
       -0.00044739878 -0.0007991983 -1.2576924e-16 -6.3882143e-28
000120 99 f2 c9 93 69 ab 11 14 a4 1e db 16 70 d2 2b 14
       -5.0978753e-27 7.354434e-27 3.5400695e-25 8.674795e-27
000130 49 04 d3 23 a9 5c 08 a5 d0 49 3d 1a d6 81 c1 13
       2.287848e-17 -1.1827514e-16 3.914391e-23 4.8848078e-27
000140 72 1c 9a 12 41 db 0e 1d 4f 7f 8d 1a dc d3 91 96
       9.725779e-28 1.8906895e-21 5.852191e-23 -2.3559716e-25
000150 b2 4d f3 a4 d4 c4 f4 13 fc ed 60 97 d5 16 d4 95
       -1.0551607e-16 6.1788347e-27 -7.267868e-25 -8.566214e-26
000160 6a e0 9f 1d 9d 2a 96 9a 35 02 e2 96 37 eb e0 a4
       4.231899e-21 -6.210739e-23 -3.6513662e-25 -9.7542984e-17
000170 32 2f 96 17 c0 cb d4 98 c4 b9 88 15 47 98 a3 1c
       9.705437e-25 -5.500645e-24 5.522305e-26 1.0825798e-21
000180 c6 76 ad 9a af e2 90 96 4f d6 f2 a4 28 22 f0 14
       -7.174301e-23 -2.3407512e-25 -1.0531382e-16 2.424728e-26
000190 e0 96 d1 93 49 35 b4 14 c3 a1 3f 98 7d 08 be 93
       -5.290779e-27 1.8196373e-26 -2.476784e-24 -4.7971113e-27
0001a0 05 7d 38 11 d5 8a f9 a4 88 b2 51 97 19 26 1e 15
       1.4553565e-28 -1.0822173e-16 -6.775688e-25 3.19379e-26
0001b0 cd d1 ce 91 81 9d db 9e d1 5a b5 96 d6 ef d3 1a
       -3.263037e-28 -2.3252669e-20 -2.929944e-25 8.765503e-23
0001c0 e7 e2 c2 a4 b6 66 a7 12 a0 6c 57 1a a6 43 5a 15
       -8.4518476e-17 1.0564502e-27 4.4548705e-23 4.4078115e-26
0001d0 84 bc 6a 20 01 c5 b1 16 1f ed a7 1a fe 17 0c a5
       1.9882946e-19 2.872022e-25 6.945267e-23 -1.2151193e-16
0001e0 9e 7e 58 15 2a 97 35 1b 6d 8f af 95 13 93 ac 9d
       4.3720736e-26 1.5020813e-22 -7.0908223e-26 -4.5680092e-21
0001f0 22 cb df 16 da 97 8f 1a 78 d4 93 96 de 34 a7 94
       3.6155788e-25 5.9388743e-23 -2.3883218e-25 -1.6883543e-26
000200 08 0e 8a 11 4e 6b 8f 13 a8 d8 99 94 5d 89 b3 16
       2.1781208e-28 3.6204086e-27 -1.5534508e-26 2.9005698e-25
000210 f5 44 12 90 72 fd 3f 11 7f 74 73 0e fc b9 c7 10
       -2.8846546e-29 1.5145342e-28 3.0008153e-30 7.8778214e-29
000220 f0 21 05 91 5a b0 0b 90 dd cc 85 90 f7 0a d5 0d
       -1.0502308e-28 -2.7548773e-29 -5.277489e-29 1.3129778e-30
000230 92 6b 15 b3 18 a5 b3 17 14 04 2a b2 f4 83 92 9a
       -3.47896e-08 1.1609279e-24 -9.89623e-09 -6.0597366e-23
000240 cb 95 4b 32 9c 2a fa 26 0c 4c 0e 33 7a 6b fe b2
       1.1850214e-08 1.7358784e-15 3.3131116e-08 -2.9618366e-08
000250 5b 26 d6 b1 80 29 02 32 86 f2 00 32 a0 7f 47 b2
       -6.2325802e-09 7.576432e-09 7.505724e-09 -1.1612343e-08
000260 91 a6 b3 32 45 93 8d 8e e5 78 0c b3 13 67 1c ad
       2.0914088e-08 -3.4901e-30 -3.2706243e-08 -8.89046e-12
000270 14 1e 1c 32 64 50 2d 32 dc 50 3a b2 96 85 d0 32
       9.087234e-09 1.0088204e-08 -1.084501e-08 2.4275135e-08
000280 2a 18 17 28 68 ab 09 b3 41 3d 60 26 68 10 9a 32
       8.387424e-15 -3.205369e-08 7.7798626e-16 1.793542e-08
000290 33 6a 4f 1d 49 e7 bc b2 9d a4 d3 aa 15 11 c4 b2
       2.7451126e-21 -2.1991257e-08 -3.7595353e-13 -2.2825171e-08
0002a0 db ec ca 12 07 14 b2 15 af 6e cf 12 71 65 92 93
       1.2806382e-27 7.1925225e-26 1.3090822e-27 -3.695561e-27
0002b0 d3 4f 1b 13 b5 42 37 11 72 4c 97 13 ff 1c f4 12
       1.9603107e-27 1.445671e-28 3.819314e-27 1.5405713e-27
0002c0 aa 65 f5 10 51 83 39 14 40 5f 89 92 4d 16 d4 92
       9.67921e-29 9.366011e-27 -8.669396e-28 -1.3384579e-27
0002d0 21 f1 b1 12 8f 21 03 14 ba 3e 2e 1d 16 21 05 99
       1.1229713e-27 6.620428e-27 2.3061137e-21 -6.8826205e-24
0002e0 fe 4e 1f 94 63 cf 7d 93 6c ae 93 95 b1 4b fc 1b
       -8.043027e-27 -3.2035339e-27 -5.9648016e-26 4.1738817e-22
0002f0 62 11 83 93 36 3e 8f 9d 14 1f 00 93 49 c0 1c 94
       -3.308619e-27 -3.791611e-21 -1.6171194e-27 -7.913909e-27
000300 5e d4 44 93 97 2f c1 12 a0 7e 15 14 1b dc 59 9c
       -2.4843383e-27 1.2191744e-27 7.54755e-27 -7.2083757e-22
000310 82 f8 89 9d ff 00 06 92 3d 95 f4 9c 3b 1d 4d 12
       -3.652055e-21 -4.228417e-28 -1.6185143e-21 6.4722624e-28
000320 9e 46 ab 18 30 d3 82 91 a2 84 94 1c db c8 8a 10
       4.427377e-24 -2.0640538e-28 9.828103e-22 5.474087e-29
000330 8f aa 02 90 3e f0 a5 8f ee 28 0a 91 1a 6a 24 90
       -2.5769373e-29 -1.6362794e-29 -1.0898893e-28 -3.2425035e-29
000340 90 b2 93 90 28 c6 41 90 41 e8 bd b2 70 70 a0 9b
       -5.8256396e-29 -3.8215193e-29 -2.2108113e-08 -2.654244e-22
000350 cb 37 0f b1 38 d6 e1 9b 9d 21 0e 32 4e 0f 75 a8
       -2.0840953e-09 -3.7361563e-22 8.273131e-09 -1.3603551e-14
000360 65 d8 ec 32 60 bc f8 b2 1f fe 56 31 2d 39 61 30
       2.757242e-08 -2.8956663e-08 3.128555e-09 8.1935775e-10
000370 af 17 a0 ac cf c8 aa b2 1a 31 94 b1 1e a0 22 b3
       -4.550103e-12 -1.9881922e-08 -4.312949e-09 -3.786419e-08
000380 5b a0 8f b2 5c ea d5 32 ff 55 91 30 20 bc db b1
       -1.6720312e-08 2.4903038e-08 1.057458e-09 -6.395126e-09
000390 4a dd 12 b2 cc c5 10 b3 8e 74 d0 30 9d 09 fa b2
       -8.548634e-09 -3.3707508e-08 1.5167119e-09 -2.9108202e-08
0003a0 6f 06 21 b2 56 9b 82 30 fb 6b 40 32 da 3a 98 b1
       -9.372896e-09 9.502894e-10 1.1200423e-08 -4.430473e-09
0003b0 10 b5 1b 33 4b 50 10 31 8a 53 85 b2 c4 79 18 b3
       3.6253425e-08 2.10004e-09 -1.5521227e-08 -3.5501003e-08
0003c0 1d f2 a2 2e 6d af 09 32 6c 58 1f b2 55 d1 09 33
       7.409915e-11 8.014337e-09 -9.275123e-09 3.2088185e-08
0003d0 f4 4c d4 30 3d 1a d0 b2 da cf 17 24 d4 70 5d 31
       1.5446902e-09 -2.4226319e-08 3.2918963e-17 3.2223868e-09
0003e0 34 a9 47 1c 4b 1b c7 b2 32 d6 ef 0e 81 5f b8 b2
       6.6062267e-22 -2.317906e-08 5.912431e-30 -2.146385e-08
0003f0 1b 8a d2 b2 43 9d 56 28 99 81 b1 32 5e 1e 70 a0
       -2.451002e-08 1.1913487e-14 2.0664446e-08 -2.0338838e-19

exp_avg_sq f4 [64, 70]
000000 c8 54 22 38 e0 98 fa 32 3f 6a b7 36 74 3f cb 34
       3.870277e-05 2.917335e-08 5.4661937e-06 3.7857865e-07
000010 7d a7 20 37 fe 2f c6 35 f1 5a 1e 38 be 62 22 38
       9.57574e-06 1.4766117e-06 3.775483e-05 3.871577e-05
000020 1c db 66 37 39 3a 8d 36 fe 1a c9 36 0b 2a 3c 37
       1.3760084e-05 4.2089055e-06 5.993409e-06 1.1215462e-05
000030 54 c5 24 38 6c 13 82 37 3b 21 22 38 1e 16 cf 37
       3.9284423e-05 1.5506252e-05 3.8654758e-05 2.4686622e-05
000040 1b 85 c5 36 15 a9 01 37 c0 72 3a 37 f5 5b 56 38
       5.886553e-06 7.728367e-06 1.1113181e-05 5.1107218e-05
000050 fd a0 e5 36 7f 97 25 38 49 8a d0 37 76 47 05 37
       6.8434733e-06 3.9480157e-05 2.4859926e-05 7.944056e-06
000060 32 a5 fc 36 69 7f 58 37 d1 ec 54 38 80 1c 2d 37
       7.5294165e-06 1.2904268e-05 5.076529e-05 1.0318239e-05
000070 12 2c 24 38 79 fd ae 37 5d 3a 34 37 ce 37 cb 36
       3.914169e-05 2.0860449e-05 1.0742425e-05 6.056368e-06
000080 c1 21 7c 37 44 07 28 38 c0 44 76 37 7a d3 19 38
       1.5028229e-05 4.0061088e-05 1.467875e-05 3.6674995e-05
000090 6c cd 51 37 82 26 75 37 5e 8b 7c 36 7b c5 9c 37
       1.2505199e-05 1.4612104e-05 3.7632049e-06 1.8688608e-05
0000a0 68 b6 c5 37 0c 6b c3 37 53 0d 03 38 78 4c 1c 37
       2.356917e-05 2.3295659e-05 3.1245243e-05 9.316129e-06
0000b0 bb 1c 8d 37 b8 4a 11 36 97 28 9e 37 d2 a0 6e 37
       1.6821888e-05 2.1650176e-06 1.8853969e-05 1.4223349e-05
0000c0 ba fd db 37 2b 5c c7 37 74 29 8e 36 fc 79 87 37
       2.6224985e-05 2.3765568e-05 4.2367556e-06 1.6150057e-05
0000d0 34 02 80 35 4c 3e 82 37 39 a8 e0 36 ba 89 c6 37
       9.537384e-07 1.5526217e-05 6.695304e-06 2.3667573e-05
0000e0 93 0e 9b 37 27 cf 05 36 2e 7f 3e 37 c2 9f 4e 35
       1.8484227e-05 1.9939123e-06 1.1354494e-05 7.697346e-07
0000f0 ff 42 37 37 2f a3 97 36 48 2a 72 37 61 5d 64 37
       1.0923249e-05 4.5191478e-06 1.4434168e-05 1.36116005e-05
000100 66 55 aa 35 fe 2b d9 36 80 4d 07 35 2f fc ef 36
       1.2690841e-06 6.4722253e-06 5.0404196e-07 7.152113e-06
000110 97 e9 44 36 6e 88 05 37 42 ae 96 29 1d 28 e9 24
       2.9342243e-06 7.959183e-06 6.691567e-14 1.011156e-16
000120 54 f6 2b 26 8d a0 a6 26 b1 60 bd 28 b7 cb 85 27
       5.966138e-16 1.1562081e-15 2.1025148e-14 3.7135784e-15
000130 81 71 8c 29 ed be 96 29 eb a9 e3 28 d1 7c 01 27
       6.236939e-14 6.6944585e-14 2.5275753e-14 1.797001e-15
000140 c0 14 34 26 9b 78 11 29 81 ab da 28 45 ec 40 28
       6.2478167e-16 3.2301076e-14 2.427724e-14 1.0709374e-14
000150 2c dd 96 29 e4 5e 7d 26 db 25 50 28 bb b0 26 28
       6.6997054e-14 8.790561e-16 1.1554528e-14 9.253173e-15
000160 00 a3 16 29 95 91 da 28 d2 14 40 28 06 f1 96 29
       3.344807e-14 2.4265998e-14 1.0662656e-14 6.703149e-14
000170 73 ee 89 28 4f a9 91 28 d7 b0 44 28 d6 cb 0b 29
       1.5313466e-14 1.617166e-14 1.0918532e-14 3.1041e-14
000180 8e 50 da 28 54 ef 40 28 b4 dd 96 29 41 60 81 27
       2.4237797e-14 1.0710037e-14 6.6997975e-14 3.590905e-15
000190 a3 93 3b 26 f3 b1 54 27 9d e7 bc 28 9e df 47 27
       6.5078743e-16 2.9517377e-15 2.0972639e-14 2.773802e-15
0001a0 e0 8a a2 20 7d d6 96 29 01 e8 5f 28 27 cb 8e 27
       2.7535767e-19 6.698546e-14 1.24292946e-14 3.9633176e-15
0001b0 3e da 93 23 11 d4 2e 29 44 82 40 28 f2 f4 d9 28
       1.6030201e-17 3.88197e-14 1.0686388e-14 2.4198068e-14
0001c0 e6 12 97 29 63 79 8c 24 39 c3 e4 28 18 bc cc 27
       6.7090254e-14 6.092096e-17 2.539775e-14 5.6825306e-15
0001d0 e7 58 54 29 9d 8c 40 28 83 5f da 28 a6 b7 96 29
       4.7150567e-14 1.0688632e-14 2.4244284e-14 6.693196e-14
0001e0 94 96 ac 27 3c ab ea 28 c9 93 eb 27 0e a2 26 29
       4.7902847e-15 2.605348e-14 6.538583e-15 3.6999964e-14
0001f0 b9 19 40 28 26 a5 da 28 dd e5 40 28 ae 64 29 28
       1.0663719e-14 2.4274484e-14 1.0707985e-14 9.403216e-15
000200 18 5a 1e 24 b4 35 e8 26 49 e9 99 27 99 87 40 28
       3.43371e-17 1.611279e-15 4.271896e-15 1.0687544e-14
000210 c4 04 c6 20 eb 04 2a 21 a1 52 5e 1b 90 52 73 20
       3.3545658e-19 5.760475e-19 1.8390108e-22 2.0610218e-19
000220 3b bf 0e 21 d7 7f 81 20 ad 4d aa 1f 8e a3 5d 1a
       4.8364563e-19 2.1938047e-19 7.2126304e-20 4.5833847e-23
000230 a7 c2 13 2e 06 9d 56 28 a6 09 dc 2c 4a 7d d3 28
       3.3596816e-11 1.1913435e-14 6.2538473e-12 2.3480041e-14
000240 a8 9e 26 2d a7 0f bc 29 03 67 13 2e d8 c3 13 2e
       9.471236e-12 8.3515924e-14 3.3515423e-11 3.3597874e-11
000250 24 5c 9f 2c ff f3 f0 2c a8 1c 63 2c 0a 9f 26 2d
       4.5292815e-12 6.8482993e-12 3.2274548e-12 9.471321e-12
000260 d3 c7 13 2e 32 0c 91 1b 32 c3 13 2e 06 22 83 2a
       3.360141e-11 2.399612e-22 3.35973e-11 2.3293883e-13
000270 3c 97 f1 2c e8 66 9c 2c dd 11 1a 2d d5 5e 13 2e
       6.8664224e-12 4.4452116e-12 8.757853e-12 3.3508158e-11
000280 7a 7c ce 29 52 c3 13 2e de 91 a7 29 2c 45 e3 2d
       9.169831e-14 3.359741e-11 7.441594e-14 2.583763e-11
000290 cc 5f 20 29 67 0e 00 2e 7f 25 20 2a ad c6 13 2e
       3.5610227e-14 2.9116622e-11 1.4223864e-13 3.360039e-11
0002a0 0f c8 84 24 2c 6f 44 28 19 ff c7 26 04 bc e0 26
       5.758479e-17 1.0904292e-14 1.3877543e-15 1.5594084e-15
0002b0 1a f6 64 25 20 21 be 25 6a 78 a9 26 ee 63 88 24
       1.985923e-16 3.2982192e-16 1.1759369e-15 5.9149886e-17
0002c0 72 8f 9d 27 ef 9f d1 26 03 a0 52 25 a2 a7 75 24
       4.3731777e-15 1.4545638e-15 1.826881e-16 5.3267897e-17
0002d0 9c 74 20 25 73 17 a7 26 13 e3 11 29 b8 df a4 28
       1.3917297e-16 1.1594309e-15 3.2393423e-14 1.830468e-14
0002e0 28 44 a3 26 be 05 87 27 c0 8b c7 27 7e 02 f7 28
       1.1328871e-15 3.7476253e-15 5.5385113e-15 2.742359e-14
0002f0 1a 40 05 26 1f a9 26 29 57 4b 20 25 9f f1 32 27
       4.623052e-16 3.7006094e-14 1.3903314e-16 2.4833445e-15
000300 c5 f8 58 25 c6 95 53 25 51 30 8d 26 58 22 0b 29
       1.88193e-16 1.8352078e-16 9.796937e-16 3.089399e-14
000310 28 bf 26 29 e5 c5 7c 24 98 cf 0f 29 96 f4 c9 24
       3.7025206e-14 5.4811413e-17 3.1932437e-14 8.75842e-17
000320 5e 86 8f 28 c4 bd 94 25 22 71 0c 29 ab 84 8c 20
       1.5934462e-14 2.5802498e-16 3.1184372e-14 2.3804715e-19
000330 eb 99 c5 20 22 8a c1 1f 9c 0f 0f 21 d8 9c b8 1f
       3.3474952e-19 8.19672e-20 4.8470943e-19 7.818651e-20
000340 08 8b 89 1f b8 8a f5 1e 2b 94 8e 2d 02 ea 02 29
       5.8251765e-20 2.5997757e-20 1.620933e-11 2.9068768e-14
000350 ba 35 ce 2b 60 bd fc 28 d5 3a ad 2c c7 c6 d9 29
       1.4652092e-12 2.8059749e-14 4.9234874e-12 9.671218e-14
000360 db 1a 8d 2d ea 8e 8e 2d 09 dc d1 2b ac 2b 68 2b
       1.604177e-11 1.6206998e-11 1.4911415e-12 8.2483564e-13
000370 71 83 65 2a 02 d4 ad 2d ca 16 1c 2c 78 f0 e6 2d
       2.0384889e-13 1.9761973e-11 2.2181584e-12 2.6254762e-11
000380 36 98 8e 2d 04 36 e3 2d d0 44 97 2b ef ec 9a 2c
       1.6211126e-11 2.58309e-11 1.0748295e-12 4.403248e-12
000390 81 57 55 2c 71 f3 e6 2d 0f d0 a9 2b d4 8e 8e 2d
       3.0317695e-12 2.6256082e-11 1.206592e-12 1.620696e-11
0003a0 32 6a d9 2c 75 f5 7d 2b bf 0d c3 2c bc fa 52 2c
       6.179301e-12 9.0224296e-13 5.5437595e-12 2.998198e-12
0003b0 3e e7 f8 2d 81 b3 eb 2b ee 98 8e 2d d4 9c de 2d
       2.8297028e-11 1.6747577e-12 1.6211445e-11 2.5308124e-11
0003c0 99 ae e6 2a 21 15 c5 2c 03 6e 74 2c cf f4 e6 2d
       4.097736e-13 5.6014225e-12 3.4735554e-12 2.625669e-11
0003d0 c8 ce a9 2b 6d 92 8e 2d 2c 77 8d 29 c9 f0 29 2c
       1.2065566e-12 1.6208557e-11 6.282331e-14 2.4150007e-12
0003e0 f9 75 fb 28 fc 76 8f 2d 1b c1 73 1c c9 94 8e 2d
       2.791776e-14 1.6310057e-11 8.065154e-22 1.6209605e-11
0003f0 30 f0 f8 2d bc 3f d1 29 fe 38 ac 2d 84 f3 53 29
       2.8301e-11 9.2925206e-14 1.9579446e-11 4.7062628e-14

exp_avg f4 [64]
000000 f3 42 20 ba 49 8f f8 a4 7f cb 0a b3 5c 30 c6 b2
       -0.0006113492 -1.0779559e-16 -3.2315707e-08 -2.3072225e-08
000010 02 0e 5b b1 6a b8 08 ba 87 39 c1 ba 12 78 b9 ba
       -3.1876657e-09 -0.0005215468 -0.0014741876 -0.0014150164
000020 ba 29 87 3a 29 ad 92 ba f5 8c c9 aa 59 62 6a b0
       0.0010312118 -0.0011190522 -3.580258e-13 -8.5268465e-10
000030 c3 8d 1e b3 28 e3 d6 b9 69 5c 9e b1 72 9f d4 3a
       -3.6916173e-08 -0.00040986505 -4.608911e-09 0.0016221835
000040 91 c2 72 3b 04 31 7b b3 cf 30 9d ba b9 ad 9f b2
       0.003704224 -5.848507e-08 -0.0011992696 -1.8589036e-08
000050 f5 ea c1 b3 bb 85 4f ba 52 2f f3 ba 12 86 ac b3
       -9.030001e-08 -0.0007916351 -0.0018553531 -8.0337614e-08
000060 bc d1 45 ba 7e 60 9c ba fa e0 64 ba 9a 45 cf ba
       -0.00075462065 -0.0011930612 -0.0008731034 -0.001581359
000070 18 3f 96 b3 24 58 99 b3 81 61 7e b2 b0 ef a7 b2
       -6.996396e-08 -7.1406504e-08 -1.4806916e-08 -1.9550356e-08
000080 41 93 b8 ba 7f ba b1 b2 6c 3f 23 ba 64 2f 78 b1
       -0.0014081971 -2.069032e-08 -0.0006227407 -3.6115688e-09
000090 23 fd 36 b2 7e 68 0a 3b de 58 a5 b2 93 17 59 b1
       -1.0651351e-08 0.002111941 -1.924894e-08 -3.1591056e-09
0000a0 f1 c0 c8 ba 65 a2 2d b0 46 f2 28 b4 2a 1e f6 b3
       -0.001531629 -6.316781e-10 -1.5734358e-07 -1.14607545e-07
0000b0 a2 02 72 3b fe f0 59 3b 5f dc 4b ba 7b 35 56 b1
       0.0036927839 0.0033255215 -0.00077766733 -3.1171499e-09
0000c0 3b 55 10 bb 5e b1 47 3b ae c9 a4 ba 6d 35 f5 af
       -0.0022023458 0.003047071 -0.0012572312 -4.4603202e-10
0000d0 05 2c 62 b2 bc 83 40 3b 6b 09 28 3b 2e 78 be ba
       -1.316494e-08 0.0029375395 0.002564038 -0.0014531666
0000e0 fa fd 5a 3b ce e8 25 3b 91 61 20 ba a8 ae 24 bb
       0.0033415542 0.0025315764 -0.0006118054 -0.0025128517
0000f0 ce 5f 83 a5 a7 de 37 ba 3d 89 96 ba 62 06 53 af
       -2.2789797e-16 -0.0007014074 -0.0011484992 -1.9192606e-10

exp_avg_sq f4 [64]
000000 cb 54 22 38 9d d7 96 29 49 c3 13 2e 4f 93 8e 2d
       3.870278e-05 6.698741e-14 3.359738e-11 1.6208949e-11
000010 24 82 d0 2b 49 b6 21 38 cf 59 7b 38 48 0b 63 38
       1.481541e-12 3.8555158e-05 5.9926704e-05 5.4131524e-05
000020 b1 7d 04 39 38 86 81 38 ae c4 61 29 d2 4a 81 2b
       0.00012635325 6.1761995e-05 5.013063e-14 9.186768e-13
000030 ea d2 11 2e 12 55 73 38 bc 98 24 2c 17 1f 05 39
       3.3156512e-11 5.8014943e-05 2.3390586e-12 0.0001269545
000040 d6 42 3b 39 97 f6 14 2f 5c a8 0f 38 0c ba 3e 2d
       0.00017858608 1.3548128e-10 3.4250654e-05 1.084156e-11
000050 69 64 eb 30 81 ad 49 38 cd dd 5a 38 64 32 8a 2f
       1.7127039e-09 4.8083723e-05 5.218182e-05 2.5137858e-10
000060 eb 32 83 38 00 30 9d 38 a7 42 33 38 11 f7 46 38
       6.256051e-05 7.495284e-05 4.2739e-05 4.7436977e-05
000070 e5 81 a4 2f 4f 35 0a 2f ad 82 06 2d 08 55 f8 2c
       2.9923722e-10 1.2569966e-10 7.646034e-12 7.0580243e-12
000080 72 9d 4c 38 52 68 66 2d e8 0b 18 38 7b 19 0a 2c
       4.8784023e-05 1.309715e-11 3.6250713e-05 1.9625124e-12
000090 05 b2 b1 2c 60 e1 1e 39 20 5f 68 2d 32 c5 04 2c
       5.0504067e-12 0.00015152013 1.3208795e-11 1.8867794e-12
0000a0 f0 16 52 38 af cd 5b 2b 70 fa 87 2f 45 31 74 2f
       5.0089264e-05 7.8089873e-13 2.4734303e-10 2.2209175e-10
0000b0 a7 87 20 39 2a 33 2a 39 5f 8f 86 38 85 95 03 2c
       0.00015309323 0.00016231523 6.416323e-05 1.869922e-12
0000c0 4b 4a 5d 38 c7 23 06 39 72 47 67 38 30 68 3f 2b
       5.2759697e-05 0.00012792564 5.514123e-05 6.800142e-13
0000d0 16 34 fe 2c 30 35 f4 38 d5 2b 1d 39 b0 c9 7f 38
       7.224897e-12 0.000116447336 0.00014989015 6.0984574e-05
0000e0 bd 8e 0f 39 8d 9d 15 39 1b 41 b2 37 13 c4 31 38
       0.00013690717 0.0001426844 2.124957e-05 4.2382697e-05
0000f0 3d 64 9d 29 6d b1 90 38 84 d8 58 38 3f 85 a1 29
       6.989589e-14 6.899503e-05 5.170006e-05 7.172951e-14
