models_o2/reinforce_ep1000.pth (torch, 115817 bytes, 18 tensors)

0.weight f4 [64, 70]
0.046045132 -0.0054854355 -0.114558354 -0.01427396 -0.031116385 -0.018060429 -0.033289477 0.046505578
-0.07130168 0.061116885 0.07626977 0.08585638 0.08109751 0.114663556 0.05045335 -0.04534477
0.05192475 0.021895802 0.023869403 0.024840454 0.0021572008 0.072166815 0.00039629766 0.0065861754
0.020822644 0.046882562 0.015138286 0.02884102 0.08458545 0.011750017 -0.030327123 -0.035439968
0.057403352 -0.041452907 0.017389808 0.09164837 0.061309252 -0.06330357 -0.045790862 0.058792137
-0.065405555 0.032995604 0.108459294 0.06590634 -0.07051596 -0.070821926 0.06554341 -0.08603527
0.0132874595 0.079219714 0.003987366 -0.03818722 -0.00046616473 0.06807808 -0.003227149 0.05208141
0.09803067 -0.051794067 -0.10656025 0.014676848 0.105357595 0.025492381 0.11198894 0.07402205
-0.013851877 -0.1346192 0.0004995129 0.085254036 0.004606301 0.10863253 0.038347773 -0.011360889
-0.12588564 -0.008334934 -0.022033995 -0.014622873 -0.024437584 0.037715804 -0.07476962 0.07699096
0.07758515 0.08973514 0.0797014 0.11828811 0.041538477 -0.048051443 0.06975769 0.024601124
0.01018421 0.028566612 0.00017416452 0.067158416 0.0032967548 0.02189069 0.017528495 0.032130327
0.014392368 0.02061616 0.07932601 -0.0018670256 -0.023136035 -0.022572206 0.05342599 -0.028362319
0.020682923 0.08949102 0.050079465 -0.05383055 -0.037687644 0.052151937 -0.060352217 0.01767704
0.110859185 0.07196977 -0.06321599 -0.08087082 0.064224936 -0.09540608 0.008294828 0.07914513
0.014338568 -0.031237599 -0.012813876 0.06425026 -0.016051805 0.040503867 0.09229993 -0.04056236
-0.10216607 0.0043240692 0.10008043 0.014343274 0.10887709 0.06983218 -0.015673691 -0.13221289
0.0010893294 0.07993602 0.00838367 0.10861309 -0.00038397245 5.6864157e-12 -5.036414e-08 7.2730953e-12
6.264056e-05 -1.174918e-11 0.0003244964 -0.00036481617 4.44277e-11 6.17027e-11 -4.313186e-11 -0.00036239417
-1.3286104e-10 -0.000563379 -0.0002668587 0.00074041396 9.47283e-09 -7.4384814e-05 -4.307342e-05 -0.0005974436
3.0662385e-08 -0.00032959532 -2.7650747e-05 5.1776606e-08 3.2468295e-06 -7.2845374e-05 0.0006339274 -4.4540717e-22
-0.0003613534 -0.00087831443 5.889869e-10 1.0338737e-05 -4.5080546e-05 0.0008451497 2.8337451e-08 -0.00027652457
6.2433617e-12 5.6003813e-07 3.8665987e-11 -0.0005234941 2.336493e-10 -0.00038115378 -0.0004500521 2.9097154e-12
0.00017725355 -7.1162087e-12 -0.00046480692 2.2381029e-26 -0.00033839303 -0.0005658591 -1.844265e-13 0.0008174111
-1.3138076e-12 -0.00052374677 2.6799907e-26 -0.0007974528 2.683406e-10 -1.3319659e-11 -5.371462e-12 -1.2236283e-10
1.6210344e-10 -4.309044e-10 -7.014163e-20 2.6879993e-10 9.3025926e-12 -1.2089936e-10 -2.613244e-11 -2.4058833e-10
2.5788349e-25 2.6468064e-10 0.044195477 -0.016993608 -0.12687245 -0.026082527 -0.03135877 -0.029172372
-0.030566705 0.044408076 -0.082471125 0.06683211 0.096269794 0.096675254 0.09552279 0.13577785
0.04880623 -0.043409213 0.063634805 0.026649391 0.019916711 0.023171311 -0.0075869607 0.07120631
-0.008546034 0.0070114695 0.03792597 0.051030785 0.032049164 0.028169306 0.084443666 0.008690401
-0.031207805 -0.029527556 0.05975684 -0.03623463 0.017285833 0.09241812 0.06652224 -0.05443094
-0.046614148 0.056338195 -0.074987486 0.02163504 0.11087391 0.08191024 -0.059061125 -0.07999136
00000000: d299 3c3d 2bbf b3bb 929d eabd 54dd 69bc
00000010: cae7 febc 77f3 93bc 8c5a 08bd a27c 3e3d
00000020: 9d06 92bd b355 7a3d 5333 9c3d 78d5 af3d
00000030: 7416 a63d bad4 ea3d 2ca8 4e3d 70bb 39bd
00000040: 0caf 543d d35e b33c c489 c33c 357e cb3c
00000050: d35f 0d3b 32cc 933d 2cc6 cf39 d8d0 d73b
00000060: 4094 aa3c ee07 403d 9306 783c 0144 ec3c
00000070: 233b ad3d 2583 403c 9670 f8bc 8029 11bd
00000080: c71f 6b3d 86ca 29bd 1275 8e3c 24b2 bb3d
00000090: 691f 7b3d 4da5 81bd 338f 3bbd 06d0 703d
000000a0: 59f3 85bd 6626 073d e81f de3d e7f9 863d
000000b0: ac6a 90bd 160b 91bd a03b 863d 4233 b0bd
000000c0: a5b3 593c f23d a23d 73a8 823b 346a 1cbd
000000d0: 9267 f4b9 856c 8b3d 937e 53bb 5153 553d
000000e0: 4ec4 c83d 0426 54bd 433c dabd 2a77 703c
000000f0: b9c5 d73d 66d5 d03c 755a e53d df98 973d
00000100: fcf2 62bc 9ed9 09be bef1 023a ab99 ae3d
00000110: 74f0 963b bb7a de3d 8e12 1d3d 0623 3abc
00000120: 2ae8 00be 3f8f 08bc a380 b4bc c694 6fbc
00000130: 5431 c8bc e37b 1a3d d120 99bd 70ad 9d3d
00000140: f7e4 9e3d 0fc7 b73d 7d3a a33d 0941 f23d
00000150: 4024 2a3d 97d1 44bd 1fdd 8e3d 4c88 c93c
00000160: acdb 263c 8704 ea3c ef9f 3639 5a8a 893d
00000170: 5e0e 583b 1b54 b33c eb97 8f3c 179b 033d
00000180: f7cd 6b3c 39e3 a83c ad75 a23d fcb6 f4ba
00000190: c887 bdbc 59e9 b8bc 36d5 5a3d 1858 e8bc
000001a0: 3c6f a93c 1147 b73d 2020 4d3d 6c7d 5cbd
000001b0: 5c5e 1abd 459d 553d e333 77bd 71cf 903c
000001c0: 240a e33d e364 933d 6377 81bd 9a9f a5bd
000001d0: 5d88 833d 4364 c3bd 08e7 073c d816 a23d
000001e0: 50ec 6a3c fee5 ffbc 4bf1 51bc a495 833d
000001f0: 137f 83bc 62e7 253d bf07 bd3d b824 26bd
00000200: 723c d1bd ecb0 8d3b f8f6 cc3d 0d00 6b3c
00000210: f4fa de3d 2d04 8f3d 1d66 80bc d162 07be
00000220: d4c7 8e3a 7fb5 a33d a95b 093c 8a70 de3d
00000230: e94f c9b9 ae12 c82c f54f 58b3 38e6 ff2c
00000240: e55d 8338 9ab1 4ead 2b21 aa39 cc44 bfb9
00000250: 2565 432e 88af 872e 28b2 3dae b9ff bdb9
00000260: 0f15 12af baaf 13ba 2be9 8bb9 5718 423a
00000270: f2bd 2232 0bff 9bb8 bca9 34b8 c39d 1cba
00000280: a6b1 0333 89cd acb9 87f3 e7b7 fb60 5e33
00000290: 1be4 5936 90c4 98b8 262e 263a b69d 069c
000002a0: 0874 bdb9 af3e 66ba 45e6 2130 8a74 2d37
000002b0: de14 3db8 098d 5d3a b76a f332 80fa 90b9
000002c0: 34ab db2c 8755 1635 080e 2a2e 183b 09ba
000002d0: 3773 802f 98d5 c7b9 f8f4 ebb9 c6c0 4c2c
000002e0: 23dd 3939 1c61 faac 54b1 f3b9 a6a6 dd14
000002f0: 586a b1b9 2956 14ba 52a5 4faa 8847 563a
00000300: e8e6 b8ab 0d4c 09ba ebb4 0415 270c 51ba
00000310: 9585 932f 6952 6aad d4fd bcac 138a 06af
00000320: 103c 322f 67e4 ecaf 049e a59f 3ac6 932f
00000330: 27a7 232d 25ee 04af 06dd e5ad cc43 84af
00000340: 459f 9f16 7d82 912f 5106 353d 2e36 8bbc
00000350: daea 01be 06ab d5bc 0e72 00bd e6fa eebc
00000360: 0767 fabc 3ee5 353d 9fe6 a8bd 46df 883d
00000370: 1929 c53d adfd c53d 74a1 c33d 5909 0b3e
00000380: 0be9 473d dccd 31bd f752 823d d34f da3c
00000390: 5f28 a33c c3d1 bd3c 0a9c f8bb 9dd4 913d
000003a0: aa04 0cbc 78c0 e53b 4358 1b3d a805 513d
000003b0: fc45 033d 51c3 e63c cdf0 ac3d 2f62 0e3c
000003c0: 83a7 ffbc c6e3 f1bc 97c3 743d c36a 14bd
000003d0: 059b 8d3c b645 bd3d d03c 883d faf2 5ebd
000003e0: 7aee 3ebd e1c2 663d 0a93 99bd f83b b13c
000003f0: dc11 e33d 8ec0 a73d 14ea 71bd 83d2 a3bd

0.bias f4 [64]
0.04618162 0.037015468 -0.0003831621 0.04265749 -0.00020886312 -0.0008185466 -0.00063610164 -1.5288788e-06
-5.3652136e-09 -0.0022766348 0.037549548 0.026259178 -3.7167842e-07 0.04936909 0.030852739 -0.0012746081
0.058238566 0.024530487 -9.314274e-05 -5.156894e-05 -0.0015019478 -7.590012e-05 -0.001487226 0.022248713
-2.3060943e-06 -0.002199441 0.0585507 0.02654496 -0.0014687335 0.020207308 0.0032842155 -0.00041829454
0.026549408 -0.0023660124 -0.026283206 -5.791917e-07 0.03630432 -4.488931e-05 -0.00013872233 -0.004311469
0.026969062 -8.452053e-06 -0.0011986297 0.021760292 -0.011644485 0.030067079 0.007890302 0.023846183
-0.0012634429 -5.28299e-06 -0.0071301833 0.048288792 -0.017976513 -0.022954514 0.04423185 -4.1790243e-12
-2.3975544e-09 0.032508813 0.032091804 -1.6023044e-09 0.04935081 -0.0013498302 0.029528609 0.052116133
00000000: f028 3d3d 889d 173d 26e3 c8b9 9fb9 2e3d
00000010: 4402 5bb9 bc93 56ba 0fc0 26ba e033 cdb5
00000020: eb58 b8b1 9833 15bb 8ecd 193d 7d1d d73c
00000030: 188b c7b4 3e37 4a3d e2be fc3c c010 a7ba
00000040: 908b 6e3d 29f4 c83c a155 c3b8 ba4b 58b8
00000050: 01dd c4ba 912c 9fb8 06ef c2ba ef42 b63c
00000060: 66c2 1ab6 7f24 10bb dcd2 6f3d d174 d93c
00000070: 8582 c0ba cc89 a53c fe3b 573b 8b4e dbb9
00000080: 257e d93c 1a0f 1bbb e14f d7bc c079 1bb5
00000090: d7b3 143d 8847 3cb8 fe75 11b9 3947 8dbb
000000a0: 39ee dc3c 4bcd 0db7 571b 9dba a442 b23c
000000b0: 83c8 3ebc 3c4f f63c 5346 013c 1259 c33c
000000c0: 1c9a a5ba 8a44 b1b6 50a4 e9bb 78ca 453d
000000d0: 7b43 93bc 1b0b bcbc 752c 353d 4e09 93ac
000000e0: 39c2 24b1 f627 053d b272 033d 1338 dcb0
000000f0: 1324 4a3d c9ec b0ba fbe5 f13c ba77 553d

3.weight f4 [64, 64]
-1.9067e-27 -7.12749e-08 -3.4898156e-23 -5.608096e-05 2.2884379e-09 1.3342057e-26 4.5352607e-19 -0.000560446
-5.4984173e-24 -0.00057376287 -0.0006255238 -0.00032747013 4.8162353e-17 -0.00095568865 1.5925225e-26 4.903762e-09
-0.00019751191 -6.255783e-05 -3.4189582e-06 -0.0002533271 -1.2097578e-26 1.2858715e-09 -3.8312984e-28 -0.00010550538
5.142263e-08 -3.689426e-07 7.952537e-28 7.624352e-09 -6.142702e-05 3.8965573e-27 7.421579e-28 1.6165048e-13
-1.01054906e-25 -5.3870797e-05 1.6930152e-26 -6.1106887e-27 -8.8640096e-05 1.1027489e-06 1.4623037e-25 -1.6800956e-26
-1.64946e-06 -2.0835452e-27 -3.3590125e-27 5.562171e-27 -1.7646684e-08 6.650578e-17 3.1848886e-27 3.4414435e-07
-0.000365259 1.2932815e-25 2.6439405e-28 -7.63203e-08 -8.7058485e-20 7.220349e-27 -2.3031235e-13 -7.0406606e-28
-0.0011268341 5.631662e-15 -0.0007703899 2.0004596e-25 4.0581617e-28 -4.0314204e-05 -0.0001886952 9.221898e-27
0.13722305 0.13807118 2.3133347e-10 0.15456109 -6.5007815e-28 -1.4557516e-26 2.9118453e-07 8.139502e-27
2.2624465e-27 -1.8894844e-26 -0.022945061 -0.044147167 -2.5372596e-27 0.0042564576 -0.05182681 -1.4363267e-26
0.15972987 -0.046717692 2.796258e-05 9.858129e-27 2.0311261e-24 -8.968139e-27 1.1960054e-21 0.12470218
-8.207276e-28 -2.3754468e-25 0.15810922 -0.042687736 -5.5915247e-27 -0.08248875 0.06029225 -2.4828012e-20
-0.037403908 -3.620562e-14 0.012016983 -6.762233e-26 -0.041485395 -6.3383175e-27 7.240059e-27 -4.9248158e-26
-0.048492216 -1.8110159e-27 7.451285e-27 -0.026209554 0.050125115 -0.05310021 -0.018241053 -0.07243522
-0.000115323965 -3.6085418e-27 9.070634e-06 0.16817142 -0.00056089554 -0.0053208377 0.1497239 1.4669037e-25
-3.5518605e-27 0.13439535 0.1460759 -6.4783145e-27 -0.0047606803 -7.6287965e-27 -0.06396126 0.15523665
0.113143936 0.123629145 1.4748733e-09 0.13231379 -8.697969e-22 -2.194028e-23 1.2946057e-05 7.629042e-14
3.1639786e-25 2.5327947e-06 -0.02579399 -0.023657449 -2.4857328e-25 -0.008254856 -0.0551788 -5.2794105e-19
0.13526325 -0.05548951 1.1285976e-05 9.816338e-22 2.8479754e-20 -1.3616462e-20 2.0913631e-13 0.11244795
8.774075e-19 1.433798e-06 0.13046023 -0.043953493 -3.6105914e-22 -0.07689707 0.043696776 1.4836239e-20
-0.04831391 -6.2427025e-23 0.014241949 2.2769761e-26 -0.044823475 -1.4509018e-12 -6.70176e-26 6.9200427e-25
-0.05372696 2.3403928e-26 -1.5980623e-24 -0.031182721 0.053535584 -0.05108476 -0.003679759 -0.07155999
-3.6036377e-07 -6.686979e-26 0.0006197752 0.14248243 -0.00040059164 -0.00049155863 0.12315915 -3.4586357e-25
1.6882878e-10 0.10916569 0.13005029 -4.344488e-26 -0.015293416 4.620331e-22 -0.063191265 0.13894264
-0.0043983813 -0.004377653 1.5064121e-23 -0.00028886457 5.2311922e-11 1.5648665e-26 2.2374061e-23 -1.1655618e-06
-1.1578204e-26 3.57021e-25 -4.5078123e-06 -2.2838016e-08 4.2617663e-25 -1.9304603e-05 4.763046e-21 1.9645954e-09
-0.0015500814 -1.3329117e-08 -8.8874985e-17 3.9149077e-18 3.2529934e-11 2.578469e-12 -3.185409e-27 -0.0017769599
4.7463264e-09 -8.727204e-24 -0.00250239 1.1570683e-14 -6.4320337e-13 -1.8654542e-27 7.775351e-27 2.4159494e-25
-1.2016292e-26 1.9158351e-19 -2.2233363e-27 7.6799484e-27 -4.7016886e-23 9.423864e-06 1.3438752e-26 2.4935984e-27
1.0914899e-21 -6.4088974e-27 2.2148088e-27 -1.1624722e-07 9.911038e-24 -2.074009e-20 -7.121861e-27 3.43312e-10
3.0829202e-20 8.727923e-26 1.056175e-26 -0.0063975416 4.2032172e-23 -1.1986151e-26 -0.0018969544 5.5544305e-27
-4.538244e-06 -0.0038592988 5.563967e-15 -7.715681e-26 -0.000105014835 -1.6882573e-11 -1.836069e-10 -0.0042043193
00000000: 7810 1793 ca0f 99b3 d3c1 289a 7938 6bb8
00000010: a042 1d31 2222 8414 76db 0521 e5ea 12ba
00000020: b0b5 d498 9368 16ba 31fa 23ba 4cb0 abb9
00000030: 121c 5e24 2e87 7aba 3eb7 9d14 f27d a831
00000040: 331b 4fb9 7b31 83b8 4171 65b6 fdd0 84b9
00000050: 029e 6f94 95ba b030 5fd6 f291 c542 ddb8
00000060: c8db 5c33 1613 c6b4 a506 7c12 41fc 0232
00000070: 61d2 80b8 c95b 9a13 0133 6b12 9400 362a
00000080: 2833 fa95 54f3 61b8 09ab a714 bf11 f293
00000090: 4ae4 b9b8 2a02 9435 4106 3516 7c63 a694
000000a0: 0463 ddb5 5113 2593 6f10 8593 1e57 dc13
000000b0: 7895 97b2 155a 9924 3755 7c13 d7c2 b834
000000c0: 3c80 bfb9 ba19 2016 6394 a711 87e5 a3b3
000000d0: a08f cd9f 8503 0f14 82a7 81aa a020 5f92
000000e0: 47b2 93ba eae6 ca27 fef3 49ba 18a5 7716
000000f0: b89b 0012 0c17 29b8 7bdc 45b9 94a8 3614
00000100: 3384 0c3e 8862 0d3e 955a 7e2f 4345 1e3e
00000110: 9b04 4e92 b02b 9094 1954 9c34 2e38 2114
00000120: de3f 3313 1f20 bb94 48f7 bbbc a9d3 34bd
00000130: bd05 4993 c179 8b3b 5948 54bd 353f 8e94
00000140: 3a90 233e 0d5b 3fbd 2f91 ea37 a742 4314
00000150: 9926 1d18 dea1 3194 38bc b41c db63 ff3d
00000160: ab0c 8292 7508 9396 62e7 213e 56d9 2ebd
00000170: cc80 dd93 ddef a8bd 02f5 763d 737e ea9e
00000180: d734 19bd 3d0e 23a9 e1e2 443c be6c a795
00000190: 97ec 29bd 2d16 fb93 7667 0f14 75dd 7395
000001a0: c69f 46bd c47b 0f93 8196 1314 6bb5 d6bc
000001b0: fe4f 4d3d 9b7f 59bd 436e 95bc eb58 94bd
000001c0: 15da f1b8 f6f2 8e93 142e 1837 2135 2c3e
000001d0: 1009 13ba 6c5a aebb 3951 193e 0998 3516
000001e0: 25b4 8c93 ef9e 093e ec94 153e f550 0094
000001f0: 7bff 9bbb 981a 1794 1ffe 82bd 5bf6 1e3e
00000200: 02b8 e73d 4731 fd3d 7eb4 ca30 447d 073e
00000210: a370 839c 8131 d499 e432 5937 6fca ab29
00000220: 3ed7 c316 15f9 2936 eb4d d3bc 44cd c1bc
00000230: 02dc 9996 603f 07bc 2a03 62bd 19d2 1ba1
00000240: 7382 0a3e f848 63bd e658 3d37 1e57 941c
00000250: e97d 061f 969a 809e 7077 6b2a 1c4b e63d
00000260: 857b 8121 ed70 c035 5e97 053e 9408 34bd
00000270: 323f da9b 367c 9dbd 64fb 323d d31f 8c1e
00000280: cee4 45bd 75f0 969a 1057 693c 3480 e114
00000290: d298 37bd 3f32 ccab 73ed a595 3a2a 5617
000002a0: cd10 5cbd 02c8 e714 c549 f797 e872 ffbc
000002b0: 2148 5b3d 413e 51bd 1d28 71bb 0b8e 92bd
000002c0: 0578 c1b4 c48f a595 6978 223a eae6 113e
000002d0: 8006 d2b9 f1db 00ba dd3a fc3d 4514 d696
000002e0: 14a1 392f 4392 df3d e72b 053e ee20 5795
000002f0: 3c91 7abc 14a4 0b1c 6c6a 81bd fb46 0e3e
00000300: 4c20 90bb 6a72 8fbb f5b0 9119 bf72 97b9
00000310: fd11 662e 14fa 9a14 7e63 d819 6670 9cb5
00000320: 7854 6594 3cfc dc16 d041 97b6 542d c4b2
00000330: 31e5 0317 52f0 a1b7 5bf1 b31d 8701 0731
00000340: 1a2c cbba 14fe 64b2 88ee cca4 426f 9022
00000350: 7311 0f2e 9171 352c c55f 7c93 e1e8 e8ba
00000360: 2115 a331 05cf 2899 23ff 23bb 5b70 5028
00000370: b00b 35ab e8cb 1393 b701 1a14 3f8a 9516
00000380: d701 6e94 902e 6220 9e26 3093 f71d 1814
00000390: 165c 639a 301b 1e37 4917 8514 2f90 4513
000003a0: f8f0 a41c f1e1 fd93 a979 2f13 96a3 f9b3
000003b0: 15b5 3f19 76e2 c39e 2010 0d94 debc bc2f
000003c0: 3896 111f c917 d815 6f32 5114 78a2 d1bb
000003d0: 4f41 4b1a 0269 6d94 3aa3 f8ba 9e08 dc13
000003e0: 3847 98b6 4aec 7cbb 8a76 c827 f007 bf95
000003f0: 693b dcb8 2d80 94ad bfe0 49af 63c4 89bb

3.bias f4 [64]
-0.0058802757 0.07474421 0.050437465 -0.010118911 -0.0040543457 -0.008873709 -0.0031500927 0.055258572
-0.011043517 -0.005906072 -0.0049312776 0.06694452 -0.0055310437 0.041895002 0.04184574 -0.008069486
0.0420482 0.048300732 0.066485405 -0.0058150035 0.047389157 -0.005919571 -0.0053929994 0.04493976
0.04529819 0.043104466 0.040427636 0.050920893 0.064987615 -0.010231211 0.039352138 -0.007317492
0.052231558 0.058288503 -0.007828039 -0.0033060173 -0.0020952981 0.037920296 0.05504167 0.055931948
0.06983064 0.050844457 -0.0059043467 0.06030823 0.057827286 -0.004556934 -0.004247536 -0.0041289423
-0.005470556 -0.008667721 -0.004174058 -0.00594874 -0.005794571 -0.0058714477 -0.008176364 -0.005696258
0.040600907 0.06134015 -0.008709431 0.037745785 0.042647503 -0.004989374 0.069464765 0.044148125
00000000: 54af c0bb 7e13 993d 8497 4e3d cac9 25bc
00000010: 51da 84bb 0863 11bc c971 4ebb d056 623d
00000020: deef 34bc b987 c1bb 8e96 a1bb 351a 893d
00000030: c23d b5bb 189a 2b3d 7066 2b3d e135 04bc
00000040: bc3a 2c3d fdd6 453d 8029 883d c98b bebb
00000050: 221b 423d f6f8 c1bb c2b7 b0bb c112 383d
00000060: 988a 393d 4f8e 303d 7397 253d 6d92 503d
00000070: 3a18 853d cfa0 27bc b52f 213d 92c7 efbb
00000080: c2f0 553d edbf 6e3d 2d41 00bc c4a9 58bb
00000090: 4551 09bb 5052 1b3d 6073 613d e618 653d
000000a0: 5e03 8f3d 4742 503d 4079 c1bb c305 773d
000000b0: 4edc 6c3d 5552 95bb ea2e 8bbb 144c 87bb
000000c0: 5a42 b3bb 0f03 0ebc 89c6 88bb a6ed c2bb
000000d0: 62e0 bdbb 4665 c0bb 28f6 05bc ada7 babb
000000e0: 234d 263d cf3f 7b3d 00b2 0ebc 539b 1a3d
000000f0: 26af 2e3d e77d a3bb 8b43 8e3d aad4 343d

6.weight f4 [4, 64]
-8.8732585e-27 -2.1860963e-27 3.3310757e-27 5.9903557e-28 -2.1822076e-26 -3.1374335e-27 1.10469416e-26 -2.2322864e-26
-1.3668898e-26 -1.0910642e-27 -5.519364e-27 -5.7156578e-27 -8.078906e-28 7.9928566e-27 -1.1585617e-28 -2.2826985e-26
-1.3920122e-26 5.375611e-28 -8.352254e-28 -1.8592159e-26 -2.1277144e-28 -1.1687695e-26 -1.7157876e-26 -2.4727746e-28
8.549203e-27 1.4547298e-26 2.58866e-26 -1.5602334e-26 6.90666e-27 -1.3171846e-26 3.823694e-27 -5.910104e-28
-1.4621934e-26 7.911886e-27 6.26151e-27 -1.5351617e-26 -7.971937e-27 -5.516382e-27 2.3074141e-26 4.0496115e-28
2.5069715e-27 -1.8431797e-31 1.4039465e-27 1.409346e-26 -9.0700785e-27 1.1853199e-26 -9.7705215e-27 -1.03778804e-26
1.9232324e-26 3.8971674e-27 -1.1802095e-26 -1.6344241e-26 -5.6847378e-27 -2.719277e-28 1.3040067e-27 3.82587e-27
-1.5844775e-26 7.644639e-27 5.5369627e-27 -6.2495964e-27 -6.422172e-31 7.918686e-27 8.305098e-28 -1.6949259e-26
-1.707038e-26 -1.0238849e-28 -6.583415e-27 3.5764406e-28 2.4725512e-26 -4.704078e-28 -9.811511e-27 -6.958087e-28
2.1107664e-26 4.666977e-28 -8.100459e-27 2.2538024e-27 6.489807e-27 -1.725574e-26 7.519486e-27 5.3499622e-27
-3.823837e-28 9.193723e-27 5.712687e-28 -7.080341e-27 1.4329692e-26 -2.2481821e-27 5.2895508e-27 7.147032e-27
-2.3865877e-26 5.7023396e-27 7.588472e-27 -6.361707e-27 -7.656587e-27 1.14127096e-26 1.21222784e-26 1.1996429e-29
8.035781e-27 -2.2613395e-27 4.02427e-27 8.142126e-28 -1.4741505e-26 -1.15618505e-26 3.8305598e-28 -8.1639754e-27
-3.7876887e-27 7.293766e-27 -6.1041194e-27 1.25017136e-26 1.3564594e-26 -8.724536e-28 -2.168001e-26 -3.841592e-27
1.904759e-27 2.1801017e-26 1.2262197e-27 1.3375149e-27 -2.5666308e-27 1.101572e-26 6.4683405e-27 7.403353e-27
1.6688728e-28 1.1495391e-28 1.9947345e-26 1.7004141e-27 9.166556e-27 1.481438e-26 4.3837663e-27 7.176761e-28
-0.000729651 -0.15866965 -0.13894285 4.796252e-05 -0.0039246003 -0.0011071953 -0.0013819911 -0.12845923
0.00097582256 3.3822645e-05 0.0045077763 -0.16144714 9.614443e-25 0.1668191 0.15687987 4.2253585e-05
0.1709965 0.16262741 -0.14785807 6.5875147e-06 0.18279906 0.00029125717 -5.7533e-22 0.1797644
0.17992769 -0.12017766 0.16701767 -0.13861391 -0.16653925 -0.0013104139 0.15935224 -0.0010037029
-0.13976225 0.19252487 0.00321479 0.0012702568 1.4234459e-19 0.16411236 -0.16582125 -0.1593553
-0.16077568 0.21185404 -0.00045251907 -0.14555335 0.19297956 4.3040767e-08 -4.449869e-05 -3.248176e-26
0.0001251919 6.577334e-08 -0.004411999 -0.00021462237 0.00056151877 0.0018005663 0.00075827766 -9.4933024e-17
-0.123887055 0.19975644 -0.0017716165 0.15819314 0.14547414 0.0030038198 -0.15424019 0.16222836
-0.0012427549 -0.14840746 -0.13348648 -3.8219303e-05 -0.0036037897 -0.000948692 -0.0017714263 -0.12336418
0.0014230208 2.2705088e-05 0.005206601 -0.14728428 -7.764652e-25 0.16281752 0.15338264 3.0860974e-05
0.17514797 0.16431464 -0.1507611 8.9271325e-06 0.17915882 0.00031793062 -3.2209017e-22 0.18006207
0.17915775 -0.1314844 0.17179148 -0.13390365 -0.15611777 -0.002798974 0.15672147 -0.0018039593
-0.13294703 0.19314644 0.0040498897 0.0035064227 2.8621793e-20 0.16777828 -0.14506459 -0.14590906
-0.15043353 0.21231222 -0.0006098614 -0.12905326 0.1975934 1.8270182e-08 -9.4581235e-05 6.425874e-26
0.00025440764 -2.406726e-05 -0.004558735 -0.00026972106 0.0002883971 0.0013303999 8.383642e-05 -6.5568592e-12
-0.13218023 0.19009838 -0.0054766135 0.15725127 0.15171866 0.0023303286 -0.15907164 0.16264199
00000000: c4c0 2f94 4d33 2d93 1ff5 8313 8ad7 3d12
00000010: 891d d894 b692 7893 a6ce 5a14 2f13 dd94
00000020: c65e 8794 d2e2 ac92 00a5 da93 a86b e293
00000030: f003 8092 9950 1e14 7add 1291 4811 e294
00000040: b4db 8994 235c 2a12 c458 8492 b920 b894
00000050: 24dc 8691 a87f 6794 62ec a994 10bb 9c91
00000060: 9c55 2914 c811 9014 2a2f 0015 9e84 9a94
00000070: edcc 0814 9972 8294 dd78 9713 764c 3b92
00000080: 02cf 9094 07b6 1c14 410b f813 f908 9894
00000090: 86e6 1d94 c286 da93 e683 e414 5a56 0012
000000a0: 6c9f 4613 2742 6f8c d676 de12 2b93 8b14
000000b0: c3a6 3394 dcc6 6a14 6e86 4194 1b8e 4d94
000000c0: bc77 be14 f961 9a13 bbc3 6994 93dd a194
000000d0: 1732 e193 cb5a ac91 cca0 ce12 ee8e 9713
000000e0: 47eb 9c94 ed6a 1714 7957 db13 7092 f793
000000f0: 5169 508d 82d8 1c14 7b99 8312 7adb a794
00000100: 8e0e a994 f7ca 0191 e165 0294 11af e211
00000110: 9fde f414 0414 1592 4556 4294 b582 5c92
00000120: 490a d114 04e7 1312 3572 2094 8b90 3213
00000130: 3b8b 0014 80e4 aa94 53f0 1414 10ef d313
00000140: 4d5d f291 b719 3614 d30a 3512 983d 0c94
00000150: 16ea 8d14 8d1e 3293 6b8a d113 c28f 0d14
00000160: 305b ec94 98e4 e113 204e 1614 6003 fc93
00000170: 82a7 1794 500d 6214 411b 7014 0551 730f
00000180: 402a 1f14 6a29 3393 f26a 9f13 6304 8112
00000190: 28fe 9194 8c01 6594 63ca f211 46b4 2194
000001a0: ba0b 9693 ca77 1014 20cf f193 389f 7714
000001b0: 5556 8614 ec3e 8a92 5bb5 d694 5f2e 9893
000001c0: 1ae9 1613 25e8 d714 614d c212 0df0 d312
000001d0: 7559 4b93 5630 5a14 621e 0014 76a3 1214
000001e0: 058e 5311 adb8 1111 878c c514 7fb8 0613
000001f0: f68f 3514 eab6 9214 aca8 ad13 cd70 6312
00000200: 0d46 3fba 4c7a 22be 0947 0ebe 5d2b 4938
00000210: ef99 80bb 4f1f 91ba ed23 b5ba d18a 03be
00000220: 58ce 7f3a cadc 0d38 f8b5 933b 6652 25be
00000230: bcc6 9417 a0d2 2a3e 1ea5 203e 7139 3138
00000240: b519 2f3e cd87 263e 1b68 17be 520a dd36
00000250: ad2f 3b3e e0b3 9839 01e2 2d9c 2914 383e
00000260: f73e 383e b41f f6bd ae06 2b3e cef0 0dbe
00000270: 4489 2abe 32c2 abba 3c2d 233e ae8e 83ba
00000280: d61d 0fbe 3d25 453e 3aaf 523b bf7e a63a
00000290: 030d 2820 120d 283e 0ccd 29be 092e 23be
000002a0: 61a2 24be 44f0 583e 1540 edb9 f00b 15be
000002b0: 6f9c 453e d3db 3833 1ba4 3ab8 86d7 2095
000002c0: f245 0339 473f 8d33 8892 90bb 410c 61b9
000002d0: e332 133a fb00 ec3a 27c7 463a 91e6 daa4
000002e0: 7fb8 fdbd f48c 4c3e 9635 e8ba 62fd 213e
000002f0: 2cf7 143e bcdb 443b 24f1 1dbe 311f 263e
00000300: efe3 a2ba 20f8 17be aeb0 08be aa4d 20b8
00000310: 8f2d 6cbb a4b1 78ba 342f e8ba 5ca6 fcbd
00000320: a884 ba3a ce76 be37 239c aa3b b1d1 16be
00000330: e94d 7097 a3b9 263e 5710 1d3e b870 0138
00000340: fd59 333e 1942 283e 1e61 1abe bec5 1537
00000350: 6975 373e edaf a639 0ab1 c29b 3162 383e
00000360: 2175 373e d9a3 06be 1bea 2f3e 0a1e 09be
00000370: 56dd 1fbe fe6e 37bb 987b 203e d472 ecba
00000380: 4423 08be 2ec8 453e f0b4 843b 03cc 653b
00000390: a029 071f 12ce 2b3e d08b 14be 2f69 15be
000003a0: 3f0b 1abe 6068 593e 1bdf 1fba 8a26 04be
000003b0: ed55 4a3e 8ef0 9c32 ea59 c6b8 d118 9f15
000003c0: 0462 8539 0ce4 c9b7 7161 95bb 5969 8db9
000003d0: 0134 9739 d060 ae3a 56d1 af38 f0b2 e6ac
000003e0: 415a 07be 26a9 423e 2a75 b3bb 7a06 213e
000003f0: 235c 1b3e 6db8 183b ade3 22be 9f8b 263e

6.bias f4 [4]
0.0 0.0 -0.00744479 0.0035886688
00000000: 0000 0000 0000 0000 6df3 f3bb df2f 6b3b

exp_avg f4 [64, 70]
-0.0049799834 -8.772482e-05 -0.00092963997 3.7052694e-05 0.0024048318 7.765569e-05 0.00498864 -0.004979979
0.0010963676 0.00079051574 -0.00084272097 -0.00239069 -0.002257441 0.00021277211 -0.0049799387 0.0027499287
0.00087742804 -0.0016175874 -0.0024357496 -0.004503363 -0.00010793555 -0.0049989913 0.003127347 0.001098397
-0.0015565667 -0.0027055559 -0.0042927368 -0.0007963934 -0.00516217 0.0036997667 0.0016062034 -0.00045290228
-0.0025457784 -0.0005926737 9.520959e-06 -0.005590006 -0.002236702 0.0018906044 0.0024131981 -0.0034308261
0.0058902767 -0.0016044602 -0.004528973 -0.0034424316 0.0012027575 0.001954992 -0.0020420349 0.0053669014
-5.6788335e-06 -0.0055148443 -0.0022424986 0.0027112057 0.00081358745 -0.003662532 0.0023333027 -0.0028525658
-0.005800852 1.3524526e-05 0.005663072 9.068183e-05 -0.005029542 0.00014498686 -0.006130455 -0.002217602
0.00012148247 0.0026319423 -3.7653364e-05 -0.001992118 -7.408543e-05 -0.0024838252 -0.004638565 -6.8960944e-05
-0.0008305184 5.6239576e-05 0.0022730704 0.00012267134 0.004645855 -0.004638571 0.0008254775 0.00069777743
-0.0005703072 -0.0022459817 -0.0016305291 0.00026442038 -0.0046385326 0.0024073739 0.000783826 -0.0015106441
-0.0023092926 -0.004199714 -0.00012182039 -0.0046533667 0.0032178417 0.0010077169 -0.0018072849 -0.0026039009
-0.0048560696 -0.00088204147 -0.0048399842 0.0036155123 0.0015968592 -0.00052784086 -0.002477839 -0.000573964
-0.00012790113 -0.005294654 -0.0019453276 0.0019042304 0.002206585 -0.0033975749 0.0054905894 -0.0018086322
-0.004108947 -0.0033446946 0.0008498565 0.0018974546 -0.0016388645 0.005337662 0.00060182816 -0.005084888
-0.0024872923 0.0022547627 0.0008712663 -0.0032233372 0.0025453786 -0.0021478566 -0.005350142 -2.9864585e-05
0.0051289652 7.903614e-05 -0.004626388 0.00015670854 -0.005580966 -0.0024451772 0.00012878682 0.002804555
-3.885662e-05 -0.0021785824 -7.609318e-05 -0.0027087627 -4.0239523e-09 5.0300142e-17 -6.3709823e-13 1.07201926e-16
6.740574e-10 -2.8077731e-16 3.4015457e-09 -3.8231933e-09 6.3061497e-16 1.0317658e-15 -3.861943e-16 -3.7797547e-09
-2.5549576e-15 -5.846498e-09 -2.7966025e-09 7.696841e-09 1.2505514e-13 -8.047924e-10 -4.7092547e-10 -6.200003e-09
3.9141178e-13 -3.4540792e-09 -3.0583666e-10 6.5127466e-13 3.744522e-11 -7.8707146e-10 6.6213715e-09 -3.094513e-27
-3.7869046e-09 -9.116266e-09 8.500111e-15 1.1537533e-10 -4.9210763e-10 8.770636e-09 3.6171532e-13 -2.9005334e-09
1.5114761e-15 6.719755e-12 5.261414e-16 -5.4852194e-09 1.3154771e-15 -3.9980397e-09 -4.7007616e-09 1.5073942e-17
1.8865096e-09 -2.328314e-17 -4.8553743e-09 5.8505723e-32 -3.5344694e-09 -5.8722316e-09 -2.3768694e-17 8.482771e-09
7.427153e-17 -5.4354463e-09 1.722698e-33 -8.275646e-09 6.269245e-16 -9.16709e-17 -3.790963e-17 2.9244683e-16
-9.361081e-17 3.7814256e-16 3.9212562e-25 6.161639e-16 7.850602e-17 2.3422504e-16 -2.9283019e-18 -7.8458126e-16
6.376948e-30 7.0076174e-16 -0.00476243 -5.6618406e-05 -0.0006734989 0.00021422181 0.0021952444 0.00038410016
0.0048033213 -0.0047624283 0.0015823261 0.00047269376 -0.0017929899 -0.0022315804 -0.004187288 0.00013371222
-0.0047623846 0.0044168336 0.0005756344 -0.0027681862 -0.0022303145 -0.007033619 -0.00012248842 -0.004784118
0.0038115592 0.0005072578 -0.0021632272 -0.0020647135 -0.0054846606 0.00039556267 -0.0049708346 0.004336797
0.00056917884 -0.00073891075 -0.001820733 -0.0007286805 0.0013114443 -0.0054632053 -0.0028908725 0.00087184535
0.0027217506 -0.0028207046 0.0071375133 -0.00054007274 -0.0055613765 -0.0040606232 0.0014175933 0.0023101731
00000000: 212f a3bb e7f8 b7b8 15b3 73ba 0769 1b38
00000010: 629a 1d3b 15db a238 bf77 a33b 172f a3bb
00000020: feb3 8f3a 9d3a 4f3a 0cea 5cba 1fad 1cbb
00000030: 93f1 13bb 941b 5f39 c12e a3bb 2638 343b
00000040: 3303 663a 3a05 d4ba 19a1 1fbb f290 93bb
00000050: 755b e2b8 94ce a3bb 2df4 4c3b 16f8 8f3a
00000060: b605 ccba b24f 31bb 16aa 8cbb 0ec5 50ba
00000070: 6c27 a9bb c977 723b 3e87 d23a 8473 edb9
00000080: 13d7 26bb a95d 1bba 35bc 1f37 5e2c b7bb
00000090: a295 12bb 28ce f73a bf26 1e3b b6d7 60bb
000000a0: 3903 c13b c04c d2ba c767 94bb 6b9a 61bb
000000b0: d8a5 9d3a 531f 003b a9d3 05bb d5dc af3b
000000c0: cf8c beb6 deb5 b4bb e2f6 12bb 7cae 313b
000000d0: ee46 553a 1707 70bb 53ea 183b 1df2 3abb
000000e0: 1315 bebb 66e7 6237 4b91 b93b 702c be38
000000f0: dbce a4bb 9d07 1839 fce1 c8bb 3055 11bb
00000100: 68c4 fe38 aa7c 2c3b feed 1db8 328e 02bb
00000110: 505e 9bb8 acc7 22bb 1aff 97bb 209f 90b8
00000120: 25b7 59ba c9e2 6b38 cbf7 143b 56a1 0039
00000130: 423c 983b 27ff 97bb db64 583a 0deb 363a
00000140: ab80 15ba 5231 13bb 7ab7 d5ba e7a1 8a39
00000150: d5fe 97bb 08c5 1d3b ac79 4d3a ce00 c6ba
00000160: 8057 17bb c19d 89bb d379 ffb8 457b 98bb
00000170: 6de2 523b 5e15 843a 6be2 ecba 35a6 2abb
00000180: aa1f 9fbb cd38 67ba bb98 9ebb 3bf2 6c3b
00000190: b44d d13a cd5e 0aba 3d63 22bb 1276 16ba
000001a0: 331d 06b9 c77e adbb 5dfa feba 5f97 f93a
000001b0: 5a9c 103b d9a9 5ebb 67ea b33b a00f edba
000001c0: 58a4 86bb aa32 5bbb e7c8 5e3a 03b4 f83a
000001d0: 2bcf d6ba 8ee7 ae3b 01c4 1d3a 229f a6bb
000001e0: d701 23bb a4c4 133b b165 643a a03e 53bb
000001f0: 5ed0 263b 0ec3 0cbb 3e50 afbb b585 fab7
00000200: e110 a83b 34c0 a538 f598 97bb 2152 2439
00000210: 89e0 b6bb 443f 20bb f30a 0739 a0cc 373b
00000220: faf9 22b8 8cc6 0ebb 3794 9fb8 7f85 31bb
00000230: 0f43 8ab1 edf7 6724 c453 33ab d930 f724
00000240: 9348 3930 6bdb a1a5 a0c0 6931 2a5d 83b1
00000250: 2cc3 3526 70b1 9426 38a0 dea5 13df 81b1
00000260: a61a 38a7 57e2 c8b1 5a2e 40b1 113b 0432
00000270: b1cc 0c2a 3b38 5db0 6f72 01b0 ce07 d5b1
00000280: 6258 dc2a ce5c 6db1 af22 a8af 4951 372b
00000290: 92af 242e 3b59 58b0 3382 e331 2e2c 7593
000002a0: f71d 82b1 c39d 1cb2 d81f 1928 89b6 fd2e
000002b0: ff44 07b0 aaad 1632 aca0 cb2a b952 47b1
000002c0: a0d3 d926 2c6e ec2c 62a6 1726 8078 bcb1
000002d0: 8a94 bd26 215f 89b1 5684 a1b1 5708 8b23
000002e0: d4a3 0131 c3bf d6a3 53d4 a6b1 b9e3 970b
000002f0: 0be3 72b1 b2c4 c9b1 3e3a dba3 9fbb 1132
00000300: 2c42 ab24 b1c2 bab1 bc1d 0f09 ad2c 0eb2
00000310: ddb2 3426 f360 d3a4 cbd3 2ea4 8995 a825
00000320: 12da d7a4 fefb d925 c9b6 f216 df98 3126
00000330: c605 b524 8405 8725 0f12 58a2 e123 62a6
00000340: 0257 010f 17fb 4926 290e 9cbb 8d79 6db8
00000350: bf8d 30ba bba0 6039 17de 0f3b 0d61 c939
00000360: 2e65 9d3b 250e 9cbb 0e66 cf3a e2d3 f739
00000370: c202 ebba b53f 12bb 8535 89bb 1a35 0c39
00000380: c70d 9cbb 16bb 903b 2ce6 163a 756a 35bb
00000390: 782a 12bb 467a e6bb 3c70 00b9 17c4 9cbb
000003a0: 5acb 793b 7ff9 043a eec4 0dbb 2550 07bb
000003b0: abb8 b3bb 8663 cf39 62e2 a2bb b11b 8e3b
000003c0: f234 153a 76b3 41ba a9a5 eeba ec04 3fba
000003d0: c5e4 ab3a b004 b3bb cb74 3dbb 8d8c 643a
000003e0: 665f 323b 92db 38bb cde1 e93b ab93 0dba
000003f0: 353c b6bb fa0e 85bb 8ace b93a 4666 173b

exp_avg_sq f4 [64, 70]
0.00011182666 8.6755946e-08 1.3189269e-05 1.2966033e-06 2.7603879e-05 5.0263293e-06 0.0001089236 0.000111826484
3.5501507e-05 1.05037025e-05 1.6638347e-05 3.1342384e-05 0.000104003775 4.162275e-05 0.00011145665 6.63262e-05
1.4266917e-05 2.1139404e-05 2.9614164e-05 0.0001365012 1.40720285e-05 0.00011300718 6.379028e-05 1.7280243e-05
1.9863775e-05 3.3187032e-05 0.00012954984 1.8342214e-05 0.00011433718 5.7256133e-05 2.8552633e-05 1.8716843e-05
4.2716823e-05 0.00012090994 3.9041723e-05 0.00010795071 3.9867376e-05 3.9920375e-05 1.1635579e-05 4.986346e-05
7.483007e-05 5.6254492e-05 9.429327e-05 3.2406566e-05 4.690113e-05 7.4036416e-06 5.310128e-05 4.8952363e-05
6.9418886e-05 6.987228e-05 1.31963925e-05 4.2215772e-05 2.8857135e-06 4.4261717e-05 1.945228e-05 6.139167e-05
4.96754e-05 5.270253e-06 3.918976e-05 1.4036045e-06 3.513046e-05 9.2759765e-06 5.5367782e-05 3.4686032e-05
4.2509496e-06 2.6695274e-05 1.1993695e-06 2.2440274e-05 8.449947e-06 3.0611798e-05 0.00011596947 9.150573e-08
1.4111494e-05 1.505031e-06 2.8897759e-05 5.9152594e-06 0.00011281202 0.00011596931 3.714006e-05 1.1031432e-05
1.7439967e-05 3.280942e-05 0.000108323075 4.5482568e-05 0.000115562696 7.1084076e-05 1.472474e-05 2.3249464e-05
3.084144e-05 0.0001467897 1.5321613e-05 0.000117202355 6.951237e-05 1.8673696e-05 2.1634914e-05 3.549672e-05
0.00014074665 2.1615202e-05 0.000120879195 5.9208072e-05 3.251777e-05 1.9362145e-05 4.758788e-05 0.00012477317
4.5090812e-05 0.000113808135 4.1738374e-05 4.4809673e-05 1.2012493e-05 5.484594e-05 7.6856115e-05 6.529391e-05
9.7096185e-05 3.1478583e-05 5.0669267e-05 7.4723794e-06 5.534045e-05 4.907122e-05 7.514263e-05 7.0331436e-05
1.4378253e-05 4.2471544e-05 3.1742886e-06 4.4026616e-05 2.14915e-05 6.250811e-05 5.053102e-05 5.8053874e-06
3.8422164e-05 1.41387e-06 3.5074154e-05 9.614432e-06 5.4188127e-05 3.5410412e-05 4.3907526e-06 2.6670128e-05
1.2272372e-06 2.2759044e-05 8.745418e-06 3.0855605e-05 3.2033614e-12 5.66669e-18 2.0851552e-13 1.5012163e-14
1.4018854e-12 3.27604e-14 3.1700315e-12 3.2035086e-12 4.0318907e-14 8.915864e-14 1.3056044e-15 3.921223e-12
3.5326485e-14 4.9938816e-12 3.2043402e-12 4.583216e-12 1.6717023e-13 1.2325101e-12 9.869384e-13 4.9939293e-12
1.9798541e-13 3.2038003e-12 7.9656247e-13 2.156738e-13 4.4407203e-13 1.2714808e-12 3.6795835e-12 1.6627004e-14
3.2035331e-12 4.951671e-12 1.2108505e-13 6.8845835e-13 1.017967e-12 4.9924977e-12 1.9804099e-13 3.090846e-12
1.08303e-15 3.0186392e-13 1.5406374e-14 3.2243381e-12 4.1034727e-22 3.0901017e-12 3.6806985e-12 1.4265747e-15
1.8857444e-12 2.0363355e-14 3.6643358e-12 1.21165465e-20 3.68167e-12 4.9939757e-12 2.2588573e-15 4.99264e-12
2.5757618e-14 4.982811e-12 7.238316e-20 4.9927553e-12 1.8902817e-16 1.1724698e-18 1.1638904e-18 3.1535772e-19
5.2649788e-17 1.9397529e-19 1.8876498e-16 1.8934225e-16 1.1077305e-18 5.5915186e-17 1.1897818e-19 9.125734e-17
3.5773977e-19 1.8685557e-16 0.00013251988 1.0162022e-07 1.5395728e-05 1.5538523e-06 3.2771524e-05 5.987046e-06
0.00012905346 0.00013251966 4.241969e-05 1.2467264e-05 1.9581155e-05 3.7598627e-05 0.00012266946 4.959564e-05
0.00013150508 7.617077e-05 1.6820099e-05 2.4828523e-05 3.5084387e-05 0.0001595738 1.7025619e-05 0.0001335449
7.914163e-05 1.9749723e-05 2.4402509e-05 3.951402e-05 0.00015628304 2.1418511e-05 0.00013496946 6.652916e-05
3.2870685e-05 2.205273e-05 5.071048e-05 0.00014361236 4.5884215e-05 0.00012842637 4.778771e-05 4.7320922e-05
1.4037815e-05 5.9867518e-05 9.161489e-05 6.7267145e-05 0.00011240897 3.9041035e-05 5.4445954e-05 9.0422645e-06
00000000: 7b84 ea38 964e ba33 7b47 5d37 f306 ae35
00000010: e18e e737 d7a7 a836 ea6d e438 6384 ea38
00000020: 74e7 1438 0f39 3037 9492 8b37 a175 0338
00000030: 9a1c da38 1694 2e38 d5bd e938 9c18 8b38
00000040: f15b 6f37 8654 b137 ef6b f837 c321 0f39
00000050: e716 6c37 45fe ec38 25c7 8538 0af5 9037
00000060: 22a1 a637 4e32 0b38 c5d7 0739 9bdd 9937
00000070: 4ec8 ef38 4e26 7038 5084 ef37 1d02 9d37
00000080: d72a 3338 0891 fd38 bbc0 2338 9963 e238
00000090: 4537 2738 2d70 2738 6e36 4337 7c24 5138
000000a0: 17ee 9c38 cdf2 6b38 50bf c538 49ec 0738
000000b0: b4b7 4438 cc6c f836 11b9 5e38 3352 4d38
000000c0: fb94 9138 6588 9238 1366 5d37 d710 3138
000000d0: 2ea8 4136 a8a5 3938 742d a337 67bf 8038
000000e0: 8e5a 5038 21d7 b036 af5f 2438 7c63 bc35
000000f0: 0b59 1338 04a0 1b37 b43a 6838 d87b 1138
00000100: 61a3 8e36 aaef df37 06fa a035 1f3e bc37
00000110: 3fc4 0d37 2b65 0038 a334 f338 cf81 c433
00000120: 68c0 6c37 7900 ca35 7769 f237 b17b c636
00000130: 7e95 ec38 8d34 f338 d6c6 1b38 a413 3937
00000140: 0b4c 9237 d99c 0938 822b e338 89c4 3e38
00000150: 405a f238 f912 9538 470a 7737 d807 c337
00000160: be5b 0138 8feb 1939 ea86 8037 89ca f538
00000170: 2bc7 9138 75a5 9c37 a07c b537 50e2 1438
00000180: 6495 1339 4b52 b537 8680 fd38 2f56 7838
00000190: b163 0838 e46b a237 1999 4738 8bd5 0239
000001a0: e41f 3d38 47ac ee38 3d10 2f38 05f2 3b38
000001b0: 4489 4937 610a 6638 d02d a138 67ee 8838
000001c0: 1ea0 cb38 df07 0438 b685 5438 40bb fa36
000001d0: 5b1d 6838 d2d1 4d38 e495 9d38 e77e 9338
000001e0: 203a 7137 7923 3238 dd05 5536 38a9 3838
000001f0: a548 b437 c916 8338 45f1 5338 e6cb c236
00000200: 7c27 2138 34c4 bd35 961c 1338 ac4d 2137
00000210: 0f48 6338 a485 1438 4754 9336 aab9 df37
00000220: 8db7 a435 adea be37 49b9 1237 f46a 0138
00000230: a16a 612c 6010 d122 82c4 6a2a b137 8728
00000240: 3f4c c52b 2b8a 1329 3612 5f2c 486d 612c
00000250: 8994 3529 75c4 c829 4d28 bc26 3df7 892c
00000260: aa18 1f29 e3b4 af2c 437c 612c f141 a12c
00000270: 8a37 3c2a db75 ad2b 34e6 8a2b 51b5 af2c
00000280: 69e9 5e2a 8972 612c 6036 602b bed3 722a
00000290: 86fd f92a ecf1 b22b be76 812c 43c3 9528
000002a0: b96d 612c b038 ae2c 6454 082a a7c8 412b
000002b0: 2044 8f2b 6ca8 af2c 6ef9 5e2a bb7f 592c
000002c0: c114 9c26 2def a92a aec4 8a28 83e4 622c
000002d0: 2a0a f81b 5372 592c c980 812c 5197 cd26
000002e0: 8db2 042c b36a b728 67ed 802c 06e0 641e
000002f0: 8989 812c bcb5 af2c 90c4 2227 b4a9 af2c
00000300: 0601 e828 2c51 af2c efe8 aa1f beaa af2c
00000310: 45ef 5925 a806 ad21 89c2 ab21 8327 ba20
00000320: e6cd 7224 6f01 6520 97a1 5925 f84b 5a25
00000330: e078 a321 80ee 8024 f376 0c20 d36c d224
00000340: 1b2c d320 086e 5725 09f5 0a39 4f3a da33
00000350: 1326 8137 f58d d035 2874 0938 55e4 c836
00000360: 8652 0739 faf4 0a39 cceb 3138 7e2a 5137
00000370: 3642 a437 38b3 1d38 d5a0 0039 ea04 5038
00000380: a0e4 0939 dfbd 9f38 e318 8d37 d946 d037
00000390: 9327 1338 4453 2739 3dd2 8e37 3008 0c39
000003a0: d7f8 a538 35ac a537 fdb3 cc37 dbbb 2538
000003b0: e9df 2339 e7ab b337 9786 0d39 9285 8b38
000003c0: a1de 0938 e1fd b837 f7b1 5438 a696 1639
000003d0: cd73 4038 31aa 0639 aa6f 4838 747a 4638
000003e0: f583 6b37 421a 7b38 5f21 c038 c611 8d38
000003f0: 1bbd eb38 febf 2338 e65c 6438 3bb4 1737

exp_avg f4 [64]
-0.0049799816 -0.0046385783 -4.01546e-09 -0.004762446 -2.2138078e-09 -8.456777e-09 -6.647921e-09 -1.7833022e-11
-7.157335e-14 -2.3178231e-08 0.0004670999 0.00035564616 -4.4699747e-12 0.0005198164 -0.00074358826 -1.3085198e-08
-0.0061669247 0.0008177166 -1.0019979e-09 -5.6087757e-10 -1.5465918e-08 -8.195641e-10 -1.5332684e-08 -0.004877341
-2.6668312e-11 -2.2518433e-08 -0.0060322713 0.0002432405 -1.5041316e-08 0.0007462236 0.00060297764 -4.441766e-09
0.00055750343 -2.3936781e-08 -2.637354e-07 -6.886713e-12 0.00014842484 -4.8950616e-10 -1.4813462e-09 -4.356006e-08
0.0004094747 -9.505515e-11 -1.2301953e-08 0.0005717744 -0.0018501416 -6.407655e-06 0.00013588463 0.00093485485
-1.2990462e-08 -6.0066015e-11 -7.145616e-08 -0.006566212 -1.830905e-07 -2.2981101e-07 -0.006381497 -7.204681e-17
-3.2708946e-14 -0.0046335435 -0.0064900145 -2.2115519e-14 0.00058911316 -1.38437315e-08 0.001548632 -0.0057873065
00000000: 1d2f a3bb 37ff 97bb 5cf8 89b1 4b0e 9cbb
00000010: b821 18b1 4c49 11b2 bb6b e4b1 65dc 9cad
00000020: 3a2b a1a9 7819 c7b2 16e5 f439 0576 ba39
00000030: f445 9dac 4a44 083a 5ded 42ba 4fcd 60b2
00000040: ea13 cabb 085c 563a abb6 89b0 402c 1ab0
00000050: ead9 84b2 b247 61b0 eeb4 83b2 1ad2 9fbb
00000060: b393 eaad 8f6e c1b2 5caa c5bb 600e 7f39
00000070: 3434 81b2 389e 433a 2511 1e3a 309e 98b1
00000080: 6c25 123a 8a9d cdb2 8497 8db4 ff4d f2ac
00000090: 7da2 1b39 ef8d 06b0 3c98 cbb0 cb16 3bb3
000000a0: c4ae d639 4b07 d1ae 9058 53b2 21e3 153a
000000b0: 7380 f2ba 5601 d7b6 417c 0e39 0c11 753a
000000c0: a82c 5fb2 2916 84ae 7073 99b3 6129 d7bb
000000d0: 8997 44b4 f8c1 76b4 e01b d1bb ee20 a6a4
000000e0: d94e 13a9 fbd4 97bb 30aa d4bb ea32 c7a8
000000f0: b76e 1a3a 60d5 6db2 78fb ca3a 72a3 bdbb

exp_avg_sq f4 [64]
0.000111826645 0.00011596949 3.203368e-12 0.00013251988 2.1386525e-12 6.3768704e-12 3.5892188e-12 3.9267106e-13
1.5960909e-13 2.0306104e-11 7.0722395e-05 4.6396685e-06 2.9615682e-13 5.1432893e-05 0.00010110527 9.674068e-12
0.00014654703 8.2575214e-05 1.4177572e-12 1.0981629e-12 7.835397e-12 1.2901892e-12 7.254199e-12 0.00012351804
4.306659e-13 1.1946777e-11 0.00014420305 8.56567e-05 1.1686146e-11 0.00012296888 4.3676914e-06 2.0197663e-12
8.021768e-05 4.7526056e-11 5.1250404e-10 3.2648016e-13 7.048002e-05 1.0399332e-12 1.7140747e-12 6.060115e-11
9.7206575e-05 6.1285823e-13 9.864717e-12 6.114957e-05 4.3269306e-06 0.00011070044 7.9102125e-07 0.00010711048
8.6710465e-12 5.280255e-13 1.3409179e-09 0.0001715192 1.9449714e-11 4.6647095e-09 0.00013820504 8.715753e-14
1.4578479e-13 0.00011265861 0.00014062601 1.3967062e-13 5.7865665e-05 1.0419452e-11 0.0001042128 0.00015158398
00000000: 7984 ea38 a534 f338 bf6a 612c 09f5 0a39
00000010: 8a7e 162c be5d e02c 9e91 7c2c dd0d dd2a
00000020: 30b4 332a 489d b22d cc50 9438 73ae 9b36
00000030: b2b8 a62a a6b9 5738 7a08 d438 2130 2a2d
00000040: 6baa 1939 3b2c ad38 1688 c72b 7d8d 9a2b
00000050: 7ed7 092d f793 b52b 043c ff2c 9f84 0139
00000060: 7f71 f22a 802b 522d 3635 1739 97a2 b338
00000070: b995 4d2d 35f1 0039 2f8e 9236 e020 0e2c
00000080: 8a3a a838 9505 512e 44e0 0c30 c0ca b72a
00000090: acce 9338 8b5b 922b 0d3c f12b 6a43 852e
000000a0: 62db cb38 1781 2c2b bc8a 2d2d 6d3d 8038
000000b0: 0d30 9136 d927 e838 9156 5435 80a0 e038
000000c0: ec8a 182d 3fa0 142b 5b4b b830 d6d9 3339
000000d0: dd14 ab2d 3847 a031 22eb 1039 e542 c429
000000e0: 9b23 242a 2143 ec38 0275 1339 5141 1d2a
000000f0: c9b4 7238 0a4d 372d d28c da38 84f2 1e39

exp_avg f4 [64, 64]
5.827164e-33 -8.81893e-13 -4.5134515e-28 -6.081254e-10 3.1331325e-14 4.8717132e-32 6.939025e-24 -5.819695e-09
-4.602974e-28 -6.0003664e-09 -6.464959e-09 -3.4355017e-09 9.910985e-22 -9.87317e-09 1.997538e-32 6.561253e-14
-2.08833e-09 -6.72491e-10 -3.896716e-11 -2.6738358e-09 -2.5452036e-32 1.7675157e-14 -8.840364e-34 -1.1311463e-09
6.4544295e-13 -4.4646045e-12 -2.2831449e-33 1.0005995e-13 -6.6725375e-10 -2.0393811e-33 -2.7382077e-33 3.6972442e-18
-1.896215e-30 -5.833445e-10 -1.2345713e-32 4.8917592e-32 -9.598121e-10 1.2911837e-11 -1.060175e-30 1.4681091e-32
-1.9311034e-11 -1.2933672e-33 -4.763921e-33 -3.9983183e-32 -2.2589454e-13 4.7717287e-21 1.3656701e-32 4.172716e-12
-3.8353996e-09 -8.813481e-31 -4.4459353e-33 -9.519548e-13 2.5377323e-25 -3.6182145e-32 -5.0875396e-18 -3.7461562e-32
-1.1623392e-08 2.0678302e-20 -7.964411e-09 7.152242e-31 5.477288e-32 -4.3853585e-10 -1.9914437e-09 9.266588e-33
-0.0053891838 -0.004633432 1.3189701e-14 -0.006146182 -3.5528502e-34 5.612616e-34 3.5186376e-12 2.807234e-32
-1.6177982e-33 -2.0073422e-32 0.00014598142 0.00012602838 -2.1743341e-32 5.783818e-05 8.853636e-05 1.05820764e-32
-0.0065596993 9.811395e-06 -3.7118388e-11 2.1665597e-32 -3.0647e-29 -4.7528128e-32 -1.4123031e-27 -0.0051480937
9.195478e-33 6.740454e-31 -0.0066191102 3.0379926e-05 -1.893218e-33 3.3518354e-05 0.00025011704 3.176084e-25
1.43805155e-05 -9.670901e-19 1.2077626e-07 1.4387857e-30 6.527188e-05 3.8359557e-32 -1.08281096e-32 -2.1151996e-31
3.5283305e-05 6.320015e-33 2.9964997e-32 1.6566994e-05 -0.0023446989 1.7917568e-05 -0.0001366541 -2.6098804e-05
-1.2243474e-09 6.8229535e-33 1.02688046e-10 -0.0067802947 -7.2908066e-09 -5.3273087e-08 -0.006278559 -1.53265035e-30
7.278799e-33 -0.004562348 -0.0061508724 2.7763516e-32 0.00017656201 3.5036185e-32 -0.00011178997 -0.0066838535
-0.005042955 -0.004301497 5.3319208e-15 -0.005688922 -1.24664e-25 1.4046356e-28 1.4171109e-10 1.9922132e-18
-6.456107e-31 2.9271856e-11 5.9698923e-05 3.5544057e-05 -6.6105284e-31 -4.0941628e-05 4.7461464e-05 1.922914e-24
-0.0061222664 -2.623607e-05 6.906669e-11 -8.623599e-27 1.2153841e-24 -2.3380025e-25 4.3447083e-18 -0.00462686
3.446519e-23 1.6708331e-11 -0.006167038 -3.692833e-06 -2.5186884e-27 2.2723304e-06 0.00022816987 -8.546927e-26
-1.48252275e-05 1.5168063e-27 1.4321458e-07 -8.651744e-31 2.595891e-05 -2.6392442e-17 -8.172562e-32 6.476531e-30
2.8430616e-06 -6.3936294e-31 -6.372487e-30 -1.1048124e-05 -0.0021071227 -1.4835821e-05 -0.00016917514 -2.995498e-05
-4.0810254e-12 -4.4332265e-31 6.4793313e-09 -0.0062696114 -5.449036e-09 -4.922509e-09 -0.0058171283 5.016339e-31
2.524343e-15 -0.0043459525 -0.0056530964 -1.5545905e-31 0.000111796246 1.1575803e-26 -0.00011817452 -0.0061872164
-4.4302464e-08 -4.4089774e-08 3.0084444e-28 -2.9098781e-09 8.1833817e-16 2.2178381e-32 -1.3007183e-28 -1.3674179e-11
3.3040343e-32 3.6069116e-31 -5.183792e-11 -2.9400557e-13 3.546465e-29 -2.1321715e-10 -5.187108e-26 2.6705987e-14
-1.561043e-08 -1.7412321e-13 -1.3135414e-21 -1.07200565e-23 5.1749727e-16 4.5492307e-17 9.5145725e-33 -1.7907364e-08
6.390897e-14 -1.20892125e-27 -2.5441079e-08 2.6901733e-19 -1.25515815e-17 -2.5723703e-33 2.9111558e-32 -8.508548e-31
5.013091e-31 4.350891e-24 -3.7166745e-32 -2.3125438e-33 -6.1482766e-28 1.06550185e-10 4.8424842e-32 -2.7595127e-32
1.3096826e-26 -4.1806348e-32 -2.7959624e-32 -1.4428182e-12 2.130735e-27 5.4786895e-26 -5.065522e-32 4.949663e-15
9.144127e-25 6.3954844e-31 -2.2713905e-32 -6.446885e-08 2.7099349e-28 -2.6003014e-32 -1.9136973e-08 -6.392594e-33
-5.130652e-11 -3.8953857e-08 5.55671e-20 -1.9352173e-31 -1.1304663e-09 -2.7407898e-16 -2.7272805e-15 -4.2379146e-08
00000000: 090d f209 163b 78ab 7809 0f92 0529 27b0
00000010: 8f1a 0d29 2df4 7c0b 6338 0619 94f6 c7b1
00000020: c3df 1192 c82b ceb1 6122 deb1 fc15 6cb1
00000030: 44c5 951c a99e 29b2 ab6f cf0a 0cbf 9329
00000040: 4a82 0fb1 59da 38b0 1f61 2bae 9ebe 37b1
00000050: 8f27 048b 2334 9f28 c0e2 9288 ac76 9bb0
00000060: 11ad 352b 9515 9dac 1fad 3d89 a250 e129
00000070: cf69 37b0 d76c 2989 3d7b 6389 7c67 8822
00000080: d8d6 198e 3859 20b0 8934 808a a2fe 7d0b
00000090: 63ea 83b0 bf25 632d f205 ac8d 0975 980a
000000a0: 95dc a9ad c2e5 d688 b3e2 c589 c49a 4f8b
000000b0: ab55 7eaa 5445 b41d bdd1 8d0a 7cd0 922c
000000c0: 88c8 83b1 c501 8f8d 4bad b889 c9f9 85ab
000000d0: f913 9d16 52de 3b8b 74b2 bba2 f582 428b
000000e0: 38b0 47b2 114d c31e dad3 08b2 801a 680d
000000f0: d332 8e0b 6f16 f1af d9d9 08b1 a275 400a
00000100: c097 b0bb 0bd4 97bb c29a 6d28 e965 c9bb
00000110: 9d20 ec87 db82 3a08 249a 772c 8ac2 110b
00000120: c366 0689 4f74 d08a 9712 1939 7c26 0439
00000130: b7cb e18a 4697 7238 99ac b938 f8c7 5b0a
00000140: bff2 d6bb 9f9b 2437 973f 23ae 09fd e00a
00000150: 1566 1b90 b8c7 768b d2c9 df92 57b1 a8bb
00000160: 8cfb 3e0a 80bd 5a0d 1fe5 d8bb 65d8 fe37
00000170: 4b48 1d89 0f96 0c38 2422 8339 0f97 c416
00000180: d843 7137 a2b7 8ea1 baae 0134 d274 e90d
00000190: 93e2 8838 992c 470b 1be4 608a c848 898c
000001a0: 29fd 1338 f742 030a 5096 1b0b 59f9 8a37
000001b0: 85a9 19bb af4d 9637 ce4a 0fb9 c1ee dab7
000001c0: e545 a8b0 0bb5 0d0a 3bd0 e12e 3c2d debb
000001d0: 9d82 fab1 61ce 64b3 5fbc cdbb ceaf f88d
000001e0: bc2c 170a c07f 95bb 428d c9bb 0b28 100b
000001f0: 8123 3939 14eb 350b c870 eab8 3a04 dbbb
00000200: 5f3f a5bb 92f3 8cbb 4a1a c027 236a babb
00000210: 9953 1a96 080f 3211 20d0 1b2f d8ff 1222
00000220: 3d83 518d 2ebd 002e 3b65 7a38 2415 1538
00000230: 1f86 568d bdb8 2bb8 5c11 4738 3cc7 1418
00000240: 4b9d c8bb 8815 dcb7 17e1 972e d7ce 2a94
00000250: 5312 bc17 21b7 9096 9c4a a022 ea9c 97bb
00000260: d7a9 261a d1f7 922d dd14 cabb 63d2 77b6
00000270: 128d 4793 577e 1836 e240 6f39 969c d395
00000280: deb9 78b7 f958 f012 86c6 1934 f061 8c8d
00000290: 56c2 d937 646d f3a3 fe2b d48b 125c 030f
000002a0: 6dcb 3e36 327c 4f8d d83f 018f 555b 39b7
000002b0: a717 0abb 5ee7 78b7 9b64 31b9 d447 fbb7
000002c0: 9c96 8fac cedd 0f8d cda0 de31 5071 cdbb
000002d0: 3a3a bbb1 d922 a9b1 9c9d bebb 1dca 220d
000002e0: e9e5 3527 7e68 8ebb 9c3d b9bb 21cc 498c
000002f0: 2774 ea38 4b48 6514 76d4 f7b8 22be cabb
00000300: 1347 3eb3 385d 3db3 cdae be11 1ef7 47b1
00000310: b3de 6b26 4050 e60a b9e2 2491 078f 70ad
00000320: 268e 2b0b 191a ea0c 4ffc 63ae ab82 a5aa
00000330: bfd3 3310 4b6f 6aaf 346d 8095 d08b f028
00000340: b317 86b2 990b 44aa 2c7f c69c 265b 4f99
00000350: 8f28 1526 d6cb 5124 259c 450a b6d2 99b2
00000360: 03e9 8f29 ac8f bf92 8689 dab2 c0cc 9e20
00000370: 2b89 67a3 44b4 5589 e627 170b 200f 8a8d
00000380: 21af 220d 2351 a818 14fb 408b 5e1e 4089
00000390: bfd8 4292 6c4e ea2e a86f 7b0b 3748 0f8b
000003a0: 66b4 8114 2b12 598b b72c 118b 010f cbab
000003b0: 71d0 2813 52a5 8715 2b82 838b 9554 b227
000003c0: 9e7f 8d17 9b8b 4f0d ebdf eb8a 2072 8ab3
000003d0: 35c3 ab11 ef03 078b a662 a4b2 dcc4 048a
000003e0: 02a6 61ae 384e 27b3 4034 831f a034 7b8c
000003f0: bf5e 9bb0 ebfe 9da5 7285 44a7 5d04 36b3
