models_o2/reinforce_ep3000.pth (torch, 115817 bytes, 18 tensors)

0.weight f4 [64, 70]
00000000: d1f9 14b9 775d 0500 b5c4 92b1 b69d 5ea0
00000010: d492 1036 7eaf baae 892c 2f39 de04 1cb9
00000020: cbaf 7f38 4521 dd30 45d2 34b2 1c81 95b5
00000030: 6602 e0b8 1101 51a9 1ab3 38b9 7e4d dead
00000040: d410 ac31 96f5 ef35 04a6 60b7 eebb fd38
00000050: 3cdb 0bb4 634f 37b9 ed7a e233 df47 6032
00000060: c4e6 6635 2a4b 2fb6 4387 9838 d26d 5b95
00000070: 8562 24b9 4f61 cab8 2f7f d532 eadf ba34
00000080: f6f2 26b6 eafb 6238 6c84 ea94 ec86 dbb8
00000090: c580 2094 e079 1935 cd20 c620 8cc5 c3b7
000000a0: 2228 f41c 3aee c4b7 10e0 b1b8 275c 0580
000000b0: 3ac0 af38 b0d3 3c20 80c8 2bb8 f85e 0680
000000c0: 69e6 b0b8 3119 93af 387e 0580 452f 41ae
000000d0: 8065 0500 53b9 c72d f0db 0600 8bba cfae
000000e0: c34e 720a 9fc2 0580 0966 0500 747c 0600
000000f0: f959 0580 203d 0680 af84 640a fc65 0500
00000100: 19a6 0580 4a2e 0680 242b 0680 27b0 0580
00000110: edc5 0600 8b81 0600 88d1 063c d2c3 62bd
00000120: 7d40 c7bd 8e38 e3bc 99a1 ab3c 882e 0abd
00000130: 6130 6a3c c0c4 f73b 83c0 5dbd 31e9 c73d
00000140: 03fb 063d 76f1 fc3b 5917 043d 3ec9 403c
00000150: 4d89 be3c 3b59 60bd 7b91 483d d95e d93c
00000160: aaa7 a0bb 1dc7 fc3c b3a7 5cb9 a0a7 4b3d
00000170: 5789 b7bc 870f 1b3c 8796 2c3d a227 3a3c
00000180: f62b ea3c 29c1 ddbc 846f 8a3d 7e49 833c
00000190: 0e9d f2bc 37fb e5bb ab87 f83b 721e b73b
000001a0: 6c87 1bbd e20b a13d 8d95 6f3d 51a7 acbd
000001b0: 0e65 2cbd 450f e53c f87e 5ebd 6aed a0bc
000001c0: 365f a33d 332e fa3d db39 f6bc 7b52 dbbd
000001d0: d030 f93c e474 05be a1c5 12bd d0fd 8c3d
000001e0: 7ec4 1a3e 0159 6b3b e94b 2bbe 2e9a f53b
000001f0: fc7c 37be 4bb5 6abd 0e4e 353d f57b 593d
00000200: 9fbc dabc c897 38bd 28b2 763d b160 7ebd
00000210: f225 313d 0b92 af3e a901 76bd 13e9 15bf
00000220: 1c38 08bd 0c4a d53e 8887 91bc 2d60 fc3e
00000230: 7035 803c 7021 563c 174c 34be c44e 343c
00000240: 14f2 d1bc 1530 8a3c 33d2 84bc 3835 803c
00000250: d2a3 0f3e b7a7 643e f898 12be a6d1 0a3d
00000260: 665c 3bbe c477 12bc 4f35 803c 3301 a73d
00000270: 63a0 6e3e e838 c7bd 43a5 84ba f744 adbd
00000280: 2bc6 a8bd e634 803c a67c a53d a93d 403e
00000290: 1607 0ebd c835 253c 23fc 19bd d03b 9dbd
000002a0: 4b35 803c 865c 77bd c310 ef3d 6fea 533d
000002b0: 0a8a e73b 5f91 573d 2105 ecbb 7e36 643c
000002c0: 33d0 6abd 8ff5 c53d 79fe 223e 8d10 e83c
000002d0: f3e1 1a3e 1c58 c03c 0512 803d 69d4 f9bd
000002e0: 2a33 ad3d dcad de3d 9a8e 403d c3ab e73d
000002f0: 4a64 1fbc 1ee0 9f3d 05cd 17be 3113 223d
00000300: a545 ba3d 6d41 823d 472b 053e 3c22 32bd
00000310: 9a69 d93d e43e 4fbe 9187 523d 36d5 bf3d
00000320: 026e 953d e17e f23d 009e 9a3c 455f 1d3e
00000330: b8b6 0abe 43a9 f9bc 6540 943d 67a9 ff3d
00000340: 088d 043e 1464 8a3d 01d8 093b 1717 4cbd
00000350: f87c f9bd 4485 85bc 1bcd db3c 39da c2bc
00000360: 69cd c23c d3ab 253b 5979 b1bd 9800 033e
00000370: 935a 443d 00be 813c 5974 363d 61ad bf3c
00000380: d9b3 8f3c c4d6 41bd 9804 b43d 12d2 6e3c
00000390: edda d8bb 3c8b b43c 39e6 973c 6de7 2d3d
000003a0: b503 c9bc 0b7e 353d af4f 983c 19ac d2bb
000003b0: 99d4 8d3c a3f9 e1bc 5878 7f3d 6d46 553c
000003c0: 409f d6bb ce57 68bc 8df9 f23b 7143 343b
000003d0: 53f0 0ebd 20fa ac3d 26e7 283d 1fa2 a1bd
000003e0: fe13 2fbd 81c3 be3c 0ccf 43bd c077 93bc
000003f0: e38a a83d ad43 f93d 9abf 20bd 6717 f8bd
-0.00014207444 4.92706e-40 -4.2715222e-09 -1.8856314e-19 2.1543137e-06 -8.4894744e-11 0.00016705891 -0.00014879133
6.0960458e-05 1.6089322e-09 -1.0525189e-08 -1.1138941e-06 -0.00010681599 -4.6408247e-14 -0.00017614328 -2.5272891e-11
5.007772e-09 1.7878363e-06 -1.3390094e-05 0.00012098985 -1.3025141e-07 -0.00017481814 1.0546305e-07 1.3054858e-08
8.6017485e-07 -2.6120783e-06 7.273119e-05 -4.431333e-26 -0.0001567696 -9.650236e-05 2.48543e-08 3.480812e-07
-2.487735e-06 5.4117212e-05 -2.3680193e-26 -0.00010467865 -8.103331e-27 5.7174293e-07 3.356421e-19 -2.3337801e-05
1.615694e-21 -2.3475954e-05 -8.4817526e-05 -4.92236e-40 8.380455e-05 1.5994261e-19 -4.0956307e-05 -5.85081e-40
-8.435251e-05 -2.6757044e-10 -5.04456e-40 -4.3925103e-11 4.95589e-40 2.2705981e-11 6.29912e-40 -9.446407e-11
1.16666896e-32 -5.28994e-40 4.95781e-40 5.95658e-40 -4.91454e-40 -5.7294e-40 1.1002756e-32 4.95763e-40
-5.18762e-40 -5.67618e-40 -5.66489e-40 -5.22369e-40 6.22015e-40 5.97484e-40 0.008228667 -0.05536253
-0.09729097 -0.027736928 0.02095108 -0.033735782 0.014293761 0.007561296 -0.05413867 0.097612746
0.032954227 0.007719214 0.03224883 0.01176673 0.02325883 -0.054772597 0.048966866 0.026534485
-0.0049027996 0.030856663 -0.00021043308 0.049720407 -0.022404356 0.009464151 0.04213574 0.011361988
0.028585415 -0.027069645 0.06759551 0.016026255 -0.029615905 -0.0070184725 0.0075845323 0.005588346
-0.037970945 0.078635946 0.058492232 -0.084303506 -0.04208856 0.027961383 -0.054320306 -0.019644458
0.079771444 0.12215843 -0.030056885 -0.10709091 0.030418783 -0.13032871 -0.035833005 0.068843484
0.15114018 0.0035911205 -0.16728176 0.0074951863 -0.17918772 -0.0573018 0.044263892 0.05309673
-0.02670127 -0.045066625 0.060228497 -0.06210393 0.043249078 0.3429111 -0.060060177 -0.5855877
-0.033256635 0.41658056 -0.017764822 0.49292126 0.015650481 0.013069496 -0.17607151 0.011005107
-0.025628127 0.01686863 -0.016213512 0.015650377 0.14027336 0.22329603 -0.14316165 0.033891343
-0.18296966 -0.008939687 0.01565042 0.081545256 0.2330337 -0.09727651 -0.0010120053 -0.084604196
-0.082409225 0.015650224 0.080804154 0.18773521 -0.034674726 0.010083623 -0.037593972 -0.07677424
0.015650412 -0.06039097 0.11673119 0.051737245 0.007066016 0.05262887 -0.00720276 0.013929008
-0.05732746 0.09665977 0.15917386 0.028328205 0.15125255 0.023479514 0.06253437 -0.12198717
0.084570244 0.10873005 0.047010995 0.11312058 -0.009728501 0.07806419 -0.14824302 0.039569084
0.09095315 0.06360135 0.1300479 -0.04348968 0.10615845 -0.20238835 0.051398817 0.09366839
0.07296373 0.118406065 0.018874168 0.15368374 -0.13546264 -0.030476218 0.07238845 0.12483483
0.12944424 0.0675737 0.002103329 -0.049826708 -0.12182039 -0.016298898 0.0268312 -0.023785697
0.023779588 0.0025279417 -0.08665723 0.12793195 0.04793794 0.01583767 0.04454455 0.023398103
0.017541813 -0.047323957 0.08789939 0.014576452 -0.006617895 0.022039048 0.018542396 0.042457033
-0.0245379 0.044309657 0.018592684 -0.006429207 0.017313289 -0.027584856 0.062370628 0.013017279
-0.006549746 -0.0141810905 0.0074150027 0.0027506019 -0.03489716 0.08446145 0.041236065 -0.0789225
-0.042743675 0.023286583 -0.047804877 -0.018001437 0.082296155 0.12171111 -0.039245225 -0.12113839

0.bias f4 [64]
00000000: 20e4 2bb9 2b43 1a3c 6e35 803c 2052 223b
00000010: 1c32 dfba c21b 04bb 8ea6 debc 9e5b 4cbd
00000020: 02a4 03b8 c89f 0dba c161 a3bd 2dd5 3b3d
00000030: 8a8d 5ebd 7c65 e23c 6a6b c5b3 2360 1fb9
00000040: 4913 48bd 8791 553c 8ad6 0eaf dee6 4a3d
00000050: 4e56 323d 48ea dbb1 a8a9 a1ba cdc7 80b9
00000060: ea7f 7fa4 95e9 35ba 0cc5 0dbb 18e4 74bd
00000070: 12b6 373d 8f48 95b5 c314 4ea6 59af 4cbc
00000080: 483e 91bd 730d 0dbd 057b adb9 5630 41b9
00000090: f545 6fba 0479 40bb 537f 273d 30c5 2a3d
000000a0: 98e0 3bbb 9cda e73c 6e69 2e3c 93e0 b1b2
000000b0: 3026 e0a5 42a1 02b6 640e 413d 35b4 fca7
000000c0: 0664 bfba 27b1 8a3c 58a2 543d ed91 7abc
000000d0: 1668 9bb7 9f78 34ba 5d6d 9daf 769d 7eb6
000000e0: 2c45 5c3d 49f1 0dbb c554 2f3d 36ff 883d
000000f0: 5d4b 97bd fa3d 78bd 444a 333d 203e d2bc
-0.00016392814 0.009415428 0.015650477 0.0024768189 -0.0017028484 -0.0020158147 -0.027179029 -0.04989206
-3.1385578e-05 -0.00054025324 -0.079776295 0.045857597 -0.0543342 0.027636282 -9.193066e-08 -0.00015199235
-0.048846517 0.013035185 -1.2991044e-10 0.04953658 0.043539338 -6.4003736e-09 -0.0012333887 -0.00024562926
-5.5402658e-17 -0.00069394085 -0.0021632342 -0.05978784 0.04485137 -1.1122482e-06 -7.1498745e-16 -0.012492978
-0.07091957 -0.034436654 -0.00033088788 -0.00018423921 -0.0009127551 -0.0029369006 0.04089291 0.04169196
-0.0028667804 0.028302483 0.010645254 -2.0707636e-08 -3.8883683e-16 -1.9465374e-06 0.047132865 -7.013943e-15
-0.0014601953 0.016930176 0.051912636 -0.0152935805 -1.8525909e-05 -0.0006884429 -2.863584e-10 -3.7940604e-06
0.053776905 -0.002165871 0.042805452 0.066893026 -0.07387421 -0.06060598 0.043771997 -0.02566439

3.weight f4 [64, 64]
00000000: be73 0500 195b cbbd 88d6 aabd 7db7 08be
00000010: d6a8 bebd 5235 e103 211f 143d 68f3 fdbd
00000020: af62 0580 04b4 85a5 1c6b 90bd ef0d ec3d
00000030: 4023 c9bd 616e e5bc 559c 0500 f95d 0500
00000040: 4a98 e0bd f087 fabd 1b96 0500 8d27 493e
00000050: 9fbd 0f3e e21a d1a7 dbd1 cd28 0243 dcb6
00000060: 5f08 350e b6c4 51b3 0565 0500 ce79 b2bd
00000070: 4aa4 393e 0da8 63a0 8f41 09b2 ea09 870d
00000080: 8892 9fbd 8d67 babc fe5f 0500 2d93 0fa9
00000090: 4166 c495 df0a 0680 c1f7 493e 57d8 703e
000000a0: a45b 0580 fa81 243e bcc1 4dbd 5481 f12c
000000b0: a669 0580 5dc5 239a 8dd6 193e 8880 0580
000000c0: b696 0580 27d7 d8bd 807c 723e 9fa1 31bc
000000d0: 82aa 3c8a ae4c af80 4138 0b9d 3449 6310
000000e0: f302 623e ad73 1f25 6183 473e 74ab 0b3e
000000f0: c91d d9bc efa4 b9bd 8425 2b3e 7710 d93b
00000100: ec6a 0500 1a01 eabd b144 93bd b635 0fbe
00000110: 082a eabd 6f9a fc1f 0f1f 073d f304 26be
00000120: 5268 818c b7f0 9ca9 8ac9 e9bd 7c08 113e
00000130: ab71 f6bd 9c62 08bd bb7c 0500 49eb cf00
00000140: 4fd0 0fbe 1c6e 03be 2759 0580 a317 6c3e
00000150: abd2 333e 4cb6 a1aa 9424 4a2a 9e01 2238
00000160: bcd6 ba1e bb6d dbb4 db5a 0580 c08f bdbd
00000170: 68dd 633e e5b2 32a9 194d eeb3 4e37 6711
00000180: 9538 d6bd e6e5 09bd 7b59 0580 d15b 0500
00000190: 7174 949b 3251 0680 6d72 823e 30a4 823e
000001a0: e263 0500 ce16 413e 7d10 84bd 381b c733
000001b0: 3b5d 0500 f3a0 5aa7 c284 383e 7857 0500
000001c0: f2f7 0580 6e00 febd cf29 913e 49cb ee3b
000001d0: da58 0516 c343 4807 a702 faa3 ce56 4e19
000001e0: 9d4a 903e 5f99 e9a4 45d2 823e 2524 293e
000001f0: 1314 4fbd cd8d d1bd 96f8 603e e417 213c
00000200: c4a5 0500 2430 0600 b3b5 0580 6184 0500
00000210: d4b9 0680 895b 0580 a167 0500 a82f 0280
00000220: ac9a 0600 08de 0500 4ba7 938d b957 0580
00000230: 488e 0600 db61 0580 b6ca 0500 3a00 0680
00000240: b01f 0680 7763 0580 9fec 0580 6fa9 0500
00000250: 3c75 0500 7cc1 0580 d57e 0600 5ca7 0500
00000260: 7b95 0680 9bdf 0580 d171 0680 06c3 0580
00000270: bb5d 0500 8490 0500 f9d8 0580 84f4 0100
00000280: 40ef 8e81 dd5c 0580 9a99 0580 6262 0500
00000290: 9a5c 0600 b574 0580 286a 0580 ad62 0580
000002a0: 086c 0500 4271 0500 3efd 0580 eba1 0580
000002b0: 96ac 0600 e37e 0680 9f77 0580 569d 0600
000002c0: e663 0580 62fd 0580 9e68 0500 62c5 0580
000002d0: cc3c 0600 587a 0680 23d2 0600 5476 0580
000002e0: 5675 0600 6968 0500 c0ae 0580 d1f8 0580
000002f0: e481 d480 805b 0500 c87f 0580 00ca 0580
00000300: 4ec8 f9a0 75f3 fcbd 3bc9 84bd 31a7 f2bd
00000310: 51d2 e3bd b78a 57b7 a61a 143d 401f 0dbe
00000320: a0bf a19e 3c7c 87ae 5e06 d3bd ca2f 023e
00000330: 67c6 d0bd efbf b2bc c671 0500 9a6e d62a
00000340: eb97 e8bd 716e 05be 3f6c 0500 789f 393e
00000350: 97b7 093e b4a5 92ad 1e3a 45b9 e99b ddb9
00000360: c897 842d c9a3 30b7 248e 07bb 5d6f b7bd
00000370: 4ad3 503e 4d90 b6a9 d99e 44b5 aa97 ea34
00000380: 42b1 e4bd b5ff 0bbd 1a6e 0500 76b0 05a8
00000390: f230 e62f ef10 0680 e51d 4e3e 8774 663e
000003a0: ceb7 772c 5ce8 0d3e 7c0c 5abd 6c38 ba36
000003b0: 1469 0500 49b9 50a5 b07c 1b3e da6b 0500
000003c0: b381 eeab ddaa e6bd 5089 703e 1743 ad3c
000003d0: d560 fe29 5d18 318e 358e 03a7 f919 a81a
000003e0: 066e 833e c121 24bb c05a 563e 7587 143e
000003f0: 782e 34bd 1fcc cdbd 85ca 453e 94f2 e73c
5.00698e-40 -0.09929485 -0.083417 -0.13351245 -0.09309547 1.3236553e-36 0.0361625 -0.12399942
-4.94578e-40 -2.3193806e-16 -0.070516795 0.11526095 -0.098211765 -0.028006734 5.15259e-40 4.92889e-40
-0.10966547 -0.12232959 5.13025e-40 0.19643994 0.14037178 -5.80383e-15 2.2850582e-14 -6.5643117e-06
2.2314003e-30 -4.8840512e-08 4.95416e-40 -0.08714639 0.18129078 -1.9283251e-19 -7.989356e-09 8.322404e-31
-0.077916205 -0.022754455 4.93613e-40 -3.1880033e-14 -7.93251e-26 -5.54913e-40 0.19723417 0.23520027
-4.92052e-40 0.16065207 -0.050233588 6.8639903e-12 -4.97077e-40 -3.386704e-23 0.15023251 -5.05286e-40
-5.13242e-40 -0.10587912 0.23680305 -0.010841756 -9.08394e-33 -1.609872e-38 -1.842558e-21 4.482425e-29
0.22071438 1.3830244e-16 0.19483711 0.13639623 -0.02650346 -0.09064662 0.1671353 0.006624277
4.97534e-40 -0.11425991 -0.07190836 -0.13985333 -0.11433798 1.0698164e-19 0.032988604 -0.16212825
-1.9938383e-31 -6.969549e-14 -0.11415394 0.14163393 -0.12033399 -0.033297166 5.03922e-40 1.9094352e-38
-0.14044307 -0.12834972 -4.9116e-40 0.23055892 0.17560832 -2.872584e-13 1.7953895e-13 3.8625316e-05
1.9782328e-20 -4.0871768e-07 -4.9177e-40 -0.09255934 0.22252429 -3.9679106e-14 -1.10967626e-07 1.8239729e-28
-0.10460011 -0.033666514 -4.91277e-40 4.92115e-40 -2.4559795e-22 -5.8014e-40 0.25477925 0.2551589
4.95009e-40 0.18856356 -0.064484574 9.271611e-08 4.92622e-40 -3.0340828e-15 0.18019393 4.90555e-40
-5.48123e-40 -0.12402426 0.2835221 0.007287417 1.0771691e-25 1.5066241e-34 -2.7106178e-17 1.06674805e-23
0.28181925 -1.0130746e-16 0.25551048 0.16517694 -0.050556254 -0.102321245 0.21969828 0.009832356
5.18643e-40 5.68283e-40 -5.24359e-40 5.06666e-40 -6.17676e-40 -4.92014e-40 4.96353e-40 -2.00767e-40
6.06499e-40 5.38827e-40 -9.099849e-31 -4.90646e-40 6.02054e-40 -4.94281e-40 5.31896e-40 -5.51094e-40
-5.6238e-40 -4.94859e-40 -5.44061e-40 5.19959e-40 5.01233e-40 -5.28587e-40 5.96512e-40 5.19215e-40
-6.04636e-40 -5.39392e-40 -5.91843e-40 -5.29139e-40 4.92802e-40 5.1102e-40 -5.37013e-40 1.79551e-40
-5.250587e-38 -4.9249e-40 -5.1428e-40 4.9447e-40 5.84232e-40 -5.01044e-40 -4.97259e-40 -4.94576e-40
4.97932e-40 4.99807e-40 -5.50024e-40 -5.17263e-40 6.12925e-40 -5.96531e-40 -5.0209e-40 6.07454e-40
-4.95014e-40 -5.50074e-40 4.96707e-40 -5.29985e-40 5.72823e-40 -5.94902e-40 6.26396e-40 -5.01626e-40
5.93105e-40 4.96633e-40 -5.21866e-40 -5.48436e-40 -1.9515721e-38 4.92001e-40 -5.05017e-40 -5.31641e-40
-4.2314791e-19 -0.12351123 -0.06483694 -0.118482955 -0.11124099 -1.2847296e-05 0.036158226 -0.13781452
-1.7125792e-20 -6.161158e-11 -0.10303949 0.12713543 -0.10194092 -0.021820037 4.99992e-40 3.8090782e-13
-0.11357101 -0.13030411 4.98009e-40 0.18127239 0.1344894 -1.6671865e-11 -0.00018809034 -0.00042268567
1.5074067e-11 -1.0528552e-05 -0.0020684088 -0.08956788 0.203931 -8.107456e-14 -7.3246844e-07 4.3696247e-07
-0.11166622 -0.034179408 4.98674e-40 -7.421247e-15 4.1871534e-10 -5.57088e-40 0.20128591 0.22505389
3.5202843e-12 0.1385817 -0.053234562 5.5498003e-06 4.96872e-40 -1.8103901e-16 0.15184283 4.97867e-40
-1.6946916e-12 -0.11263058 0.2348988 0.021150155 1.12966636e-13 -2.1828665e-30 -1.8256993e-15 6.952513e-23
0.2566988 -0.0025044533 0.20933056 0.14504798 -0.04398963 -0.10048699 0.19315536 0.028313912

3.bias f4 [64]
00000000: abaf 3d3d 5d61 433d b519 0dbb 6325 033d
00000010: b0bf c93c a5e8 ab3c a21f 0bbc f93d 583d
00000020: b067 aebb 6d76 bf3c a8da d8bb 2bb6 1cba
00000030: bdad 5abb 1430 97bb ff80 183d 94c9 1b3d
00000040: 959b 1d3c a7cb 88bb 9ce0 05bb 3bd0 a5ba
00000050: 08cf adbb 6001 0a3d 9a54 66bb a810 b03c
00000060: 634f 493c 4be9 b03c d1e5 a9bb 9e66 c2bb
00000070: e3f8 95bb 3eda 833d 51e5 453d 0ae8 bdbb
00000080: 515a 5c3d a94f 8b3c 39eb 9cb9 c8e2 b5bb
00000090: b5a5 d5bb ae7c fd3c 70b6 53bb b175 b63c
000000a0: 894f 233d 4c12 ac3c 5def 03ab a6cf a4bb
000000b0: 1550 adbb 34f0 43b3 8131 e43c 45ce 9f3c
000000c0: 270a 493d 5f88 613d d82e 553d 79ae 2fb7
000000d0: ff20 c03c 2529 7fbb 8796 623d 3f05 973c
000000e0: eb28 bc3c 1891 05bc 3f27 153d ec1a a23c
000000f0: 3d6a 2ebc 6a40 e5ba 5504 a03c 3ba4 0cbc
0.04631011 0.047700275 -0.0021530215 0.032018077 0.024627537 0.020984957 -0.008491429 0.052793477
-0.005322419 0.0233719 -0.0066178627 -0.0005978073 -0.0033367716 -0.0046138857 0.037232395 0.038034037
0.009619613 -0.004174668 -0.0020428067 -0.0012650558 -0.005304221 0.033692718 -0.0035145641 0.021492317
0.012286994 0.021595618 -0.005184867 -0.005932643 -0.0045767887 0.06438111 0.048314396 -0.0057954835
0.05379707 0.017005758 -0.00029929893 -0.005550716 -0.006519998 0.030943241 -0.0032304786 0.022272917
0.039870773 0.021004818 -4.687273e-13 -0.0050296364 -0.0052890875 -4.562044e-08 0.027855637 0.019507537
0.049081948 0.055061694 0.052046627 -1.0471435e-05 0.023453234 -0.0038934436 0.055319335 0.018435119
0.02296873 -0.008152269 0.03641438 0.019788228 -0.010645446 -0.001749051 0.019533316 -0.0085840775

6.weight f4 [4, 64]
00000000: 2a6c 0680 3556 0680 31cb 0500 38aa 0580
00000010: aacf 0500 49d7 0680 5afc 0580 ed33 0600
00000020: a371 0600 eebe 0600 633a 0600 9da7 0580
00000030: 177c 0680 31e9 0580 e494 0500 c779 0600
00000040: 90d0 0680 5f46 0680 9cb2 0600 eea8 0600
00000050: 25c1 0600 9375 0600 4afc 0580 bbd9 0500
00000060: 817b 0600 ce89 0500 595a 0600 51e2 0580
00000070: c7c2 0680 39fb 0500 7043 0600 fee1 0580
00000080: dcc0 0500 bf0f 0680 5b26 0680 c0c6 0580
00000090: c56f 0600 737a 0680 cbfc 0500 9674 0680
000000a0: 3ab1 0600 43d3 0500 a6fa 0500 a0dc 0600
000000b0: 5931 0680 4dbb 0580 d9bb 0600 1dad 0580
000000c0: b8fa 0580 6972 0680 16a8 0600 3de2 0500
000000d0: 8517 0600 50d9 0600 a4ba 0600 4192 0600
000000e0: 34c4 0600 e9a7 0500 2e54 0600 7bc9 0580
000000f0: cf30 0600 d5d3 0580 79cf 0580 3aa6 0580
00000100: ad35 0680 13c7 0500 e645 0600 2eaf 0680
00000110: 1317 0600 cbf7 0500 7051 0680 4854 0600
00000120: e823 0600 03a6 0580 de6a 0500 8b22 0600
00000130: 7318 0680 7a34 0680 c52c 0680 c23c 0600
00000140: 527c 0600 0b7d 0680 5cdc 0600 2fb6 0680
00000150: 2a63 0680 6c83 0600 29d2 0600 cc92 0600
00000160: bdd3 0680 9d7f 0580 a5c3 0600 abc0 0600
00000170: edd1 0500 881c 0600 eeab 0680 d9ef 0580
00000180: 9982 0580 4c1d 0680 1f53 0680 91ce 0600
00000190: c3bf 0600 1aa9 0580 8f3b 0680 6a1c 0680
000001a0: 3fd3 0600 7ede 0580 f13b 0600 2879 0600
000001b0: cb3b 0680 7127 0600 843d 0600 c371 0680
000001c0: ceb4 0600 348e 0600 5256 0680 9580 0600
000001d0: 5ac7 0600 73bc 0600 0a52 0600 6875 0500
000001e0: 31d2 0580 22c4 0680 71f4 0500 51a0 0580
000001f0: dc12 0600 c3ac 0680 217d 0600 ca9e 0680
00000200: 9152 5c3e 9a5e 8d3e e8f0 e4a6 51b4 513e
00000210: e034 2b3e c508 383e 9512 aab8 3611 64be
00000220: b274 433a 87b4 3d3e 17f0 04bc 9a6f 0500
00000230: d675 fe99 1e95 2ba8 df1d 6abe 3db2 6b3e
00000240: a499 2d3e e3b1 af1b c82a 8cb7 3174 0984
00000250: 57b9 b5b9 19c5 5dbe 72e1 b4bb 88ab 5dbe
00000260: a792 313e a5ac 433e ddc7 522f 9e7a 99bb
00000270: af35 0036 2320 6bbe 00f7 5cbe 8072 ea3a
00000280: a2ba 80be 7073 56be 8275 0500 1c74 232d
00000290: 10d7 9dbb e9cc 57be c59d 0fb2 c712 5bbe
000002a0: bff5 603e 889d 3c3e c6e3 f617 9dd1 5720
000002b0: 2544 9e37 6b78 9b91 f822 5fbe bbc2 58be
000002c0: 859f 56be a4e6 75be c7f0 57be 026f 0600
000002d0: 8000 433e 0440 933a 2b9a 72be 56d6 513e
000002e0: c657 5d3e dc64 24ba 2a72 52be 2b8f 253e
000002f0: 3879 35ba 5b61 c13b 3270 283e 7496 c3ba
00000300: 8a67 6c3e 0cc8 833e 4fb9 8ba2 94f5 6a3e
00000310: f022 2f3e 5f90 393e f038 63ba 3ec1 56be
00000320: 2b26 d53a 9dcb 373e 998a 01ba 686d 0580
00000330: b73e b998 787c 8c27 f6c7 5fbe 64a7 743e
00000340: fa8a 443e 9c96 d390 06bb 56b7 2ccf 4407
00000350: 102b 1aba 70ad 81be 15dd 52bb 5d09 4cbe
00000360: 2a57 2b3e c225 443e 238c 4a2d 3bf2 7fbb
00000370: 5263 a335 f315 64be 4507 64be d95e 943b
00000380: 4515 7ebe d9fe 62be 0b7b 0500 fd6e 0729
00000390: 7b96 06bb b6b8 54be 46eb a0b2 6a03 59be
000003a0: b163 643e f384 553e 60ec 999a 43c2 ba19
000003b0: 9122 a237 d551 ba90 9dbb 58be 593a 51be
000003c0: 7ae9 6abe 3b52 6fbe c936 5ebe 9e5b 0500
000003d0: 193b 553e 9b11 8e3b d21f 78be 7c6b 4b3e
000003e0: 236b 5f3e 4f0c ceba 77f8 4cbe ba2a 363e
000003f0: ccae e4b9 44c1 a43b 235c 393e 14df fbba
-5.89815e-40 -5.81938e-40 5.32069e-40 -5.2024e-40 5.33673e-40 -6.28243e-40 -5.49704e-40 5.6964e-40
5.91778e-40 6.19506e-40 5.71958e-40 -5.19306e-40 -5.95528e-40 -5.42831e-40 5.1259e-40 5.94698e-40
-6.25831e-40 -5.76257e-40 6.15086e-40 6.11614e-40 6.203e-40 5.9319e-40 -5.49682e-40 5.37284e-40
5.95318e-40 5.08612e-40 5.83424e-40 -5.40365e-40 -6.20886e-40 5.49299e-40 5.75205e-40 -5.40248e-40
5.28362e-40 -5.56662e-40 -5.64772e-40 -5.30476e-40 5.91108e-40 -5.9494e-40 5.49863e-40 -5.92836e-40
6.1459e-40 5.34964e-40 5.49093e-40 6.30158e-40 -5.68716e-40 -5.26368e-40 6.184e-40 -5.21279e-40
-5.49118e-40 -5.92056e-40 6.11311e-40 5.40336e-40 5.5945e-40 6.2897e-40 6.17967e-40 6.03479e-40
6.21397e-40 5.19412e-40 5.81211e-40 -5.31455e-40 5.68522e-40 -5.35168e-40 -5.33605e-40 -5.18808e-40
-5.70268e-40 5.30592e-40 5.76088e-40 -6.13856e-40 5.5929e-40 5.48069e-40 -5.80227e-40 5.81247e-40
5.63894e-40 -5.18731e-40 4.97514e-40 5.63405e-40 -5.59784e-40 -5.69838e-40 -5.67073e-40 5.72809e-40
5.95611e-40 -5.9587e-40 6.30063e-40 -6.16368e-40 -5.86586e-40 5.98158e-40 6.26404e-40 6.03674e-40
-6.2697e-40 -5.04957e-40 6.21197e-40 6.20129e-40 5.34485e-40 5.61248e-40 -6.1269e-40 -5.45219e-40
-5.06027e-40 -5.61523e-40 -5.80831e-40 6.25115e-40 6.19804e-40 -5.1984e-40 -5.72379e-40 -5.61206e-40
6.26794e-40 -5.38993e-40 5.72516e-40 5.94476e-40 -5.72463e-40 5.65162e-40 5.7308e-40 -5.91823e-40
6.15873e-40 6.02026e-40 -5.81979e-40 5.9714e-40 6.22527e-40 6.18616e-40 5.80443e-40 5.01295e-40
-5.3458e-40 -6.21372e-40 5.46867e-40 -5.16688e-40 5.57778e-40 -6.12988e-40 5.95901e-40 -6.07976e-40
0.21515872 0.27611238 -1.5885976e-15 0.20478942 0.16719389 0.17972095 -8.109693e-05 -0.2227219
0.00074560486 0.18525897 -0.0081138825 4.99213e-40 -2.6310578e-23 -9.5247415e-15 -0.22862957 0.23017211
0.1695314 2.9066278e-22 -1.6709222e-05 -1.6157625e-36 -0.000346611 -0.21657218 -0.0055200392 -0.21647465
0.173411 0.19108827 1.9170394e-10 -0.0046838066 1.9104734e-06 -0.22961478 -0.21578598 0.0017886907
-0.2514239 -0.20942473 5.01331e-40 9.291259e-12 -0.004816897 -0.21074261 -8.359568e-09 -0.21393882
0.21968745 0.18419468 1.59548755e-24 1.8280564e-19 1.88668e-05 -2.4528901e-28 -0.21790683 -0.21168034
-0.2095929 -0.24013764 -0.21087943 5.90835e-40 0.1904316 0.0011234288 -0.23691623 0.20491919
0.21615514 -0.0006271133 -0.20551363 0.16167895 -0.0006922665 0.0059014983 0.16449049 -0.0014922158
0.23086372 0.2573856 -3.787223e-18 0.22945243 0.17103171 0.1812148 -0.0008667847 -0.20972154
0.0016261985 0.17948766 -0.0004941612 -4.98425e-40 -4.7884705e-24 3.8992755e-15 -0.21853623 0.2389198
0.1919364 -8.3456876e-29 -1.2798939e-05 1.4806283e-34 -0.00058810506 -0.25327635 -0.0032175232 -0.19925447
0.16732469 0.19155028 1.1513487e-11 -0.0039054293 1.2173352e-06 -0.22273998 -0.22268398 0.0045279083
-0.24812801 -0.22167529 5.03317e-40 3.007229e-14 -0.002053647 -0.20773587 -1.8733441e-08 -0.21192709
0.22303654 0.20851497 -6.36612e-23 1.9310411e-23 1.9328001e-05 -7.3490146e-29 -0.21165319 -0.20432414
-0.22940627 -0.23371212 -0.21700586 4.92044e-40 0.20823325 0.004335595 -0.24230888 0.19865221
0.21818213 -0.0015720221 -0.20016657 0.17789736 -0.00043617783 0.005027922 0.18101554 -0.0019216263

6.bias f4 [4]
00000000: 0000 0000 0000 0000 95c1 27bd 71f7 5c3c
0.0 0.0 -0.0409561 0.013486729

exp_avg f4 [64, 70]
00000000: deeb c8b0 0000 0000 bb1e 57a9 4417 5498
00000010: 4c87 c92d e818 8ca6 9d79 ec30 a16b d2b0
00000020: f46c 2c30 f5cb a328 7b53 02aa c055 50ad
00000030: 16f7 96b0 6956 29a1 071a f9b0 834a aaa5
00000040: 0425 7c29 ef6c a72d 8672 1aaf fc58 ab30
00000050: 4f76 c7ab 4a3a f7b0 6515 9f2b 7805 232a
00000060: 6fdd 202d 5e41 f4ad 4fb3 4d30 c610 bb8d
00000070: 10b4 ddb0 ff7a 88b0 a9bd 9a2a 1be3 832c
00000080: 75a2 e8ad 340e 1930 1120 468d 0807 94b0
00000090: 3708 8a8c c6d1 d62c d291 bc18 ac43 85af
000000a0: d648 0015 90c9 84af 0ce2 6fb0 0000 0080
000000b0: ce37 6d30 03d7 3318 ce96 e8af 0000 0080
000000c0: 5e91 6eb0 db55 5ba7 0000 0080 76c2 0fa6
000000d0: 0000 0000 517c 9625 0000 0000 2ede 9aa6
000000e0: 91be 1f00 0000 0080 0000 0000 0000 0000
000000f0: 0000 0080 0000 0080 e400 1000 0000 0000
00000100: 0000 0080 0000 0080 0000 0080 0000 0080
00000110: 0000 0000 0000 0000 62cf bc3a b729 c4b6
00000120: e61c 213a 56a6 00b9 14ce 19ba 783d 85b9
00000130: c163 b7ba 2ecf bc3a b402 3eba 6f7d 25ba
00000140: 41f4 8f3a 647f 8d39 671c c73a 2217 a0b9
00000150: 70d4 bc3a 3184 09ba f934 19ba a4f4 963a
00000160: f1bf 3a3a e525 4c3b 7aa6 a139 54dd bc3a
00000170: 7038 83bb 1837 f7b9 8da2 073b 4d1e 463a
00000180: 1245 b93b e70f b139 50e3 bc3a f77a 053b
00000190: 5bb1 62ba 3722 463a 53b6 b13a 29e5 f33a
000001a0: f054 053b 5bd0 bc3a ff11 11bb fb28 0fba
000001b0: f84c a839 7170 df3a 78b4 783a ad98 633b
000001c0: 0dc2 4e3b 41b9 d93a b605 26bb c945 b0b9
000001d0: 7152 3a3b b1c0 d8ba 4c5c 613b 6224 88ba
000001e0: cc6e e53a f06f 0b3b 6f53 52ba b94d c9ba
000001f0: cbf2 f5ba 0414 3bbb 5db4 c5b8 ba62 fd39
00000200: 70a8 c2b9 422a a4b8 4a15 a939 2ac9 32ba
00000210: a85d 4f3a b383 d6b9 ca5d b5b9 9659 a039
00000220: fa29 4939 b41d 4ab9 a4bf 8d39 f856 b9b9
00000230: 4b4c e3b9 11d4 4737 2338 36b8 597f 8438
00000240: 03e1 6c39 2698 ff38 5640 e239 4b4c e3b9
00000250: abaf fcb9 f46b cc37 0ae0 0139 a4e4 33b8
00000260: dc54 6a3a 187e 8339 4b4c e3b9 65c3 5f38
00000270: 8224 5c38 3427 4939 cfb0 77b9 b51a e039
00000280: 54d5 f7b7 4b4c e3b9 522a 00b7 c71b 7539
00000290: 65be 0eb8 c411 e1b9 fa40 3db8 d865 fab9
000002a0: 4b4c e3b9 bab9 a239 e662 e339 80b7 beb9
000002b0: 8cd7 feb9 0926 5aba a98c 41ba 9b4e e3b9
000002c0: d1bf 4639 08a7 dc38 d300 beb8 e983 abb9
000002d0: 643b 8ab8 cfe2 f0b9 980d e3b9 2452 d639
000002e0: 6043 f5b7 8c80 04b9 c9b3 beb9 c2bf 97b8
000002f0: 06f3 c9b9 753d 3838 3e93 c1b9 9050 9ab9
00000300: cb32 ea38 5b82 4239 0a00 e539 d5c1 e639
00000310: 875e 3938 f67f d8b9 d2f2 ce38 0171 8e38
00000320: 2bfa acb8 50f2 d939 3ffd abb9 8058 3b38
00000330: e3d0 3937 3cab 79b8 5676 76b8 b6c7 ef37
00000340: e173 31b8 fa4e b738 4cde 22ba e571 8eb7
00000350: d97d f0b8 a218 be38 2b2f e039 ad33 3539
00000360: a5c5 1c3a 0cde 22ba bfa4 ef39 12f4 0d38
00000370: 5e7e 2e39 ea92 4fba 2a21 82b9 9566 d6b9
00000380: ecd3 22ba fe98 7db9 acf5 e138 44ef da39
00000390: 0f22 9ab9 a456 a93a d31e ae39 34c3 22ba
000003a0: c938 a3bb 5e40 9d39 8b4a 2a3b a5f4 78b9
000003b0: fded 003c 6411 cc39 d7b5 22ba d976 d43a
000003c0: 4dc7 c0b8 6f5b ab3a f05e 073a 4659 803b
000003d0: 4b11 243b 38c5 22ba 065c 17bb 81a3 8f3a
000003e0: fe06 2839 1a14 a7b8 92b0 913a 89a4 d73a
000003f0: 1066 053b 8493 e03a b7c1 c4ba 490f aeb9
-1.4618953e-09 0.0 -4.7766244e-14 -2.7412104e-24 2.2911138e-11 -9.721202e-16 1.7205825e-09 -1.5310101e-09
6.2728067e-10 1.8185088e-14 -1.1575283e-13 -1.18424714e-11 -1.0984162e-09 -5.737379e-19 -1.8124532e-09 -2.954079e-16
5.5987346e-14 1.9034078e-11 -1.4046905e-10 1.2467178e-09 -1.4172638e-12 -1.7988182e-09 1.1303568e-12 1.4479206e-13
9.144115e-12 -2.7768617e-11 7.483338e-10 -1.1528803e-30 -1.6131043e-09 -9.93026e-10 2.7487498e-13 3.7484577e-12
-2.6447492e-11 5.568126e-10 -6.105206e-31 -1.0770416e-09 -2.126721e-31 6.1055353e-12 4.87441e-24 -2.4240643e-10
2.5906852e-26 -2.415388e-10 -8.7268925e-10 -0.0 8.62994e-10 2.324376e-24 -4.2307707e-10 -0.0
-8.6790475e-10 -3.0438898e-15 -0.0 -4.9876635e-16 0.0 2.6105092e-16 0.0 -1.0746119e-15
2.915263e-39 -0.0 0.0 0.0 -0.0 -0.0 1.469687e-39 0.0
-0.0 -0.0 -0.0 -0.0 0.0 0.0 0.0014405067 -5.8461114e-06
0.0006145969 -0.00012268996 -0.0005867195 -0.00025413535 -0.0013991521 0.0014405006 -0.00072483276 -0.00063129416
0.0010982828 0.0002698853 0.001519096 -0.00030534813 0.0014406573 -0.00052458333 -0.00058443804 0.0011517
0.00071239384 0.0031150517 0.00030832348 0.0014409223 -0.0040045306 -0.0004715256 0.0020696253 0.0007557616
0.005653986 0.0003377192 0.0014411006 0.0020367482 -0.0008647644 0.0007558199 0.0013558365 0.0018607724
0.0020344816 0.0014405356 -0.002213597 -0.00054611237 0.00032100803 0.001704706 0.0009487341 0.0034728453
0.0031548769 0.0016610996 -0.0025332994 -0.0003362133 0.0028430487 -0.0016536919 0.0034387289 -0.001038682
0.0017504334 0.0021276437 -0.0008023297 -0.0015358246 -0.0018764375 -0.0028545866 -9.427287e-05 0.00048329477
-0.0003712806 -7.8280005e-05 0.00032250053 -0.0006820137 0.0007910379 -0.00040915384 -0.0003459289 0.00030584325
0.00019184491 -0.00019275286 0.000270364 -0.00035350746 -0.00043353657 1.19107e-05 -4.3444463e-05 6.317971e-05
0.00022590537 0.000121876874 0.00043154013 -0.00043353657 -0.00048196068 2.4368965e-05 0.0001238586 -4.2889864e-05
0.00089390366 0.00025080214 -0.00043353657 5.334932e-05 5.2486088e-05 0.00019183458 -0.00023621622 0.00042744508
-2.9544033e-05 -0.00043353657 -7.639248e-06 0.00023375369 -3.4032757e-05 -0.0004292858 -4.5121626e-05 -0.00047759595
-0.00043353657 0.00031037425 0.000433705 -0.00036376342 -0.0004860725 -0.0008321708 -0.0007383326 -0.0004335538
0.00018954209 0.000105215295 -9.0600595e-05 -0.00032713942 -6.591415e-05 -0.00045945353 -0.00043306942 0.0004087846
-2.923765e-05 -0.00012636388 -0.00036373574 -7.235959e-05 -0.00038518774 4.3926255e-05 -0.00036921533 -0.00029433193
0.000111674504 0.00018549843 0.00043678313 0.00044013435 4.4195473e-05 -0.0004129407 9.868074e-05 6.792136e-05
-8.2481965e-05 0.00041570002 -0.00032804345 4.4666696e-05 1.10754945e-05 -5.95257e-05 -5.876118e-05 2.8584018e-05
-4.230801e-05 8.7408305e-05 -0.00062129344 -1.6980755e-05 -0.00011467533 9.064494e-05 0.00042759752 0.00017280756
0.0005980379 -0.0006212897 0.00045708378 3.3844328e-05 0.00016641009 -0.0007918315 -0.0002482024 -0.0004089369
-0.00062113884 -0.00024184954 0.00010774596 0.00041758467 -0.00029398545 0.0012919498 0.00033210832 -0.0006208897
-0.0049811346 0.0002999333 0.0025984372 -0.0002374226 0.007869241 0.0003892287 -0.0006206906 0.0016209736
-9.192396e-05 0.0013073514 0.0005163988 0.003916892 0.0025034721 -0.00062091975 -0.0023095622 0.0010958762
0.00016024333 -7.966925e-05 0.0011115244 0.0016452234 0.0020355023 0.0017133807 -0.0015011345 -0.00033199255

exp_avg_sq f4 [64, 70]
00000000: 0fb5 5a2d b8a8 8428 1aed 8d2b 9867 4b2a
00000010: cb0b 4d2c 5f9c 4d2b dc92 4d2d 30b4 5a2d
00000020: 5541 5a2d 4439 732b b8a0 bb2b 6c06 4f2c
00000030: ae2b 642d 157f cd2a 08b1 5a2d 76a5 232b
00000040: 3464 8e2b c1a1 462c 2086 a32c 1024 472d
00000050: 2a7a e72b 0cb1 5a2d 9ef2 242c cdcb a12b
00000060: a6a6 4f2c 4e76 4f2c e594 5b2d 3388 fb29
00000070: 05b3 5a2d b8f2 592d 12d1 a92b cf54 122c
00000080: e348 4f2c 0b9e 5b2d 44d6 fb29 b797 5b2d
00000090: b53f fb29 2b20 362c acf5 4b2a 73a5 fd2c
000000a0: e39d 252a 88f5 5b2d 2e9a 5b2d 90db 2329
000000b0: 3b9e 4f2d c495 4b2a 2cea 2a2d 956d fd1d
000000c0: 349a 5b2d 272c 5f2b 21c8 3126 119f 642b
000000d0: 99f9 5328 93ff 432b 68ff 111d d835 5f2b
000000e0: 1af0 af29 6d35 7224 0cd3 4829 7a5f 2f24
000000f0: 6a0b a528 cb44 f91c 88f5 af29 eccd 7b1f
00000100: 155f 881f 2c28 b71c dd1f d41c daf9 0a1f
00000110: ae5c 451f 84ee 4f1e c88e f939 9e93 b134
00000120: 05f9 5a38 2f28 9036 63fc f638 5709 8e37
00000130: 17a6 f139 ca8e f939 d6a9 1639 42b5 2f38
00000140: ac81 8338 e3c1 f238 001b ca39 5c3e 0339
00000150: eb79 f939 376f 7f39 4709 5638 5c48 a838
00000160: 929c ff38 5157 033a 9f09 b537 a27e f939
00000170: a75a 8039 4803 8038 96c1 a338 17ab 0439
00000180: eadd 023a 57ae 2c38 6167 f939 8441 5639
00000190: 63d4 c438 4bbb 8538 8ba9 2f39 154e d139
000001a0: 1b0b 0739 1c12 f639 c86f 1839 3be0 4f39
000001b0: 653e 1f38 e3ea 8339 b5fa 7739 a808 9e39
000001c0: b9bd d139 e957 7438 f8cb 8339 7f4d 8837
000001d0: 5d33 8539 669f c038 35ce a539 37e9 8139
000001e0: 8523 a237 8999 3639 0174 d636 a145 2839
000001f0: c0e2 1e38 d313 6039 496a 0539 4459 6137
00000200: 088a b538 7fa3 8736 651d a238 0dcf d737
00000210: cbd3 dc38 0a78 7a38 0322 4437 742c fd37
00000220: ff42 4b36 a03e 0538 0a90 ad37 0b19 2838
00000230: 5a8e 1636 cf40 8030 049c 1a33 111e c031
00000240: 1818 2035 6d30 a932 a622 1536 5a8e 1636
00000250: 70e8 b434 98fb 7634 7d71 6334 aaf4 1f35
00000260: 85e2 be35 892a 1235 5a8e 1636 ec9a 5735
00000270: 6398 4734 8397 7934 e615 0b35 0164 f835
00000280: c8d0 9034 5a8e 1636 4dd5 4a35 8374 dd33
00000290: d53f 5134 a8c2 3e35 2463 d335 bf38 ee34
000002a0: 5a8e 1636 0b57 4e35 a846 c434 77f6 4534
000002b0: 331a 5e35 83c7 c035 ec79 4035 888e 1636
000002c0: 64c4 3a35 19aa b434 8a04 1e34 a0ed 8735
000002d0: df9d a435 0e52 8035 e954 1636 9616 bc34
000002e0: bdfd 1e35 43ab f633 42ac 9135 77a7 7d35
000002f0: e6e7 a335 ab25 0b36 152a 9f34 d164 3e35
00000300: 5d93 9833 b076 9235 8a49 2435 2db7 ba35
00000310: f60b 0736 ed42 3c34 7270 0135 3050 1734
00000320: 15ff 8435 29d3 7135 9166 9335 4cfd fc35
00000330: 898a da34 d82d 4135 0c72 0c34 0a5f 8535
00000340: 96ea 5b35 5608 8f35 7598 ec39 b00f a834
00000350: ee85 5438 ac33 8b36 2728 e738 d439 8b37
00000360: 54d7 e439 7898 ec39 35d0 0939 6cdb 2338
00000370: 68e8 7638 0d54 e238 d5ee bd39 917a fc38
00000380: 7390 ec39 97d3 7239 a2b5 4b38 4e9f 9c38
00000390: 93a9 ef38 535f f539 2344 a537 b4be ec39
000003a0: 8f9d 6e39 2de9 7638 10e7 9538 811b f738
000003b0: e2a2 f139 0fbe 1738 1ac8 ec39 c595 4139
000003c0: cd1a bd38 bdfd 7c38 93f7 2539 e21b c439
000003d0: 552c 0239 b70e ea39 3901 0c39 47c4 4939
000003e0: 7fda 1238 f0db 7739 7ea7 6339 ca06 9539
000003f0: 7cba c339 0d73 5f38 3bcc 7439 0160 7f37
1.2432068e-11 1.4728114e-14 1.0084461e-12 1.8065963e-13 2.9138799e-12 7.304764e-13 1.168551e-11 1.2431875e-11
1.2406372e-11 8.6410414e-13 1.3331758e-12 2.9420034e-12 1.2969998e-11 3.6503496e-13 1.2431174e-11 5.8138856e-13
1.0117519e-12 2.8227284e-12 4.6476295e-12 1.1319848e-11 1.6447445e-12 1.2431178e-11 2.3440481e-12 1.1496304e-12
2.9508978e-12 2.9482142e-12 1.248177e-11 1.1170266e-13 1.2431616e-11 1.2388916e-11 1.2066201e-12 2.0794926e-12
2.945693e-12 1.2483801e-11 1.1183808e-13 1.2482396e-11 1.11576906e-13 2.5881612e-12 1.8115256e-13 7.209061e-12
1.4709722e-13 1.2503228e-11 1.24829435e-11 3.638371e-14 1.1801722e-11 1.8081982e-13 9.715378e-12 6.7081848e-21
1.2482949e-11 7.928679e-13 6.1680436e-16 8.122262e-13 1.1766976e-14 6.9632597e-13 1.9322632e-21 7.930024e-13
7.813212e-14 5.252064e-17 4.4591975e-14 3.8027948e-17 1.832363e-14 1.649522e-21 7.814154e-14 5.3321652e-20
5.775554e-20 1.2120308e-21 1.403722e-21 2.942931e-20 4.1793035e-20 1.1007813e-20 0.0004759936 3.3076225e-07
5.2207168e-05 4.2962124e-06 0.00011777205 1.6932068e-05 0.0004609085 0.00047599367 0.00014368384 4.189206e-05
6.27072e-05 0.000115755734 0.0003854856 0.00012516364 0.00047583817 0.00024360126 5.1030216e-05 8.024342e-05
0.00012188511 0.00050102646 2.1581362e-05 0.0004758733 0.00024481604 6.104127e-05 7.808504e-05 0.00012652237
0.0004992174 4.1170362e-05 0.00047570004 0.00020433037 9.3855684e-05 6.37682e-05 0.0001675246 0.00039921762
0.0001287874 0.0004693427 0.00014537491 0.0001982459 3.7966664e-05 0.0002516127 0.00023649151 0.00030142558
0.0004000494 5.8256006e-05 0.00025138236 1.624855e-05 0.00025406005 9.184964e-05 0.0003162489 0.00024778556
1.9328445e-05 0.00017414069 6.3912016e-06 0.00016047667 3.7881313e-05 0.0002136969 0.00012723463 1.3431829e-05
8.656463e-05 4.042347e-06 7.730237e-05 2.5726413e-05 0.00010529867 5.971644e-05 1.1690429e-05 3.018065e-05
3.0288354e-06 3.1767995e-05 2.069028e-05 4.0077644e-05 2.2434601e-06 9.331645e-10 3.5997815e-08 5.5913536e-09
5.9639706e-07 1.969621e-08 2.2222898e-06 2.2434601e-06 3.3696733e-07 2.3002065e-07 2.1182309e-07 5.958815e-07
1.4222029e-06 5.4451135e-07 2.2434601e-06 8.031918e-07 1.8588757e-07 2.3245052e-07 5.18134e-07 1.8506545e-06
2.6973999e-07 2.2434601e-06 7.556126e-07 1.0312308e-07 1.9487864e-07 7.106378e-07 1.5749579e-06 4.4372243e-07
2.2434601e-06 7.6867644e-07 3.6559254e-07 1.8436718e-07 8.273957e-07 1.436318e-06 7.1702993e-07 2.2434706e-06
6.9576186e-07 3.3651375e-07 1.4716548e-07 1.0127442e-06 1.2264899e-06 9.560624e-07 2.2401166e-06 3.5034162e-07
5.9228825e-07 1.148642e-07 1.0853475e-06 9.449354e-07 1.2211938e-06 2.073454e-06 2.9646677e-07 7.0927223e-07
7.104857e-08 1.091239e-06 6.1201774e-07 1.3911391e-06 2.012353e-06 1.7533212e-07 4.8219874e-07 1.4092143e-07
9.909005e-07 9.0086775e-07 1.0982204e-06 1.8849182e-06 4.0706462e-07 7.1964814e-07 1.3080006e-07 9.936932e-07
8.1925225e-07 1.0656756e-06 0.00045127017 3.1303853e-07 5.066947e-05 4.148538e-06 0.00011022417 1.659702e-05
0.0004364798 0.00045127026 0.00013142901 3.906658e-05 5.8867416e-05 0.000107921755 0.00036226833 0.00012039126
0.0004512105 0.00023157742 4.856813e-05 7.4683325e-05 0.00011427994 0.00046801064 1.9701261e-05 0.00045155513
0.00022756144 5.8868132e-05 7.1479124e-05 0.00011783001 0.0004608846 3.617821e-05 0.00045162515 0.00018461708
9.017214e-05 6.0317794e-05 0.00015827855 0.00037404808 0.00012414281 0.0004464292 0.00013351896 0.00019241973
3.5012603e-05 0.00023637689 0.00021710803 0.00028424553 0.0003733224 5.3274493e-05 0.00023345735 1.5221537e-05

exp_avg f4 [64]
00000000: b7d3 e7b0 cecf bc3a 4b4c e3b9 0cde 22ba
00000010: 8f83 243b 8ae0 b1b2 d521 92b4 eaa7 063b
00000020: 7379 b3af 24b6 bcb1 7c67 933b 2aac f0b9
00000030: a21a bd3a 8fc3 91b9 6e0e 8eab 557a d7b0
00000040: 8da4 3e3b c85a eb39 98e0 d7a6 7129 3c3b
00000050: 8f78 8a3a d087 a0a9 7066 5bb2 f97e 40b1
00000060: daf8 619c 924f f2b1 7b68 bbb2 e1c4 2a3b
00000070: aa8a 043b fad2 50ad bf96 309e ccd0 07b4
00000080: cec4 933b 1edb 8e3a 9359 6ab1 ff0e 02b1
00000090: 34ef 20b2 b8d4 feb2 5a28 6c3b 2b16 4a3b
000000a0: 57d5 f7b2 6bbf 3739 bd0c 2aba 3ccb 80aa
000000b0: afc7 c19d 24eb b5ad a6a3 5db7 4fe5 d29f
000000c0: 5986 80b2 08f6 bcba 0331 713a 5231 ce36
000000d0: 5da5 54af b587 f3b1 3638 6ca7 aa95 38ae
000000e0: 2afd aa3a 0cfa bcb2 cab4 6d3b d45b 753b
000000f0: ac66 7a3b 5fa8 363b 33b6 4b3b d5d2 89b4
-1.6867635e-09 0.0014405192 -0.00043353657 -0.0006212897 0.002510283 -2.070762e-08 -2.7219235e-07 0.0020546862
-3.2646205e-10 -5.492227e-09 0.0044984203 -0.0004590464 0.0014427493 -0.00027802258 -1.0093712e-12 -1.5678078e-09
0.002908978 0.0004489033 -1.4979498e-15 0.0028711224 0.0010564494 -7.128987e-14 -1.2770769e-08 -2.8011853e-09
-7.476789e-22 -7.052173e-09 -2.1817177e-08 0.002605729 0.0020224252 -1.1870277e-11 -9.348536e-21 -1.2648815e-07
0.004509545 0.0010899042 -3.4102399e-09 -1.8926014e-09 -9.367614e-09 -2.9666225e-08 0.0036034794 0.0030835967
-2.88516e-08 0.00017523549 -0.00064868835 -2.287839e-13 -5.1293143e-21 -2.0681741e-11 -1.3210729e-05 -8.931782e-20
-1.4962255e-08 -0.0014416585 0.0009200724 6.14502e-06 -1.9340037e-10 -7.087659e-09 -3.2782051e-15 -4.1969685e-11
0.001304542 -2.1999789e-08 0.0036271089 0.0037438767 0.003820817 0.0027871353 0.003108394 -2.567164e-07

exp_avg_sq f4 [64]
00000000: 2cb2 5a2d c58e f939 5a8e 1636 7798 ec39
00000010: 8590 c139 485f 752d 478b 9431 d6de 7939
00000020: a582 ec2c c355 1f2e 13df 6739 2386 4a39
00000030: c7f2 1939 f295 7139 416d c12b 0d83 3a2d
00000040: c41a 4739 a9f9 f739 907f 3d2b acd9 f638
00000050: 6634 1139 8af1 962b fa91 152d 2416 582b
00000060: 81ef 812a b71d 262e 7528 122f a44e 1439
00000070: bde3 c538 a13f 392c b345 952a d114 8b2e
00000080: 7086 3539 54a7 9238 37ac 442d 4694 752d
00000090: d163 832d 498b d12e 7668 c238 3f1f dd38
000000a0: f6d0 802f e515 4538 793b eb39 3fd1 ac2b
000000b0: 0538 8f2a db02 532c 0ff9 6e38 fd32 ab2a
000000c0: 0e6e 942d a2e6 bf39 8def 0a39 93e8 3534
000000d0: 072e c82c 69f5 522d f242 4e2b e028 a92b
000000e0: c69c 1039 e08f 302e 2163 ea38 deab 9f39
000000f0: d5c9 2b39 591b f138 22d3 9c38 8951 fd33
1.2431427e-11 0.00047599353 2.2434601e-06 0.00045127023 0.00036919504 1.3947794e-11 4.323201e-09 0.00023829503
6.722028e-12 3.6228586e-11 0.00022112978 0.00019314191 0.00014681659 0.0002303941 1.3743799e-12 1.0601975e-11
0.0001898809 0.00047297523 6.7323317e-13 0.00011770739 0.00013847798 1.0725182e-12 8.502083e-12 7.676934e-13
2.3081192e-13 3.7770422e-11 1.3292996e-10 0.00014143676 9.4361116e-05 2.6325402e-12 2.651608e-13 6.324686e-11
0.00017311587 6.99299e-05 1.11795495e-11 1.3959561e-11 1.4937303e-11 9.5289616e-11 9.270098e-05 0.00010543921
2.343154e-10 4.698885e-05 0.00044867003 1.2279413e-12 2.5440774e-13 2.9986489e-12 5.6975576e-05 3.0411082e-13
1.6874526e-11 0.00036602194 0.00013249945 1.6941549e-07 5.689452e-12 1.199161e-11 7.3278807e-13 1.2019517e-12
0.00013791313 4.0145554e-11 0.00011176454 0.00030454894 0.00016383019 0.000114968694 7.477986e-05 1.1796062e-07

exp_avg f4 [64, 64]
00000000: 0000 0000 03e5 2938 6541 6339 d39d 0c39
00000010: b0bd 18b8 7ac3 0400 a9e0 c234 5974 a6b5
00000020: 0000 0080 70bf 689d 6761 91b7 17bb b3b8
00000030: b349 d3b6 8535 3939 0000 0000 0000 0000
00000040: 88e1 deb6 c154 2639 0000 0000 7cd8 3d39
00000050: 8979 c3b8 7360 ae9f d9e8 a920 a4fd 822f
00000060: 4eff 2e05 547b 16ab 0000 0000 1ffa 69b5
00000070: 2cb3 7438 ac91 5998 b142 c8a9 d83d d303
00000080: 4340 51b5 c3d7 73b5 0000 0000 05c1 eaa0
00000090: 6e50 158e 0000 0080 1d0d ae38 87a8 4f39
000000a0: 0000 0080 4617 2db8 0662 0439 7be9 bb24
000000b0: 0000 0080 d65b 3b92 0144 c0b7 0000 0080
000000c0: 0000 0080 7051 0d39 e3cf fbb6 1098 e8b3
000000d0: b549 9580 3801 0080 db55 1095 8dc3 4388
000000e0: b459 3837 c392 959b 43bd 0539 725f 8239
000000f0: ce5d 2eb6 fec7 d7b6 8e9c 6739 c264 8e33
00000100: 0000 0000 13bb 4b38 cbf9 8739 ea57 2539
00000110: 8688 3eb8 ad87 f517 1aef b134 bfa0 d9b5
00000120: b9e8 b584 81f7 7ea1 f666 adb7 770a 09b9
00000130: bcf5 f4b6 14da 5f39 0000 0000 2e01 0000
00000140: aa0b 02b7 c33b 4639 0000 0080 9f1d 7339
00000150: 0d61 05b9 7482 81a2 2e23 2322 9630 fa2f
00000160: 405d ba16 06e6 9aac 0000 0080 557d 78b5
00000170: 81a2 9e38 030b 12a1 eb61 a9ab 6a1d de87
00000180: 496d 8cb5 9c2c 97b5 0000 0080 0000 0000
00000190: 307e 9d93 0000 0080 1940 e438 987a 8039
000001a0: 0000 0000 87ba 2bb8 48f1 2939 95b4 8d2b
000001b0: 0000 0000 fc93 379f 7562 b3b7 0000 0000
000001c0: 0000 0080 330c 2d39 ad81 10b3 979e 9c33
000001d0: ef1e 4e0e dbdb 1700 083b de9b cd14 cc11
000001e0: 7674 b137 feeb 021c 7efd 2439 346e 9239
000001f0: a70f 55b6 d79d f6b6 0ab9 8e39 c64f d333
00000200: 0000 0000 0000 0000 0000 0080 0000 0000
00000210: 0000 0080 0000 0080 0000 0000 0300 0000
00000220: 0000 0000 0000 0000 f143 7b85 0000 0080
00000230: 0000 0000 0000 0080 0000 0000 0000 0080
00000240: 0000 0080 0000 0080 0000 0080 0000 0000
00000250: 0000 0000 0000 0080 0000 0000 0000 0000
00000260: 0000 0080 0000 0080 0000 0080 0000 0080
00000270: 0000 0000 0000 0000 0000 0080 0600 0000
00000280: de01 0080 0000 0080 0000 0080 0800 0000
00000290: 0000 0000 0000 0080 0000 0080 0000 0080
000002a0: 0000 0000 0000 0000 0000 0080 0000 0080
000002b0: 0000 0000 0000 0080 0000 0080 0000 0000
000002c0: 0000 0080 0000 0080 0000 0000 0000 0080
000002d0: 0000 0000 0000 0080 0000 0000 0000 0080
000002e0: 0000 0000 0000 0000 0000 0080 0000 0080
000002f0: 4501 0080 0000 0000 0000 0080 0000 0080
00000300: b5b9 ed98 580d aa38 99d8 5d39 04ac 2239
00000310: 22cf df35 a9b0 11af 8a20 c334 41fe b8b5
00000320: 5005 a296 a5b9 4ea6 4622 90b7 0888 7ab8
00000330: d511 d3b6 fe11 1b39 0000 0000 3dc0 aa22
00000340: b824 ddb6 1448 6139 0000 0000 68cf a439
00000350: d7d9 0138 ea38 61a5 2952 03b1 1d2a bcb1
00000360: 2b95 4c25 57c4 f2ae 105c b3b2 1476 70b5
00000370: 7949 1a39 67b7 94a1 98c3 09ad 6930 ab2c
00000380: eae9 95b5 4b78 89b5 0000 0000 36c6 db9f
00000390: 0329 ab27 0000 0080 6ec0 4a39 bf59 8339
000003a0: 04ba 4224 d771 0239 8806 6f39 03a2 802e
000003b0: 0000 0000 116f 369d 6bdb ab38 0000 0000
000003c0: 03dc b9a3 213e 9d39 629d 0039 b066 6334
000003d0: 3dab cd21 c95b 7c86 1cfa de9e dd50 9c12
000003e0: e3fa 1339 0fe9 d8b2 cbab 8639 1e7c 3739
000003f0: f570 38b6 d949 d9b6 29d8 6639 f422 9834
0.0 4.0506024e-05 0.00021672768 0.00013410235 -3.6416284e-05 4.37466e-40 3.6298778e-07 -1.2401825e-06
-0.0 -3.0803915e-21 -1.7330703e-05 -8.570233e-05 -6.2968697e-06 0.00017662912 0.0 0.0
-6.642371e-06 0.00015862567 0.0 0.00018105091 -9.320962e-05 -7.385143e-20 2.87838e-19 2.3827085e-10
8.228333e-36 -5.346186e-13 0.0 -8.716324e-07 5.8341e-05 -2.8120138e-24 -8.893353e-14 1.2415664e-36
-7.795208e-07 -9.083853e-07 0.0 -3.9768872e-19 -1.8404393e-30 -0.0 8.299409e-05 0.0001980384
-0.0 -4.126809e-05 0.00012625018 8.1493854e-17 -0.0 -5.911999e-28 -2.291985e-05 -0.0
-0.0 0.00013477146 -7.504584e-06 -1.0831002e-07 -1.370993e-38 -4.37e-43 -2.9148296e-26 -5.8910547e-34
1.098814e-05 -2.4744825e-22 0.00012754374 0.00024866645 -2.5982622e-06 -6.4307815e-06 0.00022088198 6.630718e-08
0.0 4.8573198e-05 0.00025935317 0.00015768377 -4.5426677e-05 1.5867003e-24 3.3142788e-07 -1.6214543e-06
-4.2766618e-36 -8.6386116e-19 -2.0671152e-05 -0.00013069237 -7.300374e-06 0.00021348178 0.0 4.23e-43
-7.75132e-06 0.00018905014 -0.0 0.0002318532 -0.00012720023 -3.5103643e-18 2.2109243e-18 4.5509257e-10
3.010877e-25 -4.402481e-12 -0.0 -9.256958e-07 7.564296e-05 -4.94813e-19 -1.203535e-12 -3.3420136e-34
-1.0462619e-06 -1.126336e-06 -0.0 0.0 -3.9756802e-27 -0.0 0.00010883826 0.00024505402
0.0 -4.0943294e-05 0.0001620698 1.0068774e-12 0.0 -3.8874167e-20 -2.138431e-05 0.0
-0.0 0.0001650311 -3.3645552e-08 7.2931634e-08 2.5406354e-30 2.191086e-39 -3.6764967e-22 3.2198344e-28
2.1154276e-05 4.3318405e-22 0.00015734692 0.00027929398 -3.1748584e-06 -7.3497463e-06 0.00027222215 9.839964e-08
0.0 0.0 -0.0 0.0 -0.0 -0.0 0.0 4e-45
0.0 0.0 -1.1814442e-35 -0.0 0.0 -0.0 0.0 -0.0
-0.0 -0.0 -0.0 0.0 0.0 -0.0 0.0 0.0
-0.0 -0.0 -0.0 -0.0 0.0 0.0 -0.0 8e-45
-6.7e-43 -0.0 -0.0 1.1e-44 0.0 -0.0 -0.0 -0.0
0.0 0.0 -0.0 -0.0 0.0 -0.0 -0.0 0.0
-0.0 -0.0 0.0 -0.0 0.0 -0.0 0.0 -0.0
0.0 0.0 -0.0 -0.0 -4.55e-43 0.0 -0.0 -0.0
-6.145058e-24 8.108717e-05 0.00021156891 0.00015513605 1.6675078e-06 -1.3250435e-10 3.6345256e-07 -1.3783066e-06
-2.6175864e-25 -7.17222e-16 -1.7182098e-05 -5.9731334e-05 -6.290366e-06 0.00014788655 0.0 4.6282133e-18
-6.590588e-06 0.00021484523 0.0 0.00031435047 3.0958876e-05 -1.9534922e-16 -1.9109712e-09 -5.476308e-09
1.774472e-16 -1.1039763e-10 -2.0880208e-08 -8.9578793e-07 0.00014713955 -1.0077416e-18 -7.830979e-12 4.865487e-12
-1.1169443e-06 -1.0242305e-06 0.0 -9.307802e-20 4.75065e-15 -0.0 0.00019335907 0.00025053133
4.2224606e-17 0.00012440175 0.00022795249 5.849545e-11 0.0 -2.414492e-21 8.194785e-05 0.0
-2.0150919e-17 0.00029991663 0.00012265661 2.117838e-07 1.3936667e-18 -4.7463365e-35 -2.3608607e-20 9.864918e-28
0.00014112475 -2.5251692e-08 0.00025686467 0.00017498477 -2.7483886e-06 -6.475701e-06 0.00022015035 2.8337638e-07
