models/a2c_ep2000.pth (torch, 108663 bytes, 7 tensors)

shared.0.weight f4 [128, 70]
00000000: 9da4 c23d 4f78 933e 173f 993a a332 083d
00000010: e604 2fbe 64aa 9c3e 6e24 14be 669d 253e
00000020: 82cf 30be e2d9 b4bd 46d4 2a3e 94a3 053e
00000030: a8fd 8b3d 0e81 353e 2800 363e a077 44be
00000040: 87ac d33c 370d 973c 712a c73d 7c8b 0cbd
00000050: d85e 3f3e 72d8 3b3e 88d4 1a3e a1de c9bb
00000060: 2488 aabe aa90 503d 7eba 31be 27c0 233e
00000070: 88c2 833d 52b6 3a3e 8889 f83c 0b3e 04be
00000080: e26b babc 02c8 bebd 7c15 ad3d 44fd 39bd
00000090: 425e 11bd 1866 003d da3d 283d 62c4 edbd
000000a0: 7c90 5eba d74a 08be 3b10 2e3c 3cca ddbd
000000b0: 29e9 853e 8924 7cbe f740 91be 41a4 8fbd
000000c0: 3f8d 60be 9468 c73d f8bc 08bd 1453 31be
000000d0: 8d8c 86be 2b73 933d 83a9 ecbd e007 e03d
000000e0: 75fd 3e3e 367f 89bd 92af 53be 2d21 fabd
000000f0: ebb5 1fbe 3b83 8abe 40bc a53d f3c9 14b9
00000100: 20de 9d3d c132 48be c6c5 82be 1333 47be
00000110: 07e9 39be 7022 623e 5abf 4ebe 3005 cdbc
00000120: 7185 23bd 6819 42bb ea74 523e c3b8 e3bd
00000130: 8123 b23d 2ac4 f2bd 107c 973c 691f 463e
00000140: 4564 febd c1a4 d4bd 9826 6bbd ca1c 1abe
00000150: 3506 4fbe b38f af3d 228a 3bbb 92cf 92bc
00000160: b17b b8bd f6d8 e6bd 2574 613c 0dbd 5bbe
00000170: 5bf9 6b3d aa00 3e3d e3e1 063e c277 2dbe
00000180: 8ae4 1abb d3ad d63b 2d90 48be 8d54 7e3d
00000190: 5044 1e3e 0809 203d 9604 39bc 64b7 c93d
000001a0: 1cc4 5ebd bce1 d7bc 1ad1 6bbd fe2d 033e
000001b0: dd44 cb3d 1585 72bc e572 d7bd 6d2d 16be
000001c0: 9db7 98bd 49e2 a33c a1cf 9dbc d29c 3b3e
000001d0: 014f 843c 83c9 3c3e e316 2d3d f23d 85be
000001e0: 894b 8abd 3691 0c3e e4b5 a23d fdb2 febd
000001f0: c728 083d f5ca 15bd 5bbf 10be 9cff 8e3d
00000200: f68e ac3d 6c1d df39 20fc 6f3d 3c56 be3b
00000210: f8b3 f7bd c9ed 77be 1d32 6cbe 98cf 293e
00000220: ba37 1c3e 92f1 3f3e ed88 093e 8725 0c3e
00000230: df35 8d3c 320e 813c 2266 453c 2168 173e
00000240: cc29 04bc 1ab9 d93d e834 c8bc 63bc acbd
00000250: 4d7c 25be 00c1 fabd 653e 98bc 3684 463e
00000260: 2d4d 9f3d a82d f43d 5968 34be 0a03 033d
00000270: 7bd5 213e 73b3 123e a8e7 debd 3f10 5e3d
00000280: 7f8c 90be f70a 393d 6705 62be 0337 ae3d
00000290: 69d6 973e 491c f5bc bc9f a33e f3ef 3dbd
000002a0: b32a 7c3e 7c4c 7f3d f81b 57be 1a44 dc3c
000002b0: 6989 513e e79e 06be 15ce 233e b37f 293e
000002c0: 7b02 65bd e89f 39be d100 cfbd ccac d63d
000002d0: b405 45bc 380a 4c3e 0c7d 08be 1292 ed3e
000002e0: 4cc7 273e 9acb 153c 433c 94be db36 8fbd
000002f0: 19ba cdbd a0da 79be e117 02be 4645 6e3e
00000300: 4db6 353c a6fc 6fbe ca06 1a3d d41d 35be
00000310: 76eb 4a3e ccbb a73e 22ec 24be c32d 88be
00000320: 1c73 a33e cbae 20bd 8e49 c83e b87d 043e
00000330: 8e2f 3ebe bfdd d7bd f286 533e 6ba2 c03d
00000340: 9473 c83d aee7 1f3e e820 91bd 128c e23d
00000350: 2a9e eebd 6683 943f d3a8 513d 7f9b 983f
00000360: 7898 bf3d 981a e0bc 4c73 4f3d 2c24 f83d
00000370: 8122 1bbf bab6 803d 21cc a0be ab30 073e
00000380: b3da 59be 87ce c23c d72c 3e3d 8703 babb
00000390: 959d 49be cc88 84bd 8c1e a33c 9d5c d7bd
000003a0: f564 44be 978f c63d 2023 c9bd acba 443c
000003b0: 0b92 d93d deee a93e 963d a8bd d41c 393d
000003c0: 6ab2 063e d562 04bd 8110 2cbe 222e efbd
000003d0: df5d 41be a216 16be 4f85 a83e da08 b73d
000003e0: f97b 89be f0a3 4bbe 3789 88bd 62f0 f2bd
000003f0: 5194 b8bd 31c6 50be 2b49 e83d 2f38 e0bd
0.09504054 0.28802726 0.0011691776 0.033251416 -0.17091712 0.30598748 -0.14467022 0.16173324
-0.17266658 -0.0883062 0.16682538 0.13050681 0.068354905 0.17725012 0.17773497 -0.19186258
0.025839103 0.018438919 0.09724892 -0.03431271 0.18688524 0.18344286 0.15120137 -0.0061605726
-0.33306992 0.050919212 -0.17356297 0.15991269 0.06433588 0.18233612 0.030339018 -0.12914293
-0.02275652 -0.09315492 0.084513634 -0.04540755 -0.035490282 0.031347364 0.04107461 -0.11609723
-0.0008490158 -0.13309799 0.010623987 -0.10829589 0.2615445 -0.24623312 -0.28369877 -0.07013751
-0.21928881 0.097367436 -0.03338334 -0.17316848 -0.26279107 0.07199701 -0.11555769 0.10939002
0.18651374 -0.06713717 -0.20672444 -0.12213359 -0.1559674 -0.27053246 0.080925465 -0.00014189612
0.077083826 -0.19550611 -0.25541514 -0.19453077 -0.18155299 0.2208345 -0.20190182 -0.025026888
-0.03992218 -0.0029617194 0.20552412 -0.11119225 0.08698178 -0.118538216 0.018491775 0.1934792
-0.12421469 -0.10382987 -0.057409853 -0.15050045 -0.20217212 0.0857233 -0.002861627 -0.017921243
-0.09007967 -0.11271851 0.013760601 -0.21458836 0.05761085 0.046387352 0.13172106 -0.16940215
-0.0023634755 0.006551483 -0.19586249 0.062092353 0.15455747 0.039071113 -0.011292597 0.09849432
-0.054386243 -0.026352756 -0.05757246 0.12810513 0.09925244 -0.014802237 -0.10519961 -0.14665766
-0.074568965 0.020005362 -0.019264044 0.18321541 0.016150953 0.18436246 0.042258155 -0.26023823
-0.067526884 0.13727269 0.07944849 -0.12436483 0.033242013 -0.036570508 -0.14135496 0.06982347
0.08425705 0.00042555796 0.058590055 0.00580862 -0.12094873 -0.24211802 -0.23065992 0.16583097
0.15255633 0.18744496 0.1343114 0.1368619 0.017237602 0.01575384 0.012048276 0.14785816
-0.008066606 0.106310084 -0.02443929 -0.084343694 -0.16160698 -0.12243843 -0.01858444 0.19386372
0.07778392 0.11922771 -0.1761793 0.03198532 0.15804093 0.14326267 -0.10884029 0.054214712
-0.2823219 0.045176473 -0.22072373 0.085065864 0.2965577 -0.029920714 0.31957805 -0.04637141
0.24625663 0.0623288 -0.21006763 0.026887942 0.20462574 -0.13146554 0.15996583 0.1655262
-0.05591057 -0.18127406 -0.101075776 0.10482177 -0.0120252855 0.19925773 -0.13328952 0.46400505
0.1638462 0.009142781 -0.28952226 -0.06992885 -0.10045261 -0.24399805 -0.12704422 0.23268613
0.011090827 -0.23436221 0.03760413 -0.1768716 0.19816384 0.32760465 -0.16105703 -0.26597413
0.3192376 -0.039229196 0.39118618 0.12938583 -0.18572828 -0.105403416 0.20656946 0.09405979
0.0978767 0.15615723 -0.070863545 0.110618725 -0.11651261 1.16026 0.051186394 1.1922454
0.09355253 -0.02735643 0.050647065 0.12116274 -0.60599524 0.06284852 -0.31405738 0.13202159
-0.21274833 0.02378012 0.04642948 -0.00567669 -0.19689019 -0.064714044 0.019912027 -0.105157115
-0.19179137 0.09695356 -0.09821153 0.012007397 0.106235586 0.33190054 -0.082148716 0.04519351
0.13153997 -0.032320816 -0.1680317 -0.11678721 -0.18883465 -0.14657071 0.32914206 0.08937235
-0.26852396 -0.19886756 -0.06666797 -0.11862256 -0.09012664 -0.20388104 0.11342081 -0.10948216

shared.0.bias f4 [128]
00000000: 7727 823e d468 4cbe b6ae 14be 1278 50bd
00000010: cb05 c63d 12f0 b1bd 05b7 29be 6a0d 2a3e
00000020: d933 af3c ca11 0ebe 6267 26be 3247 4bbe
00000030: 1589 1bbe 12fa 9e3d 180b 813e 4a3b 93bd
00000040: de02 7cbb 432b 8bbe 5143 7d3c 06de 51bd
00000050: 66ed 003e b6f8 42bd eebd 6abc 128c 12bd
00000060: ad76 613c d3a4 65bc 0e52 a6bd 957c 51be
00000070: 2882 99be f4c8 383e 241a a5bd 1f66 3e3e
00000080: 4dae 4b3e 55d7 2c3d e702 473d 0533 5a3e
00000090: c0f3 2fbe 911f 5b3d 11fa 493d 64c1 943d
000000a0: bc1e e23c b4c0 06be e4c0 053e 170d bebd
000000b0: 8ffd 84be f7d0 293e ec58 73bd 8f79 0a3e
000000c0: c1f3 51be be5a e23d adde 7c3d 84f8 043c
000000d0: 4770 b9bd e350 dabd 11ef 8dbe 0c5d 503e
000000e0: 5563 313e eb68 27be f23b 24be d03f 10be
000000f0: 652c b1bd 837d 523d f30b aa3d 234f 3abd
00000100: 5df7 ac3d d841 2c3e c7ca 56bd 80f8 23bd
00000110: e654 46be 393f af3b 8334 3fbd 01d6 6bbe
00000120: 2028 1abd dce2 2fbe 1c8b d13d 599a 643c
00000130: 2360 4a3d 0a4c a9bd c17f 553d 7562 2abe
00000140: 920a e4bd c6e1 f53d 5bd3 253a e0c1 cb3d
00000150: 5074 2b3c c7ca e33c 42df b0bc f151 8e3e
00000160: 06dd ddbd e60d a8bd d43c 0d3e 12ae abbd
00000170: fd83 c63d e5d4 603c 9a9b 07be 7eec 2d3d
00000180: a9e0 5d3e 0e7f 99bc a011 903d ccbb c83d
00000190: 98c0 323e b47a f93b 68db 683d 18e0 e73b
000001a0: d430 9a3c 5511 a5bd e843 ea3d 36a3 503e
000001b0: dabf adbe 1593 e3bb 5eb8 83bd 54cf 913c
000001c0: 3719 ddbd 98e5 53bd 15a0 19bd a44b 6dbe
000001d0: b712 f5bd 6cc6 50be f690 833e 270b 733d
000001e0: 7a88 283e 3499 db3d f18f debd 46d9 5e3e
000001f0: dc3f 933e 60ed 3b3e fb04 94bb 85bc 86bd
0.25420734 -0.19961864 -0.14519772 -0.050895758 0.09669074 -0.08688368 -0.16573723 0.1660668
0.021387028 -0.13873973 -0.16250375 -0.19851378 -0.15189011 0.07762541 0.25203776 -0.07189043
-0.0038453857 -0.27181444 0.015457944 -0.05123713 0.1259056 -0.04760047 -0.014327509 -0.035778113
0.013761205 -0.014016348 -0.081211194 -0.2045768 -0.29982114 0.18045408 -0.080616266 0.18593644
0.19890709 0.042197544 0.048586752 0.21308525 -0.17182827 0.0534969 0.049310748 0.07263449
0.027602546 -0.13159448 0.13061863 -0.092798404 -0.259747 0.1658362 -0.059410974 0.13522933
-0.20503141 0.11052464 0.061735798 0.008115891 -0.09054618 -0.10659959 -0.27721456 0.20347995
0.17323048 -0.16348617 -0.16038492 -0.14086843 -0.08651046 0.05138923 0.083030604 -0.045485627
0.08445618 0.16821992 -0.052439477 -0.04003191 -0.19368324 0.005348113 -0.04668094 -0.23030855
-0.037635922 -0.17176384 0.10231611 0.013952815 0.04940809 -0.082664564 0.05212379 -0.16639121
-0.111348286 0.120059535 0.0006325745 0.09949088 0.010464743 0.027806653 -0.021590833 0.2779689
-0.108331725 -0.08205776 0.13792735 -0.08382811 0.096931435 0.013722633 -0.13242951 0.042461865
0.21667732 -0.018737342 0.07034612 0.098014444 0.17456281 0.0076135043 0.056849867 0.0070762746
0.018822111 -0.080599464 0.11438733 0.2037476 -0.33935434 -0.006945024 -0.064316496 0.017799057
-0.10795825 -0.05173263 -0.03750618 -0.23173386 -0.1196646 -0.20388192 0.25696534 0.059336808
0.16458312 0.107225806 -0.108672984 0.2176257 0.28759658 0.1835227 -0.0045171953 -0.06578926

shared.2.weight f4 [128, 128]
00000000: e55f 90bc d706 89bd e183 eb3d 0fb6 82bc
00000010: 09a9 013d 8af4 b23c 14bb 813e 9fe2 313d
00000020: 18d1 603d 6125 643e a31a 173e 9440 233d
00000030: b97d a63d 05b0 543d d053 6fbe 5fe8 893e
00000040: 312e 323d d4e3 1bbd 5823 5d3d bcd3 b4bd
00000050: fcd1 a33c 8686 9a3d cc80 47bd 19c6 813e
00000060: fff3 9e3c 10c6 b73d 4138 223e f5b4 a33e
00000070: 0627 4c3d 6dcb e0be 442c 373e 0ee3 adbe
00000080: 394e 4abb 8916 07bd 58bc 983c 5a7f 84be
00000090: c852 15bd c292 e93d da4b b7bd 876c 40be
000000a0: 558a 133e e6bb 783e 1473 a03b e489 133e
000000b0: 65ce 7f3e 9ca4 01bd ef9c c23e 4930 2b3d
000000c0: 87cc e73d 0ce3 9dbe 3450 03be 29b8 89bd
000000d0: 062b 9a3e c9d2 ce3d d120 c83e 3d28 9bbd
000000e0: be21 42be 8218 a73d 3a2f 72bd 533f 4cbd
000000f0: e3ae a9bc 1d73 ca3d dd5d 14be e8d7 903d
00000100: 12d2 d13d 18db a43c 5611 5ebd cc12 973b
00000110: 84e9 7ebc 9667 ff3d dc4e ef3d c622 b43d
00000120: 16a3 583e a759 b13d 0a04 1ebe c5ac fc3d
00000130: 17ea cfbc 99d7 0d3d 8932 69bd 6a9d 883d
00000140: 17d9 ebbd 5419 04bd dc07 e53d 1e7a 7bbe
00000150: cb07 143e f6ed 4d3e c815 c4bd db33 54be
00000160: 4fdf 1e3d 379f babd 90f4 99be 43aa 3c3d
00000170: 98fa 843d 2084 e8bd 2a53 913e 6234 b73d
00000180: 8375 2bbe 858c d4bc 41ab 803d 7219 c4bd
00000190: 011c babe d8ad 2fbe fa91 c0b9 bde7 c83d
000001a0: 5c97 1b3c 80ea a63c 60f2 b63d 4923 12bd
000001b0: 34f0 683e d503 80bd d2b8 f43d 8877 d83d
000001c0: 53ae 1f3e 9a4d 0c3d 9b76 4b3d 8b14 0b3e
000001d0: b7d8 243e 7749 b1bc e0c4 29be d689 dabd
000001e0: 5897 29be 8399 c5bd c870 783e 9f51 3bbe
000001f0: 8d1e 77be d5c6 8fbe 29a3 293c 1d37 a23e
00000200: 80ec 963d 2fd3 703d ea05 4bbe d833 98bc
00000210: 54fa b8bb 5fef e1bd d596 e5bc 61f1 923c
00000220: 0111 bebd b58c 1cbc 17f3 98bd 8bf4 68bd
00000230: 3c98 2b3d 9fce e4bc c399 6e3d 4efc 03be
00000240: 1192 8fbd 9178 813d 2d65 0cbd 9e63 313c
00000250: c707 8b3c a7c8 10be 7def bf3d dd91 f1bd
00000260: a9a0 6dbd cc3a 6c3d f77d 75bc 0890 42be
00000270: 818a 95bc 8634 1c3e 361a e2ba 339b eb3d
00000280: 9cd0 c53c 4f4e bcbd fc2f 233d 17ad de3d
00000290: cd98 b83d 19ab b1bd b1e3 833d d8bb 923d
000002a0: 2295 3b3d 07e0 16be e9d2 c93d 31c5 f2bc
000002b0: 2b1d 15be c2b6 713d 6a91 0fbe 3c1a 7ab9
000002c0: 9d42 b73c 892d 073e eb24 65bd 9072 c43c
000002d0: 4a24 a7bd 6b3a fb3b d7cb 37be 4ac7 b5bc
000002e0: bef7 773d 779f 783d df2f a03d dfea 1d3e
000002f0: 3ac4 aa3c 9827 91bb 2c23 a23d a31e 31bd
00000300: 970e a7bd 3c39 7abd f9f0 133e 6175 ae3c
00000310: b1c5 ab3d c76b 103d 81cc 9bbd 896a d8bd
00000320: 923d c4bd de3a 20be 1544 103d 67ac 133d
00000330: 4e37 bf3d bd63 b53c d03f b23d 2bcc 72bd
00000340: 04c0 8a3d 920f f93d 7d13 f33c 968d 393d
00000350: c52c c0bd 902d bcb8 e316 e53d 5ccc 4f3e
00000360: 58e7 fabd 3e00 7fbc 2d35 df3d 16be 23bd
00000370: 1699 29be fb77 203e 6e27 eebd db43 77bd
00000380: 4605 a13d 65e0 093e 6ecd 293d a142 163d
00000390: bcdc 203e d38b 803e 3046 f438 039f 99bd
000003a0: 8c40 c0bd c7c4 c8bd 35c1 d03c fd0c 85bd
000003b0: 41cf 89bd 4f99 95bd 168f 4bbc 2dc0 71bd
000003c0: 2bde 73bd 48f7 0ebd 47df a23d 5868 fa3d
000003d0: 7430 8dbb da25 95bd be11 bb3d 77cd d2bb
000003e0: d7ee 51bd 8d3b 243e dcd4 81bd 862e f63d
000003f0: 2968 5c3e d8c5 163e dc43 58bd 8195 63bd
-0.017623851 -0.06690758 0.11499763 -0.015955953 0.031655345 0.021845121 0.25338042 0.043429013
0.054886907 0.22279884 0.14756255 0.03985651 0.081294484 0.051925678 -0.23371816 0.26935098
0.043501083 -0.03805907 0.053988785 -0.088294476 0.01999759 0.075451896 -0.048706815 0.2534645
0.019403456 0.08973324 0.15841772 0.31973997 0.049841903 -0.43905202 0.1788798 -0.3396229
-0.0030869378 -0.032980476 0.018644497 -0.25878412 -0.0364559 0.11404945 -0.089500144 -0.187914
0.14408238 0.24290428 0.004896531 0.1440807 0.24981077 -0.031651124 0.38010356 0.041794095
0.11318307 -0.30837286 -0.12823564 -0.06724579 0.3011095 0.10098798 0.39087537 -0.07576034
-0.18958184 0.08158971 -0.05912707 -0.04986508 -0.020713275 0.09885237 -0.14488931 0.07072431
0.10245146 0.020124003 -0.05421575 0.004610395 -0.015558604 0.12470929 0.11684963 0.08795695
0.21155962 0.08659678 -0.15431228 0.12337641 -0.025380177 0.034629438 -0.05693296 0.06670649
-0.11516016 -0.032250717 0.1118314 -0.24558303 0.14456098 0.20110306 -0.09574467 -0.20722906
0.038787182 -0.09112399 -0.300694 0.04606081 0.064931095 -0.11353326 0.28383762 0.08945538
-0.16744046 -0.025945911 0.06282664 -0.09575166 -0.3634949 -0.1715616 -0.00036729855 0.098098256
0.009496536 0.02037549 0.08932948 -0.03567818 0.2274788 -0.06250731 0.11949314 0.10569674
0.15593843 0.034253694 0.049673658 0.13582055 0.16098295 -0.021641476 -0.16579008 -0.10670821
-0.1656164 -0.09648421 0.24261773 -0.18292855 -0.24132748 -0.28081384 0.010353842 0.31682673
0.073693275 0.05879515 -0.19826475 -0.018579409 -0.005645076 -0.110319845 -0.028026024 0.017937364
-0.09280587 -0.009555032 -0.07468241 -0.05687384 0.04189323 -0.027930556 0.058252107 -0.12889215
-0.07010282 0.06321824 -0.034276176 0.010826973 0.016971482 -0.14139043 0.09371851 -0.11795399
-0.058014546 0.05767326 -0.014983646 -0.19000256 -0.01825452 0.15254411 -0.0017250243 0.11504211
0.024147324 -0.09194624 0.039840683 0.10872858 0.090135194 -0.086752124 0.06439913 0.071647346
0.04579652 -0.14733897 0.09854681 -0.029635044 -0.14561908 0.059012182 -0.14020315 -0.00023851631
0.02237063 0.13200964 -0.05594341 0.023980409 -0.081612185 0.007666876 -0.17948852 -0.022189755
0.060539 0.060698953 0.07821631 0.15421627 0.020845521 -0.004429769 0.07916865 -0.043242108
-0.0815708 -0.06108974 0.14447393 0.021296205 0.08387316 0.035259034 -0.076073654 -0.10567195
-0.09582056 -0.15647456 0.035221178 0.036053088 0.093367204 0.022142285 0.087035775 -0.05927674
0.06774905 0.12161173 0.029672379 0.045301042 -0.09383539 -8.973025e-05 0.11186006 0.202928
-0.122511566 -0.015564023 0.10898814 -0.039976202 -0.16562304 0.15670769 -0.11628614 -0.060367446
0.07862334 0.13464506 0.04145568 0.036684636 0.15709203 0.25106677 0.000116479 -0.07501032
-0.09387311 -0.09803157 0.025482753 -0.06496618 -0.06728984 -0.07304632 -0.012424251 -0.059021164
-0.059538048 -0.034903795 0.07952743 0.12226933 -0.0043087546 -0.0728261 0.091342434 -0.0064331847
-0.051253166 0.16038342 -0.06339428 0.120205924 0.21524109 0.14723909 -0.05279909 -0.0555625

shared.2.bias f4 [128]
00000000: 7d0f 213c a0f0 4c3d aa77 083e f7bd a63d
00000010: 8b5c a93d 04bc 333d 8f99 043e 6894 263d
00000020: bfe0 c8bc adfe 23be 227e 53be 840f 193d
00000030: c738 523d f2d9 58be 927c 5a3e 0c57 94bd
00000040: aaf0 e63d 5b53 8dbe a5ba 723d fc74 90bd
00000050: 72d5 a33e b1d4 11be e436 213e aa49 dfbd
00000060: 994a 59be e8c9 3fbd 9f00 95bd 3605 4cbd
00000070: bfb7 29bd 2633 9b3d 0aaa a23e 8664 8b3e
00000080: c502 abbb 4eed 0dbc e363 96be e1b4 06be
00000090: 3500 c6bd a1bd 803e 0c8f 063e cc30 873d
000000a0: 1458 8cbc a09b b0bd 0fbf bebe 8ad1 ad3d
000000b0: 3254 81bd 11d6 c53d 2325 60bd 428f 0bbb
000000c0: f5fc 823c d835 a03e 6001 63be dbcf 123e
000000d0: 0706 473e a010 b03c 5748 c6bb 2dc5 4dbc
000000e0: ec1f 1aba cd80 c03c f037 efbd 852b bdbd
000000f0: 07cb 9bbd 78f8 c2bd 7271 7c3e 016c 353c
00000100: b1d1 dfbc 9ed7 cb3d 1b68 883d b66f 88bd
00000110: d388 a5be e0c9 353d ccbb 24be f4a6 e23b
00000120: 21db 1abe 4e80 95bd 818a 503e a2fe 03be
00000130: d1d0 dbbd 7387 c03d 8fd0 cd3c 5e10 da39
00000140: 0425 a8be 2b61 e13d 5368 583e 70ed 3ebd
00000150: 932e 5cbd ba34 173e 48c7 9abd d37d 713d
00000160: 6528 cb3c 5785 813d 6880 1d3d e5b5 35bd
00000170: 9307 993d 8c52 673c c870 793d 1957 0f3e
00000180: 05c9 853c b387 e5bd feab 96bd afe8 973d
00000190: a1e4 403c fe62 77be 628f 82bd dd8a 2d3b
000001a0: e2af 80bd a62c a43c 4239 843e d849 28bd
000001b0: 395c 54bd b7bf 18bd 4600 85bd 58b4 a7be
000001c0: aa6d 0bbd 9cac 1f3e 3d70 84bd 58cb dabc
000001d0: af0e eabc d6ba 36bd 2c6d 473d 9566 1bbe
000001e0: 66eb 1e3e 01f4 7d3d f028 f73d 9586 2fbd
000001f0: 358e 82bd a43a cc3c e0dc 473d 6e7d 9c3d
0.009830353 0.050034165 0.13326898 0.08141702 0.08269604 0.043880478 0.12949203 0.040668875
-0.02452123 -0.1601512 -0.20653585 0.037368312 0.05132368 -0.2117689 0.21336582 -0.072431654
0.11276372 -0.27602658 0.05926003 -0.07053563 0.31998783 -0.14241292 0.15743595 -0.10902722
-0.21219863 -0.046823412 -0.07275509 -0.049809657 -0.041435 0.07578115 0.31770355 0.2722513
-0.005218836 -0.008662535 -0.29373083 -0.13154937 -0.09668008 0.25144675 0.13140506 0.06601104
-0.017131843 -0.08623433 -0.3725514 0.08487232 -0.06314887 0.096599706 -0.054722916 -0.0021295105
0.01598976 0.3129108 -0.22168493 0.14337103 0.19435893 0.021492302 -0.006051104 -0.012559217
-0.00058793905 0.023498917 -0.11680591 -0.09236816 -0.07607084 -0.09520048 0.24652651 0.011073113
-0.027321668 0.09953235 0.066604815 -0.06661932 -0.3233095 0.044381976 -0.16087264 0.006916875
-0.15122654 -0.07299863 0.20365335 -0.12890103 -0.10733188 0.09400835 0.025123863 0.00041592395
-0.3284074 0.110048614 0.21133547 -0.046613157 -0.053755354 0.14766207 -0.07557541 0.058957886
0.024799535 0.06324261 0.038452536 -0.04436292 0.07472148 0.014118802 0.060898572 0.13998069
0.016331205 -0.11207523 -0.07357024 0.07417428 0.011773259 -0.24158856 -0.06375004 0.0026480474
-0.06283547 0.020040821 0.25824934 -0.041086048 -0.051845763 -0.03729221 -0.06494193 -0.3275478
-0.03404013 0.15593189 -0.0646672 -0.02670829 -0.028571455 -0.044611774 0.0486881 -0.1517585
0.15519485 0.06200028 0.12068355 -0.042852957 -0.0637478 0.024930306 0.048794627 0.07641111

actor.weight f4 [4, 128]
00000000: 0e33 93bd b450 75bd 145c 9cbc 880e 08bd
00000010: 21da a73d 2208 573d 7b91 17bd d419 c63c
00000020: 80f7 2e3c de9b 2f3d b6b9 f3bc c040 28bb
00000030: b19f a83d 30e9 333c 3cfe 85bd 32d0 7bbd
00000040: e08d c5bb 44ee 9fbd 2399 a63d a8f4 6abd
00000050: c456 803c 90b9 c4bc 2018 303b 0e62 febc
00000060: 81ce a13d e775 913d 68d7 d33c 1695 79bd
00000070: 8090 3ebd 57bd 983d 605d 1b3c b0e9 2fbd
00000080: 6559 17bd c659 1c3d ce03 1a3d 93da b03d
00000090: 19ad b2bd 82f7 a4bd b587 a43d 70aa 8abc
000000a0: bc1f 02bd 57d9 aa3d ca93 17bd 7e5e 283d
000000b0: 71e7 9c3d 4eca 2e3d a9a7 8cbd 3aeb 6d3d
000000c0: 940e 1dbd 064f 373d f0ab c9bc 4047 afbb
000000d0: a24b 1e3d c2a0 7d3d 00d3 ec3a a623 543d
000000e0: e5cf 1bbd d83e 153c 22ac 2c3d 0633 0c3d
000000f0: b0af ca3b 732a a2bd f668 143d 3049 f83c
00000100: e056 3abb e0ea 68bc eadc abbd d6c6 acbd
00000110: 58d7 9abd cbb7 a33d 2ea0 40bd dc34 113d
00000120: 6a5e 5c3d 4eeb 503d c6b8 213d 1252 a5bd
00000130: e2c6 7bbd 488a 64bc 0ee2 173d 001e 9c39
00000140: cb62 3abd e666 a1bd 69f4 b3bd 25a7 83bd
00000150: de3b 8cbd 824e b0bd eb64 a03d 456e 9c3d
00000160: 95d8 66bd b4b4 9fbd 1076 493c c7fa 6cbd
00000170: f8d3 80bd 950b 9e3d 44f9 81bc a54b 803d
00000180: cc02 a1bc d048 313c 70df a43b 8473 02bd
00000190: 57b3 35bd 52ba 713d 507d 9fbd fcb9 f23c
000001a0: 2e41 e4bc fd7a acbd 7936 32bd 64f9 9ebc
000001b0: b767 acbd c027 b03b c68b 563d 16af 473d
000001c0: c45b 093d 9ace 673d 9ac9 713d 535f a33d
000001d0: b055 23bc 2ced aebd 14d7 55bd c789 863d
000001e0: 0031 20bd 3c1c 1bbd cec7 573d 484c 61bd
000001f0: 9e6a 493d d1f0 2abd 9727 a13d 90e0 423c
00000200: 9c40 94bd 096d 833d e6e4 613d c9e8 9e3d
00000210: 40d0 a5bb d526 b13d 8921 b13d 1dcf 913d
00000220: d687 3b3d fcaf dfbc 710e 3dbd 4112 50bd
00000230: 9011 fd3b 1154 8bbd 8a28 84bd 8281 25bd
00000240: 0094 21bd 19ba 8c3d 5316 993d e8db ecbc
00000250: d668 2d3d c3b4 8c3d 543e f13c 2d40 813d
00000260: 7094 093d c984 99bd 05a0 803d a074 02bb
00000270: f363 b2bd df2f 833d 9ffe 90bd 183b 143d
00000280: 3086 923b 6835 433c 40e0 303b 9a56 f4bc
00000290: a3c7 9b3d f653 47bd 1e82 48bd c509 8f3d
000002a0: 80b0 a3bb f143 04bd c98c 993d 46c6 71bd
000002b0: 7d11 a33d 4315 54bd 601d 693c aedb f6bc
000002c0: 6796 873d 3acc 7e3d 8ab8 49bd b871 c83c
000002d0: e0ec 34bc 40f6 2abc 7649 b4bd f6f6 3e3d
000002e0: 54d3 be3c 1804 d53c db6d 89bd e078 133c
000002f0: 21aa 96bd 9eb9 543d 28c7 f63c fb28 04bd
00000300: 78ad a5bd d895 b13c 7e84 0e3d f5fc 863d
00000310: a0f3 5a3b 8a06 e8bc 6a32 7b3d 2864 91bd
00000320: bee3 623d 68fa 89bc 450e 833d d869 833c
00000330: d057 84bc c852 623c 0044 8c3a 9a84 f1bc
00000340: 8824 8d3c 54e3 b63c 000d b1bb e268 0dbd
00000350: f01b 8d3b 4d4a 9fbd 86eb 65bd 9b6f 8bbd
00000360: 0838 88bc 3e08 5dbd bc63 0fbd 5068 afbc
00000370: 261c 7b3d 930f 12bd 5c4b 0d3d bdf8 a93d
00000380: 8418 e6bc e822 b9bc 9ef4 103d f2f3 1c3d
00000390: 0e34 503d ddef 933d 902b 5ebc b045 383c
000003a0: 51e9 923d 3710 a8bd 3bba 8f3d 6284 48bd
000003b0: 2345 833d a240 97bd 6e16 293d dc34 acbd
000003c0: 68af 61bd 4e66 183d e861 60bd e939 a5bd
000003d0: 2377 823d eec6 383d 7168 26bd c08d 6b3c
000003e0: 00a1 e13a 9079 c8bb 264a 4ebd 5068 d83b
000003f0: af33 46bd 3e5b 54bd 759b 8abd e139 963d
-0.07187472 -0.059891418 -0.019086875 -0.033216983 0.08195902 0.05249799 -0.037003975 0.024182238
0.010679126 0.042873256 -0.02975164 -0.002567336 0.08233584 0.010980889 -0.06542632 -0.061477847
-0.0060288757 -0.078091174 0.08134677 -0.05736223 0.015666373 -0.024014264 0.0026869848 -0.031052615
0.079007156 0.07102566 0.02585955 -0.060933195 -0.046524525 0.07457989 0.009482712 -0.04294747
-0.036950488 0.038171552 0.037601285 0.0863544 -0.08724422 -0.08055021 0.080336966 -0.016926974
-0.031768546 0.083422355 -0.037006177 0.04110574 0.076613314 0.0426734 -0.06867916 0.058085658
-0.03834398 0.044753097 -0.024618119 -0.00534907 0.038646348 0.06192089 0.0018068254 0.05179181
-0.03804006 0.009109221 0.042156346 0.034228347 0.0061854944 -0.07918253 0.03623291 0.030308336
-0.002843313 -0.014216155 -0.083917454 -0.084363624 -0.07560605 0.0799404 -0.04702776 0.0354508
0.053800978 0.051005654 0.039482854 -0.08072294 -0.061468966 -0.013948984 0.037080817 0.0002977699
-0.045504373 -0.078809544 -0.08786852 -0.06428365 -0.06847356 -0.08608724 0.078317486 0.0763822
-0.056358892 -0.07798138 0.012296215 -0.057856347 -0.0629043 0.07717053 -0.01586593 0.06264428
-0.019654654 0.0108205825 0.0050315186 -0.031848446 -0.044360485 0.05901558 -0.07787573 0.0296297
-0.027863111 -0.08421896 -0.04350898 -0.019406028 -0.084182195 0.0053758323 0.052379392 0.04875096
0.03353478 0.056593515 0.059030153 0.07977166 -0.00996916 -0.08541331 -0.052207068 0.06569248
-0.03910923 -0.037868723 0.052680783 -0.055004388 0.049173944 -0.041733567 0.07868879 0.01189436
-0.07238886 0.06417281 0.055149935 0.07759244 -0.0050602257 0.08649985 0.086489744 0.07119582
0.04578384 -0.027305596 -0.04615635 -0.05079866 0.007723041 -0.06803144 -0.06453045 -0.04040671
-0.039447784 0.06871433 0.07474961 -0.028913453 0.042336307 0.06870415 0.029448666 0.06311069
0.033588827 -0.0749603 0.06280521 -0.001990594 -0.0871047 0.06405615 -0.07079815 0.03618917
0.004471563 0.0119145885 0.0026989132 -0.029826451 0.07606437 -0.048664056 -0.048952214 0.06984285
-0.0049954057 -0.032291356 0.07497556 -0.05902698 0.0796232 -0.05177809 0.014228195 -0.030134048
0.06620484 0.062206484 -0.049248256 0.024468288 -0.0110428035 -0.010434687 -0.08803074 0.04662224
0.023294128 0.026002929 -0.067104064 0.009000987 -0.07356668 0.05193483 0.030124262 -0.032265645
-0.08089727 0.021677896 0.034794323 0.065912165 0.0033409372 -0.02832343 0.061327375 -0.070991814
0.055392973 -0.016843036 0.06399206 0.016041681 -0.016155154 0.013813682 0.0010701418 -0.029482175
0.017229334 0.022325195 -0.005403161 -0.034523852 0.004306309 -0.077778436 -0.056132816 -0.068083964
-0.01662828 -0.05396294 -0.035007223 -0.021412045 0.06130614 -0.035659384 0.034495696 0.08299396
-0.028087862 -0.022599652 0.035389535 0.038318582 0.050830893 0.07223485 -0.013560191 0.011247084
0.07173408 -0.08206218 0.070179425 -0.048954375 0.06409671 -0.073853746 0.041281156 -0.084085196
-0.05509892 0.03720694 -0.05478087 -0.08067686 0.0637038 0.04511159 -0.040626947 0.014377058
0.001721412 -0.006118007 -0.050363682 0.006604232 -0.048389133 -0.051844828 -0.06767932 0.07335258

actor.bias f4 [4]
00000000: 9a76 713d 4999 9e3d d106 71bd 78f8 25bd
0.058950998 0.077440806 -0.05884439 -0.04052016

critic.weight f4 [1, 128]
00000000: e6d9 ff3b a395 e9bc e161 303d 52e9 e23c
00000010: c1d7 e7bc 521a e73a d93c 613a 5e0a 043d
00000020: 1921 12bd 6cbf d7bc 9cc9 9ebd e5fd 68bc
00000030: 5a93 163d 2bc6 4c3c 99a4 0fbd 843b 17bd
00000040: b312 cb3c 8d02 e7bc 6aa6 1b3c f40a 65bd
00000050: 7135 eb3d 0170 023d d310 973c d55a b2b9
00000060: 8fb2 be3c 9ef3 c3bc 07fd 3dbd 6df1 aa3c
00000070: 8278 06bd 188a d23a a0b4 e03d b8d1 de3b
00000080: 2525 c6bc 37ff 85bc bf51 78bd 637c 423c
00000090: b4e8 1c3c 7eb1 88bc 87da a13c 41eb 5c3d
000000a0: 4478 7bbc ae22 973c 40eb ddbc a02d 8fbd
000000b0: eb13 d83c a4a7 b2bc 5108 08bd e37f dabb
000000c0: f374 d13c bac5 e23c 116d dabd 623b 10bd
000000d0: 57c6 1fbc 06f9 c23c ede9 cabc e2d9 02bd
000000e0: 9c42 ca3b 4dcd d3bc d37d 513c 34b4 f3bc
000000f0: 664d b6bc 8ded 4a3d 2039 ab3d 780f 86bc
00000100: 1bc1 903c 2213 4bbd 3383 523c e5d2 5abb
00000110: 2779 cfbd f466 033b e55c 0d3c 508d 8ebd
00000120: ca16 1cbd aca5 703d 03c3 1f3b c676 19bc
00000130: 284a 54bc c318 2f3d 9083 aebd 0adb bbbc
00000140: 355f aabd 6211 af3c d1ef bd3b a143 403d
00000150: 9560 0cbd 31c0 0e3a 9cb0 27bb 458f 753d
00000160: fbac b1ba 4cab 54bc e065 67bd a645 38bd
00000170: 1d85 6c3c e649 5ebc e310 6d3d accf 4f3d
00000180: 7ec4 9e3d b7e5 84bd e8f0 573d df1f 93bc
00000190: f141 e03c 5583 aabd a466 aab9 3f53 18bd
000001a0: 91b0 1ebc 00da 70bc 27a1 73ba 008e 643d
000001b0: 2457 9bba 3c18 44bc b30f 7cbc 261c dfbc
000001c0: ad58 25bd 8f8d 9bbc c09b 0ebc e12f ad3c
000001d0: cefb babc 51ed 423c 10a0 5c3b b272 e73b
000001e0: 7ed6 c43c b8a1 803c 5f5f 1abd 999a 21bd
000001f0: b0ba 67bc ac88 71bd 8799 123c 7f57 54bd
0.007807958 -0.028513735 0.043062095 0.027699146 -0.028301122 0.0017631745 0.0008592136 0.03223645
-0.035676096 -0.026336394 -0.07753298 -0.014220689 0.03676162 0.012498419 -0.035069082 -0.036921993
0.02478919 -0.028199458 0.009500125 -0.05591865 0.114848025 0.031845096 0.01844064 -0.0003401848
0.023278503 -0.023919877 -0.046383884 0.020867074 -0.03282977 0.0016062884 0.109719515 0.0067999028
-0.024187634 -0.016357047 -0.060624834 0.011870476 0.009576965 -0.016686197 0.019757522 0.053935293
-0.015348498 0.018449154 -0.027089715 -0.06991124 0.026376685 -0.021808453 -0.033211056 -0.0066680773
0.025568461 0.027682174 -0.10665334 -0.035212882 -0.009751878 0.023800384 -0.024769748 -0.03194607
0.0061724912 -0.025854731 0.0127863465 -0.029749013 -0.022253703 0.049542952 0.08360505 -0.016364798
0.017670205 -0.049578793 0.012848663 -0.0033389863 -0.1013053 0.0020050379 0.008628105 -0.06960547
-0.03810767 0.058751747 0.002437771 -0.009366697 -0.012957133 0.042748224 -0.08521187 -0.022931594
-0.083189406 0.021370593 0.0057964106 0.046939496 -0.034271795 0.0005445509 -0.0025587445 0.059951086
-0.001355558 -0.0129802935 -0.05649364 -0.044988297 0.014436034 -0.013567423 0.057877433 0.05073516
0.07752322 -0.06489127 0.05271998 -0.017959533 0.027375193 -0.08325831 -0.000325014 -0.037188765
-0.009685651 -0.014700413 -0.0009293728 0.055799484 -0.0011851531 -0.011968669 -0.015384602 -0.027235102
-0.04036777 -0.018988399 -0.008704126 0.021140995 -0.022825148 0.011897401 0.003366474 0.0070632333
0.02402806 0.015702114 -0.03768861 -0.039454076 -0.014143631 -0.05896823 0.008947737 -0.051841255
