models/a2c_ep2000.pth (torch, 22585 bytes, 5 tensors)

shared.0.weight f4 [64, 70]
0	0x3e20f49d	0.15718313
1	0xbe76ccf3	-0.2410162
2	0xbd956371	-0.072943576
3	0xbe1feb46	-0.15617093
4	0xbe11aded	-0.14226504
5	0xbe97dc06	-0.29660052
6	0xbe1ea7e1	-0.15493728
7	0x3d998363	0.07495763
8	0xbd93ce2c	-0.072170585
9	0x3daf47aa	0.08558591
10	0x3a5f974c	0.000852932
11	0xbccb2a13	-0.024800336
12	0x3d6f95bc	0.058492407
13	0x3c5194bd	0.01279181
14	0x3dd908dd	0.10597394
15	0x3dd2f25b	0.10300132
16	0x3c3d9fbd	0.011573729
17	0xbdd3c6bd	-0.10340641
18	0xbd59c803	-0.05316926
19	0x3ce96bd4	0.0284938
20	0xbd40fbc5	-0.047115106
21	0x3d737461	0.05943716
22	0xbd9d5b59	-0.07683439
23	0x3d909168	0.07058984
24	0x3dc5c97c	0.09657571
25	0xbd441fd7	-0.047881927
26	0xbde18b7c	-0.11012933
27	0xbc296928	-0.010340013
28	0xbca3aed4	-0.019980825
29	0xbe1c12c2	-0.1524153
30	0xbd576318	-0.052584738
31	0x3e07bef5	0.13256438
32	0xbdc9ffc3	-0.09863236
33	0x3dc6039a	0.09668656
34	0x3c9d82f2	0.019227479
35	0xbe127557	-0.14302574
36	0x3d82a799	0.06379623
37	0x3c18617c	0.009300586
38	0xbb470883	-0.0030370064
39	0xbe086e4d	-0.13323326
40	0xbd8db10c	-0.06918535
41	0xbd9267ae	-0.071486816
42	0xbde2eabd	-0.11079929
43	0xbe091ae4	-0.13389164
44	0x3cdaa942	0.026692037
45	0xbd49673a	-0.04917071
46	0xbda5bb54	-0.08092371
47	0x3e02b285	0.12763412
48	0xbd5bd0ab	-0.0536658
49	0xbdd75ea1	-0.10516096
50	0xbd23179a	-0.03981743
51	0x3dc61725	0.09672383
52	0x3d57509e	0.052567117
53	0xbd1f21fd	-0.038850773
54	0x3d4314d3	0.04762728
55	0xbdf2da0d	-0.11857996
56	0xbe0b725f	-0.13617848
57	0xbdf1389a	-0.11778374
58	0xbdbe01e8	-0.09277707
59	0x3d6b0bee	0.057384424
60	0xbdb5f41c	-0.08884451
61	0x3dfb175c	0.12260315
62	0xbc230f28	-0.009952344
63	0xbd5a6b9e	-0.053325288
64	0x3d91d8c8	0.07121426
65	0x3db03555	0.08603922
66	0xbd125ae6	-0.03573122
67	0xbd6d20d3	-0.05789263
68	0x3cff7c27	0.03118713
69	0x3d93f845	0.07225088
70	0x3dcc861d	0.099865176
71	0xbc1d0aa6	-0.009585058
72	0x3d8e1499	0.069375224
73	0xbdbe00dc	-0.09277508
74	0x3d505835	0.05086537
75	0xbdf27794	-0.11839214
76	0x3dc068e0	0.09395003
77	0x3d5515c9	0.05202273
78	0xbd41dc5a	-0.047329284
79	0x3d6ed5dc	0.05830942
80	0xbddcf119	-0.10788173
81	0x3b80c971	0.0039302637
82	0xbd1826fb	-0.03714655
83	0x3e330eb0	0.17486072
84	0xbd89d8ca	-0.06730802
85	0x3c996751	0.018726023
86	0xbd686d99	-0.056745145
87	0xbd087c42	-0.033321626
88	0xbdc07dcc	-0.09398994
89	0x3ce24cae	0.027624454
90	0xbe284ed4	-0.1643632
91	0xbd4d071b	-0.050055604
92	0x3d53bbeb	0.051692884
93	0x3dbd3a78	0.09239668
94	0xbcf9b625	-0.030482361
95	0xbc826780	-0.015918493
96	0x3c25c481	0.010117651
97	0x3dcb9bf6	0.099418566
98	0x3d7bbe8e	0.061461024
99	0xbcd62b98	-0.026143834
100	0x3e02eb6e	0.12785122
101	0xbcebc9b6	-0.028782707
102	0xbddbd3df	-0.107337706
103	0xbd5457ac	-0.051841423
104	0xbe13b2fd	-0.14423747
105	0x3c14291e	0.009043006
106	0x3d4fe64b	0.050756734
107	0xbda40ac5	-0.080098666
108	0xba8f6d5f	-0.0010942629
109	0x3d4b946f	0.049702104
110	0x3dac53c8	0.084144175
111	0xbdd6ca86	-0.10487847
112	0xbd87435b	-0.06604644
113	0x3e151278	0.14557827
114	0x3d0e78c5	0.034783144
115	0xbdd8fbd5	-0.10594908
116	0xbdd3788f	-0.10325729
117	0xbdc8bf88	-0.09802157
118	0xbe0ace23	-0.13555197
119	0xbd6afcfc	-0.05737017
120	0x3e67491a	0.2258648
121	0xbd9ebd95	-0.07751004
122	0xbdfa2129	-0.12213356
123	0x3df4e556	0.11957805
124	0xbd8e5cee	-0.06951319
125	0xbd4d43d6	-0.05011352
126	0xbc81b553	-0.015833532
127	0x3daff818	0.08592242
128	0x3d48be05	0.04900934
129	0xbdfde390	-0.1239692
130	0xbc7b0274	-0.015320409
131	0x3d618c8d	0.05506568
132	0x3dceded8	0.10101098
133	0x3b3421c3	0.0027485944
134	0xbd8f3319	-0.06992168
135	0x3db1b0f7	0.086763315
136	0xbcf8e91f	-0.030384598
137	0x3cded441	0.02720082
138	0xbdb570cb	-0.08859404
139	0x3c3916d8	0.01129695
140	0x3d4cb571	0.049977724
141	0x3d5573fe	0.052112572
142	0x3c812b31	0.015767666
143	0xbcd113c8	-0.025522128
144	0x3d546ac7	0.051859643
145	0x3d07e1f6	0.033174478
146	0x3d299367	0.04140034
147	0xbdb4f58b	-0.08835896
148	0xbd720c1e	-0.059093587
149	0x3d927541	0.07151271
150	0x3d065491	0.032795493
151	0xbe04ed3f	-0.12981127
152	0x3c579d55	0.0131600695
153	0xbdd78498	-0.10523337
154	0xbde89438	-0.113563955
155	0xbdb2c45e	-0.0872886
156	0x3d6e3c0f	0.058162745
157	0x3d76ecbe	0.06028437
158	0x3cdbaed0	0.026816756
159	0xbd753fec	-0.059875414
160	0xbda49656	-0.08036487
161	0xbe01b35b	-0.12666075
162	0xbc9321c1	-0.017960431
163	0xbdd8c6f0	-0.10584819
164	0xbc572fc1	-0.013133944
165	0x3da8fd0d	0.082513906
166	0x3db2be31	0.087276824
167	0xbccd6fa1	-0.025077643
168	0x3d806837	0.062698774
169	0xbcb22c1a	-0.021749545
170	0x3de5124c	0.111851305
171	0xbde18495	-0.11011616
172	0xbd13c168	-0.03607312
173	0xbcb67c9b	-0.022276213
174	0x3d683703	0.05669309
175	0xbdd151ee	-0.10220705
176	0xbd69460f	-0.05695158
177	0x3aaec75e	0.0013334563
178	0xbd820183	-0.063479446
179	0x3dad18e6	0.084520146
180	0xbd9175fd	-0.071025826
181	0x3da401dd	0.08008168
182	0xbdbb24b2	-0.091378585
183	0xbd1d5eec	-0.038420603
184	0xbb899b7e	-0.0041994443
185	0xbc7cb362	-0.015423628
186	0xbcfa60bd	-0.030563707
187	0xbd2ae3a1	-0.04172099
188	0xbceca04e	-0.028885033
189	0xbd81508f	-0.063141935
190	0xbd82af31	-0.06381071
191	0xbdb81853	-0.089890145
192	0x3de428b4	0.11140576
193	0xbc62bb55	-0.013838609
194	0xbca65b5a	-0.020307232
195	0x3d008a02	0.031381615
196	0x3e0130c9	0.12616266
197	0xbd800e63	-0.06252744
198	0xbc1312dd	-0.008976665
199	0xbd110ebd	-0.035414446
200	0xbd3f4215	-0.04669388
201	0xbd8ef23b	-0.069797955
202	0xbddcb147	-0.107760005
203	0x3decba10	0.11558926
204	0xbdfa2587	-0.12214189
205	0x3c934ce5	0.017981002
206	0x3c8cc5c5	0.017184148
207	0xbd969886	-0.0735331
208	0x3c2d3963	0.010572764
209	0x3c68b6f0	0.014203772
210	0xbd5b9180	-0.053605556
211	0xbe348584	-0.17629057
212	0x3d292e11	0.041303698
213	0xbd6eddbd	-0.058316935
214	0xbdaf0ad3	-0.085469864
215	0xbe785d08	-0.24254239
216	0xbe1b4bbe	-0.15165612
217	0x3d94aefa	0.07259937
218	0x3d8cee4c	0.06881389
219	0x3cbde77c	0.02318167
220	0x3dd1eabf	0.102498524
221	0xbd294cb7	-0.041332927
222	0x3d8d534d	0.06900654
223	0xbcaec69e	-0.021334942
224	0xbd348a02	-0.044076927
225	0xbd3135dd	-0.04326426
226	0x3d3475d8	0.044057697
227	0x3b841832	0.0040312046
228	0x3d1d0c61	0.038341884
229	0xbc51495b	-0.012773837
230	0x3d4961ce	0.04916554
231	0xbd92af59	-0.07162351
232	0xbd513960	-0.051080108
233	0xbdac426a	-0.08411105
234	0x3d16c653	0.03681023
235	0xbb6ed6db	-0.0036443982
236	0x3c3ea714	0.011636514
237	0xbd10a1ea	-0.035310663
238	0xbd8048af	-0.06263863
239	0xbd9fa918	-0.07795924
240	0x3d5547b6	0.052070342
241	0x3c7c0218	0.015381359
242	0xbda19b77	-0.07890981
243	0x3d98995b	0.07451125
244	0x3d563e7c	0.052305683
245	0x3dac30c1	0.084077366
246	0xbd569a54	-0.052393273
247	0x3d0a678d	0.03379016
248	0xbd8f6f9e	-0.07003711
249	0xbdce783e	-0.10081528
250	0xbc5bb4fd	-0.01340985
251	0x3cd1f1fa	0.025628079
252	0x3dad6571	0.08466614
253	0x3d81b417	0.063331775
254	0xbd4aec01	-0.049541477
255	0x3d97dcc2	0.07415153

shared.0.bias f4 [64]
0	0x3e241d39	0.16026773
1	0xbd9379a9	-0.07200939
2	0xbda04179	-0.07824988
3	0xbd8c6c2c	-0.0685657
4	0xbd29c061	-0.041443232
5	0xbcd6919a	-0.026192475
6	0xbde569e0	-0.11201835
7	0x3d1c918d	0.038224746
8	0x3d448c6e	0.047985487
9	0x3d39a992	0.04532773
10	0x3db05723	0.0861037
11	0x3e38d58a	0.18050209
12	0x3cedb5be	0.029017325
13	0xbd75cfbe	-0.06001257
14	0xbdd15cb0	-0.10222757
15	0xbdc470c6	-0.09591822
16	0x3dd3b620	0.10337472
17	0x3df3c004	0.119018584
18	0x3e3a18c2	0.18173507
19	0xbd81e71f	-0.06342911
20	0x3e482b83	0.19547848
21	0xbdb7216c	-0.089419216
22	0x3deee945	0.116655864
23	0xbdf4758b	-0.11936482
24	0xbb9e8dba	-0.0048386725
25	0xbdbd447b	-0.09241577
26	0xbddafba3	-0.10692527
27	0x3e22e2b5	0.15906794
28	0x3d97852d	0.07398448
29	0xbca43ee0	-0.020049512
30	0x3d293aae	0.041315727
31	0xbd86aade	-0.06575559
32	0x3d4cfcaf	0.050045665
33	0x3d75eea7	0.06004205
34	0xbd98e98b	-0.0746642
35	0xbdb3c5a7	-0.087779336
36	0x3deaecf4	0.114709765
37	0x3d9255ae	0.07145248
38	0x3d9b701c	0.075897425
39	0x3d9a48f2	0.075334445
40	0xbc4b95b7	-0.0124258315
41	0xbdc824a2	-0.09772612
42	0xbd1e827c	-0.03869866
43	0x3c966b7e	0.018361803
44	0xbde47619	-0.11155338
45	0x3e197793	0.1498702
46	0x3dee10b1	0.116242774
47	0x3e1ea53e	0.15492722
48	0xbbcf8dea	-0.006334056
49	0xba91d678	-0.0011126539
50	0x3ce386ce	0.02777424
51	0xbd1d4067	-0.038391497
52	0x3ca25f72	0.019820902
53	0x3e0bbec1	0.13646986
54	0x3e0f5301	0.13996507
55	0x3dcfa7ec	0.101394504
56	0xbde57bc4	-0.11205247
57	0x3db92019	0.09039325
58	0x3e3e2e4d	0.1857235
59	0x3e2c5c32	0.16832045
60	0x3d8a7836	0.0676121
61	0xbe1374a3	-0.14399962
62	0x3e302c66	0.17204437
63	0x3e02c2bc	0.12769598

actor.weight f4 [4, 64]
0	0x3c109bf0	0.008826241
1	0x3ca1c7b0	0.019748539
2	0xbd4c7cac	-0.049923584
3	0x3dc0caa8	0.094136536
4	0xbd8696e2	-0.06571747
5	0xbbfac1e0	-0.007652506
6	0xbc059e80	-0.008155465
7	0xbd8b27bc	-0.06794688
8	0xbcfe4f20	-0.03104359
9	0xbd2034d8	-0.039112896
10	0x3cf6b4e8	0.03011556
11	0xbddfebf4	-0.10933676
12	0x3de09fc4	0.10967973
13	0x3d60b784	0.054862514
14	0x393d8400	0.00018073618
15	0xbd1cc494	-0.03827341
16	0x3dd73032	0.105072394
17	0x3d2f289c	0.042763337
18	0x3cf5ce20	0.030005515
19	0xbd520c64	-0.051281348
20	0x3d87d0ac	0.06631598
21	0xbde12308	-0.1099301
22	0x3ca80228	0.02050884
23	0x3dfde850	0.12397826
24	0x3d1528e0	0.036415935
25	0x3c4a7b50	0.012358502
26	0xbdfe8314	-0.12427345
27	0xbda1377a	-0.078719094
28	0x3d977dd4	0.07397047
29	0xbd6057fc	-0.05477141
30	0xbda3a80e	-0.07991038
31	0xbd18a540	-0.03726697
32	0x3d2b35a0	0.041799188
33	0x3daa6784	0.08320525
34	0x3d9d402a	0.07678254
35	0xbde4a81a	-0.11164875
36	0xbdf05752	-0.11735405
37	0x3ddfae8a	0.109219626
38	0xbd87a592	-0.06623377
39	0x3c3e2f10	0.0116079
40	0x3d4d326c	0.050096914
41	0x3bfdd300	0.0077461004
42	0x3dadaf00	0.08480644
43	0xbddaa52c	-0.10676035
44	0x3d1124a8	0.03543535
45	0xbd88f138	-0.06686634
46	0x3d886834	0.066605
47	0x3d5c7d80	0.053830624
48	0x3d04383c	0.03228019
49	0xbdcf697a	-0.1012754
50	0xbd73ac00	-0.059490204
51	0x3da7175c	0.08158752
52	0x3db32754	0.087477356
53	0x3d7e82fc	0.062136635
54	0xbdd05420	-0.101722956
55	0xbdcfdb08	-0.10149199
56	0xbd546500	-0.051854134
57	0xbc5069f0	-0.01272057
58	0x3d0b9b04	0.03408338
59	0x3ddd89aa	0.10817273
60	0x3dfe59f4	0.12419501
61	0x3d311974	0.043237165
62	0x3c4992a0	0.0123030245
63	0x3d8a0e4e	0.0674101
64	0xbda6ddb6	-0.08147757
65	0x3de97150	0.11398566
66	0xbdd34d86	-0.10317521
67	0xbd997a22	-0.07493998
68	0xbd746d30	-0.05967444
69	0xbdfc66fc	-0.1232433
70	0xbc578850	-0.013155058
71	0x3db7b266	0.08969574
72	0x3d837754	0.064192444
73	0x3c7a96c0	0.015294731
74	0x3dce58be	0.1007552
75	0x3dfb52d4	0.122716576
76	0x3cef0830	0.029178709
77	0x3d87d6ca	0.06632765
78	0x3d6a5cd4	0.057217434
79	0xbd22712c	-0.03965871
80	0x3c340100	0.010986567
81	0x3c999b68	0.018750861
82	0x3dca5e1a	0.0988123
83	0xbdfc3cb2	-0.12316264
84	0xbd387f90	-0.045043528
85	0xbd8ff142	-0.07028438
86	0x3d12c1c4	0.03582932
87	0xbdc77f5a	-0.09741087
88	0xbbff9de0	-0.0078008026
89	0xbdde9ee4	-0.1087015
90	0x3d220a2c	0.039560482
91	0x3df70bac	0.12062773
92	0xbd9cebc0	-0.07662153
93	0xbd8aff32	-0.06786956
94	0xbdf07f20	-0.11742997
95	0xbda5bc0c	-0.08092508
96	0x3d2a9a6c	0.041651174
97	0x3c421eb0	0.011848137
98	0xbdfc2178	-0.12311071
99	0xbcdfc6b0	-0.027316421
100	0xbdc7bdb2	-0.097529784
101	0x3db82428	0.08991271
102	0xbced42e0	-0.028962553
103	0xbca824a0	-0.020525277
104	0xbc576c60	-0.013148397
105	0xbd52d534	-0.051472858
106	0xbdee3f2c	-0.11633143
107	0xbceeb278	-0.029137835
108	0xbd178808	-0.036994964
109	0x3d0b9a14	0.034082487
110	0xbd838bb8	-0.064231336
111	0xbdfc47e0	-0.123183966
112	0xba892280	-0.0010462552
113	0x3def20d6	0.11676185
114	0xbd5c8db4	-0.053846076
115	0xbdbe421c	-0.09289953
116	0xbd915c34	-0.070976645
117	0x3d4345d4	0.047674015
118	0x3d232118	0.039826483
119	0xbd4e29b8	-0.050332755
120	0xbc40b420	-0.011761695
121	0x3dcaddc6	0.09905581
122	0xbdc0b192	-0.09408869
123	0x3d4bfb3c	0.049800143
124	0x3db30e26	0.08742933
125	0x3cd155b0	0.025553554
126	0x3dab00e8	0.08349782
127	0xbd1d8134	-0.038453296
128	0xbddcb876	-0.10777371
129	0xbd7459d4	-0.05965598
130	0x3da0d21f	0.078525774
131	0xbd2bdc8d	-0.04195838
132	0x3dae92a2	0.08524062
133	0xbd8fb4b8	-0.07016891
134	0x3dc9b4cb	0.09848937
135	0x3d091d08	0.033474952
136	0xbde618aa	-0.11235173
137	0x3d48264d	0.04886465
138	0xbd576eed	-0.05259602
139	0x3d2980c8	0.04138258
140	0xbda861d9	-0.08221788
141	0x3e0830f2	0.13299921
142	0x3d493c33	0.049129676
143	0x3be2d619	0.006922495
144	0xbd683ab0	-0.056696594
145	0x3c2b2458	0.010445677
146	0xbdcb9504	-0.09940532
147	0xbd983b7a	-0.07433219
148	0xbdc4ed70	-0.096156
149	0x3c91d19a	0.017800141
150	0xbdf10097	-0.11767691
151	0x3d8084a8	0.06275302
152	0xbd950e3e	-0.07278107
153	0x3db27e16	0.08715455
154	0xbd91f5e1	-0.07126976
155	0xbd7b29e2	-0.06131924
156	0xbc995d2c	-0.018721186
157	0xbc175d15	-0.009238501
158	0xbde018fa	-0.10942264
159	0x3d9db0d7	0.07699745
160	0xbdb1f11a	-0.086885646
161	0xbd72d5be	-0.05928587
162	0x3b8ec654	0.0043571386
163	0xbd973ed0	-0.073850274
164	0xbdcaa132	-0.09894027
165	0xbc1dca8b	-0.00963081
166	0xbddb1ca9	-0.10698826
167	0xbe194d4e	-0.14970896
168	0xbde8ed0f	-0.1137334
169	0x3e0421e2	0.1290355
170	0xbdfc4db7	-0.123195104
171	0x3d4e19d3	0.050317597
172	0xba893671	-0.0010468495
173	0xbdf3ae98	-0.118985355
174	0xbd0e1fb9	-0.03469822
175	0xbe074240	-0.13208866
176	0xbdd31165	-0.10306052
177	0xbdd0c775	-0.101942934
178	0xbc18f78f	-0.009336366
179	0xbdafeceb	-0.085901104
180	0x3da080f9	0.078370996
181	0xbd634d47	-0.05549362
182	0xbdd3da30	-0.1034435
183	0xbcbcac09	-0.023031252
184	0x3d6a5dba	0.05721829
185	0xbd018bef	-0.03162759
186	0x3d5519ad	0.05202644
187	0xbdbd46d5	-0.09242026
188	0xbd6b17c7	-0.057395723
189	0x3d8ac166	0.06775169
190	0xbdb58f38	-0.088652074
191	0xbdc677fc	-0.09690854
192	0xbd2b0099	-0.041748617
193	0x3c7a07ea	0.015260676
194	0xbd80bda4	-0.06286171
195	0x3df8cb7b	0.12148186
196	0xbde2710f	-0.110567205
197	0x3dc9bf5a	0.098509505
198	0x3db5e00f	0.088806264
199	0xbd8d7ae2	-0.06908204
200	0xbdcd5a5f	-0.100270025
201	0xbdf3dba3	-0.11907127
202	0xbdea6ad5	-0.11446158
203	0xbe131112	-0.1436198
204	0x3d8d3a69	0.068959065
205	0xbdb33251	-0.087498315
206	0xbe0f5ca7	-0.14000188
207	0xbd1ea1cb	-0.038728517
208	0xbe1aff3d	-0.15136428
209	0xbd1af7f3	-0.03783412
210	0xbdad31b4	-0.08456746
211	0x3d81aea3	0.063321374
212	0xbe124722	-0.14284948
213	0xbca7e9d9	-0.02049725
214	0x3b974137	0.0046159285
215	0xbcbb754e	-0.022883084
216	0xbdef2db5	-0.1167864
217	0x3dcf76b6	0.10130064
218	0x3cec4440	0.028841138
219	0xbe2a963a	-0.1665887
220	0x3beeeb96	0.0072912676
221	0xbe22b728	-0.15890181
222	0xbccbca90	-0.024876863
223	0xbcf12f81	-0.029441597
224	0x3dac9dbf	0.08428525
225	0xbde25b43	-0.11052563
226	0xbdfd6c8e	-0.12374221
227	0xbccee68d	-0.02525642
228	0x3db3e5e7	0.08784085
229	0xbd913b26	-0.0709136
230	0xbd85f944	-0.06541684
231	0xbe03907e	-0.12848088
232	0xbde853ae	-0.11344086
233	0xbd92ea42	-0.071735874
234	0xbdbe114b	-0.09280642
235	0xbc1ad894	-0.00945105
236	0x3d0f09de	0.03492152
237	0xbe450aea	-0.19242445
238	0xbcc24a20	-0.023716986
239	0x3d223e3f	0.039610144
240	0xbd18719b	-0.037217718
241	0x3d7db510	0.061940253
242	0xbdcbccc4	-0.09951165
243	0xbdb1486e	-0.08656393
244	0x3cab3836	0.020900827
245	0xbd6afbc5	-0.057369012
246	0x3d2cbf90	0.042174876
247	0xbe196afb	-0.14982216
248	0x3d85f255	0.06540362
249	0xbd01ab98	-0.031657785
250	0xbd40690b	-0.046975177
251	0xbd94735b	-0.07248565
252	0xbde596d5	-0.112104096
253	0x3d5efdd5	0.05444129
254	0xbd107487	-0.03526738
255	0xbc153334	-0.009106446

actor.bias f4 [4]
0	0x3daf86ea	0.08570655
1	0x3dc575d2	0.09641613
2	0xbca17fd1	-0.019714268
3	0xbd829ba8	-0.06377345

critic.weight f4 [1, 64]
0	0x3a1e33ee	0.000603496
1	0xbcecae3c	-0.028891675
2	0xbdc21051	-0.09475768
3	0x3db4bc18	0.088249385
4	0x3d3720c0	0.044708967
5	0x3d445943	0.04793669
6	0x3df13baf	0.11778962
7	0xbd75fc2f	-0.060054954
8	0x3dda3757	0.106550865
9	0xbd23f9d2	-0.04003317
10	0xbae654e5	-0.0017572908
11	0x3d8ef582	0.06980421
12	0x3ddb181e	0.10697959
13	0x3d1a3161	0.037644748
14	0xbdbad422	-0.091224924
15	0xbdcbef55	-0.09957758
16	0x3db6ac89	0.08919627
17	0x3e028c32	0.12748793
18	0xbd8b98c2	-0.068162456
19	0x3cc910f4	0.024544217
20	0xbc311890	-0.010809079
21	0xbc83b64a	-0.016078133
22	0xbc6ff141	-0.014644922
23	0xbd6dceb3	-0.05805845
24	0xbd7a016c	-0.061036512
25	0x3cbb73e4	0.02288241
26	0xbd9c34e1	-0.07627273
27	0xbce64ff5	-0.028114298
28	0x3db15791	0.0865928
29	0x3d6d8648	0.05798939
30	0x3d1aee1a	0.037824728
31	0xbd841b8c	-0.06450567
32	0xbcc681f4	-0.024231888
33	0xbc8eb78f	-0.017421512
34	0xbd8dd405	-0.06925205
35	0xbda45e8c	-0.08025846
36	0x3dbc894a	0.09205873
37	0xbdcd6cf3	-0.10030546
38	0x3e0d1925	0.13779123
39	0x3dcd20fa	0.100160554
40	0xbc275696	-0.010213515
41	0x3d29dbf6	0.041469537
42	0x3bcb44bc	0.006203262
43	0x3df8db24	0.12151173
44	0x3da4aa9a	0.08040352
45	0x3e0eac62	0.13932946
46	0x3cbc5a44	0.02299226
47	0x3d685656	0.05672296
48	0x3da44d67	0.08022576
49	0x3c61300f	0.013744368
50	0xba63adf6	-0.0008685285
51	0x3be5a75a	0.0070084753
52	0x3d43000c	0.047607467
53	0x3db8e7ad	0.09028564
54	0x3c486053	0.012229997
55	0x3dc97636	0.09837
56	0x3d16f795	0.036857206
57	0x3dc841be	0.09778164
58	0x3e1c6393	0.1527236
59	0xbc285793	-0.010274786
60	0xbd945350	-0.07242453
61	0xbd49fd3f	-0.04931378
62	0x3e65f6ab	0.22457378
63	0x3c2b72e9	0.010464408
