models/a2c_ep6000.pth (torch, 42041 bytes, 5 tensors)

shared.0.weight f4 [128, 70]
00000000: 35e3 01bd 337f 863f 6a4a c0bd dfb7 9c3f
00000010: baf7 003e 781a d83f 192f 3ab8 b322 90bd
00000020: 2bd3 11bd d864 3a3e 719f 09be 8223 5ebe
00000030: 9eb6 c43d fcba 873d 34d9 19bd cee3 32bc
00000040: 3108 7ebd 74ac 0abc 0526 0bbe ad37 e23d
00000050: f29b 83bd d114 2cbd e5fb 383e 3a5f c03d
00000060: 9054 94bd 0a68 45be 4fa4 983d d1ac 1dbd
00000070: f19b 44bd 1316 72bd e237 273d 1dcf d6bd
00000080: 151e 06be 01b4 6b3b e2a5 1c3e 28c7 75be
00000090: 3d91 883c f87f 0dbe 06ab 1abe 0795 0fbe
000000a0: 49d8 6b3d 9a67 4b3b 056c 1dbe f37d 4bbd
000000b0: 4baa ef3d 65ae 0fbe 373a 57be 773e aebc
000000c0: 1a30 663d 2a6b 6fbe 208d b8bd 8a4d b23d
000000d0: 7083 1c3e 20e9 8fbe d500 903b 7777 dfbd
000000e0: d903 78be 350f 96bd c79d 07bd cbe6 ae3e
000000f0: a37b 70be 768a 38bd 4788 04bd 0f47 7ebe
00000100: 744f 00bd ccb8 ffbd 89a4 a43e 2bdf d1bd
00000110: de04 aebd 2000 a2bc dd8c 59bd 5d47 87bd
00000120: 869c 57be 4b4d dd3d 8f9f b73d 3439 f83d
00000130: 8412 99bc 6486 e8bd 7a69 953e 7f96 9f3e
00000140: 1a8a 81bd ea60 26be a31d 97be caa9 fcbd
00000150: 0b7b 6fbd 8fe7 bb3d 9fe0 0a3e 2bb9 f43d
00000160: e7e8 e8bc ed7d da3d 169b e83e 54ee 8fbe
00000170: d507 0e3e a864 653e dd92 92bd bd32 37be
00000180: 511a 4abe 4bd3 7cbe c601 99be e058 943e
00000190: d044 063e 3da8 d43c aa3e 06be 700f c7bc
000001a0: 2c75 48be 08c9 ffbd af15 82bd ba63 a03e
000001b0: 5f04 1b3e eeca 8dbd edc2 a53a e650 81bd
000001c0: 7318 55be 9868 61bd a57a 623d 7ef3 af3d
000001d0: 601b 2fbe c44c 8b3d da71 e83c 395e 9abd
000001e0: 49ee 6b3d 544d 273e b479 873b bab9 41be
000001f0: 2539 a93d 2d55 39be 688f f53d d665 873d
00000200: ec4f 3dbe f6a9 bb3d e958 97bd ab40 d03d
00000210: fb78 333e 3ee8 f6bd 5085 113e e2ef 313e
00000220: cd4c b43e 03b0 58be a268 8d3e 82dc 55bd
00000230: b9d6 8bbc 7f12 bfbd 5ead 93bd 37fa 0abe
00000240: c268 ab3d efd7 933d b2b2 b83c 9e91 a1bc
00000250: 220b bf3d db98 e3bc 52c7 f63d 1e64 3fbb
00000260: 5fca a4bb 2375 283c f9ab fe3c 1b45 60bd
00000270: 543b b33d a20c 3fbd 94d3 d7bd a022 d53c
00000280: 70cc a8bd 4b0a 0abd 9d99 9abb 7c57 373d
00000290: 7453 5f3d 73ab a03b 7bde 8ebd c91d 9a3c
000002a0: 6864 4bbd aeb2 36bd 8320 913d 3964 01be
000002b0: 4b6d c23c d80f 793d 982c 5bbd a880 d5bd
000002c0: d1fc fdbd b4a4 173e c94d 82bd dc47 06be
000002d0: c76e b23b 7c5c cabc ff1b a6bd d664 90bc
000002e0: 7cef 73bd f183 e63d b864 303d fc7c 8bbc
000002f0: 51d1 b0bd 7645 1bbd 6e8b 0bbd f24d 123e
00000300: 2d39 9d3d 9b29 71bd 115e ef3d 9fb7 a03b
00000310: 37ea 25be 22b1 abbd a834 103e 2818 6f3e
00000320: 7163 53be 5f5a aebc cae7 be3d 793f 01be
00000330: 0aba 8bbd 4650 773d e850 863e be3c b7bd
00000340: 9b83 3e3c f5d7 fabd 4b36 eebd ca59 a63e
00000350: e3d4 9cbe d403 3c3f 5f5a ac3e 3881 5f3f
00000360: 7d5f 943e 95f0 a4be 93eb 8f3c 6c2c 883e
00000370: 4a3f 01bf 0cdb 45be 0665 82be 0265 483d
00000380: 98dc 50be 0dd3 6dbd 1307 d03e 83ca e73c
00000390: 6966 23be a05b 2c3d 3799 29bd 1f95 7bbe
000003a0: a07c 373d 7293 d23e f122 6abe 3264 ddbd
000003b0: 031b 11be 3ff6 febc f795 6ebe ff1b 46bc
000003c0: be29 363e bea6 d8bd 55ec 94be 1fcb 293d
000003d0: 156d 11be 70f0 1abe 888e 93be ff7b 7e3e
000003e0: 7aed c03d 71d2 95be 436c a23e ab25 91be
000003f0: 234a cb3c d9a5 13be ce2a 863e 34d1 5b3d
-0.031710822 1.0507568 -0.09389193 1.2243613 0.125945 1.6883078 -4.438972e-05 -0.07037868
-0.035601776 0.18202531 -0.13439728 -0.21693233 0.09605144 0.06627461 -0.037560657 -0.010918571
-0.06201953 -0.008463968 -0.13588722 0.110457756 -0.064262286 -0.04201204 0.1806484 0.09393163
-0.072426915 -0.19277969 0.074532144 -0.03849489 -0.04800028 -0.059103083 0.04082478 -0.104887225
-0.13097413 0.0035965445 0.15297654 -0.24001753 0.016670818 -0.13818347 -0.15104303 -0.14021693
0.057579312 0.0031037093 -0.15373237 -0.04968066 0.11702403 -0.1403137 -0.21018301 -0.02127002
0.056198217 -0.23380724 -0.090112925 0.08706196 0.15284514 -0.28107548 0.0043946304 -0.10911458
-0.24220218 -0.07327119 -0.033109453 0.34160456 -0.23484664 -0.04505392 -0.032356527 -0.24831794
-0.031325772 -0.12486419 0.3215678 -0.10247644 -0.08497022 -0.01977545 -0.053112853 -0.06605408
-0.21055803 0.10805758 0.0896598 0.12120286 -0.018685587 -0.11353758 0.29182035 0.31169507
-0.06325169 -0.16247907 -0.295148 -0.12337072 -0.058466952 0.09175026 0.13562249 0.119493805
-0.028431369 0.1066855 0.4543082 -0.28111517 0.13870175 0.22401679 -0.07156918 -0.17890449
-0.19736601 -0.24689977 -0.29884166 0.28974056 0.13112187 0.025959129 -0.13109842 -0.024299353
-0.19575948 -0.124895155 -0.06351792 0.31326085 0.15138386 -0.069234714 0.0012646593 -0.06314258
-0.20810108 -0.05503139 0.055292744 0.08591364 -0.17100286 0.06801751 0.028374601 -0.07537503
0.057600293 0.16338092 0.004134381 -0.18918505 0.082628526 -0.18098898 0.11990243 0.066112205
-0.18487519 0.09163277 -0.07390005 0.101685844 0.17526619 -0.120560154 0.14211011 0.17376664
0.35214844 -0.21160893 0.2761889 -0.052212246 -0.017070161 -0.093297 -0.072108015 -0.13572012
0.0836959 0.072189204 0.022546146 -0.019722756 0.09328295 -0.027782848 0.12049736 -0.0029203962
-0.0050290073 0.010281834 0.031087862 -0.054753404 0.0875155 -0.046642907 -0.10538402 0.026017487
-0.08242118 -0.033701222 -0.004718019 0.044761166 0.054522946 0.004903251 -0.069760285 0.01881303
-0.0496563 -0.044603996 0.07086279 -0.12635888 0.023733756 0.060806125 -0.053509325 -0.1042493
-0.124017365 0.14808923 -0.063624926 -0.1311335 0.0054453346 -0.024702303 -0.081108086 -0.017626207
-0.059554562 0.112556346 0.043064803 -0.01702737 -0.08633674 -0.03790804 -0.034068517 0.14287546
0.07676921 -0.05887757 0.116878636 0.004904702 -0.16202627 -0.08383395 0.14082587 0.23349059
-0.20643403 -0.021283327 0.09321554 -0.12621869 -0.068225935 0.06037929 0.26233602 -0.089471325
0.011628057 -0.12248222 -0.11631449 0.3249038 -0.3063117 0.7344334 0.33662698 0.8730655
0.28979102 -0.322148 0.017568385 0.2659639 -0.50487196 -0.19321841 -0.254677 0.048924454
-0.2039665 -0.0580626 0.40630397 0.028294807 -0.15957035 0.042079568 -0.041405883 -0.24568604
0.044796586 0.41128117 -0.22864892 -0.10810126 -0.1417046 -0.031123279 -0.23299395 -0.012091636
0.17789361 -0.105786785 -0.29086557 0.041453477 -0.14201768 -0.15130782 -0.2881968 0.24851988
0.09420295 -0.29262117 0.31723222 -0.2834905 0.024815625 -0.14418735 0.26204532 0.05366631

shared.0.bias f4 [128]
00000000: 592a 13bd cbf3 60bd f3cb 08be 0f39 17be
00000010: 83f4 a2bd 9093 2fbd 31ab 00be f458 00be
00000020: 2a65 fcbd 8205 4fbd f302 13be 6aa1 49be
00000030: b339 6cbe 1da7 c2bc da47 10be 04b8 c8bc
00000040: 779f 65be 4a7c bebd 346d 4abd ad87 afbd
00000050: b67d efbd d6db bcbd f983 a2bd 8386 d1bd
00000060: 3180 dbbd a20c 41bc 1c07 aabe 68d3 97be
00000070: 760b 5ebe 304b 8bbd 51be 4bbe c830 72bc
00000080: a35e 06be f58b 88bc 3fbd 53be 11a7 3dbe
00000090: 01e2 c2bd 64b7 023e b02d c6bd a128 3fbe
000000a0: 59d4 cdbd f292 f03c 0da7 b2bc dfec bdbe
000000b0: b530 dfbd 878f 1fbe 9e6d 4ebe e5dc 19be
000000c0: df1f e3bb 78a4 db3c 9e48 ffb9 8512 2dbd
000000d0: 2c76 12be 1995 bebd c4c3 abbd dbec 71bb
000000e0: 8728 b5bc b5ce 49bd 85aa 86be 7de7 00be
000000f0: dc73 08bb 3b4d b0bd df01 70b9 2c2a 0ebe
00000100: dca5 41be a55e 1bbe ee95 81bd c34c 593d
00000110: 1bdc 16be 3952 0f3c e748 19be fe00 7fbe
00000120: 3912 26be 253c a0bc 7110 0fbe 0748 72be
00000130: 2996 cbbd 0d34 c73c 7063 adbd 7359 1dbe
00000140: 1c59 31be fefe 85bd 8936 633c 3c9b 493d
00000150: ecce debb 4e8c eebd 3714 1abe 2d51 35be
00000160: e09f bb3c f09a 8b3d a7ef 97bd 1e91 66be
00000170: c2b8 10be 2a45 04be 8ae1 dfbd 9a33 90bd
00000180: dcf4 fbbd 9911 94bd 57dd 78bd cf33 1ebe
00000190: 777b edbd 2575 043c 44f2 123d 66b7 57bd
000001a0: 7f13 f7bd 2a3d 95be c65d b0bd 6317 0abe
000001b0: e5eb f5bc 6548 65be c67b 43bd b430 40be
000001c0: 4d0b a0bd 47d3 38be 5036 7dbd a825 6abe
000001d0: fb3e 3abe 1e8d 88be 0f4e 26be f17c 60be
000001e0: 7754 6abd 3cf4 b3bd 9efb 70bd 6952 1ebe
000001f0: ff8d 8bbd 08c4 6dbe 4670 26be 49c8 72bd
-0.035929058 -0.05492 -0.1335905 -0.1476786 -0.07956793 -0.042865336 -0.12565304 -0.12533933
-0.12323983 -0.050542362 -0.14356594 -0.19690481 -0.23068886 -0.023761326 -0.14089909 -0.024501808
-0.22424112 -0.0930105 -0.04942055 -0.085708 -0.11693899 -0.09221618 -0.07935328 -0.10230734
-0.1071781 -0.011782797 -0.3320855 -0.29653478 -0.2168406 -0.0680145 -0.19896819 -0.014782138
-0.13122039 -0.0166683 -0.2067766 -0.18520762 -0.09515763 0.1276527 -0.09676683 -0.18667842
-0.10050268 0.029366944 -0.021808172 -0.3709478 -0.10897962 -0.15582095 -0.20159003 -0.15025671
-0.0069312896 0.026811823 -0.00048691494 -0.04225399 -0.14302891 -0.09305782 -0.08386949 -0.0036914859
-0.022114052 -0.049269397 -0.2630197 -0.12588306 -0.002082101 -0.086084805 -0.0002288888 -0.13883275
-0.18910927 -0.15172823 -0.06327425 0.05305172 -0.14732401 0.008747631 -0.14969216 -0.24902722
-0.16217889 -0.01955993 -0.13971116 -0.23660289 -0.0994075 0.024316812 -0.08466232 -0.15366153
-0.17319149 -0.065427765 0.013867983 0.04922031 -0.0067995694 -0.11647855 -0.15046774 -0.17706747
0.022903383 0.06816661 -0.07418757 -0.22516295 -0.1413298 -0.12917009 -0.1093169 -0.07041092
-0.123025626 -0.07229919 -0.06075796 -0.15449451 -0.11595815 0.00808457 0.035875574 -0.052665137
-0.120642655 -0.29148227 -0.08611636 -0.13485484 -0.03001971 -0.22390898 -0.04772546 -0.18768579
-0.078146555 -0.18049346 -0.061819375 -0.22865927 -0.18188088 -0.26670164 -0.16240714 -0.21922661
-0.05720946 -0.087868184 -0.05883371 -0.15461124 -0.06814193 -0.23219311 -0.16253766 -0.059273038

actor.weight f4 [4, 128]
00000000: 66ea 4c3d 57d0 b4bd 9abe 47bd 172b a43d
00000010: 8e19 0b3d 5e1f 0f3d 5488 37bd f8b6 2dbc
00000020: b8bc 81bc f806 5e3c 62a6 e9bc 3d32 26bd
00000030: ad4a 9f3d 6fca 883d 1103 3abd 30a4 23bc
00000040: e211 5c3d 8ae0 563d 68dd 99bd e520 98bd
00000050: 1a08 afbd 1f48 64bd a0b4 3bbb a9ae a83d
00000060: e36a a73d ba66 1a3d df61 a13d 468b 673d
00000070: 603d 553b a2f0 413d 456e 73bd 1d99 823d
00000080: 0dc6 863d efcc 92bd cf16 963d f223 6c3d
00000090: e439 143d 5996 42bd e80c cd3c 5a6d 763d
000000a0: bc21 893c c286 343d 78f8 263c 8686 123d
000000b0: cac1 5a3d d057 97bd 1e6d 173d 68c7 ff3c
000000c0: 771f 903d 603d 3b3b a851 afbd 0e38 083d
000000d0: 9864 453c a811 9dbc 6cdf 8bbc 80bb 7cbb
000000e0: 82f7 763d 46d3 203d ae0c 53bd 16d1 4e3d
000000f0: ed0d 8ebd 1033 75bc 13f7 b33d 58eb a23c
00000100: 641b 94bc 90ca edbb 405e 29bb 8769 3dbd
00000110: 7641 273d 0058 e13c 53b5 ae3d 3204 683d
00000120: c3a3 953d 2321 a03d 9007 063c ace8 b73c
00000130: 2095 abbb bb52 a23d 5442 e4bc 00a6 0ebb
00000140: 8e5f 93bd 683e 033c 5074 023c a2c4 443d
00000150: 8af6 58bd bacb 1e3d cbd8 aebd b9d7 ae3d
00000160: 78bb 153c d929 42bd 80bc b33b 9641 80bd
00000170: d0ae a83c 3852 6ebd f688 93bd d2d3 a0bd
00000180: 5a53 ebbc 71f4 a93d 8024 b63c 2a5d 65bd
00000190: da3b a9bd a45b c5bc d1b8 a43d 4080 e73c
000001a0: 5715 8abd a4a7 63bd 50c9 8dbc 422e 7f3d
000001b0: 01b5 8d3d 4322 893d 8f3d 8c3d c5c4 53bd
000001c0: c6e9 6b3d 9c48 f83c ee0e 533d 0435 083d
000001d0: 00ab 1b3c 3ade 6a3d b08d 923c 6214 473d
000001e0: d5a1 a1bd 4d9d 853d bba4 9f3d c876 90bc
000001f0: 0f76 1bbd 7dc7 923d 003f dfbb dba5 14bd
00000200: 0846 d9bc da59 4b3d a4ad bcbc 9edd 1f3d
00000210: 7ac0 243d 0090 7cb8 3555 883d 903a e2bc
00000220: d8ae 42bc 80f6 573c 28e0 38bc 826a 473d
00000230: 9515 8c3d decf 493d 2e07 7e3d 2cde 14bd
00000240: 824f 54bd 4bda abbd ff14 a2bd 1204 743d
00000250: ef4e b1bd 3dd3 67bd b373 8c3d 80e7 de3a
00000260: 33b5 a73d 13e7 a03d f80c 1cbd 487d 063d
00000270: 35e7 49bd 8e1b 293d b029 963c d01d f53b
00000280: b72b a8bd 2a81 263d eb18 47bd 5904 ad3d
00000290: 5f13 00bd 5aed 7a3d 4099 303b 74cc 46bd
000002a0: e1fe 33bd 53ac af3d 1447 c33c 8a55 233d
000002b0: f08a 5c3c 72e2 203d 8623 753d 4718 973d
000002c0: 23f5 32bd 1bd0 833d ed48 823d d07b 683c
000002d0: f911 9b3d 546f ef3c d3b6 943d 9009 593c
000002e0: 39e8 9abd a01a 57bb b631 213d 20ce 9bbd
000002f0: e033 593b 9a30 323d 2ccc a4bc b5b5 a63d
00000300: 5b71 9abd 8c78 aa3c 60e5 73bb a37e 8a3d
00000310: 54b9 b4bd fe3c 263d 80cf c13c 0042 9d39
00000320: e88d 38bc c79f 41bd 2853 71bd 519e 13bd
00000330: b861 14bd 7c98 2cbd 4cfc 94bd 20d8 753c
00000340: 33b8 84bd 48d5 72bc e0a1 c83c 03ed 8abd
00000350: 498d 3ebd cde9 a43d 2d61 02bd 06ae 6c3d
00000360: a70c 9b3d 38cf 54bd 758d ad3d 0d38 833d
00000370: 21cc 97bd 8a42 d5bc 003d 96ba ddbb 973d
00000380: 4275 a4bd f8ae 4c3c 5517 983d 5dc6 81bd
00000390: 4090 43bb ba1a edbc a2b8 9dbd 5722 17bd
000003a0: 38eb 66bd c024 103d 1055 9e3c 5102 55bd
000003b0: 8751 9dbd 50be 9bbb d2cf 1d3d 1e01 f6bc
000003c0: 7e6d 86bd 788f 9c3c 46a7 5bbd 6752 67bd
000003d0: 573c 9a3d 904b 7cbc 2b4b 73bd 3c39 c93c
000003e0: 56f5 82bd a820 10bc e6b0 4a3d 85a9 8f3d
000003f0: 20cb bebb 4a7f 423d 9dba 6bbd 9fde 60bd
0.050028227 -0.088288 -0.048765756 0.08016031 0.033959918 0.034942023 -0.044807747 -0.010602705
-0.015837058 0.013551466 -0.02852172 -0.040575255 0.07777915 0.06679236 -0.04541308 -0.009987876
0.053727992 0.05246023 -0.07512933 -0.07428149 -0.08546467 -0.055732843 -0.0028641596 0.08236439
0.08174684 0.037695624 0.078799956 0.056529306 0.0032537803 0.047348626 -0.059431333 0.0637686
0.06580744 -0.07167994 0.07328569 0.057651468 0.03618802 -0.047506664 0.025030568 0.06016288
0.016739719 0.044073828 0.0101910755 0.035772823 0.053407468 -0.07389796 0.036969297 0.031223014
0.070372514 0.0028570518 -0.085604966 0.033256583 0.012047909 -0.019173458 -0.01707431 -0.0038563907
0.060294636 0.039263986 -0.051525764 0.05049237 -0.0693625 -0.0149657875 0.0878736 0.019887611
-0.018079467 -0.0072568133 -0.002584353 -0.046243217 0.040833913 0.027507782 0.085306786 0.056644626
0.07306626 0.0781882 0.008180514 0.022449814 -0.005236283 0.07925936 -0.027863659 -0.0021766424
-0.0719596 0.008010484 0.007962301 0.048039086 -0.052969493 0.038768508 -0.08537444 0.085372396
0.009138934 -0.04740319 0.0054851174 -0.062625095 0.02059117 -0.05818388 -0.072038576 -0.078529015
-0.028726269 0.082985766 0.022234201 -0.05599705 -0.08263369 -0.02409155 0.080430634 0.028259397
-0.067423515 -0.055579796 -0.017307907 0.062299974 0.069192894 0.06695988 0.06847679 -0.051701326
0.05759599 0.03030806 0.05152791 0.033253685 0.009501219 0.057340838 0.017889827 0.048603423
-0.07892195 0.06524143 0.07795092 -0.017634764 -0.037954386 0.071669556 -0.00681293 -0.036290985
-0.026522651 0.049646236 -0.023032017 0.03902971 0.040222622 -6.0215592e-05 0.06656877 -0.027615815
-0.011882506 0.013181329 -0.011283912 0.04868556 0.06840054 0.049270503 0.062018566 -0.036344692
-0.051833637 -0.083912455 -0.07914161 0.059574194 -0.086576335 -0.056597937 0.068580054 0.0017006248
0.08188858 0.07856574 -0.038098305 0.03283432 -0.04929276 0.041286044 0.018330425 0.0074803606
-0.08211463 0.040650524 -0.048607748 0.08448095 -0.031268474 0.061261512 0.0026946813 -0.048534825
-0.043944243 0.0857779 0.023837604 0.0398765 0.01346086 0.039278455 0.05984833 0.073776774
-0.04369081 0.06436177 0.06361566 0.014189675 0.075717874 0.02922789 0.072614335 0.013246909
-0.07563824 -0.0032822266 0.03935405 -0.076076746 0.0033142492 0.04350338 -0.020116888 0.081401266
-0.07541152 0.020809434 -0.0037215576 0.06762435 -0.08824411 0.04058551 0.023658514 0.00029994547
-0.011264302 -0.047271516 -0.058917195 -0.036039654 -0.036226004 -0.042137608 -0.07274684 0.0150051415
-0.06480446 -0.014821358 0.02449125 -0.06783488 -0.04652146 0.080524065 -0.031830955 0.05778315
0.075707726 -0.05195543 0.084742464 0.06407175 -0.074119814 -0.026032705 -0.0011462271 0.07408879
-0.08030178 0.012492888 0.07426325 -0.06336663 -0.0029840618 -0.028943408 -0.077012315 -0.036897983
-0.056376666 0.035191298 0.01932767 -0.052004162 -0.07681566 -0.0047529116 0.03852827 -0.03002983
-0.06563853 0.01911138 -0.05362632 -0.05647507 0.0753104 -0.015398875 -0.059397858 0.024563424
-0.0639445 -0.008796848 0.04948511 0.07014755 -0.005822554 0.047484674 -0.057551015 -0.054899808

actor.bias f4 [4]
00000000: fe24 453d 35e9 8e3d 0388 22bf 59b3 07bf
0.04813098 0.069780745 -0.6348879 -0.5300804

critic.weight f4 [1, 128]
00000000: f835 1c3d 1369 e3bd d1e7 ee3c 854c c13d
00000010: 9370 7d3d 0a2a 343d aa08 8e3c 7aef 213d
00000020: 54f0 e33c f6e3 ca3d 0d27 0cbd ce47 a2bd
00000030: d33a c33b b69a 39bd e52c 973d 4f68 18bb
00000040: 536d bf3c 814d 63bd 2fe1 afbc b55e c93c
00000050: 8aa2 0abd b82e 9f3c 85d0 acbd d4ac cd3d
00000060: b0fc 5c3c 6406 113c 2fd8 323d 6332 3d3c
00000070: cad8 823d fa0c f33d 34b4 bfbc e533 a63c
00000080: 8505 243d 6953 46bc 96e6 24bc 24a2 c93c
00000090: decc 9d3d 0c1c 413d 02da 8f3d f51d 743d
000000a0: d871 483d 7e82 263d 7177 93bd df00 49bd
000000b0: a78e 893d ad62 d1bd 679f 81bd 19ac e33d
000000c0: b55a a8bc 5d7e 9f3c 143d 3fbc 0dd4 e03d
000000d0: 8a91 ba3c 966b 77bc 7da5 dbbb 9ca9 623d
000000e0: 5cd9 cd3c 2072 003c b23b a4bd 58bf 0f3d
000000f0: 190d 2b3d f407 0c3d 893c e6bc 8817 173c
00000100: c02a d43d 6499 36bc c669 6ebc afe4 6d3d
00000110: 3bae 58bd 952d 0dbd 03b8 273d 6baa edbb
00000120: 3ea8 1e3d 126a a5bc 0bae c1bc 6a16 99bd
00000130: 3c8d c23d d0f3 073d ea79 aebd e43a 90bd
00000140: cf79 573c 9433 ba3c 0132 113c 5cbc 9fbc
00000150: 1ebf 5abd 528e b5bc bcea 983d 36dc 01bd
00000160: 55a0 ac3c 5d05 983c 6bd7 abbd bff7 633d
00000170: ac19 13bd a47c 0b3e ef81 4fbd 743e 0fbc
00000180: e0b6 243c 5861 1cbd ddc3 873b ae17 a73d
00000190: 9a3a 813c 33fd 50bd 66af 38bd 2bed 163d
000001a0: 4ea2 b63a 514b 02be edbf 9d3c 43ce d9bc
000001b0: 1522 8f3d 6d4b 103d af31 62bd ff0b 0438
000001c0: ef40 68bd f7d8 453c 3b2a b5bc e91f e5bd
000001d0: 6c18 febc 11ef 8dbc a9b6 193d c1b4 4ebd
000001e0: 9ba2 24be 1896 b73d e8db 913d 2a49 6ebd
000001f0: 0e4b 59bd a801 3b3d 1320 87bc fd01 a43c
0.038137406 -0.11104026 0.029163273 0.09438423 0.061874937 0.043985404 0.017338116 0.039535023
0.027824558 0.09906761 -0.03421693 -0.07923852 0.00595794 -0.04531356 0.0738161 -0.0023255532
0.02336756 -0.055493835 -0.02146968 0.024581293 -0.033846416 0.019431457 -0.084382094 0.1004273
0.01348798 0.008851621 0.0436632 0.011547658 0.063890055 0.118677095 -0.023401357 0.020288417
0.040044326 -0.0121048475 -0.010064742 0.024613447 0.07705091 0.04714589 0.070240036 0.05959888
0.048936695 0.04065179 -0.07200516 -0.049073096 0.06716662 -0.10223899 -0.06329232 0.111168094
-0.020551065 0.019469434 -0.011672277 0.109779455 0.022774477 -0.015101334 -0.0067030773 0.055337533
0.02512806 0.0078397095 -0.080191985 0.03509459 0.041760538 0.034187272 -0.028105037 0.009221919
0.103597164 -0.01114497 -0.014551586 0.058079418 -0.052900534 -0.0344673 0.04094697 -0.0072529814
0.038734667 -0.02019218 -0.02364256 -0.07474978 0.094995946 0.033191502 -0.08519347 -0.070424825
0.0131516 0.022729672 0.0088620195 -0.019498996 -0.05340492 -0.02216259 0.07466647 -0.03170415
0.021072546 0.018557245 -0.08390697 0.05565619 -0.035913154 0.13621765 -0.050661024 -0.008742917
0.010053366 -0.03817877 0.004143222 0.081588134 0.015775014 -0.05102272 -0.045089148 0.036847275
0.0013933869 -0.12724043 0.019256556 -0.026587611 0.069889225 0.03522818 -0.055223163 3.1482425e-05
-0.05670255 0.012075654 -0.022114864 -0.11187727 -0.031017505 -0.01732591 0.037527714 -0.05046535
-0.16077654 0.08964175 0.07122022 -0.058175243 -0.053050093 0.045655876 -0.016494786 0.02002048
