models/a2c_ep1000.pth (torch, 22585 bytes, 5 tensors)

shared.0.weight f4 [64, 70]
000000 e1 d3 1b 3e e0 dd 53 be ac 6f 10 bd a5 43 07 be
       0.15217544 -0.20690107 -0.03526275 -0.13209398
000010 8c d8 06 be fe f5 5c be b5 b9 1d be c2 0a aa 3d
       -0.13168544 -0.21578214 -0.15402873 0.08302833
000020 a5 f3 bf bd bc f2 7c 3d e3 63 25 3c ec 32 e3 bc
       -0.093726434 0.061754927 0.010094616 -0.027734242
000030 2b 68 96 3d 9b a5 10 bc 67 52 dc 3d 7e 97 9d 3d
       0.07344087 -0.008828546 0.107579045 0.076949105
000040 f6 22 38 bb 24 21 ad bd f8 ff 4d bd 6f 78 58 3d
       -0.002809701 -0.08453587 -0.05029294 0.05284923
000050 01 12 1c bd d0 04 81 3d 03 cc a4 bd bd 4d 77 3d
       -0.038103107 0.06299746 -0.08046725 0.06037687
000060 a0 bf b5 3d 46 eb 53 bd 00 db e8 bd ea 23 27 bd
       0.0887444 -0.051738046 -0.11369896 -0.040805735
000070 d4 ce ab bc 63 3a f4 bd 70 ea 3c bd ee cf e0 3d
       -0.020972647 -0.11925199 -0.046122015 0.109771594
000080 17 88 d7 bd 29 51 af 3d ef 9c f6 bb 77 38 08 be
       -0.10524004 0.08560402 -0.007526032 -0.1330279
000090 b1 fd 87 3d 2d fe 34 3c 99 45 c6 bc dc b1 f2 bd
       0.06640185 0.011046928 -0.024203109 -0.1185033
0000a0 e2 3c a3 bd 83 96 94 bd 1e d8 c9 bd b9 de 06 be
       -0.07970597 -0.0725527 -0.09855674 -0.131709
0000b0 c3 17 ad 3c 93 ff 48 bd bc 4e 89 bd 55 7a 03 3e
       0.021129495 -0.04907186 -0.067044705 0.12839635
0000c0 15 2f 50 bd da 46 bd bd c6 b2 80 bd f4 b2 c3 3d
       -0.05082615 -0.092420295 -0.06284098 0.09555617
0000d0 91 c6 d1 3d f9 bf 2e bd 6b d0 9c 3d 50 00 19 be
       0.10242952 -0.04266355 0.0765694 -0.14941525
0000e0 f7 9f 01 be af bc 09 be 4b 28 b6 bd 56 0a 6b 3d
       -0.12658678 -0.13450883 -0.08894404 0.057382904
0000f0 6c 8e a5 bd 1a 57 ef 3d 0a 1b 93 3a fa b7 8e bc
       -0.080838054 0.11686535 0.0011223268 -0.017421711
000100 1f 12 50 3d 26 9f 60 3d 04 9f 24 bc 79 ba c9 bc
       0.05079853 0.054839276 -0.010047678 -0.02462505
000110 7d ee 2b 3d 21 01 d3 3d a6 59 ba 3d e7 f6 aa 3c
       0.041975487 0.1030295 0.0909913 0.020869685
000120 d0 2d 5b 3d 0e 0e 4e bd 34 42 4d 3d 3b e0 19 bd
       0.053510487 -0.050306372 0.050111964 -0.03756736
000130 76 39 d1 3d ee a0 3d 3d 39 19 8f bd da fd a7 3d
       0.10216038 0.046296053 -0.06987233 0.08202715
000140 ed a1 db bd d5 8b 0a bc 5b a2 be bc 71 c2 fb 3d
       -0.10724244 -0.00845619 -0.023270776 0.12292946
000150 19 28 6e bd b1 09 3f 3d 9a a8 42 bd d1 bf 4d bd
       -0.05814371 0.0466401 -0.047524072 -0.05023176
000160 f3 b0 7d bd 8c f5 7a 3c 10 6c 0a be 5f 81 2a bd
       -0.06193633 0.015317332 -0.13517785 -0.041627284
000170 81 bf 76 3d 9c c0 c3 3d 08 8c 67 bc bd 60 26 b9
       0.060241226 0.09558222 -0.014132507 -0.00015867031
000180 5d e8 0e 3d 3d ac 80 3d e5 f5 94 3d 18 fa 90 bc
       0.034889568 0.06282852 0.07273463 -0.017697379
000190 ac 6b 01 3e 04 03 4e bd aa 28 87 bd cb 49 6f bd
       0.1263873 -0.050295845 -0.06599553 -0.058419984
0001a0 65 51 e2 bd 81 72 11 3d d6 60 30 3d c4 73 a5 bd
       -0.11050681 0.03550959 0.0430611 -0.08078721
0001b0 26 fa cf 3c 3f 06 ae 3d d0 01 e8 3d 21 c2 ac bd
       0.025387835 0.08497285 0.11328471 -0.08435465
0001c0 a1 cd 8f bc ac 00 96 3d e6 56 91 bc 80 b5 c6 bc
       -0.017554106 0.07324347 -0.017741632 -0.024256468
0001d0 91 45 3b bd 36 b8 f0 bc 80 59 d2 bd ea 14 83 bd
       -0.04572064 -0.029384714 -0.10270977 -0.064004734
0001e0 8e 79 de 3d a0 09 48 bd b2 57 03 3c 03 c5 b3 3d
       0.108630285 -0.048837304 0.008016514 0.087778114
0001f0 2a 55 8e 3d f9 40 a9 bd 30 a9 00 3c 29 a7 31 3d
       0.069498375 -0.08264346 0.007852837 0.043372307
000200 85 83 f1 3c 39 8e c2 bd 2e 08 1d 3c e2 14 b0 3d
       0.029481659 -0.09499783 0.00958447 0.08597733
000210 df 42 c6 3d c0 0b de bc 66 d9 4a bd fd 0a f7 3d
       0.096807234 -0.027105212 -0.049523734 0.12062643
000220 8e cb f3 bc 7c a9 e8 bb 98 d1 df bd 74 3a fb bc
       -0.029760148 -0.0071002822 -0.10928649 -0.030667521
000230 10 94 3a 3d 39 25 6e 3d 44 8c 6c 3c 7e 1b d2 bc
       0.04555136 0.058140967 0.014437739 -0.025647875
000240 ce a0 55 3d fa f4 00 3d ee e4 3b 3d 3f 06 be bd
       0.05215531 0.031483628 0.04587262 -0.09278535
000250 6d 9d 79 bd 73 7a 71 3d 64 9a 06 3d 8a 9e fb bd
       -0.06094115 0.058954667 0.032862082 -0.12286098
000260 55 9d 57 3c f9 f7 cd bd c0 d9 e8 bd b0 c1 b2 bd
       0.0131600695 -0.10057063 -0.113696575 -0.08728349
000270 75 da 6c 3d 5b fc 76 3d ac eb da 3c ec 3f 75 bd
       0.057825524 0.06029926 0.026723705 -0.059875414
000280 87 da a3 bd 1b d6 01 be 84 4d 93 bc d4 c9 d8 bd
       -0.08000665 -0.12679331 -0.017981298 -0.10585371
000290 71 b5 59 bc f5 9a a8 3d 7b 78 b2 3d a1 6f cd bc
       -0.013287888 0.08232681 0.08714386 -0.025077643
0002a0 33 22 80 3d 45 f8 b3 bc 98 15 e5 3d da 43 e1 bd
       0.06256523 -0.02196897 0.11185759 -0.1099927
0002b0 89 6f 14 bd 85 4b b5 bc 03 37 68 3d ee 51 d1 bd
       -0.03623918 -0.022130737 0.05669309 -0.10220705
0002c0 0f 46 69 bd 5e c7 ae 3a 83 01 82 bd e6 18 ad 3d
       -0.05695158 0.0013334563 -0.063479446 0.084520146
0002d0 fd 75 91 bd dd 01 a4 3d b2 24 bb bd ec 5e 1d bd
       -0.071025826 0.08008168 -0.091378585 -0.038420603
0002e0 7e 9b 89 bb 62 b3 7c bc bd 60 fa bc a1 e3 2a bd
       -0.0041994443 -0.015423628 -0.030563707 -0.04172099
0002f0 4e a0 ec bc 8f 50 81 bd 31 af 82 bd 53 18 b8 bd
       -0.028885033 -0.063141935 -0.06381071 -0.089890145
000300 b4 28 e4 3d 55 bb 62 bc 5a 5b a6 bc 02 8a 00 3d
       0.11140576 -0.013838609 -0.020307232 0.031381615
000310 c9 30 01 3e 63 0e 80 bd dd 12 13 bc bd 0e 11 bd
       0.12616266 -0.06252744 -0.008976665 -0.035414446
000320 15 42 3f bd 3b f2 8e bd 47 b1 dc bd 10 ba ec 3d
       -0.04669388 -0.069797955 -0.107760005 0.11558926
000330 87 25 fa bd e5 4c 93 3c c5 c5 8c 3c 86 98 96 bd
       -0.12214189 0.017981002 0.017184148 -0.0735331
000340 63 39 2d 3c f0 b6 68 3c 00 48 4b bd f2 c1 11 be
       0.010572764 0.014203772 -0.04962921 -0.1423414
000350 ec 15 72 3d 3e 32 da bc 81 59 b9 bd d9 4e 3c be
       0.059102938 -0.026635285 -0.09050275 -0.18389453
000360 cc 25 21 be 80 a7 a7 3d 4f f6 8e 3d a0 23 7b 3c
       -0.15737075 0.08186245 0.069805734 0.015328318
000370 89 8d bb 3d 0c a4 21 bd f2 f3 80 3d 08 61 3a bd
       0.09157855 -0.039463088 0.06296529 -0.045502692
000380 d1 4e 1e bd 29 89 84 bd 5d a7 2b 3d 58 e5 86 3c
       -0.038649384 -0.06471474 0.041907657 0.016466781
000390 a2 ae 2f 3d 22 5a 0e 3c bb c6 0c 3d 68 62 83 bd
       0.042891152 0.0086884815 0.03436921 -0.06415254
0003a0 79 e7 99 bd 12 34 b6 bd 9f 35 59 3d ba ea 8c 3b
       -0.07514853 -0.088966504 0.053029653 0.0043004425
0003b0 37 6c 16 3d 5a 0f 23 bd 43 97 76 bd 20 e9 6c bd
       0.036724295 -0.039809562 -0.06020285 -0.057839513
0003c0 b0 89 6b 3d cf f5 d3 bb 35 d7 a2 bd 68 5d 89 3d
       0.057504356 -0.0064685117 -0.07951204 0.06707269
0003d0 f4 fa 09 3d 7d 33 d3 3d 42 fa 4a bd 32 da a0 3c
       0.033686593 0.10312555 -0.04955507 0.019635294
0003e0 be 4a b7 bd 6d 44 a3 bd ba f5 d1 bc 5b 1b 17 3d
       -0.08949803 -0.079720356 -0.025629867 0.036891323
0003f0 4d 26 ce 3d 90 50 9c 3d ef 6a 6f bd cb 29 64 3d
       0.10065899 0.076325536 -0.05845159 0.05570392

shared.0.bias f4 [64]
000000 7d fc 1e 3e 1f a6 a5 bd 2d 52 a9 bd 69 47 84 bd
       0.15526004 -0.08088326 -0.08267627 -0.06458933
000010 a7 5e 1c bd df 7b b0 bc ba 0f d4 bd ff 6a 3e 3d
       -0.038176205 -0.021543441 -0.10354562 0.04648876
000020 fb 23 65 3d 93 57 2e 3d 11 50 90 3d 40 eb 30 3e
       0.055942517 0.042563986 0.070465215 0.17277241
000030 01 b2 c0 3c bd 6a 6c bd 10 a5 b5 bd a7 5d bf bd
       0.023522379 -0.05771898 -0.08869374 -0.09344035
000040 5f f9 a8 3d f0 f9 de 3d 95 78 2e 3e a6 d7 74 bd
       0.08250689 0.108875155 0.17038186 -0.05977597
000050 7e dc 36 3e aa 5b b8 bd 68 2d ae 3d d3 54 e0 bd
       0.17857549 -0.090018585 0.08504754 -0.10953679
000060 8c 71 09 bc 7b 44 bd bd 1b c8 d0 bd 8c 78 13 3e
       -0.008388888 -0.09241577 -0.10194417 0.14401454
000070 22 c0 80 3d 3a f2 16 bd 6f 2a 2c 3d a1 90 96 bd
       0.062866464 -0.0368521 0.042032655 -0.073518045
000080 71 5b 81 3d 54 de 60 3d 4f a2 67 bd b6 45 a8 bd
       0.06316269 0.05489953 -0.056551274 -0.08216421
000090 7b 63 d5 3d 46 f3 92 3d 5e d3 6b 3d d6 7a 65 3d
       0.10419365 0.07175307 0.057574622 0.05602535
0000a0 fd 28 d5 bc a2 24 c8 bd 60 6c 3f bd 54 1c a4 3c
       -0.026020521 -0.09772612 -0.046734214 0.02003304
0000b0 d8 64 e3 bd a7 e1 04 3e 1b b6 00 3e 81 78 0f 3e
       -0.11103219 0.12976705 0.12569468 0.14010812
0000c0 95 1c 90 bc 4d 31 7d 3c ba 82 fb 3c 44 46 38 bd
       -0.017591754 0.015453649 0.030701984 -0.044988886
0000d0 ca 19 43 3c 6d 9b 01 3e ae a8 02 3e 91 61 ad 3d
       0.011908004 0.12656946 0.12759659 0.08465875
0000e0 b3 ea de bd f1 e7 9b 3d 44 c7 30 3e 4f 51 22 3e
       -0.10884609 0.07612599 0.17263514 0.1585133
0000f0 9b f8 2f 3d ee 97 13 be 20 62 15 3e 0f bf e6 3d
       0.042961698 -0.14413425 0.14588213 0.1126691

actor.weight f4 [4, 64]
000000 f0 9b 10 3c b0 c7 a1 3c ac 7c 4c bd a8 ca c0 3d
       0.008826241 0.019748539 -0.049923584 0.094136536
000010 e2 96 86 bd e0 c1 fa bb 80 9e 05 bc bc 27 8b bd
       -0.06571747 -0.007652506 -0.008155465 -0.06794688
000020 20 4f fe bc d8 34 20 bd e8 b4 f6 3c f4 eb df bd
       -0.03104359 -0.039112896 0.03011556 -0.10933676
000030 c4 9f e0 3d 84 b7 60 3d 00 84 3d 39 94 c4 1c bd
       0.10967973 0.054862514 0.00018073618 -0.03827341
000040 32 30 d7 3d 9c 28 2f 3d 20 ce f5 3c 64 0c 52 bd
       0.105072394 0.042763337 0.030005515 -0.051281348
000050 ac d0 87 3d 08 23 e1 bd 28 02 a8 3c 50 e8 fd 3d
       0.06631598 -0.1099301 0.02050884 0.12397826
000060 e0 28 15 3d 50 7b 4a 3c 14 83 fe bd 7a 37 a1 bd
       0.036415935 0.012358502 -0.12427345 -0.078719094
000070 d4 7d 97 3d fc 57 60 bd 0e a8 a3 bd 40 a5 18 bd
       0.07397047 -0.05477141 -0.07991038 -0.03726697
000080 a0 35 2b 3d 84 67 aa 3d 2a 40 9d 3d 1a a8 e4 bd
       0.041799188 0.08320525 0.07678254 -0.11164875
000090 52 57 f0 bd 8a ae df 3d 92 a5 87 bd 10 2f 3e 3c
       -0.11735405 0.109219626 -0.06623377 0.0116079
0000a0 6c 32 4d 3d 00 d3 fd 3b 00 af ad 3d 2c a5 da bd
       0.050096914 0.0077461004 0.08480644 -0.10676035
0000b0 a8 24 11 3d 38 f1 88 bd 34 68 88 3d 80 7d 5c 3d
       0.03543535 -0.06686634 0.066605 0.053830624
0000c0 3c 38 04 3d 7a 69 cf bd 00 ac 73 bd 5c 17 a7 3d
       0.03228019 -0.1012754 -0.059490204 0.08158752
0000d0 54 27 b3 3d fc 82 7e 3d 20 54 d0 bd 08 db cf bd
       0.087477356 0.062136635 -0.101722956 -0.10149199
0000e0 00 65 54 bd f0 69 50 bc 04 9b 0b 3d aa 89 dd 3d
       -0.051854134 -0.01272057 0.03408338 0.10817273
0000f0 f4 59 fe 3d 74 19 31 3d a0 92 49 3c 4e 0e 8a 3d
       0.12419501 0.043237165 0.0123030245 0.0674101
000100 b6 dd a6 bd 50 71 e9 3d 86 4d d3 bd 22 7a 99 bd
       -0.08147757 0.11398566 -0.10317521 -0.07493998
000110 30 6d 74 bd fc 66 fc bd 50 88 57 bc 66 b2 b7 3d
       -0.05967444 -0.1232433 -0.013155058 0.08969574
000120 54 77 83 3d c0 96 7a 3c be 58 ce 3d d4 52 fb 3d
       0.064192444 0.015294731 0.1007552 0.122716576
000130 30 08 ef 3c ca d6 87 3d d4 5c 6a 3d 2c 71 22 bd
       0.029178709 0.06632765 0.057217434 -0.03965871
000140 00 01 34 3c 68 9b 99 3c 1a 5e ca 3d b2 3c fc bd
       0.010986567 0.018750861 0.0988123 -0.12316264
000150 90 7f 38 bd 42 f1 8f bd c4 c1 12 3d 5a 7f c7 bd
       -0.045043528 -0.07028438 0.03582932 -0.09741087
000160 e0 9d ff bb e4 9e de bd 2c 0a 22 3d ac 0b f7 3d
       -0.0078008026 -0.1087015 0.039560482 0.12062773
000170 c0 eb 9c bd 32 ff 8a bd 20 7f f0 bd 0c bc a5 bd
       -0.07662153 -0.06786956 -0.11742997 -0.08092508
000180 6c 9a 2a 3d b0 1e 42 3c 78 21 fc bd b0 c6 df bc
       0.041651174 0.011848137 -0.12311071 -0.027316421
000190 b2 bd c7 bd 28 24 b8 3d e0 42 ed bc a0 24 a8 bc
       -0.097529784 0.08991271 -0.028962553 -0.020525277
0001a0 60 6c 57 bc 34 d5 52 bd 2c 3f ee bd 78 b2 ee bc
       -0.013148397 -0.051472858 -0.11633143 -0.029137835
0001b0 08 88 17 bd 14 9a 0b 3d b8 8b 83 bd e0 47 fc bd
       -0.036994964 0.034082487 -0.064231336 -0.123183966
0001c0 80 22 89 ba d6 20 ef 3d b4 8d 5c bd 1c 42 be bd
       -0.0010462552 0.11676185 -0.053846076 -0.09289953
0001d0 34 5c 91 bd d4 45 43 3d 18 21 23 3d b8 29 4e bd
       -0.070976645 0.047674015 0.039826483 -0.050332755
0001e0 20 b4 40 bc c6 dd ca 3d 92 b1 c0 bd 3c fb 4b 3d
       -0.011761695 0.09905581 -0.09408869 0.049800143
0001f0 26 0e b3 3d b0 55 d1 3c e8 00 ab 3d 34 81 1d bd
       0.08742933 0.025553554 0.08349782 -0.038453296
000200 30 ff d2 bd b9 a0 75 bd e6 46 9e 3d 3e 04 55 bd
       -0.103025794 -0.05996773 0.077283666 -0.052006
000210 af 93 a9 3d bd a8 a4 bd 21 a4 c9 3d a1 8c 4c 3d
       0.082801215 -0.08039997 0.09845758 0.0499388
000220 0b 81 c6 bd c7 d8 5c 3d 9e 1f 91 bd 86 22 4f 3d
       -0.09692582 0.053917672 -0.070861086 0.050570033
000230 94 e6 b7 bd 31 af 0b 3e b8 e8 9f 3d 06 1d 3b 3c
       -0.08979526 0.13641049 0.078080595 0.011420494
000240 99 e4 31 bd d0 2d 09 3c f8 90 b5 bd b1 73 9e bd
       -0.0434309 0.008372739 -0.08865541 -0.0773691
000250 90 f9 bb bd 3e e4 7b 3c c1 55 c1 bd 3b ed 89 3d
       -0.0917846 0.015374241 -0.094401844 0.06734701
000260 9e 72 7c bd 16 7e b2 3d 68 90 79 bd 8a 9e 67 bd
       -0.061632745 0.08715455 -0.060928732 -0.05654768
000270 a7 8d ba bc 66 e6 2f bb dd 8b f8 bd e7 cc 90 3d
       -0.022772623 -0.002684021 -0.12136052 0.07070332
000280 de 7c 8e bd 28 ff 86 bd 6e a6 d6 3a a8 e1 88 bd
       -0.0695741 -0.06591636 0.0016376504 -0.066836655
000290 e6 6f c9 bd 24 a9 1e bc 9a 84 d7 bd 07 e6 12 be
       -0.09835796 -0.009683881 -0.105233386 -0.14345561
0002a0 b8 20 00 be e2 21 04 3e e4 c5 f6 bd 52 7f 92 3d
       -0.12512481 0.1290355 -0.120494634 0.07153191
0002b0 6b c4 60 39 cc d1 ea bd 08 ad ce bc ed c4 06 be
       0.00021435476 -0.11465797 -0.025228992 -0.13161059
0002c0 f7 3f e1 bd 1c e7 ab bd 07 df b4 bb a6 58 b2 bd
       -0.109985285 -0.0839369 -0.005519751 -0.087083146
0002d0 2c e9 91 3d 9c 23 0b bd a9 a3 c1 bd cc 55 b5 bc
       0.07124552 -0.033969507 -0.09455044 -0.022135638
0002e0 a0 c0 70 3d 2d 1e 12 bd b7 68 60 3d 65 29 99 bd
       0.05877745 -0.03567331 0.054787364 -0.074785985
0002f0 db 3d 32 bd 60 49 9c 3d 15 32 2a bd 6a 55 9b bd
       -0.04351602 0.07631183 -0.04155167 -0.07584651
000300 1c 8e 17 bd 5d ec 74 3c dd 48 83 bd 9c 37 e4 3d
       -0.03700076 0.0149489315 -0.06410382 0.11143419
000310 01 70 e7 bd 54 cb b4 3d 66 cf b5 3d 15 86 57 bd
       -0.1130066 0.08827844 0.08877449 -0.052618105
000320 c0 c2 ad bd 66 82 e9 bd 73 e9 07 be a9 a8 09 be
       -0.08484411 -0.11401825 -0.13272648 -0.13443245
000330 5e 6b 7b 3d ec 35 ac bd b4 6e e3 bd 51 35 0c bd
       0.06138169 -0.08408722 -0.11105099 -0.034230534
000340 b0 69 0d be 7a 75 23 bd a8 2d 97 bd d6 ec 76 3d
       -0.13809848 -0.039906956 -0.07381755 0.060284458
000350 2c cd 0d be 5b c9 bb bc a6 7b e4 3c 18 d3 95 bc
       -0.13847798 -0.022923162 0.027890991 -0.018289134
000360 bb 58 d8 bd b6 76 cf 3d 7a 7d 20 3d 4a b3 25 be
       -0.10563799 0.10130064 0.039182164 -0.16181675
000370 d5 52 54 3b f0 00 1c be f8 ca 16 bd b2 5f 12 bd
       0.0032398005 -0.15234733 -0.03681466 -0.035735793
000380 fb 11 d0 3d 94 ef ef bd 2b 7f 01 be ce 71 95 bc
       0.101596795 -0.11715618 -0.12646167 -0.018242743
000390 34 17 b5 3d f8 56 91 bd 33 61 82 bd 6d 52 fa bd
       0.08842316 -0.07096666 -0.063661955 -0.12222753
0003a0 10 a8 ff bd 42 ea 92 bd 6b 89 b8 bd 5e bb 40 3c
       -0.12483227 -0.071735874 -0.090105854 0.011763422
0003b0 55 34 14 3d 8f 9c 40 be 78 6f 69 bc 85 33 24 3d
       0.03618272 -0.18809722 -0.014247768 0.040088195
0003c0 a1 ce 34 bd e6 ba a3 3d bf fb c3 bd 29 b4 b3 bd
       -0.04414237 0.079946324 -0.09569501 -0.08774597
0003d0 05 b2 61 3c 19 d2 12 bd a0 2c 51 3d 35 80 18 be
       0.013775353 -0.035844896 0.05106795 -0.14892657
0003e0 ca 23 89 3d d5 3d 12 bd fb 19 35 bd d2 ab 60 bd
       0.06696279 -0.0357035 -0.04421423 -0.05485136
0003f0 e8 29 c9 bd e4 06 81 3d 1b df 41 3c d8 e1 43 3c
       -0.09822446 0.063001424 0.011832978 0.011955701

actor.bias f4 [4]
000000 ea 86 af 3d d2 75 c5 3d a0 ba 2c 3b bf ab 29 bd
       0.08570655 0.09641613 0.0026356354 -0.041423555

critic.weight f4 [1, 64]
000000 3b cd 87 bb 63 20 ea bc 18 85 bf bd f7 4f c9 3d
       -0.0041443384 -0.028579896 -0.093515575 0.09829705
000010 b6 1e 41 3d 53 41 6e 3d 5c 4c f1 3d e9 b5 9c bd
       0.04714843 0.058167767 0.117821425 -0.07651884
000020 b8 9f ba 3d 4b ac 38 bd 32 3b 87 3c 48 49 78 3d
       0.09112495 -0.045086186 0.016507719 0.06061676
000030 d9 9c ea 3d 93 38 0c 3d c0 1e f6 bd 8d 25 d5 bd
       0.114556976 0.03423364 -0.12017584 -0.10407553
000040 84 81 9b 3d 98 ab 04 3e ce 9c a1 bd c4 f1 e1 3c
       0.075930625 0.12956083 -0.07891236 0.027581103
000050 61 b7 78 bc 9f ad 5f bc f6 51 1b bd ed 4f 80 bd
       -0.01518044 -0.013652234 -0.03791996 -0.06265245
000060 a1 d5 93 bd e4 73 bb 3c 8e 62 b1 bd 76 b3 06 bd
       -0.07218481 0.02288241 -0.08661376 -0.03288599
000070 ad a3 b9 3d 54 ad 52 3d cf d3 4b 3d 38 6f 6e bd
       0.09064422 0.05143483 0.049762543 -0.058211535
000080 81 29 2a bd 6a cc 30 bc 3e 42 88 bd b4 bb b2 bd
       -0.041543487 -0.010790924 -0.0665326 -0.08727208
000090 fe 57 bb 3d 21 51 cd bd 21 4d 0b 3e 44 52 c0 3d
       0.091476426 -0.1002524 0.13603641 0.09390691
0000a0 5f 63 9a 3a f6 db 29 3d 1d 8f 65 3b b5 68 cd 3d
       0.0011778882 0.041469537 0.003502793 0.10029737
0000b0 5c 15 a2 3d 08 3e 0a 3e cb 8f 5d 3c 15 61 66 3d
       0.0791423 0.13500226 0.013523052 0.05624493
0000c0 f7 7b b2 3d d5 a5 8b bb d4 85 99 bb cb 31 06 3c
       0.08715051 -0.004261712 -0.004685143 0.0081905825
0000d0 ae 2f 60 3d da d2 8c 3d 70 b0 5a 3b 9c a0 c7 3d
       0.05473297 0.06876154 0.0033369325 0.09747431
0000e0 b0 94 10 3d e1 8a d0 3d ce 8f 19 3e de a1 e4 bc
       0.03529805 0.10182739 0.14996263 -0.027909216
0000f0 42 c0 b0 bd 37 0d 6d bd 98 bb 35 3e 20 a2 2d bc
       -0.0863042 -0.05787393 0.17747343 -0.010597736
