models/reinforce_ep2000.pth (torch, 39041 bytes, 6 tensors)

0.weight f4 [64, 70]
000000 16 b8 0a bb ec e7 00 00 b4 7d df b8 7c b9 05 00
       -0.0021166853 8.3198e-41 -0.00010656883 5.25717e-40
000010 36 d1 ec 39 ea cc 05 00 6f 27 1f 3b 79 25 19 bb
       0.00045169302 5.32687e-40 0.002428498 -0.0023368283
000020 9c 41 55 0d c8 ff c3 35 69 1b 36 14 2f 45 38 b0
       6.5714667e-31 1.4603074e-06 9.1940575e-27 -6.7037126e-10
000030 7f 56 b4 31 27 9b d9 3a 70 ab 09 bb bd ed ff 38
       5.248523e-09 0.0016602025 -0.0021006726 0.0001220363
000040 21 07 92 b7 2f f6 06 37 04 aa e1 b9 07 ad 54 b9
       -1.7407876e-05 8.0443415e-06 -0.00043042016 -0.00020282353
000050 3d 69 05 80 c3 37 1f bb 71 10 7f 38 7f f3 60 38
       -4.9693e-40 -0.0024294711 6.081205e-05 5.3632535e-05
000060 0e 96 98 b5 8e eb c7 b9 ce 43 eb b9 d2 40 06 00
       -1.1368554e-06 -0.0003813174 -0.0004487321 5.74266e-40
000070 0d 28 00 bb 00 0d f4 b7 54 8b dd 38 3b ec a7 b7
       -0.0019555122 -2.909312e-05 0.00010564053 -2.0017955e-05
000080 ab b9 98 b9 7f 8c 4a b9 17 86 50 94 f1 dc 06 bb
       -0.00029130033 -0.0001931656 -1.0527761e-26 -0.0020578469
000090 e8 0e ba 34 ca 59 95 38 08 bf 3c b8 20 83 f0 b9
       3.4656046e-07 7.121598e-05 -4.5000605e-05 -0.00045874063
0000a0 f8 cb 05 b9 0d 6a 05 00 95 39 16 bb 8e 5f 8e 32
       -0.00012759853 4.97221e-40 -0.0022922505 1.6574429e-08
0000b0 89 49 86 b9 7e 31 d5 9f 90 fb 6c ba b2 e6 ae b4
       -0.0002561326 -9.029089e-20 -0.0009040171 -3.2577879e-07
0000c0 49 48 99 39 53 fa ce 90 27 cf 47 34 25 e6 34 a2
       0.0002923629 -8.163836e-29 1.8608681e-07 -2.4516386e-18
0000d0 4c 30 da 92 ab 72 05 00 07 b2 dd b3 2e d1 16 1d
       -1.376964e-27 5.00313e-40 -1.03234974e-07 1.9960478e-21
0000e0 02 84 87 90 bd 57 05 00 e5 6c 05 00 fc 6a 05 00
       -5.34515e-29 4.90652e-40 4.98241e-40 4.97556e-40
0000f0 b6 31 71 9d 77 d4 e8 02 4c 55 28 aa 89 b3 a7 95
       -3.1921784e-21 3.4211285e-37 -1.4950991e-13 -6.773402e-26
000100 69 c9 9e 81 01 80 05 80 cc 7c 05 80 bf 85 00 00
       -5.8329043e-38 -5.05097e-40 -5.03946e-40 4.7979e-41
000110 2d d4 32 8f 47 0a e4 2e ce 68 87 bb 11 11 c5 0b
       -8.816941e-30 1.0370065e-10 -0.0041323667 7.590732e-32
000120 ac 5c 00 b9 f2 6d 05 80 f3 5a de 3a 71 b6 0f 8c
       -0.00012241554 -4.98618e-40 0.0016964361 -1.1071221e-31
000130 0d 57 a5 3b bc 40 8c bb f0 aa 1f b9 6c 7a d5 37
       0.0050457777 -0.004280178 -0.00015227101 2.5448586e-05
000140 c6 e0 84 38 e6 a7 fe ba 16 35 23 38 47 d9 a0 8e
       6.336118e-05 -0.00194287 3.891167e-05 -3.9652276e-30
000150 2e 3e a7 bb 96 a6 bb 37 f2 d4 99 39 0e 7c 14 39
       -0.005103848 2.236971e-05 0.0002934109 0.00014160594
000160 e4 29 0e bb e8 15 4d b9 ec 3d 52 1b 9b 79 87 bb
       -0.002169245 -0.00019558484 1.7390801e-22 -0.0041343695
000170 ca e2 f8 33 54 df b6 39 16 61 05 00 aa 01 76 bb
       1.15896526e-07 0.00034880138 4.94005e-40 -0.0037537613
000180 55 d1 48 94 bd de a2 b8 46 1d 87 bb 0d 23 b0 28
       -1.0138703e-26 -7.76625e-05 -0.0041233627 1.9555126e-14
000190 86 ae ff 39 4d 58 11 16 e0 33 77 bb 12 9a 18 32
       0.0004876742 1.174087e-25 -0.003772013 8.882596e-09
0001a0 90 0c 20 b9 74 28 2a b4 4d 21 20 0f 43 95 0c 80
       -0.00015263469 -1.58472e-07 7.8950225e-30 -1.155571e-39
0001b0 aa 54 7f 22 90 68 b4 a4 7c 0c 23 30 90 ac 9a a9
       3.4603765e-18 -7.823969e-17 5.9316796e-10 -6.8689087e-14
0001c0 aa 58 d1 b4 42 52 5c b7 5e 0d 33 22 75 8d 46 2d
       -3.8993795e-07 -1.3132174e-05 2.42661e-18 1.1286407e-11
0001d0 8c e2 95 9e 25 eb 2a 38 53 12 8d 8d 77 fc b2 b5
       -1.5869686e-20 4.0750154e-05 -8.694207e-31 -1.333551e-06
0001e0 3d 99 d1 b7 d1 77 05 80 22 bf c4 2f cf d0 8c 05
       -2.4986099e-05 -5.0216e-40 3.5788e-10 1.3242241e-35
0001f0 46 95 29 38 7b 80 ff 99 98 fb 36 b5 c2 69 05 00
       4.043176e-05 -2.6418275e-23 -6.81664e-07 4.97116e-40
000200 f5 4b 06 80 27 a9 05 00 bf 53 a6 b1 16 66 05 00
       -5.78261e-40 5.19858e-40 -4.8407567e-09 4.95799e-40
000210 79 8a 08 b5 fc 79 20 b5 e6 b2 05 80 77 9f 05 00
       -5.086545e-07 -5.9782155e-07 -5.23354e-40 5.16383e-40
000220 e5 72 05 80 0c 86 05 00 7e 76 05 00 90 0f a0 31
       -5.00394e-40 5.07264e-40 5.01684e-40 4.658382e-09
000230 04 f2 65 b7 b9 99 05 00 90 68 3f a8 56 6b 05 00
       -1.3705812e-05 5.14323e-40 -1.0625303e-14 4.97682e-40
000240 c5 71 32 31 a3 6b 05 80 2d 39 47 37 5d 48 97 b7
       2.596708e-09 -4.9779e-40 1.1874637e-05 -1.80343e-05
000250 ab 74 05 00 c5 48 28 26 a3 b0 7c 88 9c 93 cb ac
       5.0103e-40 5.838533e-16 -7.6041127e-34 -5.785995e-12
000260 c6 bf 68 2f f1 b2 ac 2b f1 5f b8 b7 1c 02 55 00
       2.1168409e-10 1.2271001e-12 -2.1979185e-05 7.806774e-39
000270 de 09 22 2e c1 9c 05 80 64 de 64 b2 9f b0 f4 93
       3.68433e-11 -5.1541e-40 -1.33219125e-08 -6.176842e-27
000280 f1 9e 71 09 d8 3c b7 b7 b9 d1 86 29 c7 80 6d 2c
       2.9084054e-33 -2.1843633e-05 5.9871765e-14 3.3751211e-12
000290 63 61 05 80 58 53 23 b2 47 60 2a a8 85 f2 97 89
       -4.94113e-40 -9.506799e-09 -9.4577725e-15 -3.6579992e-33
0002a0 c6 8c a3 b7 0c 1d 50 b2 f1 67 ee 2c 9e 97 93 2e
       -1.9496667e-05 -1.2113798e-08 6.7759067e-12 6.711719e-11
0002b0 f7 6d 60 b0 aa 6e 73 37 37 69 05 80 40 95 82 b7
       -8.1646995e-10 1.4509695e-05 -4.96921e-40 -1.5566708e-05
0002c0 d1 58 96 b5 c0 8a 2e 1f ee 12 3f 2a 24 d0 95 af
       -1.120172e-06 3.6960705e-20 1.6970775e-13 -2.7250835e-10
0002d0 cb 1a 1d 38 54 d3 a5 87 e3 0d 68 b7 b2 a6 a9 06
       3.745667e-05 -2.4950648e-34 -1.3831511e-05 6.381567e-35
0002e0 9e fe a1 2c 40 95 05 80 60 64 33 b3 84 f5 c4 a6
       4.6041634e-12 -5.12718e-40 -4.1767976e-08 -1.3666779e-15
0002f0 31 b5 a6 96 11 d8 7b b6 8f 13 04 34 29 ae b2 2b
       -2.6933094e-25 -3.7527682e-06 1.2300573e-07 1.2696e-12
000300 5e d9 28 9e 53 4f 1d b3 13 81 ec b3 7f f4 22 b1
       -8.9387964e-21 -3.6626556e-08 -1.1013085e-07 -2.3713083e-09
000310 b0 5d 00 b2 90 a9 06 00 37 8a 45 94 57 7a 03 84
       -7.471883e-09 6.1184e-40 -9.973216e-27 -1.5455152e-36
000320 8e 66 94 a1 d3 de 81 2b 7d 6e 05 00 af bf b1 af
       -1.0056016e-18 9.227847e-13 4.98813e-40 -3.2332312e-10
000330 9b 79 05 00 ff 85 13 9a 97 5b 05 00 9a 77 c6 a6
       5.02801e-40 -3.050713e-23 4.92034e-40 -1.3771428e-15
000340 e6 61 05 80 55 78 94 1a 77 e4 94 b2 5b 26 06 80
       -4.94297e-40 6.140577e-23 -1.7333361e-08 -5.64772e-40
000350 02 4c 06 80 92 e1 05 00 f2 76 85 11 79 5f 05 00
       -5.7828e-40 5.40097e-40 2.1057006e-28 4.93427e-40
000360 43 cf 66 32 74 25 6e b2 32 72 05 00 ae 88 05 80
       1.3434888e-08 -1.3861939e-08 5.00143e-40 -5.08209e-40
000370 45 5c 85 15 e6 64 a3 0e a8 3a 7d 31 3b 72 05 00
       5.386385e-26 4.0279764e-30 3.6849688e-09 5.00156e-40
000380 5d 38 2b b2 94 bb f5 83 9b 6e 05 00 45 4f e6 09
       -9.9663255e-09 -1.4442872e-36 4.98855e-40 5.544503e-33
000390 2e fe 37 80 82 12 cd 2d 5a 40 e0 15 03 a6 8a b2
       -5.142135e-39 2.331402e-11 9.057441e-26 -1.6140808e-08
0003a0 95 2c bf a6 59 b8 05 80 4d 7d 9c 10 e2 a3 19 84
       -1.3265371e-15 -5.25309e-40 6.172421e-29 -1.8060315e-36
0003b0 79 95 21 2f 0b e9 18 0d fa 47 81 b2 00 68 04 b1
       1.4695968e-10 4.711913e-31 -1.5050308e-08 -1.9267645e-09
0003c0 a1 a3 05 00 ed 19 55 0d e7 c6 85 05 0c 1b 45 32
       5.17876e-40 6.56669e-31 1.2580325e-35 1.1473059e-08
0003d0 0b b8 83 8a 83 62 67 b2 5e dc 3e a6 d9 77 05 80
       -1.268407e-32 -1.3468369e-08 -6.6218145e-16 -5.02171e-40
0003e0 34 6d 05 80 1a ba cd aa 7d 10 bf 22 36 fd 0d ad
       -4.98352e-40 -3.654445e-13 5.178811e-18 -8.071146e-12
0003f0 8a e8 30 b2 71 94 3c 99 b4 57 8d 24 d2 c1 04 00
       -1.0297422e-08 -9.74935e-24 6.129758e-17 4.36872e-40

0.bias f4 [64]
000000 3b c3 11 bb e9 04 9b bb 06 b7 97 b7 87 c7 69 b2
       -0.002224161 -0.00473081 -1.808583e-05 -1.3607752e-08
000010 5f 93 f8 3b 98 f7 d4 3b 8b 9e a5 bc b1 de 18 ad
       0.0075859274 0.006499242 -0.0202172 -8.689647e-12
000020 b5 63 58 b9 dc 99 1f 3c d2 92 25 bb 9f a9 a0 3d
       -0.00020636509 0.009741273 -0.0025264514 0.07844853
000030 b9 e4 26 b9 f7 83 c3 3d 67 f1 ea ba 28 4f 9c 3d
       -0.000159162 0.09546655 -0.0017924727 0.07632285
000040 37 81 b7 bb 3e 27 e0 b7 52 ba bc bb c4 37 97 3a
       -0.0056001204 -2.6721154e-05 -0.005759516 0.0011537005
000050 a1 cf 28 ba 1c 22 9b a0 1f 65 c0 3c 4b e8 97 b8
       -0.00064396305 -2.6280593e-19 0.023485718 -7.243509e-05
000060 9a e1 4e b6 38 75 12 bb 0b 8c 9d 3d eb 7e e1 ba
       -3.082771e-06 -0.00223477 0.07692727 -0.0017203962
000070 75 6c 33 b8 19 1b be bc 8b a5 70 3b 70 d0 61 3c
       -4.2777934e-05 -0.02320628 0.0036719765 0.0137826055
000080 ac ed 3d 38 81 cb 6b 3c 1b 49 81 b9 48 88 89 ba
       4.528246e-05 0.014391781 -0.00024659265 -0.0010492885
000090 8f ae 05 3d ff 4d 17 bb 27 a4 f6 3b 1a 98 93 3a
       0.032637175 -0.002308726 0.0075268927 0.001126054
0000a0 63 3b d4 b5 f6 f0 c3 3d f0 36 08 b7 13 bf 69 bb
       -1.5812515e-06 0.09567444 -8.119023e-06 -0.0035666868
0000b0 2f e7 fd 3d 88 72 65 a8 5b 12 51 ba 93 f1 25 af
       0.123976104 -1.2736889e-14 -0.00079754525 -1.5092487e-10
0000c0 a8 11 c5 bb ea 29 4c ba db bb 1c bd f2 37 22 bd
       -0.0060140677 -0.0007788228 -0.03826509 -0.039604135
0000d0 69 1c 0f bb 26 7f 58 bc f0 4d a3 aa 11 0f 32 bd
       -0.0021837002 -0.013213908 -2.9008696e-13 -0.0434714
0000e0 42 9e 94 3c b7 c3 a2 3c 8a 26 9a 3d ab 00 39 bb
       0.01814187 0.019868715 0.07526882 -0.0028229158
0000f0 fa 94 cf b9 a0 59 bc b6 44 02 01 bc de 47 9a b5
       -0.00039593113 -5.6132703e-06 -0.007874075 -1.149481e-06

3.weight f4 [64, 64]
000000 2d dc aa 8a 81 9d 3c 2f 6e 05 66 88 15 76 06 80
       -1.6453225e-32 1.7154457e-10 -6.921949e-34 -5.93373e-40
000010 40 0c 29 be 13 73 38 bd 80 56 4a ba 13 9c 06 80
       -0.16508579 -0.04503162 -0.0007718578 -6.07002e-40
000020 da 38 06 00 76 a3 33 be e0 6a f2 b5 69 a8 24 3e
       5.71407e-40 -0.17542824 -1.806151e-06 0.16079868
000030 37 4a 06 80 d9 a8 42 3e 6e a8 03 be 43 d8 20 3e
       -5.77636e-40 0.19009723 -0.1285722 0.15707497
000040 08 ba f4 39 f8 9c 41 b2 4e 09 04 bc 56 f2 0e be
       0.0004667791 -1.1269769e-08 -0.008058859 -0.13959631
000050 bf 82 55 b9 f3 60 05 00 80 99 d3 bd be 8c bb 92
       -0.0002036197 4.93956e-40 -0.10332012 -1.1836055e-27
000060 b9 a0 58 04 25 28 85 20 84 bd 2d 3e ca 5a 11 bb
       2.5464478e-36 2.2557642e-19 0.16966826 -0.0022179359
000070 7a 6b 30 b5 35 24 08 bb a6 c7 17 be 09 c1 2b be
       -6.572151e-07 -0.0020773534 -0.14822254 -0.16772856
000080 71 01 d0 bd 44 98 95 bd d7 5f 05 00 2a 9a e4 b0
       -0.10156525 -0.07304433 4.93558e-40 -1.6632999e-09
000090 1c 01 a5 3d 0c 14 8d b6 8a 93 f8 bd a7 46 0d be
       0.08056852 -4.204461e-06 -0.12137516 -0.13796483
0000a0 f6 69 05 00 b0 8f 26 3e b8 1d 06 80 2d ef d5 11
       4.97189e-40 0.1626575 -5.61674e-40 3.3752878e-28
0000b0 dd ad 4c 3e 66 6e 06 80 49 e2 18 26 b6 b6 00 04
       0.19988199 -5.90616e-40 5.3042267e-16 1.5130224e-36
0000c0 71 9c d6 3a 10 76 26 be 6f b3 c8 bd 25 3c cc bc
       0.0016373527 -0.16255975 -0.09799849 -0.024931023
0000d0 53 38 0a be 0b a5 bf 88 38 94 06 00 0b bd d3 bd
       -0.13498048 -1.1534196e-33 6.04184e-40 -0.103387915
0000e0 16 11 2a bc 78 fd 25 be d3 e9 3e 3e 2e d7 fe 33
       -0.01038005 -0.16209972 0.18643884 1.1866938e-07
0000f0 d0 7e 05 80 e1 66 06 80 3d 9b f5 bd cd 8a 06 80
       -5.04669e-40 -5.87919e-40 -0.119925 -6.00805e-40
000100 6f da 06 00 53 4f 8b a9 68 84 05 80 60 23 06 00
       6.29372e-40 -6.1866006e-14 -5.06676e-40 5.63703e-40
000110 7e 8e f3 3d 16 35 93 3d 90 22 bd ba 02 be 06 80
       0.118924126 0.0718786 -0.0014429856 -6.19175e-40
000120 72 1e 06 80 dc ad c3 3d 2e 4e 1b 30 07 74 df bd
       -5.61935e-40 0.095546454 5.649977e-10 -0.10910802
000130 98 ab 06 80 07 4e 8a bc 0e 64 d4 3d 05 60 cb bd
       -6.12569e-40 -0.01688291 0.103706464 -0.09930424
000140 9a c1 77 b7 d7 f8 b5 29 69 17 e4 3b 56 5d fb 3d
       -1.4767424e-05 8.0811815e-14 0.0069607985 0.12273662
000150 04 9d 8a 34 b2 94 06 80 82 f8 0b 3e d4 40 06 80
       2.5818747e-07 -6.04355e-40 0.13669017 -5.74269e-40
000160 48 05 95 0d c2 b9 3a b4 5f 29 10 be 2c a7 ae 3a
       9.184105e-31 -1.7390178e-07 -0.14078282 0.0013324968
000170 c2 c3 05 80 d6 66 81 3c e5 4d 02 3e 49 86 11 3e
       -5.29402e-40 0.015796106 0.12725027 0.14211382
000180 94 27 ab 3d 49 58 bc 3d 08 7b 05 80 62 45 32 3a
       0.08357158 0.091965266 -5.03313e-40 0.00068005
000190 ee 53 a3 3d 65 9c 05 00 43 1c 00 3e b2 24 bd 3d
       0.07974993 5.15281e-40 0.12510781 0.09235515
0001a0 e2 c8 05 00 e3 b1 06 be fa c4 05 00 b6 79 7f 3a
       5.3124e-40 -0.13153796 5.2984e-40 0.00097456144
0001b0 16 6f 00 be 3a eb 05 00 1e 4e 02 0c e2 45 06 80
       -0.12542376 5.43561e-40 1.0038343e-31 -5.76082e-40
0001c0 7c 2b ef b9 97 50 db 3d 1d 34 03 3e 44 b0 00 3e
       -0.0004561803 0.10708731 0.12812848 0.1256724
0001d0 ed 01 0b 3e bc c7 e8 b9 f1 8a 05 80 0d 5e 0b 3e
       0.13574953 -0.00044399302 -5.0902e-40 0.13610096
0001e0 01 eb d7 3d c3 31 ec 3d 5a 8f b5 bd 39 11 95 b7
       0.1054287 0.11532929 -0.08865233 -1.7770204e-05
0001f0 44 40 06 80 aa 58 06 00 46 e7 0d 3e dd d0 06 00
       -5.74067e-40 5.8282e-40 0.13857755 6.25939e-40
000200 f8 67 78 05 4c bd 2d a4 13 e7 88 0d 49 bf 49 9e
       1.168e-35 -3.7673736e-17 8.437276e-31 -1.0680408e-20
000210 21 b6 00 0c ad 64 05 80 73 73 c1 13 17 a3 05 80
       9.915569e-32 -4.95293e-40 4.883389e-27 -5.17683e-40
000220 fe 76 05 00 a4 2b c8 a4 03 77 4f 26 ee ef 04 bb
       5.01864e-40 -8.6810104e-17 7.1978843e-16 -0.002028461
000230 d5 a7 2c 84 cb 1e ed b9 c8 f8 b8 b6 b4 e1 af ba
       -2.0295568e-36 -0.00045227105 -5.5125893e-06 -0.0013418705
000240 01 6c 59 97 44 73 05 00 93 7c 05 00 e2 64 da 95
       -7.02528e-25 5.00527e-40 5.03866e-40 -8.8208664e-26
000250 31 ec 15 16 5f 39 06 00 a8 53 68 b4 53 6e 05 00
       1.2110653e-25 5.71594e-40 -2.1637118e-07 4.98754e-40
000260 2f d5 06 00 60 5e 05 00 65 fe cd ba c0 80 05 80
       6.27489e-40 4.93033e-40 -0.0015716074 -5.05364e-40
000270 53 9b 05 00 0a 7c 05 00 e8 81 dc ab 42 5a 05 80
       5.14897e-40 5.03674e-40 -1.5667996e-12 -4.91556e-40
000280 09 af 36 b5 f0 6f 8c b0 49 59 05 80 5c 85 05 80
       -6.8054993e-07 -1.0218155e-09 -4.91207e-40 -5.07018e-40
000290 bc 53 06 00 22 68 05 00 6c 90 73 8c e9 40 b8 0e
       5.81051e-40 4.96533e-40 -1.87635e-31 4.542201e-30
0002a0 61 66 05 80 75 0c 16 ba 30 33 e4 0d 59 ec 03 00
       -4.95904e-40 -0.0005723902 1.4063908e-30 3.60292e-40
0002b0 65 b6 87 ba 50 74 05 00 dc 7e 05 00 cd 6e 05 80
       -0.001035404 5.00903e-40 5.04686e-40 -4.98925e-40
0002c0 ae 92 06 00 44 5f 05 00 9b 27 c7 b3 44 84 41 80
       6.03632e-40 4.93352e-40 -9.273864e-08 -6.016755e-39
0002d0 d8 d9 30 b6 37 78 05 00 5d c3 05 00 01 7e 99 af
       -2.6352845e-06 5.02302e-40 5.2926e-40 -2.792007e-10
0002e0 da 30 c2 b9 22 df 1f a4 c1 0b 83 ba a8 81 33 a6
       -0.0003703896 -3.466663e-17 -0.000999801 -6.227882e-16
0002f0 d2 5e 05 80 d8 6e 24 86 30 e8 a6 04 1c 59 05 00
       -4.93193e-40 -3.0926407e-35 3.9239643e-36 4.91144e-40
000300 08 7e 05 80 86 e5 bf 83 a7 3c 11 00 0b 69 05 80
       -5.04389e-40 -1.1278667e-36 1.582961e-39 -4.9686e-40
000310 21 e4 05 00 61 7d 05 80 b2 e3 3f 02 7e 9e 05 00
       5.41015e-40 -5.04155e-40 1.4097809e-37 5.16034e-40
000320 76 7b 05 00 87 2d 05 80 14 62 05 00 4a b1 06 00
       5.03467e-40 -4.7551e-40 4.94361e-40 6.14612e-40
000330 31 5e 05 00 35 83 05 80 5a 5f 05 00 5d 61 05 00
       4.92967e-40 -5.06246e-40 4.93383e-40 4.94105e-40
000340 d1 a3 05 00 4a 75 05 80 68 16 06 80 9f 67 05 00
       5.17944e-40 -5.01253e-40 -5.59051e-40 4.9635e-40
000350 4a 5b 05 00 6c 1a 06 80 5f 7b 05 00 23 60 05 80
       4.91926e-40 -5.60491e-40 5.03435e-40 -4.93665e-40
000360 e6 d5 05 00 11 e0 05 00 89 ce 06 80 33 a7 06 80
       5.3591e-40 5.39557e-40 -6.25104e-40 -6.10993e-40
000370 17 4b 06 00 83 70 06 80 5d 9b 05 80 72 57 05 00
       5.7795e-40 -5.91375e-40 -5.14911e-40 4.90547e-40
000380 8d 41 06 00 2a 42 06 80 50 89 05 00 74 a1 06 00
       5.74528e-40 -5.74748e-40 5.08436e-40 6.08931e-40
000390 44 7e 05 80 76 fa 97 80 43 70 06 80 24 41 1e 08
       -5.04473e-40 -1.3957008e-38 -5.91285e-40 4.762297e-34
0003a0 fa 66 05 80 13 7e 05 80 3a 41 83 04 4e 60 05 80
       -4.96119e-40 -5.04404e-40 3.0857853e-36 -4.93725e-40
0003b0 45 38 06 80 2b 5b 05 00 1f da 06 00 60 d3 06 00
       -5.71199e-40 4.91882e-40 6.2926e-40 6.2684e-40
0003c0 ea cd 05 00 b7 18 06 80 48 bc 05 00 64 58 05 80
       5.33046e-40 -5.59879e-40 5.2672e-40 -4.90886e-40
0003d0 fd f5 1d a4 c1 85 05 00 81 9c 06 00 dc 66 05 00
       -3.425231e-17 5.0716e-40 6.07156e-40 4.96076e-40
0003e0 f3 8b 05 80 84 89 91 86 4c 78 05 00 b4 77 05 80
       -5.09382e-40 -5.4745e-35 5.02332e-40 -5.02119e-40
0003f0 24 6c 05 80 7b 5f 05 80 5f c6 05 00 fb 7a 05 00
       -4.97971e-40 -4.9343e-40 5.3034e-40 5.03295e-40

3.bias f4 [64]
000000 53 90 8c 3d ad 7e a6 bb e0 98 09 bc 58 2d cf b9
       0.06863465 -0.005081019 -0.008398265 -0.000395159
000010 31 b0 25 bc 76 71 32 bc 9d f0 27 bc 0d 79 7a 3d
       -0.010112808 -0.010891309 -0.010250238 0.0611506
000020 de 82 f8 bb 83 55 ae bb 02 43 45 3c 69 bf bf bb
       -0.00758396 -0.0053202524 0.012039902 -0.0058516753
000030 d0 a8 a5 3c b0 38 73 3c fc d9 c1 3c a7 1d c5 3c
       0.020222098 0.014845058 0.023663513 0.02406199
000040 6f 40 3c 3d e0 4a 67 bb cd 3f 40 bb 97 4e 82 bb
       0.045959886 -0.0035292432 -0.0029334903 -0.003976654
000050 62 d3 bc bb b1 ec 86 3d 07 c2 49 b0 17 07 1b bc
       -0.0057625035 0.06588114 -7.3399103e-10 -0.00946214
000060 d8 52 bf bb e4 04 ba 3c f3 fc aa bb 0d 6c a0 bb
       -0.005838733 0.02270741 -0.005218142 -0.004895693
000070 b1 a2 a2 3d d5 c7 a8 bb 0b a1 67 bb 20 0a f3 3c
       0.07941187 -0.005150775 -0.0035343792 0.029667914
000080 e3 31 be bb 7f 1f 2b bc 36 24 da b3 61 3d 3d bb
       -0.005804287 -0.010444521 -1.0158003e-07 -0.0028875696
000090 e8 5e b4 3d 3e 3f 63 3d 04 e8 05 3d fe de 9a 3d
       0.088071644 0.055480234 0.03269197 0.07562064
0000a0 e1 49 48 3c b9 29 9d bb d5 8d 59 bb a5 f8 59 bb
       0.012224645 -0.0047962335 -0.003319611 -0.0033259776
0000b0 d0 0c 8f bb af c1 93 3d b5 7d 80 bb be ae 19 3d
       -0.004365541 0.072146766 -0.0039212354 0.037520163
0000c0 b3 8d 93 3d be 53 13 bc f7 97 8d 3c 02 2f 4e 3d
       0.07204761 -0.008992134 0.017284377 0.0503378
0000d0 b8 95 08 3d ef ec 34 bb 03 1a b3 bb b8 bf b9 bb
       0.033345908 -0.0027607044 -0.0054657473 -0.0056686066
0000e0 dd ac aa 3c 65 13 cd 3c f8 55 b1 3d ee 03 6d bb
       0.02083438 0.025033662 0.08658975 -0.0036165672
0000f0 02 80 ac bb 6b 6a b1 3c 6d c2 72 3c 7d 5b 7f 3c
       -0.005264283 0.02165719 0.0148168625 0.015585777

6.weight f4 [4, 64]
000000 fb ca 06 80 6a 71 06 00 11 61 06 80 7c 77 06 00
       -6.23829e-40 5.91698e-40 -5.85834e-40 5.93876e-40
000010 fd 99 06 80 32 b8 05 00 2e dc 05 80 ac 75 06 80
       -6.06254e-40 5.25254e-40 -5.38163e-40 -5.93226e-40
000020 f3 ca 06 80 71 97 06 00 ea 21 06 00 28 de 05 00
       -6.23817e-40 6.0534e-40 5.63179e-40 5.38872e-40
000030 5c 19 06 00 61 46 06 00 41 49 06 00 29 9f 05 00
       5.6011e-40 5.7626e-40 5.77292e-40 5.16273e-40
000040 be c9 05 00 73 69 06 80 6c 88 06 80 36 1b 06 00
       5.31549e-40 -5.88841e-40 -5.99952e-40 5.60774e-40
000050 d0 97 06 00 f4 46 06 80 15 cc 05 00 02 e5 05 00
       6.05473e-40 -5.76466e-40 5.32388e-40 5.4133e-40
000060 73 d2 06 80 37 52 06 80 9c c8 05 00 0d c7 06 80
       -6.26508e-40 -5.80506e-40 5.31143e-40 -6.22419e-40
000070 4f 89 05 00 a9 50 06 00 dd 52 06 00 b2 8a 06 00
       5.08435e-40 5.79948e-40 5.80739e-40 6.00767e-40
000080 b0 c3 06 80 a1 33 06 80 1e 0c 06 00 2e a6 05 80
       -6.21212e-40 -5.69534e-40 5.5536e-40 -5.18792e-40
000090 c0 c1 05 80 5e be 05 00 14 54 06 80 52 55 06 80
       -5.28682e-40 5.27468e-40 -5.81175e-40 -5.8162e-40
0000a0 d6 22 06 00 b5 27 06 80 f4 61 06 80 5e db 05 80
       5.6351e-40 -5.65257e-40 -5.86152e-40 -5.37872e-40
0000b0 1e 5f 06 00 0c 71 05 00 6a 85 06 80 e0 5e 06 00
       5.85135e-40 4.99731e-40 -5.98873e-40 5.85048e-40
0000c0 81 8b 06 00 9b d5 05 00 64 bf 05 00 f6 41 06 00
       6.01058e-40 5.35805e-40 5.27836e-40 5.74675e-40
0000d0 2c 01 06 80 2c 1c 06 80 ae cc 05 00 4c bf 05 00
       -5.51433e-40 -5.61119e-40 5.32603e-40 5.27802e-40
0000e0 40 16 06 00 d5 03 06 80 96 6b 05 00 1b e9 05 00
       5.58995e-40 -5.52388e-40 4.97772e-40 5.428e-40
0000f0 c1 bc 06 00 36 ce 06 80 ba 94 06 80 61 cf 06 00
       6.18725e-40 -6.24988e-40 -6.04366e-40 6.25407e-40
000100 7d b3 05 80 d4 2d 06 80 13 93 05 00 00 9d 05 00
       -5.23566e-40 -5.67453e-40 5.11938e-40 5.15498e-40
000110 31 be 06 80 3a 80 05 00 82 a8 05 00 61 97 06 80
       -6.19241e-40 5.05177e-40 5.19627e-40 -6.05317e-40
000120 a6 72 06 00 6e 3e 06 00 9e 3b 06 80 6b e4 05 80
       5.92141e-40 5.73409e-40 -5.724e-40 -5.41118e-40
000130 f1 79 06 80 9a ba 06 80 37 15 06 80 db aa 06 00
       -5.94757e-40 -6.17953e-40 -5.58623e-40 6.12304e-40
000140 b1 d3 05 00 86 cb 06 00 54 3c 06 80 97 be 05 80
       5.35118e-40 6.24023e-40 -5.72655e-40 -5.27548e-40
000150 a6 5f 06 80 e2 db 05 00 85 2e 06 00 60 01 06 00
       -5.85325e-40 5.38057e-40 5.67701e-40 5.51506e-40
000160 40 ca 06 00 77 62 06 00 7d bb 05 00 46 c2 05 80
       6.23567e-40 5.86336e-40 5.26436e-40 -5.2887e-40
000170 c9 b3 06 00 e2 ae 06 80 ba 72 05 80 65 64 06 00
       6.15508e-40 -6.13749e-40 -5.00334e-40 5.87028e-40
000180 c2 bb 06 00 55 e8 05 00 d7 39 06 00 db 2b 06 00
       6.18368e-40 5.42523e-40 5.71762e-40 5.66745e-40
000190 9e f5 05 00 3a 84 05 00 6a ea 05 80 78 a1 06 00
       5.47288e-40 5.06611e-40 -5.4327e-40 6.08937e-40
0001a0 fb f6 05 80 02 c9 05 00 06 da 06 80 19 2e 06 00
       -5.47777e-40 5.31285e-40 -6.29225e-40 5.6755e-40
0001b0 c6 f0 05 00 e7 78 06 00 73 ca 05 00 d7 6a 05 00
       5.45551e-40 5.94385e-40 5.31803e-40 4.97504e-40
0001c0 5f 78 06 80 07 0a 06 00 73 e6 05 80 95 72 06 80
       -5.94194e-40 5.5461e-40 -5.41847e-40 -5.92117e-40
0001d0 37 04 06 80 0a 35 06 00 4e c5 06 80 6e 7e 05 00
       -5.52525e-40 5.7004e-40 -6.21793e-40 5.04532e-40
0001e0 db c1 06 00 52 b4 06 00 30 c3 06 00 3b 43 06 00
       6.20555e-40 6.157e-40 6.21033e-40 5.75131e-40
0001f0 9c a5 05 00 c8 4f 06 80 65 8d 06 80 a7 b2 06 00
       5.18587e-40 -5.79633e-40 -6.01736e-40 6.15101e-40
000200 a4 59 75 3e 58 6f 0f be 64 d2 e1 ba 9a 42 64 37
       0.23959976 -0.14007318 -0.0017228839 1.3605366e-05
000210 bf 99 ef 39 47 12 25 ba 3b cf b3 b9 3e 17 60 3e
       0.00045700182 -0.0006296974 -0.0003429594 0.21883866
000220 26 6d 95 b9 83 a1 9f ad e8 04 23 be 53 7e 41 3a
       -0.00028500817 -1.8147933e-11 -0.1591984 0.00073811895
000230 3a 7c 22 be 0e 01 35 be 4d d5 2d be 9d 5f 2d be
       -0.15867701 -0.17676184 -0.16975899 -0.16931005
000240 3f 78 74 3e ff 82 05 80 39 63 05 00 56 bd 8a ba
       0.23873995 -5.0617e-40 4.94772e-40 -0.0010584991
000250 a4 e0 f6 2d 37 cd 6a 3e 37 74 05 80 0b 1f b2 ba
       2.8066723e-11 0.22929846 -5.00868e-40 -0.0013589574
000260 4b 43 56 37 6b a8 13 be 5e e4 74 2c db 37 01 31
       1.2771062e-05 -0.14419715 3.4801255e-12 1.880372e-09
000270 c5 78 8e 3e 22 93 34 b9 42 23 1a 9a 9e c2 14 be
       0.27826515 -0.00017220949 -3.1874935e-23 -0.14527366
000280 45 c5 ea 36 6c 8a 7b ba e7 74 05 80 6c 64 3c bb
       6.9967086e-06 -0.00095955166 -5.01114e-40 -0.002874638
000290 f0 7b 8f 3e ad e3 6e 3e cb ad 1c be e9 c0 82 3e
       0.28024244 0.23329039 -0.15300672 0.25537804
0002a0 58 da 13 be af 86 2c ba 3a 0b 0e 32 a8 66 05 80
       -0.1443876 -0.0006581349 8.2680405e-09 -4.96004e-40
0002b0 ba 46 d0 ba 35 d6 69 3e af ef 9d 36 b0 0f 39 be
       -0.0015890219 0.2283562 4.7068675e-06 -0.1807239
0002c0 1b e1 73 3e 9d d2 cd 3a 70 66 40 be 93 35 7a 3e
       0.2381634 0.0015703026 -0.18789077 0.244345
0002d0 c5 a5 28 be e9 0c 97 a6 1f 20 7d b9 56 25 c5 35
       -0.16469486 -1.0481229e-15 -0.00024139926 1.468851e-06
0002e0 c0 c5 31 be 41 23 36 be 21 03 83 3e c7 54 03 00
       -0.17360592 -0.17786886 0.25588325 3.05919e-40
0002f0 fa 90 e5 b9 b7 3b 20 be 43 16 26 be 7f 9d 1d be
       -0.000437863 -0.1564778 -0.1621943 -0.15392111
000300 02 64 7b 3e 8f 67 f9 bd be dd 2d ba 0c d4 11 37
       0.24549869 -0.12177955 -0.00066324684 8.6920445e-06
000310 3b 3c 39 3a b9 98 ad 39 81 a1 07 3a 22 e5 5d 3e
       0.0007066165 0.0003311092 0.0005173907 0.21669438
000320 7d e7 a6 b9 c3 45 a8 ac ee 70 f7 bd 24 41 77 3a
       -0.0003183446 -4.7825923e-12 -0.120820865 0.0009432009
000330 ae 63 16 be 92 fe 1c be 4b f6 29 be 63 fd 22 be
       -0.14686462 -0.15331486 -0.1659786 -0.15916972
000340 7a 39 72 3e 76 5c 05 00 3f 5b 05 00 87 3f 26 3b
       0.23654738 4.92346e-40 4.9191e-40 0.0025367455
000350 e1 2b ba 32 49 2f 6b 3e 87 9a 05 80 c8 85 d5 ba
       2.1673204e-08 0.22967257 -5.14611e-40 -0.001629048
000360 26 2c cc 37 5c f0 1f be 14 11 cd 2b 9f 22 d9 2e
       2.4339253e-05 -0.15619034 1.4570866e-12 9.8741675e-11
000370 74 e2 86 3e 33 d0 0e b9 9c 12 3f aa 54 0a 15 be
       0.26344645 -0.00013619736 -1.6970664e-13 -0.14554721
000380 02 4b c1 36 01 4d a3 39 ad ae 05 80 0b a1 63 bb
       5.7605803e-06 0.00031147155 -5.2184e-40 -0.003473344
000390 23 bb 87 3e e9 4f 61 3e 19 19 13 be 63 c6 80 3e
       0.2650996 0.2200314 -0.14365043 0.25151357
0003a0 d0 60 01 be cd de f7 ba 2e 0c c3 32 74 7c f0 01
       -0.12634587 -0.0018911004 2.2706526e-08 8.834066e-38
0003b0 03 46 74 bb c4 27 65 3e 0d b8 ae 36 b9 a5 29 be
       -0.0037273176 0.2237845 5.2070304e-06 -0.16567124
0003c0 d4 20 77 3e 88 cc 97 3b 55 a5 14 be 2f 70 75 3e
       0.24133617 0.0046325363 -0.14516194 0.23968576
0003d0 fb d0 1c be e6 c7 88 a4 85 11 19 b9 76 79 d9 36
       -0.15314095 -5.931924e-17 -0.00014597744 6.481244e-06
0003e0 99 17 2f be c1 bf 19 be 7e 85 7e 3e db d1 14 80
       -0.17098846 -0.15014555 0.2485561 -1.911992e-39
0003f0 9d a2 a7 b9 8b cd 1c be c8 96 0d be 57 f4 09 be
       -0.00031973879 -0.15312783 -0.1382705 -0.13472115

6.bias f4 [4]
000000 00 00 00 00 00 00 00 00 3c 5d a6 3d 29 cd 4d bd
       0.0 0.0 0.08123252 -0.050244484
