models/reinforce_ep1000.pth (torch, 115817 bytes, 18 tensors)

0.weight f4 [64, 70]
-1.2102499e-05 3.0877643e-26 -2.326657e-11 -2.4940045e-24 1.1745561e-08 -5.8186514e-21 1.0525467e-05 -2.0140822e-05
9.965807e-06 8.268726e-12 -2.3415875e-08 -1.21910135e-08 -1.1558844e-05 -6.9837166e-28 -1.13976475e-05 5.908606e-26
2.9792623e-11 2.9285702e-24 -4.22581e-06 -1.025323e-26 -1.7954882e-05 -1.5434804e-05 -2.1725677e-08 1.420388e-10
1.395889e-13 -1.2376007e-08 1.5413276e-05 1.5524718e-28 -1.5969732e-05 8.561018e-26 1.8722316e-07 3.0224251e-24
-7.743833e-06 -1.4521085e-26 -1.7493712e-05 -1.0072877e-05 1.375482e-25 8.740015e-06 3.225959e-24 -4.596603e-06
5.703987e-27 -1.8054623e-05 -1.0254022e-05 1.5790323e-25 1.8517667e-05 2.7682723e-24 -6.0911643e-06 5.7572983e-27
-1.6922395e-05 1.21096166e-26 -3.4052545e-27 -4.312287e-27 1.21035075e-26 8.9904e-27 -7.7091316e-28 -2.7248504e-27
8.105575e-28 -1.4422918e-27 -1.1176496e-26 -2.3580957e-27 -1.496799e-27 -3.2983157e-27 -9.072809e-27 -3.950313e-27
5.948821e-28 -9.95904e-27 -5.135281e-27 1.2494973e-27 5.5103802e-27 7.4332545e-27 -0.0006701977 6.540445e-26
-5.7450293e-06 3.1315404e-19 4.7295172e-05 6.8336525e-10 0.00043460142 -0.00052719424 0.00047413533 4.1790136e-06
-4.1142743e-05 -3.4817916e-05 -0.0005703329 -1.5345532e-26 -0.0005450356 4.3410054e-25 8.677111e-06 -2.5769351e-19
-0.00023176348 6.1237605e-28 -0.00059605937 -0.0005829351 -4.1406507e-05 7.0633246e-06 2.4809683e-06 -4.447186e-05
0.00066557835 1.4587183e-26 -0.0005482905 8.8553544e-26 0.00013458593 -2.3213242e-19 -0.00033936204 -3.243445e-27
-0.00047726056 -0.00041698923 1.14324e-25 0.0005330399 -2.9958796e-19 -0.00042907972 4.3850786e-27 -0.00037879287
-0.0005774157 2.6625234e-25 0.0003506289 -2.9665972e-19 -0.0004765461 7.644697e-27 -0.0004543176 -1.9883276e-27
-1.0053761e-27 -8.170432e-27 8.35428e-28 7.663039e-27 5.2456716e-27 1.0565251e-28 -1.0240028e-27 4.8811296e-27
-4.5779066e-27 -1.1374938e-28 -1.3100263e-26 1.4794456e-26 -1.4771823e-27 -8.983056e-29 -1.2102988e-26 -1.6434766e-26
5.9613872e-27 2.0575214e-27 5.7097317e-27 -7.669847e-27 0.13831739 0.08646569 0.27360284 0.026299324
-0.12724118 0.03349123 -0.13221617 0.13752821 -0.08731354 -0.1273798 0.12963559 0.09591797
0.13330641 -0.11203025 0.13732857 -0.037251472 -0.055848844 0.017201364 0.06632311 0.03235502
-0.17917228 0.16940737 -0.011186037 -0.08113849 2.8167755e-05 0.12641957 0.0093629835 -0.07766935
0.18917863 0.054075267 -0.080070324 -0.07789148 0.13919452 -0.07799161 -0.015650148 0.20848611
0.088174455 -0.08827458 -0.097753055 0.15025474 -0.10700174 0.04610399 0.19864418 0.058713786
-0.08513733 -0.0887114 0.14777921 -0.08535084 0.05062705 0.19023447 0.022951316 -0.10202684
-0.049557302 0.16498712 -0.0340107 0.10159449 0.17185152 -0.020565711 -0.14751112 0.010529559
0.18450804 0.010017648 0.143389 0.115749545 -0.012292577 -0.15030563 -0.024567287 0.14660507
-0.018571617 0.14270952 -1.0925022e-05 -1.2317842e-26 -1.2002112e-11 1.1936392e-24 7.3452378e-09 -6.2165168e-21
1.0546254e-05 -8.513275e-06 9.2057435e-06 2.0159863e-12 -3.8111146e-08 -7.500895e-09 -1.143699e-05 7.387142e-27
-1.2275663e-05 -1.5731315e-25 7.3895065e-12 -8.858066e-25 -2.8938084e-06 3.9574738e-28 -1.6385704e-05 -1.1048902e-05
-1.9729066e-08 4.895077e-11 -3.083514e-15 -6.2941714e-09 1.2127338e-05 4.5244667e-27 -1.3800138e-05 -1.5691163e-25
1.0802618e-07 -8.1884467e-25 -6.985136e-06 1.4329327e-27 -1.6382673e-05 -1.060776e-05 -1.2760976e-25 4.639153e-06
-2.3577248e-24 -3.0811623e-06 3.1613774e-27 -9.973325e-06 -1.5786933e-05 -1.4118564e-25 1.6485554e-05 -9.853256e-25
00000000: d60b 4bb7 10e6 1815 a8a7 ccad d9f6 4098
00000010: 86c9 4932 8bd2 db9d 8996 3037 16f4 a8b7
00000020: d132 2737 0877 112d 0e24 c9b2 a570 51b2
00000030: dbec 41b7 a452 5d92 8638 3fb7 3d4a 9215
00000040: 8307 032e 4f96 6218 6ecb 8db6 0d16 4b94
00000050: d19d 96b7 fd79 81b7 459f bab2 5e2c 1c2f
00000060: c329 1d2a 419e 54b2 c24b 8137 97cc 4411
00000070: bdf6 85b7 e6f5 d315 8307 4934 4cd9 6918
00000080: 82eb 01b7 53cf 8f94 76bf 92b7 adfe 28b7
00000090: c446 2a16 14a2 1237 b398 7918 853c 9ab6
000000a0: 4df5 e113 0274 97b7 b008 2cb7 8879 4316
000000b0: 6356 9b37 482f 5618 b462 ccb6 f111 e413
000000c0: 91f4 8db7 0ddb 6f14 62e5 8693 c9d3 aa93
000000d0: 13bc 6f14 be12 3214 e84f 7492 88e2 5793
000000e0: 1e70 8012 4e8a e492 915f 5d94 ddd3 3a93
000000f0: 612d ed92 e5a8 8293 9bb4 3394 ef7c 9c93
00000100: 9286 3c12 5542 4594 f06d cb93 a2fd c512
00000110: e549 da13 143b 1314 35b0 2fba ffee a115
00000120: 6dc5 c0b6 80da b820 ce5e 4638 8ed7 3b30
00000130: 37db e339 6833 0aba 5e95 f839 7439 8c36
00000140: af90 2cb8 7409 12b8 6582 15ba 8cf9 9794
00000150: b8e0 0eba fd58 0617 e893 1137 8b1d 98a0
00000160: 8905 73b9 d911 4212 de40 1cba 1dd0 18ba
00000170: e6ab 2db8 7f01 ed36 b67e 2636 4c87 3ab8
00000180: 357a 2e3a e776 9014 27bb 0fba 7a3f db15
00000190: a31f 0d39 dc06 89a0 67ec b1b9 717c 8093
000001a0: d438 fab9 599f dab9 b986 0d16 b4bb 0b3a
000001b0: 74d8 b0a0 1bf6 e0b9 fbb5 ad13 b898 c6b9
000001c0: b65d 17ba 5ecd a416 9dd4 b739 f31d afa0
000001d0: efd8 f9b9 386b 1714 7a31 eeb9 1388 1d93
000001e0: e64e 9f92 03d5 2194 fc60 8412 39c8 1714
000001f0: 6ecd cf13 33ee 0511 7d42 a292 895c c113
00000200: 7d59 b593 c931 1091 1dbd 8194 6784 9214
00000210: a211 ea92 5ebf e390 71b9 6f94 15c3 a294
00000220: a627 ec13 7e03 2313 8f2f e213 bfea 1794
00000230: 13a3 0d3e ec14 b13d ac15 8c3e ae71 d73c
00000240: 834b 02be 1a2e 093d ad63 07be 32d4 0c3e
00000250: 71d1 b2bd da6f 02be 31bf 043e a470 c43d
00000260: 7a81 083e 1e70 e5bd dc9f 0c3e 0095 18bd
00000270: c2c1 64bd e0e9 8c3c 69d4 873d b386 043d
00000280: f078 37be 2079 2d3e a445 37bc f02b a6bd
00000290: cb49 ec37 2274 013e 3367 193c 1c11 9fbd
000002a0: 0bb8 413e 077e 5d3d e9fb a3bd 9185 9fbd
000002b0: 0289 0e3e 11ba 9fbd bd34 80bc 627d 553e
000002c0: cf94 b43d 4ec9 b4bd c132 c8bd 61dc 193e
000002d0: ba23 dbbd 8ad7 3c3d 6169 4b3e de7d 703d
000002e0: 7b5c aebd 53ae b5bd 6f53 173e 6ccc aebd
000002f0: 4f5e 4f3d d3cc 423e 6604 bc3c 73f3 d0bd
00000300: 99fc 4abd 62f2 283e ce4e 0bbd c610 d03d
00000310: d8f9 2f3e 6c79 a8bc 280d 17be 2c84 2c3c
00000320: adef 3c3e 1021 243c 91d4 123e 190e ed3d
00000330: ce66 49bc b8e9 19be 5641 c9bc a41f 163e
00000340: 8123 98bc 7222 123e 9d4a 37b7 e1fa 7394
00000350: b524 53ad ecb4 b817 6561 fc31 76da ea9d
00000360: d1ef 3037 3dd4 0eb7 5e72 1a37 c8dc 0d2c
00000370: a6af 23b3 49dd 00b2 7fe1 3fb7 4351 1214
00000380: 92f3 4db7 87be 4296 61ff 012d 6a12 8997
00000390: 4033 42b6 afd5 fa11 0874 89b7 ac5e 39b7
000003a0: ad78 a9b2 ab49 572e cb30 5ea7 1e44 d8b1
000003b0: 8576 4b37 8b3b b313 2487 67b7 483f 4296
000003c0: 05fc e733 8f6b 7d97 dd61 eab6 a80e e312
000003d0: 866d 89b7 fbf7 31b7 26f9 1d96 05aa 9b36
000003e0: 8d6b 3698 f7c5 4eb6 5a78 7a13 1b53 27b7
000003f0: 2e6e 84b7 84c7 2e96 754a 8a37 c578 9897

0.bias f4 [64]
-1.5011144e-05 -0.000529533 0.13873667 -1.2404127e-05 0.117211714 -1.4936361e-09 0.030643828 0.035806637
-2.1723356e-08 0.14457864 -0.0004535855 -1.3304939e-11 0.033541363 -0.0050181234 0.021953147 0.024043987
-1.6698848e-06 -2.1618773e-09 0.073157996 0.14838663 -8.582153e-07 -5.765273e-05 0.14453924 0.1289348
-2.5870268e-06 0.040587887 0.15408047 0.017281884 -6.3641186e-09 0.12710692 0.15850666 0.15123227
0.030056471 -0.00012171007 -0.00810203 0.030753596 0.1306424 0.024140196 0.02151664 0.027622512
-0.0015017136 0.047135636 0.016386703 0.029803948 -0.009614946 -2.294813e-06 -3.9293404e-06 -7.1496475e-11
0.16861519 -5.59375e-08 0.16102482 0.026252458 0.12434758 0.0436675 0.1049553 0.19140258
0.029279944 0.08914205 -0.0013274049 -2.1671125e-11 0.14223064 0.16234142 0.14817284 0.17218454
00000000: 5fd8 7bb7 5cd0 0aba fc10 0e3e 521b 50b7
00000010: b20c f03d a648 cdb0 c408 fb3c fba9 123d
00000020: 2a9a bab2 6c0c 143e 37cf edb9 1e10 6aad
00000030: ab62 093d 126f a4bb 16d7 b33c e5f7 c43c
00000040: ce20 e0b5 2690 14b1 dcd3 953d aaf2 173e
00000050: 1b60 66b5 26d0 71b8 1802 143e 7c07 043e
00000060: c89c 2db6 7c3f 263d 45c7 1d3e bd92 8d3c
00000070: 61ab dab1 5128 023e 924f 223e a2dc 1a3e
00000080: fd38 f63c 993e ffb8 60be 04bc f7ee fb3c
00000090: 1fc7 053e a9c1 c53c aa43 b03c 9b48 e23c
000000a0: 26d5 c4ba 4c11 413d 683d 863c 6927 f43c
000000b0: 0288 1dbc 9600 1ab6 c7d8 83b6 f038 9dae
000000c0: 76a9 2c3e ef3f 70b3 b1e3 243e 650f d73c
000000d0: f2a9 fe3d b1dc 323d cef2 d63d 0aff 433e
000000e0: 7edc ef3c 1b90 b63d 51fc adba 099f bead
000000f0: e9a4 113e d43c 263e 9fba 173e 2551 303e

3.weight f4 [64, 64]
8.805127e-09 1.5732243e-25 0.23887277 2.4425605e-26 0.22927317 1.04119345e-10 0.032086596 0.027025297
2.1300857e-25 0.25140727 8.7160966e-05 9.920376e-25 0.02489916 0.0011167453 0.04928465 0.031293333
-2.05146e-09 2.0428813e-07 0.090271465 0.2466854 -7.8579114e-07 -7.6007615e-07 0.23220246 0.24393164
9.7893194e-11 0.026019897 0.23593114 0.024029521 -6.725553e-27 0.2413592 0.27468273 0.25427818
0.0129790725 1.5782296e-24 -0.0017545366 0.028622339 0.24083969 0.0374225 0.031379804 0.029127913
-0.0030790225 0.055374596 0.03005585 0.020599226 0.007792274 0.0009607804 7.01093e-09 2.1940396e-25
0.22760254 9.437216e-14 0.26068473 0.02425523 0.22597829 0.027572135 0.3176441 0.25092378
0.015459631 0.09516479 -8.4405684e-07 -4.7927846e-21 0.22338669 0.24857043 0.23469837 0.24498188
-8.603899e-05 3.6876103e-21 -0.0058586523 5.277624e-26 -0.001354395 -1.6904157e-24 -0.0005917187 -0.010148371
-4.613615e-27 -3.071262e-27 -0.0008351759 -3.32529e-27 0.00013678844 2.735081e-23 -0.0015840427 -0.003960512
1.4844961e-27 -0.00015343874 -1.7304785e-27 -0.002557821 4.067897e-05 -9.8158234e-05 -0.002948816 -9.63229e-05
-1.720807e-05 0.0015631664 -0.0043136715 -0.00433281 1.4370209e-26 -0.0010149686 -2.9915682e-06 -0.0017390964
0.00021169412 1.3823048e-27 -0.00019259687 -0.0015012962 -0.0023963288 0.00093477085 -0.00561795 -0.004945512
1.1948665e-27 -7.00866e-27 -0.005180929 -0.0013997459 -8.9482345e-11 4.8341165e-27 -6.907153e-05 -1.008123e-24
-0.007987422 -3.6605425e-06 -5.185191e-06 -0.0017225859 -0.003051302 -0.0032501076 9.797129e-27 0.0009647747
-0.0013614622 1.0959461e-11 1.6380494e-12 -5.9551044e-09 -0.0065710917 -1.8244723e-26 -0.005895516 -2.792706e-23
-3.2687765e-08 2.6754982e-25 -0.051098928 1.5829442e-26 -0.06438852 1.9309913e-13 0.10224116 0.090969145
1.1911902e-26 -0.06269319 -6.245757e-05 1.646719e-26 0.099160746 -2.2269394e-18 0.09611636 0.10610085
-8.642075e-27 -4.177883e-07 -0.045699406 -0.05518278 1.5505624e-06 -1.7427595e-08 -0.04941565 -0.056805324
-1.3639963e-10 0.11289306 -0.05377212 0.1095582 -3.8825284e-27 -0.066030934 -0.06992412 -0.06314914
0.1171666 8.002302e-27 -0.003032434 0.11441299 -0.057875153 0.111336544 0.115214154 0.09564312
9.9343023e-29 0.09901344 0.11001089 0.10358083 -0.0068735555 -1.9039472e-16 -3.468751e-08 2.7291703e-25
-0.023880733 -1.5049698e-12 -0.06955123 0.11087765 -0.056858886 0.10779619 -0.09927274 -0.032495864
0.12099018 -0.070837796 1.8558464e-06 -1.9543079e-20 -0.051227972 -0.046394665 -0.049717207 -0.045628626
-5.742494e-26 -2.373004e-26 3.0433215e-26 3.4223737e-27 -4.1918562e-27 -2.4621575e-26 1.3081625e-25 -9.752082e-26
-9.844814e-27 2.7461382e-28 -2.265643e-27 3.0348665e-27 3.5624348e-26 -1.639684e-26 1.3080214e-25 9.7690516e-27
-1.7606983e-27 -7.160793e-26 1.4534614e-26 2.2731243e-27 1.3231017e-25 4.651508e-26 -1.7115115e-27 8.043845e-27
-8.640894e-27 -9.2526377e-26 -2.450946e-26 1.19640224e-26 -2.346249e-27 -1.973154e-27 9.2463145e-26 1.0662084e-26
-1.4297275e-26 -6.967409e-27 3.261753e-27 1.789753e-25 -1.6920311e-26 9.349779e-26 3.848988e-27 7.664725e-27
1.8895121e-27 2.1534851e-27 1.5106582e-26 -5.721185e-26 -1.1264172e-26 -9.267553e-28 -8.093981e-26 -4.073631e-27
8.9965654e-26 -3.2123196e-26 -2.1706981e-27 5.3428884e-26 -6.005399e-28 1.2929672e-27 6.9241327e-28 1.6835966e-25
-1.384612e-26 1.7168493e-26 2.3585876e-26 -2.0796079e-26 -4.6486908e-26 -2.259753e-27 1.6616665e-26 8.1564277e-29
00000000: 5c45 1732 78c1 4216 109b 743e 44e6 f114
00000010: 96c6 6a3e fbf5 e42e 3c6d 033d 2864 dd3c
00000020: 8ed8 8316 74b8 803e 30ca b638 a882 9917
00000030: 53f9 cb3c c15f 923a b3de 493d 702d 003d
00000040: aaf9 0cb1 4b5a 5b34 3fe0 b83d 199b 7c3e
00000050: 28ef 52b5 0908 4cb5 7bc6 6d3e 37c9 793e
00000060: f844 d72e ae27 d53c ef97 713e 8fd9 c43c
00000070: 9b36 0594 de26 773e 37a3 8c3e c030 823e
00000080: 2da6 543c 1e38 f417 7bf8 e5ba 6579 ea3c
00000090: ae9e 763e 5648 193d 1c88 003d a99d ee3c
000000a0: 6dc9 49bb 79d0 623d b037 f63c b5bf a83c
000000b0: 5556 ff3b e2dc 7b3a cbe4 f031 f2cd 8716
000000c0: a410 693e d981 d429 7878 853e e7b2 c63c
000000d0: da66 673e f5de e13c 3fa2 a23e 1579 803e
000000e0: 644a 7d3c c2e5 c23d 2593 62b5 f810 b59d
000000f0: 7bbf 643e 3f89 7e3e c554 703e 88dc 7a3e
00000100: d56f b4b8 6150 8b1d f0f9 bfbb ebaa 8215
00000110: f485 b1ba 22ca 0298 921d 1bba 5a45 26bc
00000120: 9dc3 b693 9854 7393 b5ef 5aba 72ba 8393
00000130: de6e 0f39 aa42 041a a79f cfba 2fc7 81bb
00000140: 513a eb12 66e4 20b9 461a 0993 1ea1 27bb
00000150: b69e 2a38 4dda cdb8 ec40 41bb f700 cab8
00000160: 0d5a 90b7 29e3 cc3a b359 8dbb 3ffa 8dbb
00000170: cf50 8e14 b208 85ba c0c2 48b6 64f2 e3ba
00000180: 35fa 5d39 f208 db12 d4f3 49b9 24c7 c4ba
00000190: ba0b 1dbb 690b 753a c816 b8bb f60d a2bb
000001a0: 8b55 bd12 21d2 0a94 c8c4 a9bb ae77 b7ba
000001b0: 15c6 c4ae c47f bf13 7fda 90b8 deff 9b97
000001c0: addd 02bc a4a7 75b6 74fc adb6 64c8 e1ba
000001d0: 5af8 47bb c2ff 54bb 590d 4214 efe8 7c3a
000001e0: 1773 b2ba 06cd 402d f388 e62b a79d ccb1
000001f0: 5052 d7bb deaf b494 2c2f c1bb 070c 079a
00000200: 9464 0cb3 f69a a516 1c4d 51bd 67c4 9c14
00000210: 21de 83bd 0969 592a d063 d13d 084e ba3d
00000220: 85f0 6b14 4a65 80bd a7fb 82b8 4915 a314
00000230: ca14 cb3d b251 24a2 a7d8 c43d 674b d93d
00000240: 872c 2b94 634c e0b4 4d2f 3bbd 5707 62bd
00000250: eb1c d035 b0b3 95b2 1168 4abd b3ac 68bd
00000260: 15f9 15af 7a34 e73d 2840 5cbd 0d60 e03d
00000270: 84cd 9993 3a3b 87bd 6134 8fbd 5654 81bd
00000280: 0bf5 ef3d 7e80 1e14 cdbb 46bb 5c51 ea3d
00000290: 7f0e 6dbd 6a04 e43d 66f5 eb3d 8ae0 c33d
000002a0: 4fdd fb10 8fc7 ca3d 644d e13d 3022 d43d
000002b0: 903b e1bb 9a82 5ba5 52fb 14b3 6eed a816
000002c0: 87a1 c3bc 40ce d3ab e070 8ebd d213 e33d
000002d0: dde4 68bd 40c4 dc3d 824f cbbd 621a 05bd
000002e0: b3c9 f73d 6813 91bd 6616 f935 4494 b89e
000002f0: 6cd4 51bd 5508 3ebd 45a4 4bbd 15e5 3abd
00000300: 612d 8e95 cd02 eb94 afb2 1615 fe92 8713
00000310: 790e a693 1cd7 f394 53f1 2116 2a73 f195
00000320: 23ff 4294 a40e ae11 b380 3393 6872 7013
00000330: 3a67 3015 ee62 a294 daec 2116 fa7e 4114
00000340: 347f 0b93 eb4a b195 a0f1 8f14 7018 3413
00000350: c4ca 2316 de54 6615 9499 0793 2453 1f14
00000360: 8a26 2b94 8f15 e595 ddba f294 cdf8 6c14
00000370: 95e3 3993 5154 1c93 7bed e415 302f 5314
00000380: e697 8d94 f600 0a94 1b36 8113 898f 5d16
00000390: 1692 a794 447d e715 6079 9813 c6d0 1714
000003a0: dcb3 1513 de9d 2a13 bc9b 9514 51a6 8d95
000003b0: 231c 5f94 a9d9 9292 b365 c895 875f a193
000003c0: 82be de15 fd10 1f95 fdfa 2b93 9448 8415
000003d0: 9651 3e92 fbe0 cc12 3d6f 5b12 4e6b 5016
000003e0: 1620 8994 4d07 aa14 4d95 e914 53f4 cd94
000003f0: 2831 6695 3c09 3393 4090 a414 3eca ce10

3.bias f4 [64]
0.07570163 -0.0113201225 0.03215277 -0.00012714328 -0.008527751 0.04410835 -0.0049584415 -0.0037094234
0.08624562 -0.008348331 -0.004020841 -0.0047883643 -0.00939485 -0.0057624597 0.04267276 0.07793351
-0.009051816 -0.005823522 -0.011550972 -0.0068204384 -0.0048985295 -0.005535612 -0.0057000075 0.044430397
0.046082884 -0.0027189453 -0.00574065 0.1334814 -0.0047179675 -0.00471604 -0.009696661 0.04088718
-0.0032276637 0.08887457 -0.0044425516 0.08260678 -0.0035121257 0.094283804 -0.0077064577 -0.010392084
-0.005783262 0.073804416 0.0740367 0.03564389 -0.0035018898 -0.0048950817 -0.0016585484 -0.0038928082
-0.004263226 0.104201 0.07681033 0.0319613 -0.0017186995 -0.0037230446 0.08751694 0.034917306
-0.007811701 0.039638367 0.04497107 -0.011574145 -0.0032235035 -1.062808e-05 -0.0058506513 0.09062417
00000000: 7509 9b3d 0978 39bc 9fb2 033d c451 05b9
00000010: fbb7 0bbc f5aa 343d 6c7a a2bb cc19 73bb
00000020: 8ba1 b03d 70c7 08bc 42c1 83bb b6e7 9cbb
00000030: dbec 19bc 04d3 bcbb a2c9 2e3d 9b9b 9f3d
00000040: 114e 14bc 3ed3 bebb 4a40 3dbc fc7d dfbb
00000050: d883 a0bb 1464 b5bb 21c7 babb a6fc 353d
00000060: 68c1 3c3d 5530 32bb 101c bcbb 59af 083e
00000070: 2e99 9abb 0389 9abb bede 1ebc 5179 273d
00000080: 3687 53bb df03 b63d d392 91bb be2d a93d
00000090: b12b 66bb de17 c13d 7486 fcbb 8f43 2abc
000000a0: 8581 bdbb c526 973d 8ea0 973d 54ff 113d
000000b0: f67f 65bb ec66 a0bb a663 d9ba 7c1e 7fbb
000000c0: 88b2 8bbb 5567 d53d bc4e 9d3d dae9 023d
000000d0: fc45 e1ba 53fe 73bb 153c b33d 7305 0f3d
000000e0: 4cf9 ffbb d75b 223d 9633 383d 7ca1 3dbc
000000f0: 6a41 53bb 424f 32b7 d2b6 bfbb 2a99 b93d

6.weight f4 [4, 64]
1.6070403e-26 -3.202458e-28 -4.942624e-27 -4.565443e-27 1.9941447e-26 7.8472873e-28 7.577497e-27 6.707045e-27
-5.6641858e-27 1.6355089e-28 3.6076939e-28 -1.6551812e-26 -4.1092323e-27 -2.2764363e-26 -1.9935549e-26 5.190443e-28
1.14191445e-26 1.4486253e-26 -2.597127e-26 -8.0101126e-28 1.703804e-26 -5.500909e-27 2.2355276e-27 9.4726256e-27
-3.5720827e-27 -3.830821e-27 -3.6909866e-27 -1.0421479e-26 7.984548e-28 6.089463e-28 1.0145633e-26 -1.701356e-26
5.72148e-27 5.5835274e-27 -8.237475e-28 -1.715182e-26 -1.6989817e-26 3.201328e-28 -1.7661671e-27 -7.560815e-27
5.025531e-28 -2.2624477e-27 -2.260157e-27 -7.679192e-27 -4.733682e-28 -1.2093913e-27 -2.149056e-27 -9.7071784e-27
-1.7910378e-26 2.397739e-26 3.451037e-27 -6.4700746e-27 -1.5635887e-26 -9.277713e-27 3.7396806e-27 -7.4098267e-28
-2.5837063e-27 6.4572857e-27 2.3901803e-26 -1.1448516e-26 -3.8818416e-27 -7.669505e-27 1.4259647e-26 1.1090593e-26
-8.51925e-28 1.717974e-26 -7.778078e-27 2.8441095e-26 6.4595582e-27 -3.8759205e-27 7.92754e-27 -1.5800835e-26
-1.89697e-26 3.478599e-27 -2.2562916e-27 -6.853234e-27 -1.9024465e-26 -5.661749e-27 1.8134504e-26 -4.2825144e-27
2.3613521e-28 1.2487191e-26 6.1171527e-28 2.1109986e-26 -2.0650263e-26 1.108868e-27 -4.076369e-27 -1.9935295e-26
-4.9120373e-27 -7.1339984e-28 -5.2296243e-27 1.0197759e-26 1.4501809e-26 -1.7085884e-26 -1.9762634e-27 -8.567194e-28
7.295386e-27 -4.508262e-28 -2.277277e-27 -1.1868108e-26 -1.3945147e-26 3.7999584e-27 8.333363e-27 1.6359053e-27
-1.3761725e-26 -6.581792e-27 -2.266763e-26 4.8648417e-28 -6.79763e-27 -5.6417225e-27 1.24454795e-26 1.7107504e-27
4.54885e-27 -3.6987812e-28 7.340873e-27 -5.7059603e-27 3.0921477e-28 1.10256354e-26 -2.7724803e-27 2.4884337e-26
1.3296459e-26 -5.6119002e-27 -3.3906348e-28 -1.0065385e-26 9.814923e-27 -1.0000717e-26 5.4059448e-27 1.48455655e-30
-0.24976116 0.0024472978 0.14041865 -0.0009096591 7.5883414e-05 0.13564399 -5.9785913e-12 0.00022362656
-0.23941788 -0.005643302 -1.4946004e-09 -4.7423155e-06 -0.00022646172 -1.4740347e-24 0.14014578 -0.25855914
6.264075e-05 -7.249208e-08 3.491379e-05 -2.9141578e-05 -3.102556e-25 1.1723193e-19 -1.5992125e-06 0.134189
0.13753176 5.5595013e-08 3.714914e-08 -0.2585277 -0.000890532 0.0003522823 -0.0017364222 0.13616303
-0.0009869136 -0.2602575 7.827578e-26 -0.24711165 -6.7752353e-07 -0.24742359 -9.671186e-08 -8.3789505e-17
-3.3684694e-06 -0.2423675 -0.23396437 -0.046869677 0.001715237 4.480001e-06 -5.1933184e-05 -1.0035494e-21
-0.0009343815 -0.26454046 -0.22417212 0.14051975 9.723563e-21 0.00069913 -0.24736552 0.12108638
-3.0589683e-05 0.13554026 0.15168215 1.4758983e-05 -2.7469771e-21 8.550455e-08 -0.00016779384 -0.2573141
-0.23227587 0.003039282 0.14271455 -0.0013592853 -0.00044823493 0.13980755 -1.4271209e-10 4.165354e-05
-0.23924555 -0.006572396 -6.9657354e-14 -6.627452e-06 -3.5660953e-05 3.828541e-24 0.14417374 -0.2463871
0.00013978478 -1.167748e-07 0.0001615657 -0.0007754895 1.1071783e-24 -6.6546874e-20 -2.3014852e-06 0.1359909
0.14193785 7.702425e-09 6.032339e-08 -0.2772218 -0.00072956196 -0.0024817216 0.0013313602 0.14223315
-0.0029427449 -0.2661191 1.4077795e-25 -0.24407569 -5.8466117e-06 -0.24341442 -6.6301027e-06 4.6167894e-20
-9.720969e-06 -0.2582389 -0.23367393 -0.010730934 0.001327288 1.0579016e-05 -6.452708e-05 4.5240617e-24
-0.0005493512 -0.2572221 -0.22346307 0.14364673 -4.1441393e-21 0.0010435453 -0.2509505 0.12680942
-7.804664e-05 0.13738216 0.14642175 0.00021961487 1.0589614e-21 4.3927916e-08 -0.00013357485 -0.26668963
00000000: 5027 9f14 dafa ca91 2acc c393 18db b493
00000010: 937d c514 c2b0 7812 7916 1614 c2d8 0414
00000020: ab61 e093 4c53 4f11 2eaa e411 d4eb a394
00000030: 91c8 a293 8472 e194 9f6e c594 e07d 2412
00000040: f12d 6214 0477 8f14 7f9a 0095 c1d9 7d92
00000050: 90bc a814 d8e9 d993 e31d 3113 eb9f 3b14
00000060: 3981 8d93 24c1 9793 0d37 9293 2d6b 4e94
00000070: 590a 7d12 98fb 4012 79f4 4814 807e a894
00000080: b3a6 e213 b22f dd13 2b87 8292 08dd a994
00000090: 4e42 a894 84e8 ca11 20ee 0b93 e3c1 1594
000000a0: f443 1f12 e43f 3393 6e11 3393 211a 1894
000000b0: 3104 1692 bda2 bf92 0944 2a93 3e45 4094
000000c0: 3460 b194 e875 ed14 acb5 8813 2d27 0094
000000d0: afd9 9a94 98c3 3794 de24 9413 a8d3 6a92
000000e0: cab3 4c93 a8cc ff13 45b6 ec14 dfc2 6294
000000f0: 8dc6 9993 03e9 1794 8038 8d14 fdab 5b14
00000100: 2ffe 8692 d123 aa14 8a0f 1a94 5fd5 0c15
00000110: b4e3 ff13 818a 9993 6705 1d14 e07b 9c94
00000120: e7dd bb94 2fcd 8913 08c3 3293 06be 0794
00000130: c068 bc94 f548 e093 6e98 b314 dba5 a993
00000140: 21ab 9511 9555 7714 3ddc 4112 2c10 d114
00000150: a382 cc94 08b5 af12 4b7b a193 fa6d c594
00000160: fa95 c293 df15 6292 b12a cf93 c8fc 4914
00000170: 749e 8f14 dd35 a994 6293 1c93 abc0 8792
00000180: 0080 1014 5edf 0e92 aa6c 3493 7512 6b94
00000190: 261b 8a94 2888 9613 2c0f 2514 1a9c 0113
000001a0: 1e4a 8894 a65d 0294 457d e094 492c 1a12
000001b0: 14a4 0694 dd7d df93 1482 7614 248a 0713
000001c0: d232 b413 2870 ea91 a666 1114 5009 e293
000001d0: f7fc c311 9d62 5a14 95a8 5b93 4a71 f614
000001e0: 87ae 8314 6e4f de93 32e8 d691 915d 4794
000001f0: 9267 4214 a915 4694 cb26 d613 11e2 f00d
00000200: 64c1 7fbe d862 203b e8c9 0f3e 3076 6eba
00000210: 9923 9f38 42e6 0a3e 5d5a d2ac 4c7d 6a39
00000220: f629 75be 73eb b8bb 946a cdb0 2e20 9fb6
00000230: 5b76 6db9 8818 e497 6082 0f3e dd61 84be
00000240: ff5d 8338 f1ac 9bb3 6670 1238 1075 f4b7
00000250: f609 c096 2d67 0a20 86a4 d6b5 d768 093e
00000260: 20d5 0c3e 5dc7 6e33 e98d 1f33 be5d 84be
00000270: 9772 69ba 88b2 b839 a998 e3ba 526e 0b3e
00000280: 535b 81ba 7940 85be 2bcd c115 d60a 7dbe
00000290: 10df 35b5 9c5c 7dbe e8af cfb3 9834 c1a4
000002a0: dd0d 62b6 302f 78be 5b94 6fbe 6bfa 3fbd
000002b0: ced1 e03a ea52 9636 d5d2 59b8 f0a6 979c
000002c0: 48f1 74ba d971 87be 608d 65be 69e4 0f3e
000002d0: 44ac 371e d245 373a 634d 7dbe 23fc f73d
000002e0: 6c4d 00b8 11cb 0a3e 9152 1b3e 599d 7737
000002f0: 448e 4f9d a09e b733 d1f1 2fb9 acbe 83be
00000300: bad9 6dbe b12e 473b c323 123e 0c2a b2ba
00000310: 1301 ebb9 b629 0f3e e2e9 1caf 26b5 2e38
00000320: c9fc 74be 415d d7bb bbda 9ca9 6161 deb6
00000330: a892 15b8 091c 9418 48a2 133e e64c 7cbe
00000340: 3193 1239 a0c5 fab3 f669 2939 384a 4bba
00000350: da53 ab17 1e21 9d9f 3773 1ab6 3341 0b3e
00000360: 2858 113e a053 0432 228b 8133 04f0 8dbe
00000370: 1340 3fba 61a4 22bb 0981 ae3a 91a5 113e
00000380: 11db 40bb c340 88be 5046 2e16 faee 79be
00000390: 032e c4b6 a141 79be 2678 deb6 8f05 5a1f
000003a0: 3e17 23b7 e437 84be 3848 6fbe cdd0 2fbc
000003b0: 65f8 ad3a 877c 3137 b652 87b8 2304 af18
000003c0: 5602 10ba 9db2 83be 81d3 64be 2118 133e
000003d0: a88f 9c9d 92c7 883a 957c 80be 54da 013e
000003e0: f9ac a3b8 e9ad 0c3e 95ef 153e 6b48 6639
000003f0: 9606 a01c 41ab 3c33 3a10 0cb9 8b8b 88be

6.bias f4 [4]
0.0 0.0 -0.014778321 -0.021083307
00000000: 0000 0000 0000 0000 c520 72bc e6b6 acbc

exp_avg f4 [64, 70]
-1.3477577e-10 3.3384932e-33 -3.6665565e-16 -1.7351007e-29 1.5291222e-13 -4.2760067e-26 1.1745828e-10 -2.2430652e-10
1.10979025e-10 1.405273e-16 -2.980884e-13 -1.5871569e-13 -1.2872091e-10 9.394129e-33 -1.2692565e-10 -9.091566e-31
4.7486425e-16 2.2824489e-29 -4.832813e-11 -1.9692485e-32 -1.999587e-10 -1.7188985e-10 -2.767079e-13 2.1295495e-15
3.1044192e-18 -1.611259e-13 1.7165007e-10 8.25264e-34 -1.7784788e-10 -8.50452e-31 2.2941397e-12 2.4052363e-29
-8.702863e-11 3.432595e-32 -1.948221e-10 -1.1217147e-10 -6.7874958e-31 9.882883e-11 2.6740138e-29 -5.2384118e-11
-1.4087336e-33 -2.0106965e-10 -1.14188874e-10 -5.9193353e-31 2.0622715e-10 2.0757137e-29 -6.905323e-11 3.3512736e-32
-1.884587e-10 -2.817941e-33 8.290425e-33 3.3035053e-32 -7.4175966e-34 1.1209684e-32 -1.0248562e-32 -5.4511646e-32
-2.0994707e-33 -2.2483022e-32 4.8148974e-32 -8.342416e-33 7.562763e-33 2.6318698e-32 -1.0558472e-32 -1.17155284e-32
5.065745e-33 -3.3859486e-32 -6.394913e-33 -6.392439e-32 6.2688544e-32 -3.5596658e-32 -6.9866006e-09 -2.6979103e-32
-6.4921755e-11 7.208108e-24 5.165862e-10 9.67393e-15 4.5339443e-09 -5.495806e-09 4.9426783e-09 4.7616047e-11
-4.4671986e-10 -3.8029252e-10 -5.945522e-09 -2.433993e-32 -5.6817995e-09 -2.6416497e-30 9.808252e-11 -5.7295685e-24
-2.439727e-09 -2.2206212e-32 -6.213716e-09 -6.0768968e-09 -4.4951326e-10 7.924182e-11 2.880482e-11 -4.857458e-10
6.938444e-09 2.8931326e-32 -5.7157314e-09 -2.9114183e-30 1.4448133e-09 -5.0727188e-24 -3.5493126e-09 -5.3631415e-33
-4.9752584e-09 -4.3469424e-09 -2.9283932e-30 5.5837077e-09 -6.841193e-24 -4.5087134e-09 1.021258e-32 -3.9487547e-09
-6.0193575e-09 -2.8510564e-30 3.6551535e-09 -6.762673e-24 -4.998467e-09 -4.5738195e-33 -4.736082e-09 -9.08459e-33
-4.7635627e-33 5.572757e-32 -2.9240578e-32 -2.3362113e-32 1.6671024e-32 4.9443298e-33 2.9114e-32 -5.0845896e-32
-2.6770996e-32 4.5676892e-32 4.1201588e-32 2.7771313e-32 7.626713e-33 4.7333462e-33 3.706777e-33 -1.5044794e-32
5.2130794e-32 -4.852735e-33 -1.9794186e-32 4.578878e-32 -0.0040440443 -6.2975574e-05 6.7556924e-05 4.0750903e-05
0.0019041277 9.120309e-05 0.0040423037 -0.004044052 -0.00028858634 0.0014692015 0.00020650066 -0.0028174443
0.0006890163 -0.0033248595 -0.0040440527 -0.00017473486 0.002484426 0.00013162308 -0.003292688 0.00046859492
-0.003576708 -0.004036062 0.00010965089 0.0033167847 2.7380223e-05 -0.0032178655 0.00018408474 -0.0038560086
-0.0011766487 3.565672e-05 0.0009842762 -4.8428756e-06 -0.00087011274 -4.315245e-07 -0.0011790332 -0.00016833279
1.3332725e-05 0.00013116916 -4.1428802e-06 -0.0001554882 -5.358537e-06 -0.00016566919 1.4454442e-06 1.1293849e-06
-7.831463e-07 -1.1363607e-06 1.2045443e-06 -1.3812975e-06 4.9225474e-07 2.2260492e-06 2.2105255e-07 -7.962448e-07
-5.0965684e-07 1.6749703e-06 -3.4009872e-07 6.922774e-07 2.0422292e-06 -2.1413535e-07 -1.1933801e-06 9.125406e-08
1.8940414e-06 1.0018028e-07 1.1102466e-06 1.4812074e-06 -1.314027e-07 -1.1794012e-06 -2.5976158e-07 1.5207545e-06
-1.8572504e-07 1.1034468e-06 -1.221195e-10 -1.5550099e-32 -1.9821043e-16 -3.3687536e-29 9.7798045e-14 -3.644314e-25
1.1821162e-10 -9.5158395e-11 1.02899425e-10 3.6780288e-17 -4.8663596e-13 -9.9872584e-14 -1.2784296e-10 5.050123e-33
-1.372189e-10 -7.7008314e-31 1.2448174e-16 3.157185e-29 -3.331187e-11 -4.5589665e-32 -1.8316892e-10 -1.2350437e-10
-2.5427658e-13 7.5903676e-16 7.812362e-21 -8.3791135e-14 1.3556069e-10 -6.136957e-32 -1.5426213e-10 -7.7811106e-31
1.3381042e-12 3.1044185e-29 -7.8949465e-11 -2.8788118e-32 -1.8313506e-10 -1.1857271e-10 -1.1828002e-30 5.272641e-11
3.9408415e-29 -3.5353852e-11 1.370515e-32 -1.1148025e-10 -1.7647454e-10 1.2624662e-31 1.8428528e-10 3.2307394e-29
00000000: 0230 14af f3ac 8a09 d35c d3a5 caf5 af8f
00000010: f229 2c2a d3bc 5395 9125 012f aca0 76af
00000020: a30b f42e 5704 2225 11cf a7aa afb2 32aa
00000030: b787 0daf c21b 430a 658e 0baf e384 938d
00000040: ccde 0826 c377 e70f a38c 54ae 9b7f cc8a
00000050: 5fdb 5baf b1fe 3caf d0c5 9baa 4173 1927
00000060: d210 6522 6169 35aa 33bb 3c2f d91e 8908
00000070: ba8b 43af 65fe 898d 8c6f 212c 81eb f30f
00000080: c360 bfae 043b 320b 8c35 56af ecaa f6ae
00000090: 4f44 5c8d af53 d92e af96 0710 4663 66ae
000000a0: e710 ea88 1314 5daf 9f1a fbae ea17 408d
000000b0: c8bf 622f 9c80 d20f 83d9 97ae 1102 2e0b
000000c0: 6836 4faf fa1a 6a89 762f 2c0a 1e87 2b0b
000000d0: ef7d 7688 e7d0 680a b4da 548a 3485 8d8b
000000e0: ce6a 2e89 207a e98a f700 7a0b e443 2d8a
000000f0: 8c12 1d0a 8da7 080b 774a 5b8a 6f52 738a
00000100: 3e6c d209 face 2f8b 31d1 048a 0bf5 a58b
00000110: afbf a20b 13d4 388b ca0e f0b1 6115 0c8b
00000120: b3c3 8eae d26c 0b19 86ff 0d30 2145 2e28
00000130: ffc8 9b31 9fd5 bcb1 42d4 a931 e76a 512e
00000140: 3b96 f5af 6a11 d1af 5d49 ccb1 a2c2 fc8a
00000150: a339 c3b1 eb50 568e 8daf d72e e6a6 dd98
00000160: 22a8 27b1 3d9a e68a 6d80 d5b1 f3cc d0b1
00000170: 5e1f f7af 2e41 ae2e b05e fd2d 5285 05b0
00000180: 3367 ee31 5438 160b 1b64 c4b1 cb33 6c8e
00000190: d992 c630 c63d c498 2be8 73b1 b4c6 de89
000001a0: d6f2 aab1 1c5c 95b1 5994 6d8e d0da bf31
000001b0: f253 0499 10eb 9ab1 641b 540a 9dad 87b1
000001c0: d4d2 ceb1 204e 678e 242e 7b31 22cf 0299
000001d0: fbbe abb1 31fd bd89 05bb a2b1 f7ad 3c8a
000001e0: e3de c589 53ad 900b 65d3 178b 269b f28a
000001f0: 2f1f ad0a 2261 cd09 252b 170b e500 848b
00000200: c200 0b8b 012b 6d0b 4eee 550b 6832 100b
00000210: 9066 1e0a 929d c409 37f9 9909 ec3b 9c8a
00000220: db56 870b 2193 c989 f98d cd8a babf 6d0b
00000230: e783 84bb c111 84b8 59ad 8d38 f3eb 2a38
00000240: ec93 f93a 4944 bf38 4d75 843b f883 84bb
00000250: 674d 97b9 3992 c03a 1988 5839 dfa4 38bb
00000260: 1a9f 343a e3e5 59bb f983 84bb 0839 37b9
00000270: c0d1 223b 4d04 0a39 23ca 57bb bfad f539
00000280: 3467 6abb f140 84bb 60f4 e538 6a5e 593b
00000290: 95ae e537 d3e2 52bb df06 4139 17b5 7cbb
000002a0: c739 9aba 1d8e 1538 d402 813a fc7f a2b6
000002b0: 4718 64ba 47ac e7b4 ca89 9aba 7d82 30b9
000002c0: 9eaf 5f37 748a 0939 1203 8bb6 8c0a 23b9
000002d0: 7bcd b3b6 7cb7 2db9 1601 c235 5f95 9735
000002e0: 6739 52b5 0e85 98b5 d4ab a135 0565 b9b5
000002f0: 7d23 0435 3c63 1536 765a 6d34 87bd 55b5
00000300: 5acf 08b5 8bcf e035 d096 b6b4 f1d4 3935
00000310: 3b0d 0936 14ed 65b4 3a2c a0b5 73f7 c333
00000320: c436 fe35 b122 d733 c803 9535 e6cd c635
00000330: b317 0db4 eb4b 9eb5 5c75 8bb4 ba1c cc35
00000340: b66b 47b4 251a 9435 9545 06af 417b a18a
00000350: 6585 64a5 ecd0 2a90 bc38 dc29 7692 e196
00000360: 9df9 012f 6a41 d1ae 3a47 e22e 809e 2924
00000370: d1f9 08ab a0e4 e0a9 9890 0caf 1ec6 d109
00000380: b0df 16af 01e8 798d 8684 0f25 9b16 2010
00000390: d581 12ae 0fb7 6c8b 7865 49af 64cb 07af
000003a0: 1e25 8faa 07c7 5a26 4492 131e 4dae bca9
000003b0: f10c 152f 1353 9f8b ee9c 29af f082 7c8d
000003c0: 4952 bc2b a869 1d10 999c adae f979 158b
000003d0: f05b 49af 405f 02af 99eb bf8d a9e4 672e
000003e0: 0cd3 4710 e67c 1bae 8a52 8e0a cd25 f5ae
000003f0: 2b09 42af a3e0 230c b29f 4a2f 65d1 2310

exp_avg_sq f4 [64, 70]
7.11583e-13 2.04281e-18 9.9265336e-14 5.718518e-15 1.7860774e-13 2.210685e-14 6.885353e-13 7.108568e-13
7.1180263e-13 8.8650766e-14 2.0105457e-13 1.7858401e-13 7.1163794e-13 1.5255303e-20 7.1165356e-13 3.4042265e-16
9.731024e-14 5.699195e-15 4.904557e-13 2.0418586e-19 7.1103643e-13 7.112609e-13 2.0049792e-13 1.09938487e-13
7.390095e-14 1.7857425e-13 7.1126313e-13 1.7491722e-22 7.112117e-13 3.3918386e-16 2.564861e-13 5.6954974e-15
6.1916027e-13 4.2914986e-19 7.1107714e-13 7.117924e-13 3.368693e-16 5.6791686e-13 5.6881545e-15 5.124599e-13
5.507887e-20 7.1102916e-13 7.117731e-13 3.3601059e-16 7.109894e-13 5.7059295e-15 5.486329e-13 1.9183607e-19
7.111261e-13 2.181977e-19 3.1090032e-20 1.7093695e-19 2.1697221e-19 1.410297e-19 1.7950436e-20 3.575485e-19
2.081858e-21 7.5327396e-20 4.4023364e-19 2.1023739e-20 1.3528336e-20 1.1233805e-19 1.4144029e-19 4.6877876e-20
5.08532e-21 2.7922203e-19 5.0586757e-20 4.6388847e-19 4.7856503e-19 2.403962e-19 4.0118117e-12 2.1208926e-17
5.7283605e-13 3.2935795e-14 1.0060012e-12 1.2835138e-13 3.8799406e-12 4.0127277e-12 4.0130763e-12 5.137069e-13
1.1389186e-12 1.0065119e-12 4.0124458e-12 3.91473e-19 4.0126175e-12 1.9753596e-15 5.70695e-13 3.300209e-14
2.700403e-12 7.1405946e-20 4.01228e-12 4.0123664e-12 1.1428022e-12 6.352513e-13 4.1232903e-13 1.0061101e-12
4.0118434e-12 3.88216e-19 4.012588e-12 2.006227e-15 1.4878963e-12 3.303636e-14 3.478349e-12 2.3306533e-20
4.013055e-12 4.013472e-12 2.0029375e-15 3.260266e-12 3.2950723e-14 2.8866527e-12 4.8041335e-20 4.0137602e-12
4.0124007e-12 1.9870908e-15 4.013971e-12 3.2954e-14 3.094261e-12 9.680707e-20 4.0132194e-12 2.024478e-20
5.805906e-21 4.48152e-19 1.174148e-19 1.6219955e-19 8.3430264e-20 4.250195e-21 1.1704135e-19 3.413095e-19
1.2826101e-19 2.5668386e-19 4.3433e-19 3.89056e-19 1.3576813e-20 3.9045393e-21 2.1872196e-19 3.9765325e-19
3.6453932e-19 1.1779326e-20 1.063536e-19 3.3474647e-19 6.888844e-05 4.7938375e-08 1.174598e-05 3.507445e-07
1.7231734e-05 1.3712499e-06 6.834089e-05 6.888844e-05 1.6831973e-05 6.6461985e-06 6.4587402e-06 2.6680436e-05
4.2709453e-05 4.8996822e-05 6.8451554e-05 2.481031e-05 1.3415396e-05 8.427135e-06 3.077606e-05 5.340288e-05
4.046497e-05 6.923412e-05 2.0994068e-05 2.3695067e-05 6.5097133e-06 3.366592e-05 4.2648364e-05 4.5284956e-05
5.378347e-05 1.7335748e-05 2.1329693e-05 5.01953e-06 2.7932128e-05 3.3908236e-05 3.6753896e-05 3.1492425e-05
1.2135198e-05 1.536401e-05 3.5907694e-06 1.6577493e-05 2.2090366e-05 2.1660631e-05 2.3109478e-05 8.282787e-06
1.370879e-05 1.8248038e-06 1.3059973e-05 1.2084781e-05 1.918952e-05 1.6996764e-05 4.109037e-06 1.09384255e-05
9.864847e-07 1.0035413e-05 6.7713304e-06 1.668228e-05 1.2612962e-05 2.9641496e-06 8.436634e-06 4.729879e-07
7.688559e-06 4.343607e-06 1.3604303e-05 1.0050065e-05 1.8010331e-06 6.2757736e-06 3.4611088e-07 5.644833e-06
2.7261835e-06 9.475269e-06 6.7108146e-13 2.5736425e-19 9.208012e-14 6.8951743e-15 1.6094896e-13 2.7470925e-14
6.4362936e-13 6.7136975e-13 6.712849e-13 8.238317e-14 1.9767194e-13 1.6093465e-13 6.710229e-13 9.1297695e-20
6.70931e-13 2.904816e-16 8.964017e-14 6.9085413e-15 4.5366548e-13 2.561054e-19 6.705112e-13 6.7106704e-13
1.8798786e-13 1.0232449e-13 6.480273e-14 1.6105327e-13 6.709458e-13 4.5668766e-19 6.707676e-13 2.9042658e-16
2.3789648e-13 6.9117757e-15 5.714552e-13 1.1622562e-19 6.7051155e-13 6.711179e-13 2.8798752e-16 5.3054864e-13
6.8591707e-15 4.7127303e-13 4.5037412e-20 6.711922e-13 6.7056755e-13 2.972277e-16 6.705015e-13 6.903977e-15
00000000: f54a 482b 97bb 1622 9286 df29 0508 ce27
00000010: 2d18 492a ed1e c728 32ce 412b a116 482b
00000020: c95a 482b b09f c729 095e 622a 5611 492a
00000030: eb4e 482b 0f15 901e 0b50 482b 843d c425
00000040: 891f db29 cc55 cd27 0f0d 0a2b 640f 7120
00000050: 9323 482b c033 482b 97bd 612a 398f f729
00000060: ff68 a629 860e 492a e933 482b 4276 531b
00000070: 3430 482b b486 c325 8b63 902a b133 cd27
00000080: 3347 2e2b 4b53 fd20 8226 482b 0c5a 482b
00000090: 2231 c225 b9da 1f2b f7ef cc27 a13e 102b
000000a0: 220d 821f 0d23 482b a858 482b 69b2 c125
000000b0: 3020 482b e993 cd27 2b6d 1a2b e57a 6220
000000c0: 092a 482b 1bcd 8020 8bd1 121f 86ce 4920
000000d0: ea13 8020 9d7f 2620 7e89 a91e 340f d320
000000e0: fd4c 1d1d 9edc b11f 1def 0121 4890 c61e
000000f0: 058b 7f1e 18a0 0420 b4fb 2620 e05f 5d1f
00000100: 321e c01d d7d2 a420 a3e3 6e1f 6cea 0821
00000110: 5a3f 0d21 a6e7 8d20 3027 8d2c 299e c323
00000120: 303d 212b 6354 1429 0395 8d2b c482 102a
00000130: 6683 882c 702f 8d2c 9432 8d2c 7c98 102b
00000140: de49 a02b 6aa7 8d2b e62c 8d2c ba15 e720
00000150: 722e 8d2c f456 0e27 e9a2 202b d2a0 1429
00000160: 2306 3e2c 3f9a a81f 682b 8d2c 2f2c 8d2c
00000170: cad5 a02b aece 322b e01e e82a f098 8d2b
00000180: 7927 8d2c 8b29 e520 2e2e 8d2c 5b90 1027
00000190: 1d67 d12b 54c8 1429 5dc4 742c bd1f dc1e
000001a0: 6332 8d2c 2436 8d2c ad53 1027 bb6b 652c
000001b0: 9965 1429 5021 4b2c 69de 621f bd38 8d2c
000001c0: 7e2c 8d2c 5b2f 0f27 a33a 8d2c 6069 1429
000001d0: 40bd 592c 4994 e41f de33 8d2c e034 bf1e
000001e0: 4757 db1d 6845 0421 729e 0a20 ce7d 3f20
000001f0: 80fe c41f 5d91 a01d 942d 0a20 3c79 c920
00000200: 836c 1720 f884 9720 0c31 0021 7ba8 e520
00000210: b83a 801e 6382 931d 541c 8120 a9bb ea20
00000220: a02f d720 5381 5e1e ce1e fb1f 7599 c520
00000230: 3378 9038 cde4 4d33 9a10 4537 f54d bc34
00000240: de8c 9037 ca0b b835 3c52 8f38 3378 9038
00000250: 6332 8d37 6902 df36 28b8 d836 cdcf df37
00000260: ed22 3338 f081 4d38 a68d 8f38 bc1f d037
00000270: b012 6137 4562 0d37 8b15 0138 e8fc 5f38
00000280: eeb8 2938 c931 9138 6b1c b037 c5c4 c637
00000290: 036e da36 8234 0d38 55e1 3238 5af0 3d38
000002a0: 9095 6138 3c6c 9137 2bed b237 6f6d a836
000002b0: ca4f ea37 b138 0e38 3228 1a38 bc16 0438
000002c0: 4798 4b37 f6e1 8037 f3f8 7036 e50f 8b37
000002d0: b34e b937 dab3 b537 3adb c137 4df6 0a37
000002e0: cefe 6537 c8eb f435 281c 5b37 bdbf 4a37
000002f0: 2ef9 a037 4694 8e37 5ce0 8936 2e84 3737
00000300: 5b67 8435 c55d 2837 4935 e336 ecf0 8b37
00000310: 429c 5337 b4eb 4636 118b 0d37 f6ee fd34
00000320: 1cfe 0037 4dbf 9136 093e 6437 b39c 2837
00000330: 07bb f135 7c94 d236 1ed1 b934 bf68 bd36
00000340: 7af3 3636 f8f7 1e37 84e4 3c2b c9eb 9720
00000350: 9358 cf29 c26c f827 6136 352a a46f f728
00000360: 622a 352b 4af9 3c2b 2df3 3c2b aa82 b929
00000370: 0f8f 5e2a 4132 352a 4ce0 3c2b 1292 d71f
00000380: acd9 3c2b 8573 a725 0ada c929 0ce8 f827
00000390: 1664 ff2a 8e2d 9720 6dbb 3c2b 7ae3 3c2b
000003a0: d0a7 532a 0d6a e629 3bec 9129 7254 352a
000003b0: bdda 3c2b 58ca 0621 e6cd 3c2b 666b a725
000003c0: 7fec 852a e105 f927 b0d9 202b 0a37 0920
000003d0: 73bb 3c2b 24e7 3c2b 7503 a625 0f56 152b
000003e0: af20 f727 cda6 042b e4ae 541f 7fec 3c2b
000003f0: 7cbf 3c2b 1157 ab25 baba 3c2b f3bd f827

exp_avg f4 [64]
-1.6717118e-10 -5.5201888e-09 -0.00404404 -1.3865509e-10 -0.0028495213 -3.4453177e-14 -0.00020172514 -3.9540435e-05
-2.7887076e-13 -0.00421064 -4.7414246e-09 -2.1732478e-16 -4.3216856e-05 -5.11028e-08 -0.00020031322 -0.00012709327
-1.9388078e-11 -2.9581118e-14 -0.0011666145 -0.0040968773 -1.0134152e-11 -6.4202105e-10 -0.0037997095 -0.0038407857
-2.9845917e-11 -3.638872e-05 -0.0039351606 5.623162e-05 -8.434242e-14 -0.0044184057 -0.0044704047 -0.004164824
0.00016170507 -1.3009862e-09 -8.280609e-08 1.4891165e-05 -0.0037539292 -0.0003446951 -0.00016122207 -7.122288e-05
-1.542197e-08 -0.00013347129 -4.6071054e-05 -1.2646001e-05 -9.619577e-08 -2.9108396e-11 -4.4944503e-11 -1.0932192e-15
-0.0036034875 -7.0284333e-13 -0.0042804494 -0.00013785299 -0.003851017 -6.3144966e-05 -0.0052742423 -0.0041933525
8.2838e-05 -0.0011578486 -1.3654053e-08 -3.4756957e-16 -0.0039038677 -0.0041705626 -0.0038112013 -0.0037267024
00000000: 81ce 37af 18ac bdb1 de83 84bb f073 18af
00000010: 09bf 3abb cf29 1ba9 2e86 53b9 38d8 25b8
00000020: 83fd 9caa 69f9 89bb 03ea a2b1 f48e 7aa5
00000030: bf43 35b8 1f7c 5bb3 2c0b 52b9 5744 05b9
00000040: 128a aaad b538 05a9 16e9 98ba 193f 86bb
00000050: 2a48 32ad 377a 30b0 8c04 79bb b1b5 7bbb
00000060: 8443 03ae 17a0 18b8 85f2 80bb 3eda 6b38
00000070: 18ec bda9 46c8 90bb 797c 92bb 1379 88bb
00000080: 608f 2939 62ce b2b0 21d3 b1b3 11d5 7937
00000090: 7b04 76bb 31b8 b4b9 b80d 29b9 7e5d 95b8
000000a0: 4579 84b2 6df4 0bb9 6b3c 41b8 292a 54b7
000000b0: 2f94 ceb3 2405 00ae 03ab 45ae ab8c 9da6
000000c0: 7d28 6cbb 33d5 45ab 0343 8cbb a18c 10b9
000000d0: 5861 7cbb b26c 84b8 8dd3 acbb 6468 89bb
000000e0: 50b9 ad38 f4c2 97ba 2993 6ab2 375c c8a5
000000f0: 08d8 7fbb 37a9 88bb 59c5 79bb b13b 74bb

exp_avg_sq f4 [64]
7.1130005e-13 4.012713e-12 6.888844e-05 6.709154e-13 6.288015e-05 5.598766e-14 8.307692e-06 6.3738585e-06
1.9198674e-13 6.692535e-05 3.5575265e-12 9.357144e-14 6.0914376e-06 1.9725872e-11 5.344142e-06 9.138929e-06
4.1228511e-13 1.441677e-13 2.8072984e-07 6.776522e-05 3.4779148e-13 6.835191e-13 5.886427e-05 6.67107e-05
4.4236395e-13 9.375823e-06 6.510095e-05 9.3167655e-06 1.6427263e-13 6.9171736e-05 7.571108e-05 6.919497e-05
9.938396e-06 1.6671704e-12 1.3871942e-11 1.0162831e-05 5.9290778e-05 9.065859e-06 1.1437548e-05 8.343452e-06
9.4341635e-12 5.1711127e-06 9.390182e-06 1.0607184e-05 2.6919277e-08 2.0522887e-13 4.8952997e-13 1.0526832e-13
5.6592788e-05 2.1711963e-13 7.92592e-05 7.3869355e-06 5.9079353e-05 6.780447e-06 3.506814e-05 6.7916706e-05
1.0815153e-05 2.1442547e-06 8.414892e-12 9.6302727e-14 5.630019e-05 6.402756e-05 5.7882837e-05 6.141311e-05
00000000: 9236 482b 4e2f 8d2c 3378 9038 8dd8 3c2b
00000010: 86de 8338 6125 7c29 4461 0b37 07df d536
00000020: 6928 582a 465a 8c38 b356 7a2c 43b4 d229
00000030: 0d65 cc36 b782 ad2d d551 b336 6753 1937
00000040: 8c18 e82a 8351 222a 37b7 9634 2d1d 8e38
00000050: 09ca c32a be64 402b 07e5 7638 09e7 8b38
00000060: 5d07 f92a da4c 1d37 ce86 8838 344f 1c37
00000070: 5df4 382a 4b10 9138 14c7 9e38 c41c 9138
00000080: 16bd 2637 25a2 ea2b ac09 742d 0781 2a37
00000090: fdae 7838 9119 1837 e5e3 3f37 dafa 0b37
000000a0: b2f7 252d 8583 ad36 868a 1d37 82f5 3137
000000b0: 1e3c e732 3211 672a 5aca 092b 0e0b ed29
000000c0: 0b5e 6d38 7974 742a f637 a638 4bdd f736
000000d0: f9cb 7738 9983 e336 2116 1338 816e 8e38
000000e0: ba72 3537 04e6 0f36 4e09 142d beda d829
000000f0: de23 6c38 8946 8638 39c7 7238 eaca 8038

exp_avg f4 [64, 64]
1.1559639e-13 -7.444171e-30 -0.0010912046 9.450331e-32 -0.0006648411 3.6766698e-15 -0.00041935284 -0.00057154265
5.4005817e-31 -0.0011682071 9.415057e-10 5.8094277e-30 -0.00021081729 1.1690562e-08 -0.00013782874 -0.0004265157
-2.8014132e-14 2.472298e-12 -0.00070282526 -0.0011920533 -9.333229e-12 -9.9731655e-12 -0.0011612559 -0.0010702886
1.4864326e-15 -0.0005331607 -0.0012225831 -0.00015238306 -1.0424776e-32 -0.0010852456 -0.0013824427 -0.0012936883
-0.000501903 -2.2305076e-28 -1.775783e-08 -0.00028494356 -0.0010849538 -0.0004153849 -0.00035210396 -0.00045182253
-3.135584e-08 -0.00015318715 -0.00033919374 -0.00038176338 7.83246e-08 1.0365874e-08 9.252993e-14 -6.6135513e-31
-0.0014086417 2.2977154e-18 -0.0013586055 -0.00042427957 -0.0010097764 -0.0005648013 -0.0007199329 -0.0017500209
-0.0004422119 -0.00085300073 -9.8131815e-12 -3.362839e-26 -0.0012487875 -0.001511679 -0.0012102923 -0.0015055425
-9.301667e-10 -2.7364784e-27 -5.918889e-08 9.2397823e-32 -1.3941361e-08 -6.3522895e-30 -5.9268217e-09 -1.0167829e-07
-5.341929e-32 -1.3885383e-32 -8.5887555e-09 -5.4251656e-32 1.370137e-09 4.3638616e-28 -1.5868872e-08 -3.9702186e-08
3.8854504e-33 -1.6326913e-09 -3.7341585e-32 -2.6074167e-08 4.4617396e-10 -1.0558243e-09 -2.9747882e-08 -1.0315674e-09
-1.9135521e-10 1.566139e-08 -4.376247e-08 -4.3522373e-08 5.9499803e-33 -1.0590171e-08 -3.4118063e-11 -1.7903972e-08
2.1232542e-09 -7.9186244e-33 -2.0298128e-09 -1.5034813e-08 -2.4203272e-08 9.3736645e-09 -5.6294354e-08 -4.9562047e-08
2.9700472e-32 4.7216993e-32 -5.1971313e-08 -1.4019784e-08 -1.3707028e-15 8.189387e-33 -7.4790174e-10 -1.5374423e-29
-8.016556e-08 -4.17949e-11 -5.866459e-11 -1.7271086e-08 -3.0849467e-08 -3.2617894e-08 -4.2103875e-33 9.701252e-09
-1.36452405e-08 1.7994482e-16 2.9657135e-17 -7.956263e-14 -6.618595e-08 -2.579591e-32 -5.9443067e-08 -2.1564816e-28
-4.1486863e-13 -6.916744e-30 2.6034804e-05 -7.920408e-32 2.1028472e-05 -2.381654e-18 2.0395863e-05 2.4224046e-05
2.6361204e-32 2.8287588e-05 -6.757773e-10 3.6685154e-32 2.2262007e-05 -2.897929e-23 1.4776112e-05 1.891381e-05
1.8181136e-32 -5.042085e-12 1.3200812e-05 2.4418387e-05 1.806618e-11 -2.2450976e-13 2.3249808e-05 2.500915e-05
-2.0292538e-15 2.5774742e-05 3.050785e-05 1.8354947e-05 2.9455574e-33 2.3560598e-05 3.224406e-05 3.2065236e-05
2.174768e-05 1.7040989e-32 -3.2316777e-08 2.219157e-05 2.7721238e-05 1.9344478e-05 1.7889368e-05 1.9588917e-05
1.0175281e-32 6.1581068e-06 4.1573917e-06 1.8319619e-06 -6.8883786e-08 3.4319716e-21 -4.437624e-13 2.289387e-30
1.5527206e-06 -2.7881982e-17 3.2378917e-05 1.980399e-05 2.4007808e-05 2.4749814e-05 2.614382e-05 4.4817658e-05
1.8794026e-05 2.6995944e-05 2.1678003e-11 -1.0995841e-25 2.8683316e-05 8.093373e-06 2.9504583e-05 4.2212032e-05
-1.4147268e-32 -1.4868985e-32 2.6728054e-31 1.3166293e-32 -2.8726978e-31 -4.881089e-32 -1.6729875e-31 -1.1184028e-31
5.1906645e-32 -9.911477e-33 5.370194e-31 1.3955761e-32 4.1144733e-32 7.3510944e-32 -8.426966e-31 -5.415517e-33
-3.0137311e-33 -1.6746463e-31 1.0424448e-33 2.928792e-32 -2.2922692e-31 3.7333815e-32 -2.235962e-32 1.684524e-32
-1.7163177e-31 4.9745877e-31 3.557097e-32 4.2361657e-33 1.262145e-32 -5.9251034e-32 1.2704928e-32 -1.0415264e-31
-1.0518516e-31 2.6121577e-32 2.4060688e-31 -4.300511e-31 -8.068474e-33 -1.1560553e-31 -3.8740176e-33 -3.721533e-33
2.4590671e-33 -2.8034785e-32 -3.07935e-32 -3.4903514e-31 1.6031578e-31 -4.850495e-33 -6.2623903e-32 -5.7946e-32
1.3144849e-30 1.1324028e-31 -1.2082614e-31 -2.1029697e-32 4.5513287e-32 9.963563e-33 -3.0490186e-33 -9.3656795e-32
6.198853e-32 1.8944708e-31 1.4166634e-30 -7.8916043e-32 1.1168846e-31 2.002516e-33 1.5760955e-32 3.7175943e-32
00000000: 6426 022a 58fc 168f c006 8fba 3958 f50b
00000010: bb48 2eba 4b77 8427 96dc dbb9 94d3 15ba
00000020: 4742 2f0d 871e 99ba 4966 8130 8ca8 eb0e
00000030: d60e 5db9 a3d7 4832 1f86 10b9 f89d dfb9
00000040: 3154 fca8 f6f8 2d2c ce3d 38ba ac3e 9cba
00000050: 2031 24ad 2573 2fad 4835 98ba ed48 8cba
00000060: af37 d626 cfc3 0bba 153f a0ba 04c9 1fb9
00000070: 9e83 588a cd3e 8eba 1433 b5ba fa90 a9ba
00000080: 2492 03ba 0e60 8d91 e289 98b2 7a64 95b9
00000090: 0235 8eba 04c8 d9b9 989a b8b9 98e2 ecb9
000000a0: 1cac 06b3 dda0 20b9 d0d5 b1b9 6a27 c8b9
000000b0: 6733 a833 9915 3232 e05b d029 3c9f 568d
000000c0: 2ca2 b8ba 9e8a 2922 3c13 b2ba d771 deb9
000000d0: 795a 84ba 2c0f 14ba e1b9 3cba f560 e5ba
000000e0: add8 e7b9 e99b 5fba a4a2 2cad 0c85 2695
000000f0: 5bae a3ba 8823 c6ba aca2 9eba a055 c5ba
00000100: aaae 7fb0 60ce 5893 df36 7eb3 e3e0 ef0b
00000110: c182 6fb2 f9d6 008f e0a4 cbb1 3b5a dab3
00000120: 35af 8a8b ae31 908a bf8d 13b2 69d8 8c8b
00000130: 694f bc30 da4b 0a12 0550 88b2 0485 2ab3
00000140: 3265 a109 3865 e0b0 7be3 418b b3f9 dfb2
00000150: 6749 f52f 841c 91b0 4988 ffb2 0dc7 8db0
00000160: b465 52af c387 8632 58f5 3bb3 5bed 3ab3
00000170: 0b27 f709 11f0 35b2 860d 16ae 40cb 99b2
00000180: afe8 1131 a176 248a d87c 0bb1 e725 81b2
00000190: 8fe7 cfb2 d009 2132 4cc8 71b3 0cde 54b3
000001a0: b336 1a0b 262a 750b 1037 5fb3 a9db 70b2
000001b0: 028a c5a6 4016 2a0a e894 4db0 49ea 9b8f
000001c0: 7c27 acb3 e0d0 37ae 3a01 81ae 855b 94b2
000001d0: 597f 04b3 c117 0cb3 85e4 ae89 8faa 2632
000001e0: 676c 6ab2 5676 4f25 f7c4 0824 bc28 b3a9
000001f0: 1c22 8eb3 a5f0 058b 584e 7fb3 eaae 8891
00000200: df8c e9aa ca49 0c8f 5165 da37 24a0 cd8b
00000210: 4d66 b037 2cbc 2fa2 c817 ab37 be34 cb37
00000220: 0de0 080b 224b ed37 9ac1 39b0 ef7a 3e0b
00000230: 4cbf ba37 a022 0c9a ebe6 7737 19a9 9e37
00000240: c0cd bc0a 1067 b1ac 0e79 5d37 16d6 cc37
00000250: 6ce9 9e2d 88c6 7caa 9508 c337 beca d137
00000260: 2039 12a7 d636 d837 1ceb ff37 f3f8 9937
00000270: 14b5 7409 00a4 c537 cc3d 0738 c97d 0638
00000280: ca6e b637 b8f6 b00a accc 0ab3 0928 ba37
00000290: e88a e837 f345 a237 2011 9637 e152 a437
000002a0: 1355 530a bca1 ce36 b97f 8b36 bbe1 f535
000002b0: 43ed 93b3 fea7 811d e7d0 f9aa b5bc 390e
000002c0: 1367 d035 3c95 00a4 99ce 0738 bf20 a637
000002d0: 6064 c937 d29d cf37 6d4f db37 98fa 3b38
000002e0: dda7 9d37 5975 e237 86ae be2d 361f 0896
000002f0: f49c f037 c6c8 0737 9c80 f737 d30c 3138
00000300: e4e9 928a 8b68 9a8a 9979 ad0c 03ba 880a
00000310: e172 ba8c cd70 7d8b 8c2a 598c 4f2d 118c
00000320: e2c1 860b 73da 4d8a d445 2e0d c7ec 900a
00000330: bba2 550b 67d8 be0b 3fbc 888d a8f3 e089
00000340: f95e 7a89 ab61 598c b334 ad08 5312 180b
00000350: dbc6 948c 27d9 410b 1132 e88a 54ee ae0a
00000360: 70ca 5e8c 426f 210d eeb1 380b a4f6 af09
00000370: 9211 830a 11d3 998b 7eef 830a a732 078c
00000380: c489 088c 88a1 070b ad29 9c0c 3f8f 0b8d
00000390: 5e93 278a 8710 168c 9feb a089 2096 9a89
000003a0: 934a 4c09 9f90 118b 95e3 1f8b 6989 e28c
000003b0: 0e1a 500c 4f7b c989 b994 a28b b96f 968b
000003c0: 9149 d50d 8afe 120c 5fd7 1c8c 8662 da8a
000003d0: 8951 6c0b 63ef 4e0a 744d 7d89 9e25 f38b
000003e0: 72ee a00b 97ea 750c e5dd e50d b5e0 cc8b
000003f0: dbfa 100c ce5c 2609 ceab a30a 4e07 410b
