models/reinforce_best.pth (torch, 115757 bytes, 18 tensors)

0.weight f4 [64, 70]
-0.001745665 -1.3762972e-09 -0.0005791816 -5.815293e-10 0.0006855241 -2.4678435e-09 0.002668769 -0.0018679603
-7.16709e-10 0.00020873756 -6.1077317e-09 -0.0020332602 4.648995e-05 -0.0014527158 -0.003079167 0.0016519953
0.00047943054 -0.00026049622 -0.0010640712 -0.0012619019 -0.0006796495 -0.003010223 5.200291e-08 0.0010520685
1.25699935e-05 -0.00089294097 0.00093428616 -0.00023764432 -0.0019286519 -0.0010172123 0.0016332401 9.506078e-05
-0.001403741 0.00095624867 -0.00058164605 -0.0017922289 -7.209938e-07 0.00037137896 -1.0799919e-09 -0.0007618454
5.39115e-05 -0.001364724 -0.001408289 2.4908207e-08 0.0007778809 6.5943434e-10 -0.00089279615 7.5829107e-06
-0.0010023965 -0.0012521808 2.1164137e-09 0.0010284286 2.2419592e-11 -0.00043788046 1.4574557e-07 -0.0009671251
-0.00043783814 1.0546153e-09 0.00010200769 9.31635e-11 -9.140136e-05 -2.3229727e-11 -0.0004091718 -3.6522357e-05
1.938893e-10 2.2363309e-05 -7.262441e-10 -1.6180483e-07 -7.297739e-11 -2.577014e-05 0.057695206 0.013053576
0.20801286 -0.01847975 -0.051517528 -0.014932636 -0.07085849 0.05655838 -0.066497244 -0.1649778
0.03404138 -0.04051698 0.04130445 -0.13312745 0.05034894 0.029198593 -0.14190568 -0.015713181
0.043398652 -0.027145816 -0.0135636125 0.036436915 0.028497897 -0.11434316 -0.0070572053 0.053122554
-0.015630325 0.020955106 -0.006626129 -0.0005525891 -0.07428612 -0.003988099 0.0130743 -0.011136865
0.02454813 -0.04330637 -0.027698215 -0.02707811 0.022697 -0.022433195 0.01125964 0.014750837
-0.06829995 -0.00829937 0.02770227 0.010672816 -0.055076405 0.022364274 -0.019383168 -0.07354377
-0.012703644 0.026437722 0.0032004875 -0.054146197 0.011962124 -0.013902131 -0.070818216 0.030174972
0.03568457 -0.009138549 -0.06451278 -0.0033986282 -0.03798972 -0.054581955 0.02592386 0.012577458
-0.015966073 -0.044858687 -0.016431853 -0.0130233085 -0.006466533 3.6936588e-05 -0.0015104612 0.00662503
0.006563991 0.0065149018 0.007949974 -0.0070654643 0.0059756935 0.00063851895 -0.0070755454 -0.008372566
-0.005961523 -0.0041215084 -0.008024871 0.00013976988 0.0005656595 -0.0012068845 -0.007320378 -0.0007469779
-0.000583036 -0.006863532 0.0014743148 0.0003881804 -0.002690491 -0.0051370426 -0.003110206 0.00028002082
-0.007308329 0.001747758 -1.7721422e-05 -0.001868845 -0.003446735 -0.00052746845 0.0051951944 -0.004954178
-0.004441572 0.00035377746 -0.00075949705 -0.004401886 0.0042302767 -0.0005968614 -0.0072379964 -0.002369052
0.002951487 0.0010490436 -0.0057910495 0.005155906 -0.0017857897 -0.006237194 -0.0016974248 0.0044128294
-9.608444e-05 -0.004810613 0.003426118 -0.003954226 -0.00785891 4.6722176e-05 0.0067791254 -0.0004980754
-0.005335188 9.8045634e-11 -0.0039992714 -0.0054955147 0.00013830424 0.0053474964 0.0007673841 -0.0056779482
7.395017e-11 -0.0054886257 -0.0046652914 -0.0039743637 -0.0030425957 0.0015882051 0.0025910267 0.00093647896
0.004705166 -0.0047396664 0.00060937164 0.0029370359 -0.0032342195 -0.002668803 -0.0015874978 -7.7503066e-11
-0.0049467776 0.0051387064 0.0037420553 -0.0037068261 -0.0034926604 -0.003463424 0.005026967 -0.0049634795
0.0044090673 0.003461691 -0.0043329806 -0.0032985383 -0.0050445646 -1.2228795e-09 -0.00475026 -0.0033641912
0.00696933 0.0028542974 -0.0037897215 0.002674288 -0.0027971435 0.001758324 0.0048838076 -0.0020703436
-0.0017190708 -0.00060943706 -9.150783e-11 0.0006215038 -0.00184182 0.003666698 0.0021188057 0.0066031297
00000000: ccce e4ba 2728 bdb0 38d4 17ba 7dd9 1fb0
00000010: beb4 333a c396 29b1 84e6 2e3b 59d6 f4ba
00000020: ea01 45b0 90e0 5a39 2ddc d1b1 7240 05bb
00000030: 34fe 4238 0e69 beba dacb 49bb c487 d83a
00000040: 145c fb39 3693 88b9 4e78 8bba 6766 a5ba
00000050: 822a 32ba 2947 45bb ce59 5f33 90e5 893a
00000060: b6e3 5237 4114 6aba e2ea 743a 2930 79b9
00000070: d2ca fcba fb53 85ba 7212 d63a 5e5b c738
00000080: bbfd b7ba c3ac 7a3a 9b79 18ba 39e9 eaba
00000090: 518a 41b5 a4b5 c239 d66e 94b0 94b6 47ba
000000a0: 081f 6238 8ae0 b2ba 5696 b8ba baf5 d532
000000b0: b4ea 4b3a 9143 3530 890a 6aba b570 fe36
000000c0: d862 83ba 3720 a4ba 5870 1131 56cc 863a
000000d0: 6f34 c52d 5293 e5b9 3d7e 1c34 ab86 7dba
000000e0: a48d e5b9 faf1 9030 f6ec d538 63de cc2e
000000f0: bbae bfb8 b254 ccad 1c86 d6b9 952f 19b8
00000100: fc2e 552f d798 bb37 e3a0 47b0 93bc 2db4
00000110: 9e7a a0ae f42c d8b7 cf51 6c3d abde 553c
00000120: 5301 553e d862 97bc 0b04 53bd 04a8 74bc
00000130: 421e 91bd c3a9 673d b52f 88bd f1ef 28be
00000140: f96e 0b3d 22f5 25bd db2e 293d 9052 08be
00000150: b13a 4e3d e331 ef3c b94f 11be eeb8 80bc
00000160: c9c2 313d e760 debc ea39 5ebc e03e 153d
00000170: 6c74 e93c bf2c eabd 2140 e7bb 0997 593d
00000180: 2b0b 80bc 0baa ab3c 0020 d9bb a0db 10ba
00000190: 5223 98bd 99ae 82bb 9735 563c 6677 36bc
000001a0: 2919 c93c 0562 31bd 5ee7 e2bc ead2 ddbc
000001b0: 0fef b93c d2c5 b7bc 5a7a 383c 7fad 713c
000001c0: d8e0 8bbd 15fa 07bc dfef e23c 09dd 2e3c
000001d0: cc97 61bd 4835 b73c 73c9 9ebc 1e9e 96bd
000001e0: f222 50bc ec93 d83c 45bf 513b 67c8 5dbd
000001f0: c9fc 433c c3c5 63bc 2409 91bd 8131 f73c
00000200: fc29 123d dab9 15bc 471f 84bd 85bb 5ebb
00000210: 1c9b 1bbd 5491 5fbd 465e d43c af11 4e3c
00000220: 48cb 82bc bebd 37bd 189c 86bc b75f 55bc
00000230: 36e5 d3bb 5cec 1a38 abfa c5ba c816 d93b
00000240: bf16 d73b f57a d53b 9c40 023c 6985 e7bb
00000250: c0cf c33b 4862 273a fad9 e7bb 162d 09bc
00000260: e158 c3bb b80d 87bb c07a 03bc 318f 1239
00000270: c448 143a 5330 9eba c8df efbb d7d0 43ba
00000280: e2d6 18ba 7be7 e0bb cc3d c13a b184 cb39
00000290: f352 30bb a354 a8bb 99d4 4bbb c2cf 9239
000002a0: b57a efbb 0715 e53a 77a8 94b7 08f4 f4ba
000002b0: 9ee2 61bb cf45 0aba 733c aa3b a856 a2bb
000002c0: 9b8a 91bb 357b b939 fc18 47ba b23d 90bb
000002d0: 229e 8a3b b176 1cba b72c edbb 1942 1bbb
000002e0: bc6d 413b 1080 893a d8c2 bdbb e0f2 a83b
000002f0: 2911 eaba 6061 ccbb 207c deba 7f99 903b
00000300: f180 c9b8 59a2 9dbb b988 603b 7492 81bb
00000310: a8c2 00bc 8ef7 4338 6d23 de3b 4691 02ba
00000320: cdd2 aebb c99a d72e 520c 83bb b813 b4bb
00000330: c305 1139 0d3a af3b 462a 493a 150e babb
00000340: 3f9e a22e eed9 b3bb 4ddf 98bb 613b 82bb
00000350: 4966 47bb 522b d03a 37ce 293b 0a7e 753a
00000360: cb2d 9a3b 344f 9bbb 3dbe 1f3a 497b 403b
00000370: 33f5 53bb 16e7 2ebb 9613 d0ba 596e aaae
00000380: 9418 a2bb 9862 a83b 453d 753b 39ee 72bb
00000390: 1ee5 64bb 9dfa 62bb 41b9 a43b afa4 a2bb
000003a0: f079 903b 8add 623b adfb 8dbb 4a2c 58bb
000003b0: e04c a5bb 3f12 a8b0 12a8 9bbb c379 5cbb
000003c0: fa5e e43b 2a0f 3b3b fa5c 78bb 1c43 2f3b
000003d0: 4850 37bb 9077 e63a 5908 a03b 9aae 07bb
000003e0: 7252 e1ba a1c2 1fba 543a c9ae 6aec 223a
000003f0: 3969 f1ba fc4c 703b a9db 0a3b 115f d83b

0.bias f4 [64]
-0.0025994843 0.056019492 -0.0062910663 -0.004845193 0.037430543 0.0480481 0.046953607 0.04562055
-0.0009080105 0.03839154 0.04093891 -0.0049607647 0.04388775 0.050755657 0.038777422 0.053197216
-0.0047190837 0.040528413 0.035382222 -0.0031054353 0.05806546 -0.0035437455 -0.009627473 -0.0048891446
0.030859716 -0.003699657 -0.0023522251 -0.00024532806 -0.013199626 -0.004653731 0.034249287 0.043941017
-0.00021419399 -0.0054753977 0.08135108 0.051773984 -0.0007216209 0.036180656 -0.00460684 -0.00050193217
0.03960987 0.058876622 0.045836385 -0.0051929476 -0.0053663226 0.0327089 0.07593163 0.046552084
-0.0051870868 -0.004832206 -0.0015837804 0.03549339 -0.0010232928 -0.0029092177 0.03428985 -0.008062615
-0.008988095 0.040784843 -0.0046160636 0.03189564 -0.003720312 -0.0047582523 -0.0057668956 -0.0051457253
00000000: 1c5c 2abb b274 653d 4a25 cebb 6dc4 9ebb
00000010: c550 193d 16ce 443d 6d52 403d 9ddc 3a3d
00000020: 8e07 6eba 7340 1d3d 8faf 273d e98d a2bb
00000030: a4c3 333d 2ae5 4f3d 13d5 1e3d 53e5 593d
00000040: 8ba2 9abb 1f01 263d f3ec 103d 8f84 4bbb
00000050: 0cd6 6d3d 2f3e 68bb 8cbc 1dbc 1e35 a0bb
00000060: 84cd fc3c f275 72bb ca27 1abb 609f 80b9
00000070: 3e43 58bc 537e 98bb fb48 0c3d 7ffb 333d
00000080: 4399 60b9 f76a b3bb 659b a63d f510 543d
00000090: 292b 3dba 2b32 143d faf4 96bb 1994 03ba
000000a0: f63d 223d 9d28 713d efbe 3b3d 9a29 aabb
000000b0: fad7 afbb c4f9 053d 0b82 9b3d 66ad 3e3d
000000c0: 70f8 a9bb 7b57 9ebb da96 cfba 8461 113d
000000d0: 0220 86ba 93a8 3ebb 8473 0c3d 0f19 04bc
000000e0: ce42 13bc 020e 273d 5942 97bb 01a5 023d
000000f0: 7ad0 73bb 1deb 9bbb 3af8 bcbb 799d a8bb

3.weight f4 [64, 64]
1.5078795e-10 -1.9479196e-09 2.1652496e-11 1.1747839e-10 -4.7720862e-11 2.0960594e-10 -5.9688764e-12 4.9925064e-11
-9.846905e-12 7.9546286e-11 4.3402187e-12 -7.0296624e-12 5.4537594e-12 1.00651903e-10 1.0329146e-10 -4.646618e-11
2.2618865e-11 8.3951457e-10 1.1352811e-09 1.3986155e-10 1.1934806e-10 -2.8637617e-11 6.6876893e-10 -8.490839e-13
6.8924344e-10 1.4044129e-09 -1.1444789e-11 -8.343584e-11 9.306725e-11 1.1939142e-09 3.5959677e-10 1.2447462e-11
-1.359152e-10 1.4823929e-12 1.4832752e-10 1.0522307e-11 -5.257859e-11 -4.2224117e-11 -3.571984e-10 2.814514e-12
5.3210984e-11 -2.0184614e-11 -1.2498601e-10 7.4630864e-11 1.0260957e-10 -7.390916e-10 -7.1993284e-10 -5.3168463e-11
7.168518e-11 -3.8616868e-10 3.4524973e-11 3.0832052e-11 -1.2044502e-10 -7.4882496e-11 4.3102724e-10 5.5777916e-10
7.952329e-12 -5.2755044e-13 1.2038797e-11 -1.1525583e-10 -3.2214104e-10 8.324987e-12 2.7068773e-11 4.587538e-11
-0.00033145805 -0.0014792562 7.1183823e-12 -0.00055644807 1.5381576e-11 -0.0030335768 -6.8828025e-12 1.8833863e-11
7.870107e-13 -7.005074e-11 7.466974e-09 9.495821e-12 3.468468e-08 -1.5403708e-05 -0.0013261483 -1.3335931e-08
-5.977276e-07 -0.0021741753 -0.00027189899 1.3492687e-11 -7.947779e-11 -9.451228e-05 -0.0019240117 2.873234e-11
8.3170576e-08 -0.000208491 9.4126595e-11 -6.5269234e-11 3.172544e-11 4.773058e-09 -0.00083529396 1.1985195e-09
-2.3261666e-12 -0.0002515662 -0.0002202387 1.1643884e-10 -8.812953e-05 -5.1196665e-11 -0.001174556 -0.0012143567
5.8192787e-12 -0.0019716604 -1.7172996e-09 7.867545e-12 7.089945e-09 -0.00044073357 6.792372e-08 7.961195e-11
1.3108409e-11 -0.0013862331 -7.5819917e-06 -0.0014920098 -6.366886e-11 -5.583041e-11 -1.7964903e-06 1.4050727e-10
-2.9362898e-11 1.8171994e-09 -0.00095914555 8.4666184e-11 -6.030856e-12 -3.803964e-11 -2.8791587e-11 -0.0009345679
0.003249967 0.124569654 -0.0066305697 -0.0030110232 -0.06728231 -0.07506585 0.09748506 0.1296198
3.316043e-10 -0.078649044 0.12135969 -2.2149944e-09 0.1410151 0.13645971 0.117384925 0.111839496
-0.001757619 0.123730645 0.116614 8.896156e-05 0.13761097 0.00089026196 0.0047739884 0.0013608253
-0.06490125 0.0038528235 0.0013867931 1.8264602e-05 0.008853075 0.0031778994 0.12351779 0.13059449
-2.4058797e-10 0.0032757376 -0.058467504 0.13323662 0.0015961522 -0.07213524 0.004644877 0.0025767148
0.10806055 0.13872133 0.11601131 -0.00011922066 0.0018387841 0.11059595 -0.047901917 -0.07495541
0.0007465948 0.0040139277 0.00015543646 0.1208146 9.086918e-06 3.726921e-05 -0.06307426 0.0032975234
-7.366879e-06 0.12508121 0.003781369 -0.06400285 0.0039331424 0.0042416444 -0.00034651073 0.003538405
9.7934105e-09 -0.015846757 0.0058960197 0.0049465774 0.15786372 0.15102449 -0.004795642 -0.020360501
1.1332216e-09 0.15033403 -0.024200156 -6.7927343e-12 -0.04044915 -0.032011017 -0.03583162 -0.028127512
0.0052288095 -0.027057836 -0.030939745 -2.6065884e-11 -0.027723163 -8.7048496e-10 0.0016112489 1.2476577e-10
0.15444876 0.00044730972 1.9112073e-11 5.9545036e-06 -0.007632964 -7.387403e-09 -0.026892494 -0.02817456
4.3615123e-06 8.957581e-12 0.1685754 -0.02434234 -1.9238887e-11 0.1439534 1.896896e-11 2.608084e-09
-0.006141381 -0.023964992 -0.026843416 0.0007303036 -0.00016974419 -0.024380133 0.17554173 0.15694624
-0.0011760719 3.586673e-11 8.531049e-12 -0.024300449 -9.9997455e-11 -7.609329e-11 0.11900641 -0.0025403649
-8.0498496e-05 -0.014697295 3.829261e-09 0.13561422 1.6706971e-11 -3.009227e-12 0.002877735 0.00045811923
00000000: 09cb 252f 2adc 05b1 1675 be2d 3a2b 012f
00000010: eae0 51ae d476 662f dc02 d2ac a092 5b2e
00000020: 853a 2dad 94ec ae2e 37b5 982c 9255 f7ac
00000030: 19e3 bf2c fc55 dd2e ec23 e32e 455c 4cae
00000040: 28f5 c62d 96c3 6630 2708 9c30 87c7 192f
00000050: 7e39 032f 2ee6 fbad 6ed4 3730 f1fe 6eab
00000060: 3275 3d30 6305 c130 bf56 49ad 347a b7ae
00000070: 34a8 cc2e 1f17 a430 bfb0 c52f 63fa 5a2d
00000080: ba70 15af d5a0 d02b 7c16 232f 421c 392d
00000090: 3b3e 67ae 21b4 39ae 355f c4af c70d 462c
000000a0: 3e06 6a2e b68b b1ad 6f6c 09af 711d a42e
000000b0: 0da4 e12e f328 4bb0 c5e4 45b0 5ed6 69ae
000000c0: 2ba3 9d2e 694c d4af aad7 172e ce99 072e
000000d0: 426e 04af 19ab a4ae b1f5 ec2f 3852 1930
000000e0: 1be6 0b2d 047e 14ab ecc9 532d 4473 fdae
000000f0: 5219 b1af 6974 122d 7519 ee2d 16c3 492e
00000100: 8cc7 adb9 9ae3 c1ba b074 fa2c 99de 11ba
00000110: 3b4c 872d f9ce 46bb c62a f2ac 17aa a52d
00000120: 1986 5d2b 100b 9aae 1948 0032 600d 272d
00000130: 35f8 1433 3637 81b7 27d2 adba 0b1c 65b2
00000140: 8773 20b5 9c7c 0ebb aa8d 8eb9 a95d 6d2d
00000150: 05c6 aeae e534 c6b8 1f2f fcba 7abb fc2d
00000160: 829b b233 609e 5ab9 90fc ce2e 5087 8fae
00000170: ac87 0b2e 4300 a431 a1f7 5aba 28b9 a430
00000180: 7eb0 23ac a5e4 83b9 e0ef 66b9 9f06 002f
00000190: 2ed2 b8b8 522a 61ae 8ff3 99ba 0d2b 9fba
000001a0: 67bf cc2c f936 01bb 1c06 ecb0 4668 0a2d
000001b0: d19b f331 4212 e7b9 76dd 9133 8b11 af2e
000001c0: 079b 662d 44b2 b5ba d068 feb6 8b8f c3ba
000001d0: 6202 8cae 748b 75ae f01e f1b5 487d 1a2f
000001e0: af23 01ae 05c1 f930 2b6f 7bba d32e ba2e
000001f0: 1f31 d4ac d44c 27ae e440 fdad cafd 74ba
00000200: 66fd 543b 601e ff3d 4045 d9bb 9654 45bb
00000210: 4fcb 89bd 20bc 99bd 3fa6 c73d 0ebb 043e
00000220: 284d b62f c012 a1bd 6e8b f83d 9836 18b1
00000230: 4366 103e 18bc 0b3e 8267 f03d 1b0c e53d
00000240: e85f e6ba 7e66 fd3d 52d3 ee3d e090 ba38
00000250: e4e9 0c3e 7860 693a 1e6f 9c3b b85d b23a
00000260: f2ea 84bd a77f 7c3b 0ec5 b53a ef36 9937
00000270: 7d0c 113c 4e44 503b e5f6 fc3d 90ba 053e
00000280: bf43 84af c2ad 563b 9f7b 6fbd 2e6f 083e
00000290: fb35 d13a a4bb 93bd 0d34 983b 1ade 283b
000002a0: da4e dd3d f70c 0e3e 5697 ed3d 1b06 fab8
000002b0: 5b03 f13a 2180 e23d cd34 44bd 3982 99bd
000002c0: 21b7 433a 4487 833b a8fc 2239 a56d f73d
000002d0: 0474 1837 8251 1c38 142d 81bd 431b 583b
000002e0: 0231 f7b6 4a15 003e d8d0 773b ed13 83bd
000002f0: 97e1 803b 7efd 8a3b e2ab b5b9 96e4 673b
00000300: e03f 2832 0fd1 81bc 6633 c13b e616 a23b
00000310: 07a7 213e 2aa6 1a3e c324 9dbb 11cb a6bc
00000320: b1bf 9b30 2af1 193e 683f c6bc 83ff eeac
00000330: 02ae 25bd fc1d 03bd 2dc4 12bd ab6b e6bc
00000340: 6f56 ab3b 65a8 ddbc 5975 fdbc 2747 e5ad
00000350: b01b e3bc ef46 6fb0 8b30 d33a 712e 092f
00000360: d127 1e3e e584 ea39 901c a82d cccc c736
00000370: f11d fabb 49d4 fdb1 a64d dcbc 56ce e6bc
00000380: 1b59 9236 5c95 1d2d 089f 2c3e 9669 c7bc
00000390: 1f3a a9ad 8568 133e 4dda a62d e639 3331
000003a0: a33d c9bb 3b52 c4bc b9e6 dbbc d871 3f3a
000003b0: 5cfd 31b9 d8b8 c7bc 36c1 333e 84b6 203e
000003c0: 6d26 9aba 59be 1d2e 6e14 162d bc11 c7bc
000003d0: 90e5 dbae b754 a7ae a2b9 f33d 407c 26bb
000003e0: 4dd1 a8b8 eccc 70bc 8992 8331 74de 0a3e
000003f0: c1f4 922d 6ac1 53ac 6298 3c3b b92f f039

3.bias f4 [64]
-0.004361647 -0.0059463717 0.037720192 0.059275616 -0.009142925 -0.010603769 0.02895442 0.02920958
-0.00052936346 -0.005114722 0.022495389 0.07122017 -0.005730454 0.008639389 -0.0059902854 0.025039248
-0.0066428054 0.03327276 -0.0060019675 -0.0058456687 -0.0057543023 0.019417495 -0.010447083 0.043574527
-0.008798415 -0.0036844672 0.024154512 -0.005358721 -0.010779505 -0.010651745 0.03456427 -0.005995408
0.018455736 0.021675695 0.07259464 -0.00279852 -0.0093387235 0.029426072 -0.004860737 0.022813506
-0.007859781 -0.0022135489 -0.0059545827 -0.007003608 -0.007052296 -0.006798778 -0.010808017 0.016934207
0.05644916 -0.005990897 0.026699979 0.054397408 -0.004524049 -0.0057375417 -0.0059862905 0.029733058
-0.0031718663 -0.0012854441 -0.0050429604 -0.0041809524 -0.006293257 0.06187132 0.024207065 0.040144343
00000000: 26ec 8ebb c8d9 c2bb 7d80 1a3d fdca 723d
00000010: 35cc 15bc 6ebb 2dbc d231 ed3c ee48 ef3c
00000020: fbc4 0aba 6699 a7bb 4048 b83c e1db 913d
00000030: 88c6 bbbb 398c 0d3c 284a c4bb 1c1f cd3c
00000040: e4ab d9bb 0549 083d 27ac c4bb 068d bfbb
00000050: 968e bcbb 7011 9f3c 3e2a 2bbc 347b 323d
00000060: 3a27 10bc 1a77 71bb afdf c53c 3698 afbb
00000070: 859c 30bc a884 2ebc 4493 0d3d 2175 c4bb
00000080: 7c30 973c 3a91 b13c 80ac 943d 6067 37bb
00000090: 7201 19bc f20e f13c d146 9fbb 64e3 ba3c
000000a0: 50c6 00bc 3011 11bb a91e c3bb 867e e5bb
000000b0: f216 e7bb 49c8 debb 1c14 31bc 9bb9 8a3c
000000c0: 3c37 673d 494f c4bb eab9 da3c d1cf 5e3d
000000d0: 793e 94bb fd01 bcbb a528 c4bb be92 f33c
000000e0: 16df 4fbb 597c a8ba 6b3f a5bb 5f00 89bb
000000f0: ab37 cebb c86c 7d3d e54d c63c 656e 243d

6.weight f4 [4, 64]
-6.415709e-11 1.5885905e-10 7.724167e-11 2.6176202e-11 8.429647e-11 1.5110524e-10 -2.1693937e-10 7.965467e-11
1.4299107e-11 -1.2357379e-10 -1.4121589e-11 -3.360622e-12 -1.6921443e-10 6.648841e-12 8.311952e-11 -2.1791327e-10
3.3525464e-11 -5.3999513e-11 8.004942e-12 2.1427227e-10 -7.2955225e-11 7.935555e-12 -1.8084134e-10 5.3689775e-11
-1.5137372e-10 -1.4896247e-10 -4.531747e-12 1.5946221e-10 -5.2179518e-11 9.1426484e-12 -5.3887103e-11 2.3434722e-12
1.2313857e-10 6.894611e-11 -1.6848825e-10 -5.4484254e-11 2.0181662e-11 1.39438894e-11 -1.1201994e-10 -7.7877223e-13
-3.8745036e-12 5.4946863e-11 -5.3326468e-11 2.5456234e-11 -4.389123e-11 -4.321417e-11 8.686785e-11 -3.7166468e-11
-1.7286195e-11 1.0954412e-10 -1.1303089e-10 2.149314e-11 1.2471497e-10 -2.0919289e-10 -1.1664452e-12 2.7816152e-12
1.1724015e-10 -1.7010664e-10 2.5563898e-11 -8.68835e-11 -1.5743342e-11 -1.2262479e-10 -8.652065e-13 -5.1717013e-11
1.5122928e-10 -9.215102e-11 8.4338175e-11 2.7649053e-11 -3.6306597e-11 1.7014838e-10 3.2955926e-11 1.4783663e-10
-4.871543e-11 -8.006662e-11 -5.2701706e-12 1.7016595e-10 1.2408854e-10 -1.4916222e-10 1.253178e-10 -1.9240828e-10
1.2488774e-10 -2.6935669e-11 2.765292e-11 -1.5187785e-12 2.0803524e-10 2.4640926e-11 -3.029149e-11 -5.1430683e-11
1.0865118e-10 -1.08214715e-10 2.7124993e-12 4.8813387e-11 -1.344538e-10 -1.4221305e-10 4.3024573e-11 -1.2389849e-10
9.767273e-12 -3.7753034e-12 -2.1348954e-11 -1.1170931e-10 -5.3487183e-11 5.0605267e-11 -1.3602816e-10 -9.271618e-11
3.2633436e-12 2.3223607e-11 1.1148229e-10 -9.009668e-11 1.6338772e-10 1.4433295e-11 -2.0632234e-11 -1.3356381e-11
-1.6832269e-10 2.4255901e-11 -5.4822626e-11 -2.5696398e-11 -5.3833526e-12 -3.2297554e-12 -6.715137e-12 -2.7154176e-11
2.5933698e-11 -1.2292713e-10 -4.487974e-12 5.722553e-11 2.0713845e-10 -2.5139036e-12 1.3228861e-10 2.1825107e-10
3.118748e-06 0.0033760709 0.13188079 -0.16006373 -0.0021698445 -0.0071859225 0.11287096 0.11376239
-0.042574357 5.3150293e-09 0.11859184 -0.16566394 0.0052356706 -0.04647309 0.0037866386 0.115637444
0.000118293276 0.12738803 0.0026884002 0.000884001 0.0020497746 0.119065136 -0.0034925118 -0.12972587
0.0022409393 0.001763782 0.11666063 5.6207577e-05 -0.004048007 0.0035778347 0.11377681 0.0037034682
-0.10148812 0.11519885 -0.15244041 0.0021069522 2.1054273e-05 0.11164562 -7.2525688e-09 0.11904324
-0.015188556 0.0045200656 -0.0032006113 -0.00046708478 0.004633624 0.0016639165 0.007109232 0.12338422
-0.14099619 0.0024166012 0.10695029 -0.15493497 -0.022212576 -4.2458048e-08 0.0023195758 0.12814575
0.0027742384 0.0041307406 0.0009326981 0.0027510105 -0.002236364 -0.18457349 0.11961343 0.1175542
7.4504633e-06 0.0052792556 0.13295393 -0.14717875 -0.003991916 -0.0034542724 0.11580036 0.1152188
-0.0247139 3.7680734e-09 0.12213331 -0.15689392 0.0055857473 -0.060146954 0.0030201508 0.121090665
0.006750045 0.12711279 0.0027915444 0.00082949176 0.0047349753 0.11718346 -0.0062981024 -0.12204851
0.0042416602 0.0016785923 0.11487285 0.00020560111 -0.005551106 0.0055509983 0.11655603 0.0051139495
-0.08154315 0.11360869 -0.14734681 0.0020344444 -0.0017306914 0.12044274 -6.1047127e-09 0.11889991
-0.0052714953 0.0011976587 -0.0033098678 0.00091642863 0.0038184589 0.0020567027 0.003967844 0.12039853
-0.12870012 0.0037881634 0.1178489 -0.14457397 -0.021170339 1.5280202e-08 0.0013890734 0.14102468
0.001089998 0.0022088194 0.00081944064 0.008756835 -0.0018072107 -0.18016075 0.1225705 0.12033735
00000000: 3b15 8dae d9aa 2e2f 32db a92e 913f e62d
00000010: b25e b92e 5824 262f 0187 6eaf 9829 af2e
00000020: 748d 7b2d eede 07af fc6d 78ad 957b 6cac
00000030: a10d 3aaf 70ef e92c 21c8 b62e 2299 6faf
00000040: 5172 132e 0c7e 6dae 0ed3 0c2d 4898 6b2f
00000050: 246e a0ae 909a 0b2d 50d6 46af 5021 6c2e
00000060: ea6f 26af 35c9 23af 5972 9fac 9f54 2f2f
00000070: ea7c 65ae d4d6 202d 7cff 6cae 3ee8 242c
00000080: 6d64 072f 369d 972e 3a41 39af d19f 6fae
00000090: 1085 b12d b24d 752d 9f55 f6ae 7434 5bab
000000a0: 6d52 88ac aba8 712e 4488 6aae 58ea df2d
000000b0: 2209 41ae d40e 3eae 4106 bf2e b975 23ae
000000c0: 0d0d 98ad dbe3 f02e bc8e f8ae 400e bd2d
000000d0: 2520 092f 9002 66af 9e29 a4ab 20bd 432c
000000e0: 2be8 002f c308 3baf c8dc e02d 100f bfae
000000f0: db7a 8aad cfd3 06af b388 73ab 2e74 63ae
00000100: 4247 262f 6aa4 caae 2c76 b92e 2234 f32d
00000110: 98ad 1fae 8314 3b2f 13f1 102e 508c 222f
00000120: b340 56ae 8011 b0ae 7a6d b9ac 7519 3b2f
00000130: d26f 082f 6f01 24af d3c9 092f 1e8e 53af
00000140: c650 092f bced ecad d73c f32d c3bf d5ab
00000150: b7bc 642f 6fbe d82d 3039 05ae cd31 62ae
00000160: 2ded ee2e 78f7 edae 0be0 3e2c fdae 562e
00000170: 61d5 13af 6a5d 1caf 5d39 3d2e 533a 08af
00000180: e3d3 2b2d e9d4 84ac 92c9 bbad c0a6 f5ae
00000190: 373d 6bae 7790 5e2e 8690 15af 92e2 cbae
000001a0: 2ca3 652c ea46 cc2d f326 f52e ec1f c6ae
000001b0: 8ea5 332f c8e9 7d2d a97b b5ad cbf7 6aad
000001c0: a012 39af 6f5b d52d ca1c 71ae 2507 e2ad
000001d0: ee68 bdac 1a46 63ac 9444 ecac c5d9 eead
000001e0: 7f1d e42d e928 07af 13e8 9dac 38ae 7b2e
000001f0: 4ac0 632f 76e6 30ac ef73 112f 37f8 6f2f
00000200: af4b 5136 1241 5d3b c20b 073e bfe7 23be
00000210: f333 0ebb e377 ebbb e428 e73d 42fc e83d
00000220: 7362 2ebd 7e9f b631 47e0 f23d cfa3 29be
00000230: fd8f ab3b 915a 3ebd 4129 783b 53d3 ec3d
00000240: 3814 f838 0272 023e df2f 303b 4ebc 673a
00000250: 8355 063b 6cd8 f33d a0e2 64bb dcd6 04be
00000260: b9dc 123b b42e e73a c5eb ee3d 6dc0 6b38
00000270: 25a5 84bb 1b7a 6a3b d103 e93d e3b5 723b
00000280: 01d9 cfbd 60ed eb3d 5719 1cbe cb14 0a3b
00000290: b59d b037 75a6 e43d 4532 f9b1 f1cc f33d
000002a0: 6cd9 78bc 0f1d 943b 59c1 51bb 0fe3 f4b9
000002b0: a8d5 973b c617 da3a 8ff4 e83b deb0 fc3d
000002c0: 4e61 10be d75f 1e3b c108 db3d 46a7 1ebe
000002d0: 26f7 b5bc 1e5b 36b3 0604 183b a438 033e
000002e0: ffcf 353b 2a5b 873b 4f80 743a 4c4a 343b
000002f0: f68f 12bb d500 3dbe e3f7 f43d 42c0 f03d
00000300: fefe f936 9bfd ac3b 1325 083e 07b6 16be
00000310: 9ece 82bb 1361 62bb bd28 ed3d d6f7 eb3d
00000320: ce74 cabc 5378 8131 0721 fa3d cda8 20be
00000330: a508 b73b a75c 76bd b9ed 453b 62fe f73d
00000340: 7b2f dd3b db29 023e 58f2 363b 4072 593a
00000350: da27 9b3b e2fd ef3d 5060 cebb 92f4 f9bd
00000360: a0fd 8a3b 3604 dc3a 7542 eb3d a196 5739
00000370: 0de6 b5bb 26e5 b53b eeb4 ee3d eb92 a73b
00000380: 1800 a7bd acab e83d 15e2 16be 5054 053b
00000390: 5ed8 e2ba afaa f63d 9fc1 d1b1 cc81 f33d
000003a0: 82bc acbb c2fa 9c3a 5eea 58bb 7c3c 703a
000003b0: 1c3f 7a3b bfc9 063b b004 823b 8193 f63d
000003c0: f7c9 03be d642 783b c45a f13d 330b 14be
000003d0: 6b6d adbc 8541 8332 9211 b63a c668 103e
000003e0: 44de 8e3a d7c1 103b bbcf 563a d478 0f3c
000003f0: eedf ecba 0f7c 38be 3e06 fb3d 6e73 f63d

6.bias f4 [4]
0.0 0.0 0.003928592 -0.0018464832
00000000: 0000 0000 0000 0000 6bbb 803b b205 f2ba

exp_avg f4 [64, 70]
-1.8233754e-08 -5.8653804e-15 -6.665876e-09 -5.1703188e-15 7.682194e-09 -2.2499133e-14 2.7882836e-08 -1.9511198e-08
-3.709876e-14 2.5263553e-09 -1.1511828e-13 -2.1740192e-08 6.308647e-10 -1.5711825e-08 -3.2163197e-08 1.7966755e-08
5.487361e-09 -3.1712948e-09 -1.1475744e-08 -1.3647815e-08 -7.614337e-09 -3.1443e-08 1.180351e-12 1.1663319e-08
1.969705e-10 -9.742239e-09 1.0429879e-08 -2.800533e-09 -2.0145157e-08 -1.13215455e-08 1.7761634e-08 1.2073413e-09
-1.5203163e-08 1.0341741e-08 -6.5161077e-09 -1.915435e-08 -1.6302992e-11 4.389385e-09 -6.9091576e-14 -8.433294e-09
7.2047646e-10 -1.5013988e-08 -1.5025101e-08 9.178183e-13 8.621582e-09 2.6504662e-14 -9.873428e-09 1.2546278e-10
-1.0885259e-08 -1.3542662e-08 6.9214997e-15 1.1403371e-08 2.3357274e-14 -4.9459143e-09 5.2552927e-12 -1.0654786e-08
-5.1542863e-09 -1.9739326e-15 1.2765826e-09 -7.8232675e-15 -1.1797948e-09 5.1174946e-16 -4.8166298e-09 -5.1746346e-10
-3.8781505e-15 3.2686043e-10 -6.1564315e-15 -6.134056e-12 -1.2865652e-16 -3.6477038e-10 -0.0012695362 -5.738673e-05
-0.0007438503 -0.00021054881 0.00063744833 -0.00045023655 0.0013698649 -0.0012695475 0.0019489044 0.0007702754
-0.00024593037 -0.0006614827 -0.0017682806 -7.49269e-05 -0.0012678256 0.00089687697 0.0006083613 -7.178182e-05
-0.0005770373 -0.0012080808 0.00029151695 -0.0012847447 -0.0009337078 0.00065537385 0.000713474 -0.00071799057
0.0012191855 -0.0001529152 -0.001226752 -0.0010297742 0.00058829196 0.000667048 -0.0005882076 0.0015543667
0.00019024775 -0.0010646296 3.866088e-05 0.0006405345 0.00050188473 -0.0007640564 0.00068776566 -0.0004214212
-0.0017492968 2.7507547e-05 0.0013372008 0.00015057817 -0.001527396 0.00016600869 -0.0016672402 -0.0008355437
1.6582098e-05 0.0008761626 1.1060679e-05 -0.000802319 9.992184e-06 -0.00090960105 8.786496e-05 3.1427542e-05
-2.3932914e-06 -1.963605e-05 6.546713e-05 -4.5355206e-05 3.880397e-05 0.00010568525 3.363009e-05 -4.7668334e-05
-2.5028288e-05 7.653924e-05 -6.1289255e-05 4.522483e-05 -6.5130116e-08 4.801603e-10 -1.5502861e-08 6.753574e-08
6.710206e-08 6.5661816e-08 8.011666e-08 -7.1162496e-08 6.044519e-08 6.562986e-09 -7.1561004e-08 -8.507973e-08
-5.995478e-08 -4.1875893e-08 -8.082557e-08 1.4195127e-09 5.8021623e-09 -1.2202506e-08 -7.4820655e-08 -7.517897e-09
-6.222255e-09 -6.912867e-08 1.4949581e-08 3.980631e-09 -2.7206273e-08 -5.2548874e-08 -3.1366504e-08 3.3402643e-09
-7.360861e-08 1.7641854e-08 -1.8108456e-10 -1.8892877e-08 -3.5293798e-08 -5.3088947e-09 5.2895093e-08 -4.9877134e-08
-4.4751033e-08 3.5991607e-09 -7.924927e-09 -4.4715094e-08 4.256559e-08 -6.036069e-09 -7.287489e-08 -2.4148118e-08
3.0029923e-08 1.0826309e-08 -5.858335e-08 5.1887067e-08 -1.8001668e-08 -6.2730315e-08 -1.8162188e-08 4.4408555e-08
-9.772128e-10 -4.849041e-08 3.4782424e-08 -3.9782545e-08 -7.913921e-08 6.5094535e-10 6.8293026e-08 -5.2616502e-09
-5.3792796e-08 -1.1140152e-15 -4.0272646e-08 -5.5453366e-08 1.7577967e-09 5.3974905e-08 8.508969e-09 -5.7355848e-08
1.2349335e-16 -5.5383858e-08 -4.666422e-08 -4.0023814e-08 -3.0455688e-08 1.597505e-08 2.592501e-08 9.391294e-09
4.7063114e-08 -4.740815e-08 6.095681e-09 2.9401548e-08 -3.2363637e-08 -2.6703217e-08 -1.5878824e-08 -1.0212677e-16
-4.9479777e-08 5.1424134e-08 3.7458666e-08 -3.7094214e-08 -3.4945387e-08 -3.4643424e-08 5.0316363e-08 -4.9646818e-08
4.4102535e-08 3.4651617e-08 -4.3362288e-08 -3.3004156e-08 -5.0457874e-08 -3.207789e-15 -4.7514117e-08 -3.3652405e-08
6.973631e-08 2.8563445e-08 -3.7915953e-08 2.6750213e-08 -2.7990916e-08 1.7587501e-08 4.90621e-08 -2.071309e-08
-1.7291374e-08 -6.0961e-09 3.534588e-16 6.2165437e-09 -1.8422192e-08 3.681221e-08 2.1192648e-08 6.672308e-08
00000000: 73a0 9cb2 9652 d3a7 aa09 e5b1 c647 baa7
00000010: a6fa 0332 78a7 caa8 0183 ef32 9499 a7b2
00000020: f513 27a9 1d9c 2d31 969c 01aa 30bf bab2
00000030: 2869 2d30 abf6 86b2 cf23 0ab3 5055 9a32
00000040: 568b bc31 02ee 59b1 db26 45b2 ba77 6ab2
00000050: 35d0 02b2 f20b 07b3 a01e a62b d25f 4832
00000060: 4492 582f d25e 27b2 182f 3332 7f73 40b1
00000070: ab0b adb2 af80 42b2 3f92 9832 8cef a530
00000080: 1c98 82b2 75ab 3132 4ae4 dfb1 dc88 a4b2
00000090: 1367 8fad 70d1 9631 9594 9ba9 05e2 10b2
000000a0: 060b 4630 1cf8 80b2 8c10 81b2 e42b 812b
000000b0: 1e1e 1432 97bb ee28 cc9f 29b2 a2f2 092f
000000c0: e001 3bb2 42a9 68b2 915f f927 8ee8 4332
000000d0: 3562 d228 b9f0 a9b1 78e7 b82c 3f0c 37b2
000000e0: 9519 b1b1 a13c 0ea7 c273 af30 74ee 0ca8
000000f0: 5726 a2b0 7280 1326 867f a5b1 413d 0eb0
00000100: a0b9 8ba7 84b1 b32f 0fcf dda7 aad2 d7ac
00000110: b454 14a5 de88 c8af 9166 a6ba 88b2 70b8
00000120: f3fe 42ba c4c6 5cb9 6f1a 273a ba0d ecb9
00000130: 0a8d b33a f266 a6ba 6172 ff3a 4fec 493a
00000140: 37f0 80b9 5a67 2dba a7c5 e7ba 1322 9db8
00000150: 2b2d a6ba 651c 6b3a 707a 1f3a 9289 96b8
00000160: 5144 17ba 7758 9eba bed6 9839 e164 a8ba
00000170: 12c4 74ba 65cd 2b3a 6e08 3b3a 8837 3cba
00000180: 14cd 9f3a dd57 20b9 f7ca a0ba 7df9 86ba
00000190: 9b37 1a3a d5dc 2e3a f231 1aba e4bb cb3a
000001a0: 3e7d 4739 0b8b 8bba ce27 2238 8be9 273a
000001b0: ea90 033a f54a 48ba 2c4b 343a 32f2 dcb9
000001c0: a948 e5ba 02c0 e637 0345 af3a 85e4 1d39
000001d0: e832 c8ba 9e12 2e39 4c87 daba 6308 5bba
000001e0: c919 8b37 47ae 653a 4191 3937 b752 52ba
000001f0: 1aa4 2737 4b72 6eba 2444 b838 11d1 0338
00000200: 6f9c 20b6 19b8 a4b7 664b 8938 c83b 3eb8
00000210: 72c1 2238 56a3 dd38 090e 0d38 7cef 47b8
00000220: d7f3 d1b7 b183 a038 6b88 80b8 cbaf 3d38
00000230: a9dd 8bb3 47fc 0330 272b 85b2 2a08 9133
00000240: bf19 9033 f701 8d33 9a0c ac33 ffd1 98b3
00000250: 18ce 8133 a380 e131 14ad 99b3 14b5 b6b3
00000260: 7dc0 80b3 08db 33b3 5492 adb3 aa18 c330
00000270: 5c5c c731 30a3 51b2 17ad a0b3 1028 01b2
00000280: 89cb d5b1 e373 94b3 7a6a 8032 00c6 8831
00000290: 3ab3 e9b2 19b2 61b3 d6b7 06b3 8d8a 6531
000002a0: c312 9eb3 d98a 9732 c61a 47af e049 a2b2
000002b0: f195 17b3 8869 b6b1 c52e 6333 7d38 56b3
000002c0: 4834 40b3 1b55 7731 3326 08b2 c40c 40b3
000002d0: 5cd1 3633 d365 cfb1 657f 9cb3 466e cfb2
000002e0: 40fa 0033 9cfe 3932 139d 7bb3 6fda 5e33
000002f0: 16a2 9ab2 5bb6 86b3 1303 9cb2 b9bb 3e33
00000300: 9e4e 86b0 c543 50b3 ae63 1533 5fdd 2ab3
00000310: 3ef3 a9b3 35ee 3230 7da8 9233 f7c9 b4b1
00000320: ce09 67b3 e88b a0a6 3ef8 2cb3 9f2b 6eb3
00000330: f996 f130 09d2 6733 d72e 1232 6c57 76b3
00000340: ce60 0e25 32df 6db3 da6b 48b3 a6e6 2bb3
00000350: 62ce 02b3 8239 8932 b3b1 de32 5957 2132
00000360: 7122 4a33 d09d 4bb3 2d72 d131 b08e fc32
00000370: 3200 0bb3 ff60 e5b2 e765 88b2 017d eba4
00000380: 9783 54b3 6fdd 5c33 3de2 2033 8551 1fb3
00000390: dc16 16b3 d9ca 14b3 6d1b 5833 413b 55b3
000003a0: 406b 3d33 dbd3 1433 573d 3ab3 74c0 0db3
000003b0: 05b7 58b3 4325 67a7 5312 4cb3 3689 10b3
000003c0: f1c1 9533 ae5b f532 08d9 22b3 57c8 e532
000003d0: ad70 f0b2 5313 9732 59b8 5233 91ec b1b2
000003e0: 2288 94b2 dd75 d1b1 50c1 cb25 4c99 d531
000003f0: d43e 9eb2 741b 1e33 200b b632 6749 8f33

exp_avg_sq f4 [64, 70]
1.4909939e-12 8.574412e-16 1.8341014e-13 2.586484e-16 2.609136e-13 2.8910757e-15 1.4746484e-12 1.4908374e-12
3.8717766e-15 1.1313844e-13 6.5072205e-15 6.699815e-13 5.922386e-14 5.029509e-13 1.489413e-12 4.4480449e-13
1.9596359e-13 1.0811587e-13 5.3763065e-13 5.031744e-13 2.619592e-13 1.4894875e-12 1.571554e-14 3.0969883e-13
3.918627e-14 4.1640882e-13 2.766637e-13 1.4277511e-13 1.4907577e-12 2.9017687e-13 4.4541462e-13 8.1579695e-14
4.8737197e-13 5.0356523e-13 2.6211813e-13 6.783443e-13 2.6941626e-14 1.3884948e-13 5.9610727e-15 3.1764196e-13
6.313368e-14 3.5440102e-13 7.1178995e-13 1.4754028e-14 3.109563e-13 1.6866409e-15 3.2291002e-13 3.5569305e-14
4.5960436e-13 5.0318614e-13 2.0214742e-15 3.0872904e-13 1.633194e-15 2.3283982e-13 2.4016311e-14 3.454191e-13
1.4423797e-13 2.2182105e-16 8.924063e-14 3.4496285e-16 7.4585385e-14 8.480508e-19 1.4429392e-13 5.069946e-14
6.498424e-17 4.6197797e-14 1.9111787e-16 2.3876207e-14 2.9697206e-19 5.0857383e-14 2.161657e-05 2.002804e-08
3.7952298e-06 5.032623e-07 5.390069e-06 1.9228705e-06 2.0903066e-05 2.1616566e-05 6.8693253e-06 3.0612791e-06
3.559836e-06 6.4037795e-06 2.077804e-05 1.4218779e-05 2.1866592e-05 1.8908357e-05 4.8278002e-06 6.107505e-06
7.2570247e-06 3.7882306e-05 7.0824217e-06 2.2116434e-05 1.4496317e-05 5.1749375e-06 5.3384815e-06 7.355127e-06
3.1924166e-05 8.964345e-06 2.285412e-05 1.4041973e-05 6.8457966e-06 3.8394714e-06 9.1763895e-06 2.344039e-05
9.970509e-06 2.4158628e-05 7.568788e-06 1.3227067e-05 2.2551333e-06 1.4462805e-05 1.37785655e-05 1.978683e-05
2.0633583e-05 2.6353218e-06 1.590891e-05 7.9825384e-07 1.4181531e-05 3.9283186e-06 2.0409165e-05 1.1389413e-05
2.0309112e-06 1.0046903e-05 4.928397e-07 7.877428e-06 2.670999e-06 1.34617285e-05 5.186975e-06 3.8518013e-07
4.0026152e-06 1.0974936e-07 2.9300202e-06 4.1630105e-07 4.815823e-06 2.5193383e-06 3.4266134e-07 1.2040073e-06
2.4362186e-07 8.715996e-07 8.5441155e-07 1.536773e-06 5.027413e-11 7.1900005e-14 3.994032e-12 7.1998046e-12
5.517168e-12 4.2021865e-11 4.321844e-11 5.0270187e-11 1.9878656e-11 3.5993704e-12 2.0334581e-11 1.0246783e-11
7.963628e-11 1.0421024e-11 5.026346e-11 1.0981433e-11 4.1835576e-12 2.1466278e-11 5.607872e-12 6.2426564e-11
7.0593444e-13 5.0271527e-11 1.35673296e-11 4.2703575e-12 2.0994562e-11 5.2139434e-12 3.6094135e-11 1.2769114e-13
5.026859e-11 2.9628508e-11 5.730684e-12 2.1993409e-11 4.789698e-12 6.159229e-11 8.188434e-12 5.6599506e-11
4.5628838e-11 8.938355e-12 1.5597981e-12 1.0699962e-11 6.7055764e-11 2.0630324e-11 5.5482487e-11 7.262547e-12
8.840319e-12 2.7618515e-12 1.9540298e-11 6.3989085e-11 4.0193758e-11 7.826908e-11 6.572238e-13 6.420079e-11
9.263019e-12 4.081627e-11 1.15407016e-11 7.0060395e-11 5.2972866e-11 5.3646886e-14 4.7444344e-11 9.670907e-13
3.8171473e-11 3.474328e-18 5.2977324e-11 3.1809156e-11 8.1248817e-14 2.994213e-11 3.086686e-13 2.5468587e-11
2.9858816e-19 3.1809184e-11 4.3123094e-08 5.2237374e-11 2.6606488e-09 7.539326e-11 7.835362e-09 3.1930836e-10
4.2733696e-08 4.312309e-08 2.4377803e-08 2.2534454e-09 5.7725873e-09 7.835359e-09 4.3123276e-08 3.0505555e-19
4.3123077e-08 4.8797286e-09 2.4490157e-09 5.1781957e-09 8.762003e-09 3.600261e-08 2.9443572e-09 4.3123077e-08
3.5064268e-08 2.5283367e-09 4.517519e-09 7.8353475e-09 4.312325e-08 4.1319628e-16 4.3123087e-08 2.6046713e-08
6.6623382e-09 4.9352438e-09 1.0373946e-08 3.371489e-08 5.232034e-09 4.3123503e-08 1.2230926e-10 1.165552e-08
7.5393004e-11 3.1454412e-08 7.6338007e-19 4.312342e-08 5.3880505e-08 1.6369842e-10 5.3880502e-08 2.3937559e-11
00000000: b7d6 d12b fe23 7726 6080 4e2a c419 9525
00000010: 9de1 922a ef52 5027 cf89 cf2b 14d1 d12b
00000020: d67e 8b27 dfc3 fe29 8472 ea27 4195 3c2b
00000030: 3b5c 8529 6f91 0d2b c29d d12b 1567 fa2a
00000040: a9a2 5c2a 8e74 f329 5f54 172b 89a1 0d2b
00000050: 4d78 932a 71a0 d12b 918d 8d28 4e58 ae2a
00000060: b27a 3029 d66a ea2a 71bf 9b2a 20c0 202a
00000070: 35ce d12b e55a a32a 03bf fa2a 7eb3 b729
00000080: da2e 092b b3bd 0d2b 348f 932a dcef 3e2b
00000090: 29ab f228 a354 1c2a 31c5 d627 08d1 b22a
000000a0: 172a 8e29 9282 c72a df59 482b 79e4 8428
000000b0: 870d af2a 1112 f326 3dc8 b52a 9e30 2029
000000c0: fc5d 012b 62a2 0d2b 9ea9 1127 8bcc ad2a
000000d0: 395e eb26 c113 832a d851 d828 2374 c22a
000000e0: c465 222a 05be 7f25 b9f3 c829 88db c625
000000f0: 8cf3 a729 e84c 7a21 e475 222a 7f54 6429
00000100: edd7 9524 6f0e 5029 0a58 5c25 c90e d728
00000110: 264d af20 920a 6529 3b55 b537 200a ac32
00000120: 8db1 7e36 ec17 0735 57dc b436 aa0a 0136
00000130: fe58 af37 3955 b537 0e7f e636 6070 4d36
00000140: 84e5 6e36 0ce0 d636 804c ae37 318d 6e37
00000150: 266e b737 639d 9e37 7dfe a136 12ef cc36
00000160: 5e81 f336 d1e3 1e38 8aa5 ed36 ae86 b937
00000170: 3535 7337 60a4 ad36 3521 b336 0fcc f636
00000180: 50e6 0538 9265 1637 d9b6 bf37 d195 6b37
00000190: f2b4 e536 cfd4 8036 4bf4 1937 dba1 c437
000001a0: 0347 2737 42a8 ca37 65f7 fd36 d2e9 5d37
000001b0: e556 1736 46a5 7237 7d2a 6737 e5fb a537
000001c0: 4816 ad37 7cda 3036 2074 8537 9647 5635
000001d0: 36ed 6d37 00d0 8336 5934 ab37 2815 3f37
000001e0: ca4a 0836 1f8f 2837 b04b 0435 4c29 0437
000001f0: 6a3f 3336 afd9 6137 c70b ae36 c1ca ce34
00000200: 344e 8636 59af eb33 5da1 4436 fb7f df34
00000210: 9b97 a136 e711 2936 04f7 b734 6099 a135
00000220: 22cb 8234 def7 6935 b75a 6535 1e43 ce35
00000230: a31b 5d2e 88e7 a129 0b87 8c2c 1352 fd2c
00000240: 3b1e c22c 6ad0 382e a313 3e2e 3317 5d2e
00000250: c1da ae2d 7e48 7d2c 68dd b22d 6843 342d
00000260: 3d1f af2e 1f54 372d a00f 5d2e fa2f 412d
00000270: 2332 932c c3d1 bc2d 384f c52c 0847 892e
00000280: f0b3 462b b518 5d2e d2ad 6e2d f63f 962c
00000290: 8dab b82d 0773 b72c 62be 1e2e 77c4 0f2a
000002a0: 6715 5d2e bc4e 022e 6aa1 c92c c174 c12d
000002b0: c485 a82c 6071 872e 6e0d 102d 61ed 782e
000002c0: 81ad 482e c63e 1d2d a685 db2b 583c 3c2d
000002d0: 0a75 932e 5c77 b52d ba03 742e 3587 ff2c
000002e0: 4285 1b2d 1859 422c d7e0 ab2d a7b6 8c2e
000002f0: 26c6 302e 931d ac2e f7fd 382b d52d 8d2e
00000300: eef4 222d 0983 332e b306 4b2d 7f10 9a2e
00000310: 25fa 682e a69a 7129 95a9 502e 1d1b 882b
00000320: 42e1 272e 1a2e 8022 2aff 682e ede5 0b2e
00000330: c1f4 b629 d7af 032e d5c3 ad2a 2906 e02d
00000340: 5e41 b020 f5e5 0b2e 5836 3933 0ebe 652e
00000350: a1d6 3631 a2ca a52e 499c 0632 a88a af2f
00000360: 328a 3733 5736 3933 5b67 d132 08db 1a31
00000370: 3758 c631 469c 0632 8b36 3933 b112 b420
00000380: 5336 3933 8caa a731 8a4b 2831 e4eb b131
00000390: b287 1632 4aa1 1a33 ae55 4a31 5336 3933
000003a0: 9299 1633 f8be 2d31 8438 9b31 399c 0632
000003b0: 8436 3933 0231 ee25 5636 3933 54bd df32
000003c0: 8cea e431 dd92 a931 1939 3232 eacd 1033
000003d0: 75c5 b331 cb36 3933 ff7a 062f 853d 4832
000003e0: 7dca a52e 7e18 0733 5e4f 6121 b436 3933
000003f0: 3e6a 6733 02fd 332f 3d6a 6733 978e d22d

exp_avg f4 [64]
-2.7152476e-08 -0.001269553 -6.3362826e-08 -4.846368e-08 0.003431373 0.0030694772 -0.00088394666 -0.00076561054
-9.994818e-09 0.0021313624 -0.0014860627 -5.0092417e-08 -0.00072763563 -0.0015883085 -0.001664351 -0.0010392454
-4.737893e-08 -0.0017422182 -0.0013071756 -3.2131616e-08 -0.0011482904 -3.6412754e-08 -9.635093e-08 -4.9406008e-08
0.0033085947 -3.792922e-08 -2.4702208e-08 -3.4863072e-09 2.704788e-06 -4.7146408e-08 -0.00093453855 -0.0013900659
-4.9031494e-09 -5.5011196e-08 0.0023571127 -0.0014476734 -8.102003e-09 0.0042258347 -4.6695686e-08 -5.7602993e-09
-0.00045371192 -0.0010704453 -0.0009034114 -5.2219967e-08 -5.4747442e-08 -0.0012503908 0.0027771269 0.0039699264
-5.2448247e-08 -4.8859974e-08 -1.6996713e-08 -0.0014091058 -1.12566685e-08 -3.0205737e-08 0.0027274818 -8.080027e-08
-9.0269936e-08 -0.0012359816 -4.6784354e-08 0.0050004013 -3.8129887e-08 -4.815031e-08 -5.785222e-08 -5.186291e-08
00000000: ed3c e9b2 2167 a6ba 1512 88b3 6126 50b3
00000010: e3e0 603b 4829 493b a8b8 67ba 41b3 48ba
00000020: adb5 2bb2 54ae 0b3b fdc7 c2ba 3225 57b3
00000030: cdbe 3eba ca2e d0ba 5a26 daba 4a37 88ba
00000040: af7d 4bb3 245b e4ba 8955 abba 1601 0ab3
00000050: 3b82 96ba 3f64 1cb3 7ce9 ceb3 7b32 54b3
00000060: 02d5 583b 9ee7 22b3 bb30 d4b2 c493 6fb1
00000070: e783 3536 067e 4ab3 d2fb 74ba df32 b6ba
00000080: 8f78 a8b1 7345 6cb3 ca79 1a3b dcbf bdba
00000090: fc30 0bb2 df78 8a3b 738e 48b3 21ec c5b1
000000a0: 2fe0 edb9 2f4e 8cba ead2 6cba 7648 60b3
000000b0: 7323 6bb3 27e4 a3ba 7500 363b 2816 823b
000000c0: 7543 61b3 1cda 51b3 2b00 92b2 bfb1 b8ba
000000d0: 5a63 41b2 8fbb 01b3 8dbf 323b 6b84 adb3
000000e0: 6cda c1b3 a900 a2ba f1ef 48b3 68da a33b
000000f0: 41c4 23b3 d3cd 4eb3 3079 78b3 dfbf 5eb3

exp_avg_sq f4 [64]
1.4899497e-12 2.161657e-05 5.027537e-11 4.3123084e-08 4.224176e-05 4.1113217e-05 2.2241304e-05 3.0708332e-05
3.5093128e-13 4.195452e-05 2.6907399e-05 2.7445997e-11 3.8904553e-05 2.8976123e-05 3.5693603e-05 2.894781e-05
1.616499e-10 3.431421e-05 2.7488708e-05 2.3743433e-12 3.5317313e-05 3.6803833e-12 4.0513854e-09 2.3723436e-11
4.2420725e-05 4.351679e-12 1.1969002e-12 4.9992583e-14 5.534841e-10 1.5478079e-11 3.3368247e-05 3.7082562e-05
2.2668768e-14 1.1666487e-10 3.9492876e-05 3.3545144e-05 2.536892e-13 4.1883904e-05 1.4327316e-11 1.8971638e-13
1.9533009e-05 3.4089404e-05 3.301836e-05 8.253678e-11 6.658391e-12 3.033486e-05 3.6631583e-05 4.5243378e-05
2.1253744e-11 2.1251046e-11 6.075973e-13 3.736107e-05 3.5501956e-13 1.9742586e-12 3.2819873e-05 5.471289e-10
1.3728063e-10 2.673052e-05 1.4544138e-11 3.3405893e-05 4.4518902e-12 1.8546553e-11 2.5358554e-10 4.1895494e-11
00000000: 18b1 d12b 3b55 b537 091d 5d2e 5536 3933
00000010: bf2c 3138 fb70 2c38 d692 ba37 d2cc 0038
00000020: 878e c52a 53f8 2f38 33b7 e137 e46a f12d
00000030: 722d 2338 c011 f337 b7b5 1538 f3d4 f237
00000040: 67bc 312f 9aec 0f38 8d97 e637 5e14 272c
00000050: ad21 1438 f27d 812c 5d34 8b31 6eac d02d
00000060: e8ec 3138 711c 992c e072 a82b 8625 6129
00000070: fb23 1830 8925 882d e2f4 0b38 1989 1b38
00000080: 9f2e cc28 3e46 002f 27a5 2538 d3b2 0c38
00000090: 77d0 8e2a 80ac 2f38 7f0c 7c2d 069a 552a
000000a0: d1da a337 38fb 0e38 327d 0a38 1480 b52e
000000b0: 7445 ea2c 9e77 fe37 dda4 1938 b5c3 3d38
000000c0: 2df3 ba2d 1aed ba2d 0006 2b2b 25b4 1c38
000000d0: b6db c72a 15ed 0a2c 12a8 0938 c664 1630
000000e0: 10f1 162f 5b3b e037 f9dc 7f2d 4e1d 0c38
000000f0: 10a3 9c2c 2023 a32d fe68 8b2f 2242 382e

exp_avg f4 [64, 64]
2.885179e-16 -1.0239005e-14 -8.688498e-17 3.9977388e-16 -5.8846264e-17 -1.7076137e-14 3.2318995e-17 4.392466e-17
1.2223125e-16 8.745316e-17 -3.6888833e-16 2.1523335e-17 -1.8329202e-18 4.4639383e-16 -2.9740507e-16 3.049773e-16
-3.5062463e-16 -7.490158e-16 -2.7273606e-16 3.1029382e-16 3.9368416e-16 -5.3340137e-16 3.3584075e-15 -2.1058997e-18
4.8935644e-17 -4.9274177e-15 -5.3655944e-17 -5.0829726e-17 -8.43887e-16 2.9106252e-17 -1.1994629e-15 -1.1687084e-16
2.2498222e-16 2.876349e-18 2.824871e-15 -2.3180306e-16 8.009691e-17 -3.6289485e-16 6.0702404e-16 5.418177e-17
9.59855e-18 -3.68478e-17 6.995319e-17 -1.9451104e-16 2.1600836e-16 -3.3960098e-15 -4.7788375e-15 -1.0258204e-17
3.179341e-16 1.4751131e-14 -1.8267499e-16 -3.38052e-16 1.6220661e-16 -3.106179e-16 3.9210726e-15 1.7027301e-16
-1.2555188e-16 -5.1639728e-17 -6.412479e-15 -1.3774421e-16 -1.8470904e-15 -7.7527e-15 -4.5499768e-17 -1.3466408e-16
-3.8889927e-09 -1.5915484e-08 -1.7690564e-17 -6.2118035e-09 1.3697674e-16 -3.1927478e-08 2.4147412e-17 4.084135e-17
2.000521e-18 -5.021041e-16 2.2378836e-14 -3.649995e-16 9.816851e-13 -2.2615336e-10 -1.41606735e-08 3.429582e-14
-1.4339391e-11 -2.2735875e-08 -3.246923e-09 -3.6131937e-16 1.6015691e-16 -1.2374256e-09 -2.0398122e-08 6.9048506e-16
-1.4971737e-12 -2.5512887e-09 -3.4231807e-16 4.383412e-16 1.1620871e-16 -8.613569e-14 -9.0773975e-09 -1.5142664e-14
4.6244303e-17 -3.0726004e-09 -2.6460372e-09 -2.0534689e-16 -1.1237387e-09 -3.3222492e-17 -1.284596e-08 -1.2984494e-08
5.5682265e-17 -2.0955339e-08 -4.9098668e-14 1.3853859e-16 8.5608895e-14 -5.070466e-09 1.2630821e-12 -1.5904599e-16
-1.1534398e-16 -1.5110222e-08 -1.1955986e-10 -1.5805771e-08 -1.6822871e-16 -1.9218938e-16 -3.6345944e-11 3.0703666e-16
-2.3682464e-16 -7.991513e-15 -1.0485117e-08 2.8442387e-16 1.2847037e-16 -1.0002402e-16 -2.3732e-16 -1.0490633e-08
3.3635903e-08 -0.00038531332 -6.666423e-08 -3.0244546e-08 -0.00086248433 -0.0008130734 -4.37113e-06 -6.430715e-05
2.7958098e-14 -0.0005686447 -0.0003624048 -8.932222e-14 -8.698067e-05 -0.00038789443 -0.00020758009 -0.00042921497
-1.7703687e-08 -0.00016358051 -5.9939463e-05 1.1262927e-09 -0.00035147625 9.902229e-09 4.7786326e-08 1.440468e-08
-0.0007194406 3.8936786e-08 1.47669645e-08 3.5167833e-10 -6.7184e-07 3.2229806e-08 4.626332e-05 -0.0002830178
-2.4644235e-15 3.3481452e-08 -0.0010444038 -0.00040679573 1.7401874e-08 -0.0009761827 4.6997013e-08 2.665589e-08
3.2677253e-05 -0.00042014825 -0.0002611554 -1.5051392e-09 1.9849534e-08 3.280921e-05 -0.0014526732 -0.00084235653
7.786689e-09 4.0386528e-08 1.9263606e-09 -4.4145665e-05 1.3967777e-10 5.0930327e-10 -0.0009185332 3.4258097e-08
-9.730765e-11 -0.0001633913 3.9113893e-08 -0.0008129061 4.065719e-08 4.351485e-08 -3.478409e-09 3.672273e-08
2.4068762e-13 0.0006700214 5.9146544e-08 4.967822e-08 0.0032618386 0.0040532285 0.00013511955 0.0003350929
2.1548139e-14 0.002923154 0.00062396907 9.845443e-18 0.00021195899 0.0006696511 0.0005069385 0.0007938251
5.2849575e-08 0.00035781704 0.00033664404 -6.214722e-18 0.00035261645 8.720399e-15 1.6117232e-08 -7.93293e-17
0.0037982306 5.0504916e-09 2.4316172e-16 2.6312449e-11 1.5911701e-06 1.302764e-14 3.1288462e-05 0.0004996224
-5.6157383e-12 2.4427694e-16 0.0040394296 0.00085963216 -3.9712835e-17 0.004258745 5.3443205e-16 3.7838713e-14
0.00015323446 0.0005780323 0.000569281 8.017228e-09 -1.9623299e-09 0.00012458465 0.0034129994 0.0050983843
-1.2130535e-08 -3.2881568e-16 5.3297844e-16 0.00026320285 3.1475765e-16 1.8512863e-16 0.0037864738 -2.6470708e-08
-9.622134e-10 0.0005423276 5.314038e-14 0.0051308805 4.5927506e-17 -3.7281644e-16 2.8844862e-08 5.2352798e-09
00000000: ba51 a625 1473 38a8 d757 c8a4 3674 e625
00000010: b4b0 87a4 e4ce 99a8 890b 1524 1691 4a24
00000020: 4cec 0c25 3ca7 c924 4fa6 d4a5 8a84 c623
00000030: e23e 07a2 0daa 0026 3e71 aba5 b5ce af25
00000040: 101f caa5 9ce3 57a6 bd38 9da5 49df b225
00000050: 87f1 e225 13be 19a6 afff 7127 5263 1ba2
00000060: 03ad 6124 6887 b1a7 c271 77a4 2669 6aa4
00000070: df3b 73a6 993a 0624 5fdc aca6 2fbe 06a5
00000080: 84b1 8125 b23c 5422 ac8d 4b27 18a0 85a5
00000090: dfb0 b824 d431 d1a5 78f6 2e26 8bde 7924
000000a0: df0f 3123 34ee 29a4 134d a124 8741 60a5
000000b0: 6a0a 7925 53b5 74a7 ff2c aca7 003b 3da3
000000c0: cb46 b725 cbdd 8428 249c 52a5 abdf c2a5
000000d0: f102 3b25 1c0f b3a5 8345 8d27 b94f 4425
000000e0: 60c0 10a5 6e25 6ea4 ae08 e7a7 eace 1ea5
000000f0: ce18 05a7 05a9 0ba8 a5d4 51a4 d241 1ba5
00000100: f19f 85b1 85b6 88b2 aa2a a3a3 9a6f d5b1
00000110: 66ec 1d25 a220 09b3 77b8 de23 f558 3c24
00000120: c69c 1322 beb8 10a6 1592 c928 6b68 d2a5
00000130: ef28 8a2b 83a8 78af 4d47 73b2 6374 1a29
00000140: e042 7cad b84c c3b2 7920 5fb1 5449 d0a5
00000150: faa5 3825 0b12 aab0 f237 afb2 ce04 4726
00000160: 5eb5 d2ab bf52 2fb1 3b55 c5a5 beaf fc25
00000170: c2fa 0525 d8f5 c1a9 d1f2 1bb2 9b64 88a8
00000180: a343 5524 c225 53b1 94d5 35b1 b4bf 6ca5
00000190: 0a72 9ab0 3236 19a4 21b1 5cb2 6912 5fb2
000001a0: 0265 8024 4701 b4b2 e91e 5da9 60b9 1f25
000001b0: 2bc6 c029 4a38 aeb1 54c3 b12b 175e 37a5
000001c0: 89fb 04a5 bbcb 81b2 1c75 03af 42c5 87b2
000001d0: 5af4 41a5 4b94 5da5 e5d9 1fae 9dfe b025
000001e0: 2685 88a5 59f6 0fa8 0822 34b2 8ef5 a325
000001f0: c31d 1425 c3a3 e6a4 40ce 88a5 4b3a 34b2
00000200: 1177 1033 e103 cab9 0c29 8fb3 3be6 01b3
00000210: 5818 62ba 6f24 55ba b9ab 92b6 a3dc 86b8
00000220: fcd2 fb28 1a11 15ba 2601 beb9 c122 c9a9
00000230: 6469 b6b8 4f5e cbb9 dba9 59b9 4208 e1b9
00000240: d212 98b2 cf86 2bb9 8267 7bb8 e7cb 9a30
00000250: 5846 b8b9 771e 2a32 9f3d 4d33 7478 7732
00000260: d798 3cba 733b 2733 ccb1 7d32 5356 c12f
00000270: 7e58 34b5 0c6d 0a33 dd0a 4238 0262 94b9
00000280: 9794 31a7 3fcd 0f33 60e4 88ba 3347 d5b9
00000290: 207b 9532 83e6 7fba c3d9 4933 ecf8 e432
000002a0: ef0e 0938 5847 dcb9 afeb 88b9 61dd ceb0
000002b0: 9681 aa32 9f9c 0938 a067 beba 97d1 5cba
000002c0: 38c6 0532 7575 2d33 e560 0431 0c29 39b8
000002d0: cc93 192f 08ff 0b30 b8c9 70ba 2d23 1333
000002e0: 56fb d5ae 0554 2bb9 2efe 2733 3419 55ba
000002f0: 0e9f 2e33 15e5 3a33 d108 6fb1 12b9 1d33
00000300: be7e 872a 60a4 2f3a 5008 7e33 c85d 5533
00000310: 92c4 553b f2d0 843b e1ae 0d39 68af af39
00000320: a016 c228 6392 3f3b db91 233a ca9d 3523
00000330: 4f41 5e39 868b 2f3a 11e4 043a b318 503a
00000340: b9fc 6233 6499 bb39 997f b039 6448 e5a2
00000350: 61df b839 be17 1d28 2b72 8a32 c1eb b6a4
00000360: bceb 783b 9888 ad31 562c 8c25 5e72 e72d
00000370: 3090 d535 63af 6a28 bb3b 0338 17f9 023a
00000380: 1396 c5ac ead0 8c25 315d 843b f058 613a
00000390: a424 37a4 f18c 8b3b 200a 1a26 1169 2a29
000003a0: 90ad 2039 1787 173a cd3b 153a 24bc 0932
000003b0: acd9 06b1 f0a2 0239 a1ac 5f3b 5910 a73b
000003c0: a866 50b2 a18c bda5 de9e 1926 7dfe 8939
000003d0: 0872 b525 5470 5525 7d26 783b b461 e3b2
000003e0: e03e 84b0 fd2a 0e3a b052 6f29 f220 a83b
000003f0: a1cd 5324 ffe9 d6a5 86c6 f732 02e2 b331
