models/reinforce.pth (torch, 84081 bytes, 4 tensors)

0.weight f4 [24, 847]
0.06214791 -0.031125264 -0.00868128 -0.016616173 -0.008556395 -0.037668563 0.003796964 0.013006845
-0.0007860417 -0.02274743 -0.021656832 0.021053033 -0.07998104 0.011992213 -0.012573576 0.044829704
0.012098423 -0.0061426396 -0.030404367 0.020610403 -0.022328503 -0.0036318053 0.009548514 -0.009644258
-0.0068655936 -0.022069229 -3.2629232e-05 -0.0073281894 -0.07041545 -0.022176126 -0.031607993 -0.020653624
0.0063232123 -0.0036857645 -0.012230801 -0.0011050885 -0.039349098 0.020344796 -0.01840829 0.009609946
0.015737653 0.025058927 -0.023211244 0.016085435 0.009296231 -0.044878397 -0.027363246 -0.00887887
0.026908971 0.019010292 -0.047309566 0.025549574 -0.0028445376 -0.008703419 -0.045304082 0.0015655924
0.050463438 -0.07436367 -0.01682408 -0.051687267 -0.0760798 -0.06579835 -0.01862632 0.030045984
0.006848747 -0.02542512 -0.011802027 -0.0030112828 0.010278335 -0.03711031 -0.011514972 -0.0010065672
0.008617866 -0.005011806 0.0167815 0.019570917 0.007687921 -0.06664069 -0.06313879 0.027712952
0.032655682 -0.025727471 -0.040460046 0.012061328 0.036482267 -0.001963539 0.021039518 -0.02486462
-0.02038408 0.052146245 -0.02561102 0.0023496964 -0.012818634 -0.018904211 -0.04906927 0.0031411839
-0.03292058 0.02344554 -0.023714282 0.053265326 -0.0028814483 -0.027024468 0.0014335122 -0.006627991
0.015098937 -0.016513899 -0.012730908 0.0006057187 -0.028575016 -0.015562185 -0.006480982 -0.0268195
-0.046580683 -0.06034811 -0.04085303 0.018980034 0.044964828 -0.034524657 0.011229298 0.00939703
0.07458125 -0.062476672 0.015636025 0.064820915 0.01631731 0.018830882 0.034948118 -0.014072409
0.00052422326 -0.016927999 0.031206775 -0.004906485 -0.071154036 0.065924674 -0.01170927 -0.02515562
-0.05330428 -0.010617481 0.016962772 0.025967194 -0.026550418 -0.005720806 -0.0024109115 0.022826344
0.016797302 0.0069680614 0.035929076 0.049122207 0.05269234 0.03174468 -0.01778054 0.019960055
0.0052624503 0.006108274 -0.042516097 -0.025578825 -0.008082368 0.01836936 -0.028698802 0.05708889
0.015505411 0.011967972 0.0010727912 -0.016745469 0.03365222 0.005769993 -0.010403773 -0.024859302
-0.0047505847 -0.008453197 -0.02011637 0.010112186 -0.021159926 0.017535577 0.021844625 -0.017540134
-0.059372585 -0.013586206 0.036748644 -0.02107941 -0.032337956 0.0056195706 0.008909629 -0.048557486
-0.0337311 -0.06299398 -0.022728125 0.01393288 0.03398534 -0.03252949 -0.029759176 -0.044491097
-0.010634094 -0.016068991 -0.038775526 -0.0029869622 -0.035699476 -0.0039112293 -0.04549735 -0.054136384
0.005894326 0.0289683 -0.015112592 -0.032215253 0.023158444 0.015771067 0.030419713 -0.017064353
-0.025644539 -0.035330895 0.055063676 -0.013137249 -0.017270755 -0.010693259 -0.033614744 -0.016822401
-0.045823872 -0.028128643 -0.018742096 -0.01796299 0.03872969 0.008196425 -0.007318406 -0.047056835
0.010980712 -0.021164918 0.017042145 -0.035494864 -0.021083433 0.0024817628 -0.023231408 -0.0072398474
-0.07145516 -0.041063927 -0.049320906 -0.0012963698 -0.017936919 -0.0049904655 -0.0006336903 -0.01744214
0.01772534 0.04318968 -0.03456296 0.038626235 0.03149142 0.02970813 -0.0072099213 -0.043185156
-0.008515017 -0.009030933 0.008039084 -0.0011727444 -0.00853836 -0.034849863 0.03235775 0.0015581779
00000000: cf8e 7e3d 69fa febc ed3b 0ebc a41e 88bc
00000010: 1f30 0cbc 5a4a 1abd 7cd6 783b a91a 553c
00000020: 5e0e 4eba d158 babc ab69 b1bc 6977 ac3c
00000030: 19cd a3bd fd7a 443c 6601 4ebc 5a9f 373d
00000040: 7738 463c 3248 c9bb 9412 f9bc 26d7 a83c
00000050: 44ea b6bc 9503 6ebb 5f71 1c3c f302 1ebc
00000060: c6f8 e0bb 87ca b4bc 5fdb 08b8 4f21 f0bb
00000070: fa35 90bd b5aa b5bc 6277 01bd ca31 a9bc
00000080: f332 cf3b de8c 71bb b363 48bc 9ed8 90ba
00000090: 852c 21bd 21aa a63c fbcc 96bc 0973 1d3c
000000a0: 40ec 803c 6148 cd3c 8225 bebc 9ac5 833c
000000b0: 384f 183c 69d2 37bd e328 e0bc ae78 11bc
000000c0: 3470 dc3c 79bb 9b3c adc7 41bd 574d d13c
000000d0: 6c6b 3abb c998 0ebc c690 39bd 9034 cd3a
000000e0: c0b2 4e3d fb4b 98bd a7d2 89bc 07b6 53bd
000000f0: bacf 9bbd 49c1 86bd 3996 98bc ff22 f63c
00000100: 746b e03b 5748 d0bc 4a5d 41bc f158 45bb
00000110: 7666 283c fb00 18bd 4ba9 3cbc caee 83ba
00000120: f331 0d3c 133a a4bb 5b79 893c 3053 a03c
00000130: f5ea fb3b ea7a 88bd e94e 81bd 4606 e33c
00000140: f7c1 053d 6bc2 d2bc 6fb9 25bd e09c 453c
00000150: 6e6e 153d b8ae 00bb 115b ac3c e3b0 cbbc
00000160: 84fc a6bc 4d97 553d 34ce d1bc 5dfd 193b
00000170: 3f05 52bc 01dd 9abc dcfc 48bd 52dc 4d3b
00000180: bbd7 06bd dc10 c03c 7444 c2bc be2c 5a3d
00000190: aed6 3cbb 6b62 ddbc b0e4 bb3a 9e2f d9bb
000001a0: 8861 773c 2848 87bc 4c95 50bc 18c9 1e3a
000001b0: 2716 eabc 89f8 7ebc 6b5e d4bb 91b4 dbbc
000001c0: 63cb 3ebd 942f 77bd 8255 27bd 047c 9b3c
000001d0: 0a2d 383d ba69 0dbd 17fb 373c 00f6 193c
000001e0: 0ebe 983d 8ae7 7fbd 1f17 803c d4c0 843d
000001f0: e1ab 853c 3943 9a3c c225 0f3d f68f 66bc
00000200: 076c 093a 96ac 8abc 5aa5 ff3c 94c6 a0bb
00000210: 35b9 91bd 8403 873d 3dd8 3fbc 2913 cebc
00000220: 9755 5abd f1f4 2dbc 83f5 8a3c 27b9 d43c
00000230: 4380 d9bc 9975 bbbb 6200 1ebb 50fe ba3c
00000240: 7f9a 893c 5654 e43b 5e2a 133d 5e34 493d
00000250: ecd3 573d b606 023d 7fa8 91bc 4583 a33c
00000260: a270 ac3b eb27 c83b 5c25 2ebd af8a d1bc
00000270: e96b 04bc 577b 963c c019 ebbc 0ad6 693d
00000280: 680a 7e3c 5015 443c e69c 8c3a cb2d 89bc
00000290: e9d6 093d 3612 bd3b 9674 2abc bca5 cbbc
000002a0: cbaa 9bbb 477f 0abc 16cb a4bc 95ad 253c
000002b0: 9557 adbc c5a6 8f3c 80f3 b23c 54b0 8fbc
000002c0: ab30 73bd ae98 5ebc bf85 163d baae acbc
000002d0: ce74 04bd 6024 b83b b1f9 113c 37e4 46bd
000002e0: 9f29 0abd fd02 81bd 5530 babc bc46 643c
000002f0: 3634 0b3d a43d 05bd 84c9 f3bc 4c3c 36bd
00000300: 9f3a 2ebc 1ea3 83bc 16d3 1ebd e9c0 43bb
00000310: 9d39 12bd c529 80bb 6e5b 3abd 1dbe 5dbd
00000320: 3125 c13b ee4e ed3c ce9a 77bc 24f4 03bd
00000330: c7b6 bd3c 5332 813c c332 f93c 8bca 8bbc
00000340: 7f14 d2bc 21b7 10bd 738a 613d 9e3d 57bc
00000350: 667b 8dbc c732 2fbc 9daf 09bd 22cf 89bc
00000360: d0b1 3bbd 0a6e e6bc 0689 99bc 1f27 93bc
00000370: 06a3 1e3d 4c4a 063c 3dcf efbb abbe 40bd
00000380: 72e8 333c 0d62 adbc f89b 8b3c 1063 11bd
00000390: 2ab7 acbc 12a5 223b cb4f bebc 3e3c edbb
000003a0: 1557 92bd a632 28bd b804 4abd f4ea a9ba
000003b0: 72f0 92bc 0f87 a3bb 3c1e 26ba d2e2 8ebc
000003c0: bb34 913c a9e7 303d e491 0dbd 8b36 1e3d
000003d0: 26fd 003d 775e f33c 3441 ecbb ebe2 30bd
000003e0: 9282 0bbc 7af6 13bc 5db6 033c c6b6 99ba
000003f0: 7ae4 0bbc bbbe 0ebd 8f89 043d c63b cc3a

0.bias f4 [24]
-0.071133256 -0.025586702 0.10807056 0.22381791 0.205311 -0.02239594 0.040654 0.22739218
0.2229676 0.23143998 0.22880355 0.21555084 -0.02569679 0.16858749 0.22416839 0.17896625
-0.09118741 0.14787158 0.24000861 0.1314915 -0.026837196 0.13848706 0.21587548 0.1846669
00000000: 50ae 91bd 349b d1bc 1954 dd3d 8630 653e
00000010: 0c3d 523e b177 b7bc cf84 263d 7fd9 683e
00000020: 9e51 643e 9afe 6c3e 7a4b 6a3e 5cb9 5c3e
00000030: 1382 d2bc 33a2 2c3e 668c 653e ee42 373e
00000040: 77c0 babd a66b 173e d1c4 753e b5a5 063e
00000050: aed9 dbbc 8dcf 0d3e 760e 5d3e 5219 3d3e

2.weight f4 [3, 24]
0.08340057 -0.12627707 -0.066489875 -0.16856158 -0.35741737 0.06899511 0.32601994 -0.27342314
-0.30507225 -0.34496897 -0.27514175 -0.13653404 0.20271349 -0.387222 -0.11388836 -0.16910885
-0.16108741 -0.20574407 -0.32488486 -0.14758593 -0.09454013 0.031089222 -0.11349474 -0.3146192
0.03146862 0.07022983 -0.30700076 -0.11002569 -0.20225759 -0.06962328 -0.25978282 -0.13255323
-0.31011173 -0.35361272 -0.13528152 -0.08054091 0.076217845 -0.26803094 -0.074433975 -0.27339962
0.057849087 0.010936271 -0.26663855 -0.2907921 0.0068306774 -0.27859843 -0.08674708 -0.19679762
-0.02056744 0.059520468 0.17896117 0.37817925 0.22545438 -0.06698675 -0.18922122 0.3159315
0.11253889 0.16108848 0.38301417 0.3111295 -0.062312115 0.12808664 0.45268598 0.3146301
0.02434366 0.42666802 0.1527255 0.13613835 -0.015346178 0.26039785 0.38369292 0.21874253
00000000: ebcd aa3d c74e 01be d82b 88bd 689b 2cbe
00000010: 69ff b6be 4f4d 8d3d 16ec a63e 1efe 8bbe
00000020: 6e32 9cbe c69f b0be 61df 8cbe 94cf 0bbe
00000030: 2094 4f3e f641 c6be 4d3e e9bd df2a 2dbe
00000040: 19f4 24be 93ae 52be 4f57 a6be c420 17be
00000050: 419e c1bd d3ae fe3c ee6f e8bd c515 a1be
00000060: 3de5 003d a8d4 8f3d 342f 9dbe 2655 e1bd
00000070: 9d1c 4fbe a696 8ebd 4102 85be 09bc 07be
00000080: f7c6 9ebe ba0c b5be 3d87 0abe a2f2 a4bd
00000090: 1a18 9c3d 5a3b 89be d770 98bd 09fb 8bbe
000000a0: 2af3 6c3d 0c2e 333c d984 88be b4e2 94be
000000b0: e0d3 df3b 74a4 8ebe 74a8 b1bd 5185 49be
000000c0: 0c7d a8bc bccb 733d 9941 373e b6a0 c13e
000000d0: 83dd 663e 5930 89bd 35c3 41be c6c1 a13e
000000e0: ca7a e63d 61f4 243e 6f1a c43e 5e4c 9f3e
000000f0: fd3a 7fbd 2529 033e 75c6 e73e 3217 a13e
00000100: 5b6c c73c 3b74 da3e 1364 1c3e da67 0b3e
00000110: 896e 7bbc de52 853e 6673 c43e 0bfe 5f3e

2.bias f4 [3]
0.107878566 -0.17689833 0.24516809
00000000: 70ef dc3d d624 35be 580d 7b3e
