models/reinforce_best.pth (torch, 115757 bytes, 18 tensors)

0.weight f4 [64, 70]
00000000: edaa ca3c 8bcd 263c b98a 163e 31c4 deba
00000010: 7a4b 98bc ba3d bdba 1261 14bd 7753 c23c
00000020: 5b1f 00bb 567b 0bbe d4a0 75ba 1b7e 97bc
00000030: 987d 023c a9e1 62bd 992f a53c 8112 7e3c
00000040: c549 06be f4f3 03bc 48c0 c93c 922a d5ba
00000050: 9ecc 923c ab48 40bc ffe5 b0ba a465 c9bd
00000060: 5784 9a3b da0d e13b e101 053b 71d5 093d
00000070: b564 48bd 59a1 febc 00ee 08bd bdb7 813c
00000080: b80b e3bc 49d6 803c 5469 863c bb6e 94bd
00000090: 7dd0 a9bc b443 e33c d017 053d 08b2 82bd
000000a0: 96c6 f93c da54 f1bc 35a2 95bd 5337 95bc
000000b0: 8b7d 4c3d a3f6 bd3c 8b2f 85bd 86c2 ce3c
000000c0: f497 3fbd 2a14 59bd a34a c83b a469 183d
000000d0: a1b9 b93c 66e6 4ebd 02a6 a13c 70fb 0bbd
000000e0: c01a 10bd f6d1 103c bcf1 de3c 4f07 b9bb
000000f0: ef47 11bd 225a 50bb e2c9 d4bc d542 b2bc
00000100: dfa7 293c bfec 1b3c 68ab 363a 6ffc adbc
00000110: 91eb 96bb a040 35bc 4baa 63bb 11af 54ad
00000120: 19a5 8aba 29ee 8a2c 4123 0f3b 8a2b be2c
00000130: 1766 683b 1fb9 60bb 360f c139 83d8 413a
00000140: 9067 88b8 5aaf 9eba 8157 84ba 0f74 383b
00000150: 9afa 75bb 1e8e 503b 6365 843a dee6 b7ba
00000160: 75e8 03bb 3e26 49bb 2a06 0eab 0ab2 5dbb
00000170: e5e7 163b 6bd6 7a3a 6196 1cba c632 1fbb
00000180: fa98 02bb d4ec 503a cb42 74bb a1c8 efba
00000190: 3f3a 963a bf97 b93a 2c1f 02bb 7d4d 653b
000001a0: c541 d528 b054 73bb ea07 3ebb ea5b 973a
000001b0: d43d c23a ffaa 26bb ee9d 723b 66fb d737
000001c0: 3bbf 42bb 2a1f 3baf 203a 023b 5b37 a5ac
000001d0: 702d 6fbb 8ecc e929 7a5a 89bb ef04 1bba
000001e0: 6a7b b72b 46b1 f939 da42 dfab f372 10ba
000001f0: e7d5 3aaa 6258 4aba 25d9 1e2d 39e5 672b
00000200: bad0 1fad a667 182c 9066 1a2d 2f90 962a
00000210: fe5e 1f2d 0b1f 08ab 5c92 a2a9 aa82 84a9
00000220: 3698 4a2b d98f 1b27 5a32 0eab ad8d 92aa
00000230: a897 06ba 92a0 0f2c a9d9 e9b7 587b ad2a
00000240: 2643 7338 cc75 7cab 7cd0 053a 8e95 1bba
00000250: 4cdb a737 bd2c c837 19a2 92b6 3dd9 67b8
00000260: 35cc 09ba 134d 3d2a 3da9 08ba c023 88b8
00000270: e595 0338 90ba 0c35 ca93 72b8 8077 083a
00000280: e82f 5ea8 f877 10ba 93f4 fa2c 8679 2f39
00000290: 0d82 05ab 3e57 06ba 89a5 d629 54e3 f4b9
000002a0: f99d 07ba 7b78 f52c 5653 c139 b81d a9aa
000002b0: ac60 ddb9 71ea 02a9 0407 0aba ab9e 06b8
000002c0: abd8 77ac 8f87 0438 5511 b02b 3f92 f3b7
000002d0: cd29 c52a 1915 07b8 614c 2e2b e32f 1b2b
000002e0: aae9 30ab 1271 08ab f869 8c2a 730a c52a
000002f0: cfbb a8a9 baca c0a8 85b2 c32a 5b2a 162b
00000300: 7907 032a 319f e52a e2b6 a6aa 1e4e 10ab
00000310: 356c 032b 5c97 ef29 9857 e7a9 f0b4 4229
00000320: 269d 782a bbc9 962a 86a8 e5aa f71d f6a9
00000330: 0be3 51a9 0ea2 182a 7805 96aa 346d 28aa
00000340: 44fc b029 765a 29aa 70dd 223d a0f5 473c
00000350: 6229 0c3e 1fc7 113c 46aa 05bd 5d45 5b3b
00000360: fc25 4fbd ce12 243d e364 b7bb 11ab 00be
00000370: 18fc bc3b 95eb 5eba da6c 5e3c 066a 1abd
00000380: b9e3 1a3d c086 a63b 6259 fabd b715 abbb
00000390: e398 1e3d 3b2a bc3b 0d51 9c3c 76f3 533c
000003a0: db90 913b 1d09 c3bd c066 2bbc ac09 0e3d
000003b0: 05c1 12bc b93a 213d 63fb 08bd 3427 85bc
000003c0: c583 1dbd a9b6 2f3a 2783 a3bb 3b52 9c3b
000003d0: 3814 d23c 4b7b 83bd d474 38bc cedc 7f3c
000003e0: 1be9 7c3c 1b08 3dbd 2285 8c3c d24c 9fbc
000003f0: 2019 88bd 0142 8fbc f8eb 193d be73 883c
0.024739707 0.010180841 0.14701356 -0.0016995725 -0.018590678 -0.0014437952 -0.036225386 0.02372144
-0.001954994 -0.13621268 -0.00093699736 -0.018492749 0.007964514 -0.055390988 0.020164298 0.015507341
-0.13114078 -0.008053768 0.02462782 -0.0016263297 0.017919835 -0.011736075 -0.0013496279 -0.098338395
0.004715483 0.0068681063 0.002029531 0.03365082 -0.048924167 -0.031082796 -0.0334301 0.015834684
-0.027715549 0.01572718 0.016407646 -0.07247683 -0.020729298 0.027742244 0.032493412 -0.06381613
0.030490201 -0.029459406 -0.07306329 -0.018214857 0.049924415 0.023188895 -0.06503209 0.02523924
-0.046775773 -0.052997746 0.006112413 0.03721012 0.022671523 -0.050512694 0.019732479 -0.034175336
-0.03518176 0.008839121 0.027214877 -0.005646623 -0.03546899 -0.0031792005 -0.025975171 -0.021760384
0.010354965 0.009516894 0.00069682905 -0.021238534 -0.0046057184 -0.011062771 -0.0034738954 -1.2089677e-11
-0.0010577767 3.948637e-12 0.0021841081 5.4049586e-12 0.003546124 -0.0034290028 0.00036823162 0.00073946285
-6.5042754e-05 -0.0012106702 -0.0010096879 0.0028145348 -0.0037533403 0.003182299 0.0010101016 -0.0014030596
-0.002012757 -0.003069296 -5.045709e-13 -0.0033828043 0.0023026404 0.0009568694 -0.0005973336 -0.0024291738
-0.0019927607 0.00079698605 -0.0037271257 -0.0018294045 0.001146145 0.0014159604 -0.0019855006 0.0034988814
2.3676273e-14 -0.0037129335 -0.0028996416 0.0011547778 0.0014819452 -0.0025431511 0.0037020403 2.5747064e-05
-0.0029716033 -1.7018623e-10 0.001987107 -4.6957277e-12 -0.0036495589 1.0382763e-13 -0.004191694 -0.0005913516
1.3037186e-12 0.0004762506 -1.5863658e-12 -0.0005510293 -1.6594331e-13 -0.00077188585 9.029476e-12 8.2385796e-13
-9.08445e-12 2.1658036e-12 8.77666e-12 2.67454e-13 9.059196e-12 -4.8359987e-13 -7.2196345e-14 -5.884644e-14
7.197605e-13 2.1588551e-15 -5.051841e-13 -2.6033117e-13 -0.0005134293 2.0410657e-12 -2.787712e-05 3.081656e-13
5.799825e-05 -8.969186e-13 0.0005104614 -0.0005935066 2.001007e-05 2.386269e-05 -4.3700097e-06 -5.527701e-05
-0.00052565645 1.6813313e-13 -0.0005213207 -6.491644e-05 3.1372434e-05 5.242555e-07 -5.7834935e-05 0.0005205795
-1.2333864e-14 -0.0005511041 7.1325806e-12 0.00016734572 -4.7431574e-13 -0.00051246944 9.532225e-14 -0.0004670868
-0.0005173381 6.976695e-12 0.0003687392 -3.0041052e-13 -0.0004222443 -2.9069144e-14 -0.00052653276 -3.209586e-05
-3.5221086e-12 3.15975e-05 1.2510363e-12 -2.9035959e-05 3.5023235e-13 -3.2206157e-05 6.1923215e-13 5.513352e-13
-6.2852035e-13 -4.847382e-13 2.4942526e-13 3.500148e-13 -7.493278e-14 -2.14042e-14 3.476283e-13 5.3349485e-13
1.163773e-13 4.0789033e-13 -2.9614424e-13 -5.1267486e-13 4.6690717e-13 1.0639989e-13 -1.0273656e-13 4.323359e-14
2.2081347e-13 2.678533e-13 -4.0795508e-13 -1.09297926e-13 -4.660425e-14 1.3556536e-13 -2.6649147e-13 -1.4959285e-13
7.859731e-14 -1.50416e-13 0.03976196 0.012204558 0.13687661 0.008897572 -0.03263309 0.0033458092
-0.050573334 0.040056996 -0.0055967434 -0.12565257 0.0057673566 -0.00085037324 0.013575757 -0.037698768
0.03781483 0.0050819814 -0.1222408 -0.0052210945 0.038720023 0.005742339 0.019081617 0.012936464
0.004442317 -0.095232226 -0.010461509 0.034677193 -0.008957152 0.039362643 -0.033442866 -0.016254045
-0.038455743 0.00067029387 -0.00499 0.004770545 0.025644407 -0.06420001 -0.011258323 0.015616609
0.015436436 -0.046150308 0.017153326 -0.01944581 -0.06645417 -0.017487528 0.037578553 0.016656753

0.bias f4 [64]
00000000: d93e c93c e256 65bb f38d 08ba e098 213d
00000010: abab 79b8 2c13 43bb 06e8 303d 95b8 193d
00000020: 44c1 6b3d e322 ccbb d1d5 243d 39ee 3e3d
00000030: e029 243d 6d2a 52bb 2984 01bc 2c5f 8e3c
00000040: a395 0d3d de50 d0bb 73a6 4c3d de61 f93c
00000050: 0583 0b3d 2523 cdbb 5839 1f3d a592 fd3c
00000060: c5d0 44bb ea81 ed3c e36a 74bb 68bf 7bbb
00000070: a0b4 63b9 4ddb 083d 4b67 d5ba eed7 5d3d
00000080: c354 41bb 3c04 313d 8298 283d 59a1 1b3d
00000090: fa93 1b3d d460 e63c 4998 303d c4cc 90b9
000000a0: 6456 163d 4530 303d cc38 fcbb e749 183d
000000b0: 6b97 b4b9 d2f8 6d3d 4f37 edbb e5af 24bc
000000c0: a7fd 4e3d 9531 373d 5805 323d 031c 343d
000000d0: 0483 8fbb 2af6 57bb b42f 46bc 65b8 69bb
000000e0: 0ff5 f83c dc15 ce3c c013 073d 4b90 1e3d
000000f0: ab60 b43c 0395 0ebb 6cb6 6dba 0aca 68bc
0.0245661 -0.0034994413 -0.00052091404 0.039452434 -5.9526104e-05 -0.0029766066 0.043190025 0.037529547
0.05755736 -0.0062297448 0.040242974 0.046613906 0.040078998 -0.0032068745 -0.007905045 0.017379366
0.034566533 -0.0063572964 0.049963426 0.030442175 0.034060497 -0.006260293 0.038873047 0.030953715
-0.0030031663 0.028992612 -0.0037295155 -0.0038413648 -0.00021715695 0.033412267 -0.0016281394 0.054161005
-0.0029499985 0.04321693 0.041161068 0.03799567 0.03798292 0.028122343 0.04311398 -0.00027618383
0.036703482 0.043014783 -0.0076972004 0.037179854 -0.0003444509 0.05809862 -0.0072392593 -0.010051702
0.05053487 0.04472502 0.043462127 0.043972027 -0.004379632 -0.0032953122 -0.012096334 -0.0035662886
0.03039029 0.025156908 0.03297782 0.038711827 0.022018751 -0.0021756298 -0.00090680155 -0.014208326

3.weight f4 [64, 64]
00000000: 8cf0 4a31 1020 092b 6da7 d72a 0376 0f31
00000010: d613 80ab 55b6 272a d526 15bc cc78 cdb5
00000020: 1a4f 16bb ef25 a2b1 f953 3aa9 1377 b9bb
00000030: 1608 42bb 22a1 64b5 c9ff 56b8 6624 9529
00000040: 5085 feba 7019 69aa fd41 0dbb 0a04 35b8
00000050: d951 20bc 348e 42a9 2f5a 212b c0e4 b5bb
00000060: 7830 cc31 de1e 2ebb 1632 da34 5a4e 6daa
00000070: 90db be2a b592 ba29 80b6 5fad 5dc3 8aaa
00000080: 2fb9 75ad 3ea8 61b5 8d8e 6fb7 bd1f b4bb
00000090: 42c4 b6ac e3d6 bfba 8ca7 73ac 3db6 c5b2
000000a0: 49d6 c9ab 0bbb aba9 d6af 1a28 9d59 95b8
000000b0: ca1e 342b 4757 aebb b692 49b0 78e9 99b8
000000c0: 6c15 ceba d8f6 91b9 05fd b6bb 358b dbad
000000d0: f068 c1aa ba4a 20b0 49f6 18ab 28a0 1dab
000000e0: cf1b bbac 0830 1fb7 b7da 06ab 9f9a 5e2f
000000f0: 53ba 742c a05d 772c c13e 9c2c b1cd ae29
00000100: a510 1fbd 336f ccba 69dd 06ae 4067 f3bb
00000110: 1966 5d37 1ce0 d7ba bf72 fd3d bda7 d5bc
00000120: 7eb0 64bb 38a5 8139 16d7 a0bc aaec dc3d
00000130: b0ef c93d d1a0 13b6 ba20 8e3b ad7c 06bd
00000140: 01d6 dc3d 2961 96b7 fe9b f43d 9349 1abd
00000150: 06bd d83d 4fc4 12bb d163 f4bc f6f1 da3d
00000160: 3e25 86b5 89e3 e13d 8d3c 9c39 f848 533b
00000170: e092 bc2e 37cc 34bd ebb5 e22c f2d9 b73d
00000180: 7385 96ad c143 e4bc 3c36 0bbd fe2d ca3d
00000190: 3d07 debc 3d1f bb3d d8a2 f6bc 330d 7d2f
000001a0: 3b74 aabc 1237 093e 1b25 d93a e8ac c7bc
000001b0: 332b 97b1 9fa2 dd3d a122 83ba 7e73 a7bb
000001c0: 1899 f73d 5030 da3d d93d e63d 184b dabc
000001d0: 2954 3bba 5fa9 a2ac 469f 6937 4a2d ae2c
000001e0: 7daa 0ebd 7940 56bd 2b8c e0bc 18f7 aabc
000001f0: 9643 08bd 7c81 4734 81ff 84ad c11f 1b3c
00000200: e2d6 77ba 59d0 8629 7050 e4aa f4be 09bb
00000210: 3665 f2b9 125c e02a b57a b2ba 1b8c 42bc
00000220: 2e6c 3fb7 4632 daba 28c6 b2bb 99fc 3dbb
00000230: 209b ecbb dd69 2239 b0b3 09bb 425d 69ba
00000240: d2aa 0abb 7b42 0e2a f2c7 1dba 2e30 8939
00000250: 09ec 05bb 0563 5228 4fdb 9eb9 21b4 1aab
00000260: 4c0b 3b39 2695 0abb 0f6f 0fbb 28c4 92a7
00000270: bf9e 8228 d8f0 fea9 1f2a 5eb5 b7ae 12a9
00000280: 5046 a1b5 61f3 c2b8 a03b 913a 801d d6ba
00000290: 08a9 c4ba f2a3 67bb 072b bfba 2347 332d
000002a0: 549d aabb 630a 622a 2ebf 58aa de6d 39bc
000002b0: afef 8c2a 05fc 07bc 97b4 84ae d836 ce2c
000002c0: d68e cab9 7356 02bb f142 50ab 73dd b9ba
000002d0: 6e09 8faa a8ba e8b7 5b1d 4dab 0e04 0032
000002e0: 4974 2739 49dc bb3a 746e b1bb ab28 7fba
000002f0: ace4 1ebb a20e c1b8 0a39 612c d4f9 4e2a
00000300: 7101 0bbd a3c7 09b7 1e2b 3eac 3c2a 34bc
00000310: 520a bcaa 91c5 8bb7 50d1 ff3d 0480 dbbc
00000320: 1db1 6c3a 7532 272a 3047 a3bc 3c36 f23d
00000330: 347a d23d 2d74 17aa b6b3 323a 69d1 dfbc
00000340: 7b82 e73d 8b07 973a 550f 073e 1dbc 02bd
00000350: d330 eb3d 9c26 0ebb 937a dabc d087 f33d
00000360: d1d3 39a9 02f6 f33d 3b08 4929 1b86 22bb
00000370: 8ffc 322e 4622 0dbd b215 062b 59f3 ca3d
00000380: a2b9 8faa 7a41 f4bc 741d 13bd 50a4 ec3d
00000390: 928f d5bc f8fe d43d 2982 07bd 4408 732a
000003a0: 0f72 d0bc 745d 093e 5431 1338 0930 d6bc
000003b0: 4d99 332d 0cf0 e93d f087 153b 8170 a4bb
000003c0: 1a10 053e f892 d03d 4cf9 ec3d 398f d8bc
000003d0: 6a59 1a3a 0bbe 082a ed1a 2932 fd20 e729
000003e0: 2fde 05bd 6f88 21bd dfc4 ccbc 38e5 bcbc
000003f0: 2bd1 08bd ff48 0caa 1fa5 dcaa f79c 143c
2.9531604e-09 4.8716673e-13 3.8307847e-13 2.087632e-09 -9.100453e-13 1.4895839e-13 -0.009103497 -1.5308847e-06
-0.0022935332 -4.719133e-09 -4.137313e-14 -0.0056599467 -0.002960687 -8.51711e-07 -5.1259794e-05 6.6232433e-14
-0.0019418392 -2.0703383e-13 -0.0021554225 -4.3157524e-05 -0.009785139 -4.3199995e-14 5.7323845e-13 -0.0055509508
5.9426917e-09 -0.0026568691 4.0642107e-07 -2.1077012e-13 3.3903132e-13 8.285509e-14 -1.27166055e-11 -2.4649285e-13
-1.3967757e-11 -8.4063856e-07 -1.42787e-05 -0.0054969476 -5.19454e-12 -0.0014636185 -3.4625384e-12 -2.301669e-08
-1.4341385e-12 -7.626372e-14 8.586846e-15 -7.1215654e-05 6.3991575e-13 -0.005320463 -7.3331863e-10 -7.3390955e-05
-0.0015722937 -0.00027840468 -0.0055843615 -2.4959238e-11 -3.4356502e-13 -5.8313854e-10 -5.4343037e-13 -5.5999866e-13
-5.317947e-12 -9.488322e-06 -4.790989e-13 2.0245715e-10 3.4777916e-12 3.5152783e-12 4.4407538e-12 7.762834e-14
-0.038834233 -0.0015597105 -3.0664724e-11 -0.00742808 1.3196398e-05 -0.0016469988 0.12375402 -0.02608096
-0.0034895237 0.00024727895 -0.019633811 0.107873276 0.0986017 -2.1998314e-06 0.0043373974 -0.032833744
0.107830055 -1.7926637e-05 0.11943816 -0.037667822 0.10582928 -0.002239484 -0.029832752 0.10690682
-9.994617e-07 0.11029727 0.00029799753 0.0032239538 8.5753404e-11 -0.044140067 6.4435033e-12 0.08977117
-1.7112289e-11 -0.027864339 -0.03398727 0.098720536 -0.02710306 0.091368176 -0.030106947 2.3014905e-10
-0.020807376 0.13399914 0.0016566844 -0.02437444 -4.3995896e-09 0.10822033 -0.0010004827 -0.0051102033
0.12089747 0.10653746 0.11242265 -0.026647136 -0.0007146025 -4.623121e-12 1.3924966e-05 4.9504055e-12
-0.03483056 -0.05230758 -0.027410587 -0.020869777 -0.03326758 1.8580425e-07 -1.5120129e-11 0.00946802
-0.0009454322 5.986938e-14 -4.055675e-13 -0.0021018358 -0.00046233245 3.985428e-13 -0.0013616892 -0.011874224
-1.1409675e-05 -0.0016647063 -0.005455751 -0.0028989671 -0.007220641 0.00015488961 -0.0021011643 -0.0008902141
-0.0021158946 1.2635199e-13 -0.0006018869 0.00026166573 -0.0020434877 1.1678813e-14 -0.00030299506 -5.496177e-13
0.00017837918 -0.0021146028 -0.0021886264 -4.0735813e-15 1.4501744e-14 -1.13216457e-13 -8.276274e-07 -3.2570053e-14
-1.2015898e-06 -9.295974e-05 0.0011080392 -0.0016335696 -0.0015003989 -0.0035345522 -0.0014584967 1.01907675e-11
-0.0052067433 2.0076436e-13 -1.9250983e-13 -0.011317698 2.503531e-13 -0.008299832 -6.034744e-11 5.860961e-12
-0.00038634863 -0.0019887954 -7.3989344e-13 -0.0014180377 -2.5408446e-13 -2.7743474e-05 -7.287137e-13 7.4515025e-09
0.0001596968 0.0014332618 -0.0054147784 -0.0009733538 -0.0024245186 -9.205683e-05 3.2006086e-12 1.8383152e-13
-0.03393692 -8.212318e-06 -2.7024559e-12 -0.010996398 -3.340267e-13 -1.666209e-05 0.12491095 -0.026794441
0.00090290775 1.4850085e-13 -0.019931406 0.11826751 0.10277215 -1.3451801e-13 0.000681694 -0.027321534
0.11304184 0.0011522634 0.13189442 -0.03191768 0.11483922 -0.0021690493 -0.026669776 0.118911386
-4.1261973e-14 0.11912157 4.4638104e-14 -0.0024799171 4.069683e-11 -0.034456514 4.763647e-13 0.09909696
-2.5530711e-13 -0.029816378 -0.03591676 0.115547776 -0.026069436 0.10400194 -0.033083115 2.1585603e-13
-0.025445012 0.13414556 3.509347e-05 -0.026145952 1.0209012e-11 0.114227384 0.002281662 -0.0050182943
0.12994424 0.10184282 0.11570987 -0.026435481 0.00058879575 1.2145161e-13 9.843217e-09 1.0264183e-13
-0.032682594 -0.039436754 -0.02499622 -0.023058519 -0.033402603 -1.2459823e-13 -3.9194426e-13 0.009070626

3.bias f4 [64]
00000000: 6817 2cbc 1302 0e3d de35 2cbc e4b3 163d
00000010: 4bd2 b4bb 16e9 0a3d 120c 113d 4b77 cabb
00000020: a95b 163d e140 113d b043 adbb e148 b6bb
00000030: cd27 113d ebfc 043d e647 14bc 4d5e c0bb
00000040: 3c33 2e3d 86b2 0a3d ecce 443d 3068 193d
00000050: db8c 143d bf1e 1d3d c556 163d d3c0 bebb
00000060: d0b7 1d3d 01d2 e83c c819 bebb a5c5 b1bb
00000070: 7e8a dcbb 3583 023d 4724 e93c 6227 223d
00000080: 4747 0c3d 33ce b4bb 35f8 48bb c2fe e8ba
00000090: 03bc 0b3d a4e4 1b3d 1012 abbb a4b0 003d
000000a0: f891 2b3d 8441 e33c d553 173d 12ac 3a3d
000000b0: 4aff 473d f254 0bbc 171d c3bb a670 c3bb
000000c0: 224b 303d 5c6c 193d 00ef c0bb 9746 423d
000000d0: 402b 1c3d d29b b4bb 293d 063d c816 0c3d
000000e0: a4ae 1a3d db29 153d 194a fcbb 0e3d 173d
000000f0: 015a 133d 157d c2bb cd13 113d 90ae 39bc
-0.010503627 0.034669947 -0.01051089 0.03679265 -0.005518233 0.033913694 0.0354119 -0.0061787716
0.036708508 0.035462264 -0.00528761 -0.005562887 0.035438348 0.032467764 -0.009050345 -0.0058706165
0.04252933 0.03386166 0.0480489 0.037452877 0.036267143 0.0383594 0.036703844 -0.0058213263
0.038505375 0.02842045 -0.005801413 -0.0054251724 -0.0067303767 0.03186341 0.028459681 0.03958834
0.034247663 -0.005517745 -0.003066552 -0.0017776119 0.03411485 0.038059846 -0.005220659 0.031418458
0.041887254 0.027741201 0.036945183 0.045574255 0.048827447 -0.008504139 -0.0059543955 -0.0059643565
0.043040402 0.037456855 -0.005887866 0.0474306 0.038127184 -0.0055117393 0.03277317 0.034201413
0.037764207 0.03641687 -0.007699263 0.03692346 0.035974506 -0.005935321 0.035419274 -0.011333123

6.weight f4 [4, 64]
00000000: a351 0daa 02a7 3029 76cb e42a ea45 a22a
00000010: d5e4 e22a dcdd 352a fa96 0b27 0b0f 1b2b
00000020: eb07 00ab a4b3 06ab e667 53ab bf0d 18ab
00000030: 225d a5ab 3654 13ab 3e52 112b 13b3 85ab
00000040: 20a6 172b a07d 0d2b 72cf 21aa ad29 1eab
00000050: f55c 502a b0e9 522b 838f a1aa 6fad f727
00000060: cacf e22a 37f5 b628 ef9d 3bab 3648 6629
00000070: 1027 16aa 32de 56a9 2dcd 3f2b 1e2a 85aa
00000080: db3c 1b2b 479a 9c2b 9c02 e5aa 8d0d b528
00000090: 240a 922a db7a 1fab ba2e 7f2a 774a 4daa
000000a0: b47b 4aa9 4706 9e28 b31c a62a e361 95aa
000000b0: 3b0e 75ab df17 532b 81a0 40aa 87e9 dd2a
000000c0: 1619 53ab a0ac bca9 ea1c 872a 0123 192a
000000d0: 74c8 e4aa af47 952a 7ba6 a7aa 5e0d a5a8
000000e0: a010 27aa 8276 2d2b 3580 48ab 4c42 8629
000000f0: 8b7d c6a9 ee54 b32a c704 372b 12e4 ddaa
00000100: 9829 092a bc61 dc2a a1e2 102b 5189 132a
00000110: 31f8 f227 3d26 9c29 bc46 8ca9 9447 1928
00000120: af45 1d2b 7bfe 43aa 603f d4aa 41ef 4d29
00000130: e88d 20ab 37e9 9dab 9659 1dab ae68 8eaa
00000140: be89 25aa ae48 4bab 3be2 5b29 35f4 4c2b
00000150: 7164 12a9 2519 dc29 d082 78ab 5468 9eaa
00000160: 7f49 e4aa 4327 1f29 1355 81ab 0cf0 b5aa
00000170: 1cd7 81ab 10a8 dd29 1508 b2aa 7acf af2a
00000180: 4d64 862b 4c16 21a9 532b 962a 77f2 1a2b
00000190: aadb be28 051d 85ab 1038 53ab ec6a 25ab
000001a0: 0930 b2a6 b0c9 23aa 694a 21a9 4ce9 0d2b
000001b0: f64b 1fab ee54 af29 5c8c 862a 4833 b52a
000001c0: 1201 072a 547c e0aa 7f83 78a7 8fd7 832b
000001d0: 2815 6f2a c0fd 5eab 6c84 e1a9 fe1a a7ab
000001e0: eedd 97ab 0eb9 3e2a d85c 64a9 a376 34ab
000001f0: e1bd 28aa 685d a3ab a4f4 32a9 7eaf bda9
00000200: 461c 1837 158e cabd 7aaf 8eba 67d3 d2bd
00000210: 7793 79bb 651d da3d 6354 de3d 9f95 47ba
00000220: fcaf e33d dffa d73d d11f 5d39 ebd4 e7ba
00000230: a47e d33d 18ee 013e 6d61 21ba f66c 0f39
00000240: 498c d9bd 7367 df3d 036a d1bd 9bab cbbd
00000250: e180 ef3d d81a 013e 1540 da3d b8a2 2a3b
00000260: c401 dd3d c269 b13d 865e a436 6d4e 09bb
00000270: 4dbc b3bb 8035 c9bd fc15 e63d d70c e13d
00000280: 4b9f b93d e1fa 42bb fde6 24ac 1d85 30bb
00000290: 4963 d93d c53a e63d 1fc3 8db0 ffc7 d93d
000002a0: f0a6 bcbd 027f 013e 0dab d1bd 96b0 c3bd
000002b0: 3774 033e 31df 0dbb e013 99bb a45b 553b
000002c0: 6295 debd 2290 c8bd b9f3 04b6 64ba e3bd
000002d0: 94f1 bcbd d6b3 233a f118 c5bd b041 cabd
000002e0: bf07 d5bd 3760 bdbd e5cc 1dbb a8ba dcbd
000002f0: da01 0b3e 1086 7f39 d8fd b9bd cdde 64ba
00000300: 5b86 db39 57ed 0abe 4aba 44bb 0eb7 06be
00000310: ae78 52bb 86b1 dd3d cb7f e63d 6ea9 2f39
00000320: 7b3b e63d 35ce d93d 58de 2c39 4a5f 55bb
00000330: ff13 d53d 9f08 053e 1339 81ba 1f07 9838
00000340: fdb6 06be 957a dc3d 7523 0abe 4c2f 07be
00000350: 626e 023e c274 fe3d c80c d23d 79ae 913b
00000360: c423 df3d 0f6f b63d 7012 7737 4fa9 30bb
00000370: 2332 fcba 9d9a 08be bf0d e83d b089 d93d
00000380: 86c1 bc3d 5a34 34bb b938 402c c9ec 33bb
00000390: 4619 d53d d302 f03d af14 dd33 ab11 dd3d
000003a0: e570 0abe 197c 063e 2e27 0bbe 347a ffbd
000003b0: 4c50 fe3d 9efe 02bb e313 4dbb a5b7 643b
000003c0: 581f 11be a969 0bbe d68a 4fb6 ca21 28be
000003d0: 1175 10be 466b cb39 d113 05be e9a9 f6bd
000003e0: 6839 13be 34ef fbbd f0d7 2fbb 81f0 09be
000003f0: 3829 0e3e d95b 6638 a157 07be fd84 84b9
-1.2551639e-13 3.9224707e-14 4.0642115e-13 2.8825493e-13 4.030445e-13 1.6153002e-13 1.937197e-15 5.508794e-13
-4.5485723e-13 -4.7855665e-13 -7.5106447e-13 -5.4020324e-13 -1.1749805e-12 -5.2341757e-13 5.162848e-13 -9.499921e-13
5.387652e-13 5.02676e-13 -1.4371645e-13 -5.6190713e-13 1.8506362e-13 7.4931294e-13 -2.8698926e-13 6.874431e-15
4.0289847e-13 2.0312404e-14 -6.665492e-13 5.1132892e-14 -1.3336229e-13 -4.771027e-14 6.814157e-13 -2.365477e-13
5.5151516e-13 1.1127287e-12 -4.0680382e-13 2.0100913e-14 2.5941846e-13 -5.6658644e-13 2.2664761e-13 -1.8233493e-13
-4.4960306e-14 1.7544246e-14 2.9507438e-13 -2.653564e-13 -8.7061234e-13 7.4995386e-13 -1.7108712e-13 3.9419528e-13
-7.499707e-13 -8.378823e-14 2.400088e-13 1.3601274e-13 -4.0640028e-13 2.6517457e-13 -2.9780678e-13 -1.8324477e-14
-1.4838348e-13 6.162641e-13 -7.1232197e-13 5.962296e-14 -8.8147446e-14 3.185572e-13 6.502129e-13 -3.9415742e-13
1.2182475e-13 3.9147667e-13 5.147359e-13 1.3103864e-13 6.7437583e-15 6.934425e-14 -6.2295194e-14 8.508727e-15
5.587431e-13 -1.740777e-13 -3.770274e-13 4.5726664e-14 -5.7040353e-13 -1.1220251e-12 -5.590193e-13 -2.5296903e-13
-1.4702733e-13 -7.222095e-13 4.8823992e-14 7.2814264e-13 -3.250563e-14 9.7743245e-14 -8.828884e-13 -2.813883e-13
-4.0551934e-13 3.5339146e-14 -9.189614e-13 -3.2318625e-13 -9.225706e-13 9.843526e-14 -3.162476e-13 3.123021e-13
9.549112e-13 -3.576852e-14 2.6675415e-13 5.504828e-13 2.1189502e-14 -9.458273e-13 -7.504006e-13 -5.876816e-13
-1.2364251e-15 -1.4547283e-13 -3.5813722e-14 5.041703e-13 -5.6593564e-13 7.786294e-14 2.3900576e-13 3.2187642e-13
1.199078e-13 -3.9876663e-13 -3.4488198e-15 9.367939e-13 2.1234804e-13 -7.922239e-13 -1.0014979e-13 -1.1873556e-12
-1.0790793e-12 1.6939594e-13 -5.07067e-14 -6.411349e-13 -1.4987275e-13 -1.1607772e-12 -3.973613e-14 -8.423729e-14
9.066489e-06 -0.09890381 -0.0010886036 -0.10294228 -0.003808228 0.10650138 0.10855939 -0.0007613543
0.11117551 0.10545897 0.00021088055 -0.0017687356 0.10326889 0.12688482 -0.000615618 0.00013678134
-0.106224604 0.10908403 -0.10225298 -0.099448405 0.116945036 0.12607896 0.10656754 0.002603693
0.107913524 0.0866275 4.898585e-06 -0.0020951286 -0.0054850937 -0.098246574 0.11234662 0.10988777
0.09063586 -0.0029751586 -2.3434026e-12 -0.002693481 0.1061464 0.11241678 -1.0314557e-09 0.10633849
-0.09211528 0.12646106 -0.102377035 -0.095551655 0.12837301 -0.0021647925 -0.0046715587 0.0032555843
-0.10868336 -0.09793116 -1.9811398e-06 -0.111195356 -0.09225765 0.0006244754 -0.09623898 -0.0987581
-0.10401868 -0.09246867 -0.0024078425 -0.10777789 0.13574925 0.00024368637 -0.0908162 -0.00087307097
0.00041871038 -0.135671 -0.0030018263 -0.13155767 -0.0032115388 0.108248755 0.11254843 0.00016752418
0.11241814 0.10635034 0.00016486028 -0.0032558017 0.104042046 0.1299157 -0.0009858928 7.249251e-05
-0.13155742 0.10765568 -0.13490088 -0.13201636 0.1273742 0.124246135 0.10256344 0.0044458476
0.108954936 0.089079015 1.472664e-05 -0.0026956385 -0.0019241016 -0.1334023 0.11330747 0.10621965
0.09216599 -0.0027497024 2.7316328e-12 -0.0027454367 0.10405211 0.11719289 1.0294877e-07 0.107943855
-0.13519628 0.13133277 -0.13589165 -0.1247448 0.12417659 -0.001998819 -0.003129237 0.00348995
-0.14172113 -0.13614525 -3.0926217e-06 -0.1641914 -0.14107157 0.00038799102 -0.1299584 -0.120441265
-0.14377367 -0.12301484 -0.002683159 -0.13470651 0.13882911 5.4921813e-05 -0.13217022 -0.00025276086

6.bias f4 [4]
00000000: 0000 0000 0000 0000 a09c e23b 90b8 33bb
0.0 0.0 0.006915644 -0.002742324

exp_avg f4 [64, 70]
00000000: a8b9 a039 e0e3 00b8 338f a436 b403 4bb9
00000010: 948d 06b8 ee20 eab9 fb19 63b9 48b8 a039
00000020: 87ad 67ba 54ad be37 3ab2 f839 d8cf 3138
00000030: 080a 553a 8038 c637 86b3 a039 63f7 2cba
00000040: 21d1 133a 7a2a af39 9f5d 17ba 1aae 9939
00000050: 819d bcba 7964 103a 21b0 ff39 91f7 2b39
00000060: ff52 8e38 d99f a139 e7e7 c9b9 b279 9639
00000070: 69d2 093b e437 bab8 2d7e 05bb 542a 8c39
00000080: 1d4a e43a bc11 8b38 16cf 0d3b 05e4 0c3b
00000090: 0bf6 48b8 ceda 0cbb cd19 8439 2da8 e13a
000000a0: 2e80 9734 55e9 0c3b 62e8 4835 ff3a 9ab4
000000b0: 2801 19b5 0b37 c932 978d 7234 d7d2 5434
000000c0: eaaf 7835 dd24 02b5 32b7 bc33 4feb be34
000000d0: 51c3 6134 ab21 01b5 4b91 2434 725e b6b4
000000e0: 9577 a5b4 196a 0e34 6464 8a34 84d2 a2b3
000000f0: f334 b2b4 d12d a3b3 c733 8bb4 181a 3ab4
00000100: 8a81 d733 69bd 9a33 b6a5 ea30 d95a 3eb4
00000110: 672c 86b3 2109 adb3 ddea 17b3 594a 8724
00000120: 3582 42b2 1aec 4524 10fa c132 378f 2ca4
00000130: f115 1b33 48f4 15b3 37f5 8b31 5b65 0a32
00000140: 8df5 58b0 9b22 5db2 2731 38b2 7a4e f832
00000150: 5323 24b3 c6df 0b33 cfce 3a32 533e 7eb2
00000160: 21c2 b2b2 4639 06b3 aac6 a121 13ef 13b3
00000170: 7873 cb32 a486 3032 683b e1b1 520e d9b2
00000180: 2283 b0b2 9c16 1532 d7fd 22b3 b22e a3b2
00000190: deba 5132 410b 8032 6a56 b0b2 9602 1933
000001a0: 9551 661f f65e 22b3 fd6e feb2 2e40 5332
000001b0: cb2c 8632 1a63 e2b2 8237 2233 2be0 b52f
000001c0: 94f3 01b3 466d 4225 dec5 b132 a33b 22a4
000001d0: 54c2 1fb3 f413 a921 d04e 37b3 344d dfb1
000001e0: 9c85 7324 390b b331 95f4 01a5 d931 cfb1
000001f0: f8ee a0a1 5f4b 10b2 c0a3 a624 456a 2c21
00000200: 9938 b6a4 edec 1422 939e 8824 be77 63a0
00000210: d370 af24 94d6 07a2 7c7b b0a0 9f72 fba1
00000220: 347e 8aa1 d5e6 4aa1 cc92 5ea1 a1fc d020
00000230: b824 c2b1 a9e3 0524 81cc c2af e19e 4021
00000240: 0a96 4230 e5f7 f220 6711 c131 c06d e0b1
00000250: 1d6c 8e2f 135e a92f 969d 87ae 2c73 39b0
00000260: 8ac4 c6b1 2b10 2521 be20 c5b1 c0d5 57b0
00000270: a73d d82f 5f5e 1d2d a909 42b0 fcd8 c431
00000280: 6978 659f 5464 d0b1 ff74 6a24 83b5 0531
00000290: 3bb1 c81e 9feb c1b1 b4a1 9620 009e b0b1
000002a0: 269f c3b1 790b 7224 8ae4 8c31 8b6e 62a2
000002b0: 4152 a1b1 2e0a 499f 5b19 c7b1 6a9f deaf
000002c0: b9e3 f8a3 9029 db2f dd7c b8a3 8b47 caaf
000002d0: 1440 cb21 5463 dfaf b96e c521 7de3 40a1
000002e0: da00 f521 76aa b421 4d7f 6c20 b17f 2821
000002f0: 8c21 aea0 c2cf 2a22 1963 85a1 76b8 7da1
00000300: 4ab6 5f20 800f 55a0 a9bc 6da1 708d 01a2
00000310: 3023 0b22 1a62 fa21 3e04 8ba0 1f52 3da1
00000320: 6cb7 cca1 edc1 42a0 c0a1 4720 c114 0b21
00000330: ea40 aba1 ab70 c0a0 8ea1 8820 285a 2222
00000340: c7a5 aa21 2606 8921 27a4 e439 1097 8ab7
00000350: 27ad 0539 7759 0ab9 362c 0fb9 ac7f 9fb9
00000360: 2d9b c3b9 8ba4 e439 0ba4 38ba ce3c e0b8
00000370: 3226 d739 f374 3139 a6eb 513a 32bb 9f38
00000380: 8ba1 e439 42bd abb9 eb8a 3139 9192 1a39
00000390: 4ef9 38b9 0a99 7fb6 bdc5 41ba ccb1 193a
000003a0: 25db 9e39 014e 2cb9 29a3 bb38 c81d e539
000003b0: 3985 34b9 1ffc 063a b022 b13a bd92 03b9
000003c0: 6c75 b4ba 7904 6739 2f97 983a 27c6 1139
000003d0: bad7 c53a 708e b93a 14c3 6ab8 c0ce bdba
000003e0: 9895 4739 4d48 963a 5218 3d38 68ab bf3a
000003f0: d5d1 77b8 3c82 a436 dd49 7238 3659 1136
0.00030655903 -3.0729803e-05 4.9042515e-06 -0.00019360968 -3.2079945e-05 -0.00044656493 -0.00021658085 0.00030654878
-0.0008837808 2.2730477e-05 0.00047435035 4.2393658e-05 0.00081268 2.362975e-05 0.00030651334 -0.0006598143
0.00056387676 0.0003341025 -0.00057741435 0.0002931215 -0.0014390202 0.00055081357 0.00048768616 0.00016400056
6.786547e-05 0.0003082741 -0.00038510488 0.000287009 0.0021029955 -8.8795816e-05 -0.0020369396 0.00026734418
0.0017417107 6.63134e-05 0.0021638325 0.0021498215 -4.791286e-05 -0.0021492722 0.00025196225 0.0017216258
2.8219205e-07 0.0021501381 7.484397e-07 -2.872766e-07 -5.6998624e-07 2.342451e-08 2.2589516e-07 1.9820742e-07
9.264319e-07 -4.8482417e-07 8.787755e-08 3.5561467e-07 2.1025814e-07 -4.810524e-07 1.5326547e-07 -3.396886e-07
-3.0820652e-07 1.3263379e-07 2.5777547e-07 -7.5820054e-08 -3.319361e-07 -7.598613e-08 -2.592844e-07 -1.7332093e-07
1.0035281e-07 7.205637e-08 1.7072839e-09 -1.7728179e-07 -6.247938e-08 -8.057601e-08 -3.5371034e-08 5.867287e-17
-1.1321892e-08 4.291755e-17 2.2581872e-08 -3.7417862e-17 3.6108705e-08 -3.491394e-08 4.07331e-09 8.055703e-09
-7.892929e-10 -1.2871761e-08 -1.0721386e-08 2.8906687e-08 -3.8216353e-08 3.256698e-08 1.0873648e-08 -1.4798917e-08
-2.0810207e-08 -3.1251396e-08 1.096237e-18 -3.444354e-08 2.368482e-08 1.0275162e-08 -6.5551156e-09 -2.5268637e-08
-2.0548729e-08 8.678082e-09 -3.794943e-08 -1.8996932e-08 1.220789e-08 1.4906279e-08 -2.0528393e-08 3.562544e-08
4.8771878e-20 -3.780493e-08 -2.9619963e-08 1.2296409e-08 1.5620023e-08 -2.6354929e-08 3.776905e-08 3.308299e-10
-3.0256686e-08 1.6863841e-16 2.0695492e-08 -3.5178665e-17 -3.7196813e-08 1.1457167e-18 -4.2679687e-08 -6.498931e-09
5.2805397e-17 5.2108615e-09 -1.1271834e-16 -6.03016e-09 -1.0905276e-18 -8.399041e-09 7.226843e-17 5.8416513e-19
-7.90258e-17 2.0183168e-18 5.9249233e-17 -1.9267267e-19 7.6085284e-17 -1.8409508e-18 -2.9897275e-19 -1.7038762e-18
-9.384649e-19 -6.8745766e-19 -7.541081e-19 3.5403746e-19 -5.6503175e-09 2.9032613e-17 -3.5433703e-10 6.5262405e-19
7.0790007e-10 4.1160437e-19 5.6190177e-09 -6.531735e-09 2.590647e-10 3.0807765e-10 -6.167082e-11 -6.7466277e-10
-5.7849023e-09 5.5925573e-19 -5.737177e-09 -7.85203e-10 3.9333978e-10 8.945371e-12 -7.0590517e-10 5.729019e-09
-4.8592237e-20 -6.0650027e-09 5.083976e-17 1.9457225e-09 2.1249124e-20 -5.6438263e-09 2.5517995e-19 -5.1402367e-09
-5.69334e-09 5.2485103e-17 4.100518e-09 -3.0687232e-18 -4.695068e-09 -4.2571826e-20 -5.794545e-09 -4.0494835e-10
-2.6984658e-17 3.98654e-10 -2.0002202e-17 -3.679442e-10 1.3772776e-18 -4.063404e-10 1.3378547e-18 -6.535321e-19
1.6602071e-18 1.2242395e-18 2.0032098e-19 5.708961e-19 -2.9498946e-19 2.3149282e-18 -9.038661e-19 -8.5963866e-19
1.8949149e-19 -1.804693e-19 -8.0548413e-19 -1.7557636e-18 1.885664e-18 1.6966626e-18 -2.3550323e-19 -6.4144377e-19
-1.3872129e-18 -1.6496604e-19 1.6909474e-19 4.71225e-19 -1.1604593e-18 -3.2600623e-19 2.3146204e-19 2.2002822e-18
1.1563529e-18 9.285109e-19 0.00043609852 -1.6521226e-05 0.00012748373 -0.00013194034 -0.00013654013 -0.00030421966
-0.00037308913 0.00043610143 -0.0007043487 -0.00010692478 0.00041036453 0.00016923602 0.00080078316 7.616579e-05
0.00043607908 -0.0003275667 0.00016931786 0.00014741185 -0.0001764048 -3.8087042e-06 -0.0007391831 0.00058629806
0.00030299384 -0.00016432257 8.947246e-05 0.00043700472 -0.00017215767 0.00051492633 0.0013514366 -0.00012547798
-0.0013767905 0.00022031543 0.0011641736 0.00013902095 0.0015094199 0.001415683 -5.5971628e-05 -0.0014481172
0.00019033847 0.0011465639 4.508376e-05 0.0014623227 -5.908481e-05 4.902742e-06 5.7766087e-05 2.1658611e-06

exp_avg_sq f4 [64, 70]
00000000: 82c2 8e37 87de 9732 a620 6536 9c84 1635
00000010: d529 8e36 2944 1036 cfaf 8837 81c2 8e37
00000020: d8e5 2a37 b019 2536 c514 5436 1785 8836
00000030: cbe5 a437 bf45 2237 d447 8c37 5b00 7e37
00000040: f542 6836 add4 a636 2c40 b036 b976 f737
00000050: 5816 ba36 1f05 9637 55ed 6837 06c7 9436
00000060: 0b74 a236 4e08 d236 9379 cd37 5cfa ed36
00000070: 2895 cc37 d7e3 3e37 d834 4437 c013 5536
00000080: 9663 5d37 b21d 9937 d425 9237 6f95 bb37
00000090: 944d b736 a85e 8837 bbb4 e935 79d3 7637
000000a0: a16b fd36 d82b b037 277f 7b37 8644 eb35
000000b0: 0726 4137 5236 1a35 8288 2937 7a1e 0936
000000c0: e2ba 6537 bf5f ca36 99f1 bb33 da89 bb36
000000d0: f53b e033 d761 8836 aad4 2634 87d9 d036
000000e0: 3834 c535 258d 6132 5667 9535 11b8 ba32
000000f0: a60a 8335 acb3 d032 15a7 b735 f89a f534
00000100: f411 a231 c7d2 cd34 ad08 f031 3f64 6234
00000110: da6a ca31 c807 d034 4e44 372d 7786 4127
00000120: 9b6e 6a2b e178 e325 fdca 5e2c 46a7 6826
00000130: f409 362d c644 372d 849a e72a 92a2 1a2b
00000140: 8c04 202a 3ed1 8d2b 6a5e 932b 0d07 ab2c
00000150: 8041 372d 1e0e e22c be65 4a2b 688e b72b
00000160: 64d0 5e2c 4948 372d 622c 1721 4045 372d
00000170: 82e1 992c e052 572b c4bf 052b b7f1 212c
00000180: bba9 822c 8e3b 1c2b b841 372d 2254 302c
00000190: aa64 862b 7296 c42b 4fd1 5e2c 0544 372d
000001a0: 7fe0 e41c e141 372d 9bb9 042d 497e 872b
000001b0: 0024 bc2b c601 442c 516a 152d 0212 dd29
000001c0: 4449 372d b333 7428 c0d2 182c e12f e625
000001d0: aeee 242d 9191 5e20 ef3c 372d dc23 022b
000001e0: d7eb 3a26 e9a2 0d2b 183b 1927 b71f 0d2b
000001f0: 3081 6820 8f7d 1e2b acf5 b626 02d5 be21
00000200: 175a b626 9987 6d23 802a b826 2146 1020
00000210: f89a b626 ab97 4921 cae5 dd1e 75f8 d120
00000220: adf4 7021 c439 a31f 20f3 ff20 6d51 1720
00000230: b0c4 fd2a baae 4925 53d5 ea29 7187 ff20
00000240: b21f 192a 4172 1022 9ba5 fc2a 5aa7 fd2a
00000250: 686d d429 528d d729 940f 9529 9929 192a
00000260: febf fd2a 08af d61f d4c1 fd2a 9925 242a
00000270: bef2 fe29 3c21 4729 4b20 192a 3ac2 fd2a
00000280: d46e 591c a1b6 fd2a d4c0 4a26 e014 6c2a
00000290: c523 1021 5e73 fa2a adea f91e f1d6 fd2a
000002a0: 58c3 fd2a 1c53 4a26 cb02 d42a 6a79 a021
000002b0: f156 d42a 3d66 141d d1bf fd2a 5f4c f529
000002c0: daab 5025 9252 f529 bd79 e824 ee05 ef29
000002d0: 67d8 eb20 e04b f529 4884 5221 3378 1121
000002e0: 5d0d 7b21 8cee 1821 b107 fe1f bf39 8720
000002f0: 9c06 e11e 0eae 3121 cf9c aa20 3c11 1421
00000300: 8b3d 0c1f a439 9920 ee63 8020 554c 4b21
00000310: b0a5 4821 dde3 d520 20f6 011f da0b 971f
00000320: 0bbb b920 2314 0f20 26f7 9820 b699 7f1f
00000330: a0bd 5520 08dd 631f 98f3 1120 5fea 2b21
00000340: a2a7 5a20 76aa 3520 6cc3 5937 be8c 7b32
00000350: 66e6 3c36 bebd fa34 e596 5636 2a28 f135
00000360: 80b3 5237 6ac3 5937 5be4 0237 7dd1 0936
00000370: 8e64 4636 ded4 6136 e5ae 8d37 bd2f 0b37
00000380: a3a3 5637 4cd8 5637 ea26 3736 61a1 8e36
00000390: 1daa 7736 f6d8 cf37 1f40 8836 b75e 7337
000003a0: 6674 4c37 e20d 8936 1bc2 8f36 2d18 b636
000003b0: 988c bc37 e4db e336 e296 9d37 2ec8 2d37
000003c0: b9a6 1337 757c 5036 11b9 2237 e1ce 9937
000003d0: 5ee2 5b37 bae1 9c37 3383 c136 256b 6137
000003e0: f3b5 e535 6d40 4937 8051 0537 aa12 9737
000003f0: 9da1 7137 a73d 1c36 aa16 3a37 46a8 3535
1.7018294e-05 1.7679907e-08 3.4142663e-06 5.6072327e-07 4.2367997e-06 2.1497347e-06 1.629433e-05 1.7018292e-05
1.0186304e-05 2.4601868e-06 3.1602551e-06 4.0686095e-06 1.965733e-05 9.6721915e-06 1.6722748e-05 1.51396625e-05
3.4609668e-06 4.9719442e-06 5.2526793e-06 2.9499979e-05 5.545833e-06 1.7883778e-05 1.3883536e-05 4.433913e-06
4.8414854e-06 6.2594545e-06 2.4494517e-05 7.092296e-06 2.4388151e-05 1.1377931e-05 1.1694814e-05 3.175097e-06
1.3195813e-05 1.825285e-05 1.7422171e-05 2.2361723e-05 5.4628563e-06 1.6256541e-05 1.7412452e-06 1.471198e-05
7.552517e-06 2.1001251e-05 1.4990371e-05 1.7528807e-06 1.151255e-05 5.7448517e-07 1.0104968e-05 2.043233e-06
1.3692976e-05 6.0312154e-06 8.7518124e-08 5.5890823e-06 1.0441719e-07 4.064506e-06 1.5537321e-07 6.2242066e-06
1.4692841e-06 1.3128816e-08 1.113144e-06 2.1736954e-08 9.76336e-07 2.4296092e-08 1.368319e-06 4.574756e-07
4.7168616e-09 3.8337586e-07 6.9859056e-09 2.108436e-07 5.8911214e-09 3.874868e-07 1.0417512e-11 2.6857024e-15
8.3286996e-13 3.9460134e-16 3.1660779e-12 8.0717867e-16 1.0347712e-11 1.0417616e-11 4.114106e-13 5.49374e-13
1.4212432e-13 1.0076729e-12 1.0471183e-12 4.860895e-12 1.041689e-11 6.4248737e-12 7.190601e-13 1.3042458e-12
3.1663778e-12 1.0418396e-11 5.121953e-19 1.0417722e-11 4.373558e-12 7.6498356e-13 4.751722e-13 2.3013655e-12
3.713666e-12 5.550498e-13 1.0416938e-11 2.5057807e-12 9.549213e-13 1.3968395e-12 3.1664287e-12 1.0417449e-11
1.5145805e-21 1.0416974e-11 7.544544e-12 9.627378e-13 1.3368195e-12 2.785426e-12 8.493276e-12 9.8174954e-14
1.0418614e-11 1.3555931e-14 2.171749e-12 3.9931084e-16 9.375318e-12 1.8852295e-19 1.0415876e-11 4.623504e-13
6.4851336e-16 5.0319346e-13 2.126505e-15 5.0137276e-13 1.9693909e-19 5.6307124e-13 1.2695376e-15 1.2931283e-18
1.2653206e-15 1.287651e-17 1.2779084e-15 1.2220478e-19 1.2670791e-15 6.830218e-19 2.3494324e-20 3.5570392e-19
8.163899e-19 6.912875e-20 4.3359567e-19 1.2817139e-19 4.5078307e-13 1.749317e-16 1.04286934e-13 4.3288308e-19
1.3600126e-13 1.9576125e-18 4.4879104e-13 4.5057952e-13 9.43367e-14 9.572433e-14 6.6196316e-14 1.3603562e-13
4.507505e-13 9.092209e-20 4.5076323e-13 1.457917e-13 1.1321975e-13 4.4215703e-14 1.3600334e-13 4.50766e-13
7.194252e-22 4.5068552e-13 7.034416e-16 2.0968253e-13 4.883644e-19 4.4488973e-13 2.646096e-20 4.5090974e-13
4.5077375e-13 7.019546e-16 3.7660703e-13 1.087416e-18 3.7719093e-13 1.9640493e-21 4.5074927e-13 1.0893434e-13
1.809935e-16 1.0894509e-13 1.00820194e-16 1.0614761e-13 3.9953752e-19 1.0893348e-13 7.132584e-19 4.9286993e-19
8.5059794e-19 5.1815317e-19 1.0758591e-19 2.2908103e-19 2.3825535e-20 6.020029e-19 2.8902887e-19 5.016716e-19
2.969706e-20 2.5957352e-19 2.1750171e-19 6.88801e-19 6.798192e-19 3.623439e-19 2.7520402e-20 6.3970594e-20
3.1463994e-19 1.2119234e-19 2.591335e-19 5.4125497e-20 1.8104543e-19 4.8251953e-20 1.2362576e-19 5.824724e-19
1.8520783e-19 1.5387697e-19 1.2979708e-05 1.4642124e-08 2.8148293e-06 4.6704184e-07 3.1976317e-06 1.7967589e-06
1.25587685e-05 1.2979706e-05 7.801772e-06 2.053653e-06 2.956283e-06 3.3651518e-06 1.6889951e-05 8.296161e-06
1.2793494e-05 1.28057545e-05 2.7291776e-06 4.2507168e-06 3.6904887e-06 2.4777353e-05 4.0605805e-06 1.4505981e-05
1.2186449e-05 4.0845343e-06 4.284329e-06 5.426837e-06 2.2476816e-05 6.790726e-06 1.8786119e-05 1.03582115e-05
8.800701e-06 3.1066859e-06 9.699042e-06 1.8335357e-05 1.3106122e-05 1.8701761e-05 5.767122e-06 1.3435992e-05
1.7114784e-06 1.1995534e-05 7.946393e-06 1.8009294e-05 1.4402348e-05 2.3281698e-06 1.1091741e-05 6.7672624e-07

exp_avg f4 [64]
00000000: 68b9 a039 db08 19b3 5ff9 c4b1 bba3 e439
00000010: 7dc2 48b0 e501 03b3 be17 033b 873c 7939
00000020: dd00 173a c138 8bb3 94df 83ba 3ee5 173b
00000030: e82e 2c3b fa26 0db3 3896 aab3 ebf7 5839
00000040: fe5a 153b b79f 88b3 dcbc 033b 11de 44ba
00000050: fa56 043b 57c7 86b3 1892 3aba e4b3 293b
00000060: 1988 04b3 88f6 133b d12d 23b3 6102 26b3
00000070: dfe9 31b1 1418 cab9 4750 93b2 acef 4e3b
00000080: 2f47 02b3 6487 c4b8 4744 6d38 dd37 d93a
00000090: 4720 5b38 0ef6 de3a 302b 91b9 6afd 57b1
000000a0: 2512 0fb9 263a 533b 2620 a6b3 6b1f beb9
000000b0: bce3 84b1 34aa 873a 2105 9cb3 ea88 cfb3
000000c0: e4d0 493b 3e34 353b c993 ed3a 0fcb 82b8
000000d0: 4e2a 3db3 6be3 10b3 9282 04b4 1e50 1cb3
000000e0: 19f6 beb9 b1e3 f139 e334 ae39 6727 0b38
000000f0: 9c7d 3e3a 8f87 c2b2 e92c 28b2 11c1 1ab4
0.00030655717 -3.5631142e-08 -5.732701e-09 0.00043609538 -7.303596e-10 -3.0502537e-08 0.0020003165 0.00023769039
0.00057603215 -6.4830154e-08 -0.0010061138 0.002317741 0.0026273075 -3.286457e-08 -7.9435665e-08 0.00020691722
0.0022789831 -6.3620455e-08 0.0020101583 -0.0007509897 0.0020193444 -6.276121e-08 -0.00071171066 0.0025894577
-3.0857425e-08 0.0022577364 -3.7993065e-08 -3.865205e-08 -2.588983e-09 -0.00038546382 -1.7149558e-08 0.003157596
-3.0332725e-08 -9.371227e-05 5.656879e-05 0.0016572435 5.224373e-05 0.0017010586 -0.00027688732 -3.1430667e-09
-0.00013644302 0.0032230704 -7.735825e-08 -0.00036263032 -3.867596e-09 0.0010350407 -7.265249e-08 -9.664093e-08
0.0030794675 0.0027649547 0.0018125708 -6.236706e-05 -4.4043468e-08 -3.3734448e-08 -1.2340959e-07 -3.6394447e-08
-0.0003642298 0.00046136745 0.0003322727 3.317688e-05 0.0007266642 -2.2646217e-08 -9.789098e-09 -1.4412605e-07

exp_avg_sq f4 [64]
00000000: 81c2 8e37 0344 372d f8c1 fd2a 69c3 5937
00000010: 205f 132a ffcb ca2c a7f2 4238 9d3f a237
00000020: ca3c 3d37 e124 d42b 6e89 7e37 1545 3838
00000030: 2b66 2e38 78a2 c92c 6e63 182f 70d2 8337
00000040: ee74 3c38 e0cc c731 1df4 7238 5b13 ad37
00000050: 4687 3c38 cc5b 0c30 1852 8137 bbac 3a38
00000060: 47c7 a52c 92e8 5738 a993 2d2d cdc9 bc2e
00000070: ee2b 392a 197a 7237 00a6 c02b 4950 d237
00000080: 8bb0 9d2c 792b 6437 776f a537 2cc6 2638
00000090: 82bf 8137 4f24 2c38 af31 ac37 4ac9 972a
000000a0: 8fa4 6637 afd3 7238 a7c8 0f2f fef4 6d37
000000b0: d5a0 b62a 5e38 2438 cebf 8b2f 6254 6731
000000c0: 37d6 5438 c883 2e38 bb18 2938 6093 9937
000000d0: 18e6 e32e c209 dc2c ed26 152d dd5b 112d
000000e0: f7c1 a937 9546 bb37 ea58 8d37 0f8b 7837
000000f0: 3958 8c37 28e8 1c2c b52a 3d2b 31d1 742d
1.7018292e-05 1.0417447e-11 4.507642e-13 1.2979705e-05 1.3089226e-13 5.7638334e-12 4.6479192e-05 1.9341527e-05
1.1279431e-05 1.5073742e-12 1.5171578e-05 4.3933356e-05 4.1579984e-05 5.7308013e-12 1.3859644e-10 1.571441e-05
4.4931592e-05 5.814954e-09 5.7924644e-05 2.063222e-05 4.4948676e-05 5.1062155e-10 1.5416226e-05 4.4506723e-05
4.7117063e-12 5.1476592e-05 9.866699e-12 8.585097e-11 1.6446542e-13 1.4452752e-05 1.3688495e-12 2.5071336e-05
4.4818086e-12 1.3599981e-05 1.9721438e-05 3.9762046e-05 1.5467176e-05 4.104181e-05 2.0527134e-05 2.696266e-13
1.3747383e-05 5.7894442e-05 1.307706e-10 1.41833425e-05 3.2441294e-13 3.9153143e-05 2.5420238e-10 3.366289e-09
5.0744242e-05 4.1607564e-05 4.0315772e-05 1.8307648e-05 1.0363638e-10 6.2538594e-12 8.478313e-12 8.2626935e-12
2.0236692e-05 2.2325004e-05 1.6849914e-05 1.4814329e-05 1.6730382e-05 2.2297806e-12 6.7205556e-13 1.3916244e-11

exp_avg f4 [64, 64]
00000000: f361 8629 df1a 0722 38cf 1822 a9f3 7129
00000010: db15 611f d1f7 59a2 c0e5 c4b3 f772 d5ad
00000020: f7a8 d3b2 c958 092a 03e5 bfa0 77bb 74b3
00000030: 77d6 ffb2 84ea 79ad 55bf 2eb0 7c54 9fa4
00000040: eb0c a8b2 5b17 1c22 a769 bab2 341b 15b0
00000050: 296d d3b3 0783 5e20 87c3 f7a3 333c 70b3
00000060: 0734 d829 2faa e5b2 c33d fd2c 34b1 5321
00000070: d853 1e22 a10a 4b21 f638 9ba4 c65c 84a0
00000080: 50be 8ba3 6c9e 77ad 2580 4caf 3de3 6db3
00000090: bf4e 17a6 6e23 7db2 08b2 20a5 bcfe 54ab
000000a0: 6f39 0822 9aec aca0 6609 4f1f 1f6a 6ab0
000000b0: c157 b521 76cf 65b3 4c44 2ba8 6249 72b0
000000c0: da03 88b2 fe8b 4ab1 8ea0 71b3 759c 8aa5
000000d0: 01db 8821 91f2 8227 83a1 ffa0 4969 9e24
000000e0: bc8c 3ea4 ddaf 0eaf 9f89 b921 3a81 5b27
000000f0: 2d89 7a24 85bf 80a2 9061 afa3 0dac 2c22
00000100: cd8f 8939 b6ff 8cb2 e9b6 6f26 a34d a639
00000110: ad0a 3f2f 64c3 93b2 6f9c d639 8031 1938
00000120: a08f 9939 9f94 4131 110e 053a 1c8b 1b3a
00000130: d769 393a dbcb 11ae ecfe 3c33 9752 8939
00000140: 103d e939 c5d8 45af a71e 0e39 4c6c e439
00000150: 88c8 c139 78d8 c3b2 26c2 083a 92a8 b439
00000160: 866d 8aad 8e35 003a 760a 6a31 fa6b 0e33
00000170: 3617 5826 e409 d039 7910 3f24 0b2c b43a
00000180: 9688 c325 092a f639 cd75 8c39 ef0f c439
00000190: f3a0 c639 e2ca e939 d835 fc39 d993 0125
000001a0: a5f6 cb39 1e33 403a 3433 9332 2b64 f039
000001b0: 9385 b3a9 1552 5d39 703d 2cb2 0c4b 52b3
000001c0: db0b e839 d7fe 2d3a 3428 e439 344b c039
000001d0: 9e4e f6b1 202e c1a6 a1cf 4c2f 4b20 a525
000001e0: b4fa b039 2b25 a738 255b 1c39 2943 b639
000001f0: 77f1 fa38 b759 742c 43a5 0fa5 3ea1 d733
00000200: 7470 2db2 1002 b920 1513 199e 9cf6 b4b2
00000210: 732f afb1 efa4 05a1 bf30 7ab2 c09e ffb3
00000220: 0911 2baf 5522 95b2 5e01 6bb3 e12f 00b3
00000230: 083d 9cb3 48d4 f730 dcc8 b9b2 8093 19b2
00000240: 64ee bbb2 384c e5a0 4e3a e4b1 794b 3431
00000250: a75d b8b2 2d5b 4d21 f9c4 50b1 95dc 4721
00000260: 2b44 1031 871b bdb2 bbe1 c4b2 c1d7 b220
00000270: 05aa 6c1f f68e 9521 5b73 70ad 994f 2ca2
00000280: 6d6e a6ad 75f1 99b0 a0e0 3e32 e3dc 93b2
00000290: cd2d 81b2 0d53 1cb3 8031 7bb2 9c48 a625
000002a0: 1d3a 60b3 172c 0821 e16e 6a21 b3a9 f3b3
000002b0: 9d7e 8a21 af92 b3b3 eaef 92a6 c5da 7d23
000002c0: c944 96b1 8952 b2b2 6178 3a21 553e 74b2
000002d0: 5bd5 39a0 34f4 c0af 084d 12a1 25d4 a929
000002e0: 5813 dc30 6021 7732 9731 69b3 c5c4 27b2
000002f0: c2d0 d0b2 15a4 94b0 ff25 efa6 be86 1821
00000300: 5fe1 6638 2022 f4ae 9c52 19a5 8ed0 3635
00000310: 2e02 d1a1 d09f 72af 4b41 083a d1a1 3237
00000320: 3806 50b9 8304 0ea0 63f1 a839 05a2 383a
00000330: 7623 513a 64d9 8e21 94dc f931 c80a b938
00000340: 2e23 0d3a ff8b 4632 ec46 7b39 d431 4139
00000350: e5bb ee39 66fb c2b2 4207 4e39 0688 033a
00000360: 4799 6b20 8ee4 283a f12c bf20 0d79 d8b2
00000370: cb52 34a6 5c6f 0539 614b 0922 f463 ac3a
00000380: d6f1 f520 e4f1 e538 95e3 ce38 ef69 d039
00000390: b79c 8438 90c1 ae39 067e 0039 627b 9521
000003a0: ae3a af38 7bbd 723a 3af2 de2f bc2c 1b39
000003b0: 3ce9 75a3 dbe6 e239 cb9b c432 2478 4db3
000003c0: 5e4e 2b3a f1fd 883a 3adf dd39 c577 1538
000003d0: 6944 cb31 7c78 4620 d297 6f29 82a4 12a1
000003e0: d830 8238 4dd6 a0b7 438a c437 4d43 de37
000003f0: 559f c8b8 d3e7 3da1 6bc7 2021 71c8 ce33
5.967787e-14 1.8310137e-18 2.0709542e-18 5.372409e-14 4.7663682e-20 -2.9540177e-18 -9.1687525e-08 -2.4266351e-11
-2.464047e-08 1.2198848e-13 -3.2508206e-19 -5.6981175e-08 -2.9783434e-08 -1.4206084e-11 -6.357273e-10 -6.909838e-17
-1.9563648e-08 2.1154307e-18 -2.1701295e-08 -5.424454e-10 -9.845309e-08 1.8847485e-19 -2.6862603e-17 -5.5934105e-08
9.601352e-14 -2.67365e-08 7.1975494e-12 7.1724107e-19 2.145738e-18 6.879314e-19 -6.731703e-17 -2.2423062e-19
-1.515101e-17 -1.4075501e-11 -1.8599218e-10 -5.5387535e-08 -5.249537e-16 -1.4734594e-08 -1.3938107e-16 -7.5671045e-13
1.8461842e-18 -2.9294503e-19 4.384173e-20 -8.527951e-10 1.2288265e-18 -5.3506902e-08 -9.507216e-15 -8.814337e-10
-1.5834235e-08 -2.9474445e-09 -5.625821e-08 -2.4045203e-16 9.273688e-19 3.634524e-15 -4.330556e-19 6.869994e-17
-4.131889e-17 -1.2977304e-10 1.2572516e-18 3.046241e-15 5.43263e-17 -3.489725e-18 -1.9014857e-17 2.340143e-18
0.00026237816 -1.6414429e-08 8.316767e-16 0.0003171983 1.7375142e-10 -1.7201906e-08 0.00040933813 3.6524143e-05
0.00029289443 2.8169678e-09 0.00050756434 0.00059335097 0.00070729613 -3.3150243e-11 4.400401e-08 0.0002619221
0.00044486718 -1.7994058e-10 0.00013553594 0.00043568236 0.00036961236 -2.2799426e-08 0.00052169187 0.0003445787
-1.5737422e-11 0.0004890793 3.4057428e-09 3.3160156e-08 7.497151e-16 0.0003968022 4.1430476e-17 0.0013746036
3.3919662e-16 0.00046952095 0.0002679065 0.00037395905 0.0003788542 0.00044592383 0.00048105302 1.1239059e-16
0.00038902942 0.0007331836 1.7136337e-08 0.00045850998 -7.972368e-14 0.0002110678 -1.0025687e-08 -4.896269e-08
0.0004425932 0.00066374004 0.00043517502 0.00036677124 -7.16848e-09 -1.3404567e-15 1.8627457e-10 2.864482e-16
0.00033756124 7.9701036e-05 0.00014911273 0.00034763783 0.00011965905 3.4724287e-12 -1.2459266e-16 1.00410475e-07
-1.0095494e-08 3.1341584e-19 -8.103699e-21 -2.1066903e-08 -5.0985647e-09 -4.528044e-19 -1.4562999e-08 -1.1903239e-07
-1.5558412e-10 -1.7361495e-08 -5.4716445e-08 -2.9845868e-08 -7.2754176e-08 1.8031949e-09 -2.1628175e-08 -8.93931e-09
-2.1878073e-08 -3.8844546e-19 -6.642302e-09 2.6236349e-09 -2.1463007e-08 6.957737e-19 -3.037995e-09 6.771576e-19
2.0993507e-09 -2.2015014e-08 -2.2920053e-08 3.0297147e-19 5.011558e-20 1.0134474e-18 -1.3668035e-11 -2.3352485e-18
-1.8921054e-11 -1.1200841e-09 1.1110529e-08 -1.72135e-08 -1.5038404e-08 -3.6397115e-08 -1.4621378e-08 2.8845612e-16
-5.2206918e-08 4.6136945e-19 7.942903e-19 -1.13464374e-07 9.384758e-19 -8.3620186e-08 -1.0195814e-15 1.3761484e-17
-4.3733945e-09 -2.075946e-08 6.317857e-19 -1.4216842e-08 -1.5740703e-19 -3.5098113e-10 -4.9568674e-19 7.541909e-14
1.6012605e-09 1.4384881e-08 -5.429464e-08 -9.76542e-09 -2.4309319e-08 -1.0815052e-09 -1.6594255e-15 5.1677933e-19
5.5046166e-05 -1.1101897e-10 -1.3298624e-16 6.810377e-07 -1.4162968e-18 -2.2066549e-10 0.00051977177 1.0647303e-05
-0.00019838742 -1.2029361e-19 0.00032223304 0.0007043186 0.00079780014 9.679837e-19 7.2719306e-09 8.8234956e-05
0.00053839653 1.1556948e-08 0.00023963646 0.00018424477 0.0004553489 -2.2698895e-08 0.00019648395 0.00050175225
1.995599e-19 0.00064427487 3.2386398e-19 -2.5200757e-08 -6.256225e-16 0.00012725353 1.8606867e-18 0.0013152347
4.1664648e-19 0.000109646266 9.865236e-05 0.00039751778 6.323441e-05 0.00033332082 0.00012253979 1.0129292e-18
8.35558e-05 0.0009259802 4.0553677e-10 0.00014798617 -1.3330866e-17 0.0004327808 2.288825e-08 -4.783955e-08
0.000653481 0.0010451657 0.00042318722 3.5635912e-05 5.915855e-09 1.6811117e-19 5.3200344e-14 -4.968445e-19
6.207981e-05 -1.9173278e-05 2.3429404e-05 2.6495802e-05 -9.566421e-05 -6.434251e-19 5.4474036e-19 9.6290826e-08
