models/reinforce.pth (torch, 22193 bytes, 4 tensors)

0.weight f4 [64, 72]
00000000: a5cd 8abd 083d 94bd c3fd 6bbd a2d6 52bd
00000010: 3651 f8bd 1a80 453d 1011 a0bd 85d9 b3bd
00000020: f5ab 9c3d 3ce3 c6bc 16f6 5c3d 0a41 3c3d
00000030: 6426 4b3d 8c25 acbd abc4 dfbc feae 683d
00000040: e38c 0bbe 6c66 613c c337 8e3a eb40 ddbc
00000050: 5d76 17bd f319 863c b805 fdbd 602a ac3d
00000060: 2c53 01be c401 2d3d eebf 5b3d be9d e7bd
00000070: 1620 9bbd c7c0 783d 7747 c0bc f285 233d
00000080: feac 0dbe c9a3 04be 36c5 4f3d 7162 7d3d
00000090: 99a5 10bc 4d8b 6c3d 3ad0 193c e0b0 a0bc
000000a0: 8215 09bd aa55 c9bd 3f7a 08be fa9f 68bd
000000b0: e00e 50bc 31e5 06ba 1a8d 8cbd d973 283d
000000c0: 29d4 02be a1fc 2a3d 8917 f5bd b887 453c
000000d0: 8039 8c3d dedd a4bd ac04 f8bc bb61 6bbd
000000e0: eaf1 73bd df48 03be f091 f1bd 4a04 febd
000000f0: 7c0c 80bd 0276 d7ba 3a7d d2bd 5120 18be
00000100: 5bce 3d3c 7984 b43b 11ea 5d3c 6e94 9fbd
00000110: 3cb0 273d 4460 113b f483 22bd 2624 aa3d
00000120: fb4c 973c c75d 1d3e 1157 c93d 9da7 0cbc
00000130: b4eb 383e 9260 283e 75a7 22bc fb37 0fbd
00000140: 5160 bf3d 1c73 c53c d4e6 ae3d 778c a2bc
00000150: 9744 623d 10a2 7d3d a93b 2c3d 6017 c83d
00000160: 4ff6 043d 7328 583b beb4 f43d 4f2d 323e
00000170: 2ecf c83d f9a1 4f3e e828 b53d f588 463e
00000180: 9719 173e cb96 253e f469 a23d ebd7 803d
00000190: 3233 773d 5f12 8abc a9aa 3a3e 0120 123c
000001a0: 3e15 ec3c 1ed1 963d 9a2b 0f3d 234f 043e
000001b0: 2379 893e 231b cc3d 29a8 573e e145 7f3d
000001c0: afbb 5d3e fc3b 023e 4b9b 213e 04fb 893e
000001d0: 3b97 dfbb 59a2 093e 61d6 263e 262f 693e
000001e0: 7975 b63d 77be 233e dccd ab3d 08b1 38bd
000001f0: f0d1 fe3d 1fc1 243e 07d8 253e 581d 81bd
00000200: a591 6f3c bbbb d53d 8ab6 313d e8b1 ab3d
00000210: 9579 3e3e a23e b43c 752b 03bd 8e7e 78bd
00000220: f3ca 393d cc0a 1a3e 95a7 8dbc c268 d93d
00000230: 0a74 22bd 9faa 4b3d 8e54 d33d accc 953d
00000240: 2977 7bbd 91f9 5bbd 5d2a f73c 2852 df3c
00000250: 1adf b1bd c4d3 5e3d 77fb 28bd a11f 363d
00000260: e773 f0bd 451f 263d ed3d dbbc bea5 633d
00000270: 277b 66bd 7d5b 9bbd e647 ad3c d603 de3d
00000280: c4e3 893d c0d9 213d aa49 c53c 954f 31bd
00000290: b0c9 0b3d acb2 e0bd f52c 743d 1507 e4bd
000002a0: 63c5 a53d 3d35 92bd 634e b83d bc0b 1ebd
000002b0: 8dc9 72bc a3d9 59bd 203e 62bd 0533 873d
000002c0: 7440 ccbd 1ca9 34bd c873 38bd f495 473c
000002d0: 9efb f0bd 1f5c 9abb 103c 003d 22e2 c6bd
000002e0: e240 3dbd 6d8d 9f3d b947 64bd e3a9 2abb
000002f0: a3cf 843d 86ba cbbb 9e81 833d 54b5 ad3d
00000300: 093d ce3d 20f3 9cbd f873 693d 797a 533d
00000310: 2539 633c ebaf 3a3d 285d d5bd 0759 d5bd
00000320: be42 b4bd e1a0 b1bd 4d8d e1bd 4195 b93c
00000330: 1a33 633d 2f4b 043d 7ba2 d5bd 7c42 ce3d
00000340: 4ccd 983d 74c2 1bbd da60 f9bd 4482 77bc
00000350: efd7 f6bd 2112 973d bfe1 dc3c dfc6 c0bd
00000360: fff0 b0bc 0398 b739 adf8 593d 7b29 6fbc
00000370: a9bc 60bd fcad b53d a535 c93d 9872 81bd
00000380: 8d98 8dbb 7a75 493c 6b47 50bd 8fc0 ce3d
00000390: fc7c 6bbd ffc6 8f3c 7ebf 94bd 68fa 0a3e
000003a0: 65c1 273d fd6b 073e 720f 233e e299 ef3d
000003b0: 355b 5f3c 9496 863d 1538 8b3c 0a4a edbd
000003c0: deb2 883d 81bc fdbd 630c fcbd e976 493d
000003d0: 4364 2fbd 4942 fd3c 8e0a 9b3d a415 b2bc
000003e0: 3707 17be 4b6a e53c e503 f4bd 9572 b0bd
000003f0: ef0d 2cbe d1c7 65bd 913c d73b b626 aabd
-0.06777505 -0.07238203 -0.057615053 -0.05147422 -0.12124865 0.04821787 -0.078157544 -0.08781723
0.07649986 -0.024278276 0.053945623 0.045960464 0.04959716 -0.08405599 -0.027315458 0.05680751
-0.13627963 0.013757329 0.0010850359 -0.027008494 -0.036978114 0.016369795 -0.123546064 0.0840652
-0.12629384 0.042238012 0.053649835 -0.11309384 -0.07574479 0.06073072 -0.023471577 0.039922662
-0.13835523 -0.12953104 0.050725184 0.06186146 -0.008828544 0.057750035 0.009388024 -0.01961559
-0.033467777 -0.09830792 -0.13327883 -0.05679319 -0.012698859 -0.00051458465 -0.068628505 0.041126106
-0.12776245 0.041744832 -0.119673796 0.012056284 0.06846905 -0.0805013 -0.030275665 -0.05746625
-0.05955688 -0.12820767 -0.117954135 -0.12403162 -0.06252381 -0.0016438367 -0.10277791 -0.14856078
0.0115848435 0.005508956 0.013544575 -0.077919826 0.040939555 0.0022182623 -0.03967662 0.08307676
0.018469324 0.15367804 0.0983106 -0.008584884 0.18058664 0.16443089 -0.00992762 -0.034965497
0.09344543 0.02410274 0.08540121 -0.01984237 0.055241194 0.061922133 0.042049084 0.097700834
0.03246146 0.0032983094 0.11948536 0.17400096 0.098051414 0.20276631 0.08845693 0.19388182
0.14755856 0.16170804 0.07930365 0.06291183 0.060351558 -0.016854463 0.18229164 0.008918763
0.028818723 0.07364105 0.03495369 0.12920813 0.26850232 0.099661134 0.21060242 0.0623225
0.21653627 0.12718195 0.15781896 0.26949322 -0.006823448 0.13440837 0.16292717 0.22771892
0.08909125 0.15990625 0.08388874 -0.045090705 0.12442386 0.16089295 0.16195689 -0.06304425
0.014622127 0.10436197 0.043386973 0.08383542 0.18601067 0.022002522 -0.032023866 -0.060667567
0.045359563 0.15043181 -0.017291823 0.10615684 -0.039661445 0.049723264 0.10318862 0.07314429
-0.061392937 -0.053704802 0.030171568 0.027260855 -0.08685131 0.054401174 -0.04125544 0.044463757
-0.117408566 0.040557165 -0.026762927 0.055577986 -0.05626979 -0.075858094 0.021152448 0.108405754
0.06732896 0.039514303 0.024082977 -0.043288786 0.03412789 -0.10971579 0.059613187 -0.11134163
0.08094289 -0.07139061 0.08999326 -0.03858541 -0.014818561 -0.05318607 -0.05523503 0.06601528
-0.09973231 -0.044106588 -0.045032293 0.012181748 -0.11766742 -0.0047106887 0.03130728 -0.097111
-0.046204455 0.07790647 -0.055732463 -0.0026041202 0.06484916 -0.0062173037 0.06421207 0.08481851
0.10070235 -0.0766356 0.056995362 0.05163047 0.013868605 0.045577925 -0.10418159 -0.10417371
-0.088017926 -0.08673263 -0.11013279 0.022654178 0.055468656 0.032298263 -0.10431381 0.10071275
0.07461032 -0.03802724 -0.12176676 -0.015106741 -0.12052905 0.07376505 0.026963113 -0.09412932
-0.02159929 0.00035017738 0.05321567 -0.014597292 -0.05486742 0.088710755 0.09824685 -0.06320685
-0.004321164 0.012296075 -0.05084936 0.100953214 -0.05749224 0.017550943 -0.07263087 0.13572085
0.04095592 0.13224788 0.1592386 0.11699273 0.013632585 0.06571689 0.016994515 -0.115863875
0.06674741 -0.1238947 -0.1230705 0.049185667 -0.042820226 0.030915396 0.075703725 -0.021738835
-0.14748846 0.028004786 -0.11914805 -0.08615605 -0.1680219 -0.056098763 0.0065684994 -0.08308165

0.bias f4 [64]
00000000: d4b6 fabd 7399 103e f1fd 8cbd 1b3f 85bd
00000010: 247e 5f3e db63 fb3d cd97 a03c 03eb eb3d
00000020: d24f 02bd b270 fcbd d3ff d437 7c65 fcbd
00000030: 6be3 8a3b f763 963c 93db 983d f268 273e
00000040: 0fa1 a63d e4e3 513e 6149 e3bb 4d4b 03be
00000050: 8737 ad3c 1843 a0bd ac12 843d 9231 543e
00000060: b0fc 143d 5677 6a3e 44b9 573d 2510 ad3d
00000070: cac0 98bd f9e4 b3bc 963b 81bb 87d0 983d
00000080: de5f 233d 4800 193d c4b1 373e bc5f 05be
00000090: 9b85 cabd e373 d5bd f509 bb3d fc68 eebc
000000a0: 6ef9 503d 0458 b43b a61c 053e d1e4 443e
000000b0: 97e2 193d d17e 3ebd 5422 da3d 54eb 743d
000000c0: 06ea 2e3d ef8b 853d 62ea 523e d002 0b3d
000000d0: 6d82 bf3d 6e95 033d a0f6 843c 7fe1 de3b
000000e0: b19c b33d 1bf1 d0bd 0d4e 9abd 8f97 04be
000000f0: 0778 edbd 2270 fabd e9cd 2f3e 589e 9bbd
-0.12241903 0.14121036 -0.06884373 -0.06506177 0.21825463 0.12274905 0.019603634 0.11519434
-0.031814404 -0.123261824 2.5391497e-05 -0.12324044 0.004238536 0.018358214 0.074637555 0.16348627
0.08136188 0.2049709 -0.0069362377 -0.12821694 0.021144642 -0.07825297 0.06448874 0.20722035
0.036373794 0.22897086 0.052666917 0.08450345 -0.074586466 -0.021959769 -0.003943871 0.074616484
0.039886348 0.037353784 0.17938906 -0.13024801 -0.098887645 -0.10422494 0.091327585 -0.029102795
0.051019125 0.0055036563 0.1299921 0.19227912 0.03756961 -0.04650766 0.10651079 0.05979474
0.04270365 0.06520831 0.20597222 0.03393823 0.093510486 0.03212493 0.016230881 0.0068017836
0.08770121 -0.10202237 -0.07534418 -0.1294844 -0.11595159 -0.12228419 0.17168392 -0.07598561

2.weight f4 [4, 64]
00000000: 572b 71bd 6d34 ebbd 7efa 3ebd 3b63 073d
00000010: 82cf ddbd 46dc 24be 4c79 06be fdf4 a6bd
00000020: 06e6 323d f7c2 e7bd fe98 9f3d b26c 163c
00000030: 009d d93d 7acb adbb 27ed 29be 295f 003d
00000040: 152c d8bd 2de7 aebd dc3f b0bd a91f e33c
00000050: f0d6 26bd 5774 cb3d 6548 9bbd 6aa5 89bc
00000060: 01ae 453c 5f03 503d b7f4 913c 7b2a 783d
00000070: 9993 a1bd d31f a83d 8d50 54bc c0c5 1bbe
00000080: 8beb c03d 4a73 cbbd 73a7 ff3b 9cd2 d0bc
00000090: 6b5f 8f3c 196a 46bd 218c 833d f09d 8ebd
000000a0: 966c 10be 0810 fdbd 6e7a 2bbd a3a9 223d
000000b0: be1f a23d 2c2b d7bd 3ba5 58bd 71a7 48bd
000000c0: 7889 edbc d7ac 9a3d 628e 233c 5743 f13c
000000d0: e62e babd 9c00 34be 485d 313d 0311 163d
000000e0: f63a e2bd e2ea 603d 6767 b53d e247 413c
000000f0: 48b3 39bd 52dd c93c 5a0e 0bbe d80d 9c3d
00000100: d627 e53c da39 61be 511c eabc dcc5 d93d
00000110: 8c34 0ebe 9276 4ebe bb9e 573d eb37 bd3c
00000120: 82bf 9a3d f2fc 983d 4b9d 5e3a 8814 e7bc
00000130: fb52 53be 8d2a 05bc 6de1 87be 9b97 2dbe
00000140: 9b55 d93d 7be0 66be 05fa de3d 2705 75bd
00000150: 92c2 f0bd 788c 1f3d 5139 5bbe 7527 97be
00000160: 8743 e7bc 3f7c 90be 5e5f ddbd 7bff 403d
00000170: c87b 22bd e342 d33d 69b5 823d 9ba4 4bbe
00000180: 3fbf 553d 79c7 12bd 7227 89be bdd6 c73d
00000190: 2430 a33d f3c1 b9bd 86af 19bc e3d2 a53b
000001a0: db65 5dbe 7a4c 04be 4bc3 fcbd 7014 82be
000001b0: 5e6c df3c 8244 18bd fbd4 2ebe 7abb 01be
000001c0: 5876 b6bd 4472 2ebe 95d9 85be 8955 af3c
000001d0: a6a9 5dbe 9cd9 21be 5a66 49bd 87f4 9b3d
000001e0: a4d8 66be 5222 96bd d96c 8dbc 93ef c1bd
000001f0: 8d65 68bc 170e 61bd 9f7a d4bd f88f e3bc
00000200: 427b 88bd abb7 8a3d 15b2 c4bd e0d7 703d
00000210: 6bbf 313e c30b d9bd 33a2 ddbd 99bd b1bd
00000220: 4fba 29bd 9926 34bd 1d17 c1bd ab23 a03d
00000230: 48cf 953d 777f 923d fa71 ba3d 848f cbbd
00000240: fca0 16bc 8091 fb3d 609d 8abd 6d45 3f3b
00000250: b25c 20bd 7676 44bd 9d0b 143d 8194 1d3e
00000260: 2038 2a3d 7efe dc3d 849d dfbd d664 e03c
00000270: ae00 a23d 9578 06bd 6fa1 5a3d b2d5 bcbd
00000280: 74dc d2bc 7bb9 1e3d cfb7 1f3e ae50 383d
00000290: eb20 00bd 3d3b ffbd 61fd bf3d e91d 8d3d
000002a0: 61c1 c8bd ae31 d53d 8551 2a3e 5655 6d3d
000002b0: 92b7 1bbc a815 bcbd 043a 1dbc 43f9 d2bb
000002c0: 389a dabd f88b a13d c87c f63d f890 01be
000002d0: 9f70 c1bd b386 57bd 0f66 993d 88c8 bfbb
000002e0: 1dd4 6c3d 7fcd 81bd 8d38 953d 2dde 833b
000002f0: feac e73b fedb 713c 9745 cd3d 00f1 b9ba
00000300: 7a62 0dbd ab7f a63d 48c5 b53d ad56 8abb
00000310: aa3f b53d 376f 033e 7762 4d3d 1c67 09be
00000320: 22ad 033e 0097 163d 4fb5 d23c 03ef d83d
00000330: 51b3 653d e3cb 103d 24c2 423d 9444 953d
00000340: 4bff bf3d bf6e ba3d 2d3b ebbb 1e8d 4a3d
00000350: 3d76 a5bc d27b c13d 3f18 72bd df3f 513d
00000360: f6cf 67bd 4b3d ac3c ed59 0a3c 9b22 313d
00000370: 51b4 9dbd c094 323d 7bb0 9ebc 6e25 5c3a
00000380: 4f9c 04bd e275 943d 82ec deb8 b433 e23d
00000390: 1c57 35bc 30c4 2dbd b5ef 483b 9af5 5b3d
000003a0: 177e 2a3e da4f 49bd 0565 2f3e e43d ec3d
000003b0: 18dd d7bd 3464 7dbd d34c b4bd c679 abbd
000003c0: c83b 39bd f740 8e3d 7672 04bc fc49 c03a
000003d0: afb0 babc a337 80bc 54d9 dcbc 5eb1 3ebd
000003e0: a96a fc3c 3945 8ebd 77eb a43d ee02 bdbc
000003f0: d229 bb3d 7433 c13d ccfd 0a3e fc7a 383d
-0.058879223 -0.11484609 -0.046625607 0.033053618 -0.108305946 -0.16099653 -0.13132209 -0.081521966
0.0436764 -0.113164835 0.07792853 0.009181188 0.106256485 -0.0053037973 -0.16594373 0.03134075
-0.10555283 -0.08540187 -0.0860593 0.027725058 -0.040732324 0.099342994 -0.075821675 -0.016802508
0.012065412 0.050784465 0.017816884 0.060587388 -0.0788948 0.08209195 -0.012958658 -0.15212154
0.09419926 -0.09934099 0.007801944 -0.025491051 0.017501554 -0.048441026 0.06423212 -0.06963718
-0.14103922 -0.12356573 -0.041864805 0.03971256 0.079162106 -0.10506281 -0.05289195 -0.04898781
-0.028996214 0.07552498 0.009982677 0.029451055 -0.090909764 -0.17578357 0.04330185 0.036637317
-0.11046402 0.0549115 0.08857613 0.011796923 -0.04533699 0.024641667 -0.13579693 0.07619828
0.027973097 -0.21994725 -0.028577955 0.10633442 -0.13887233 -0.20162418 0.05264161 0.023097953
0.075560585 0.074701205 0.00084920664 -0.028208032 -0.20637123 -0.008127821 -0.26539174 -0.16952364
0.10612031 -0.2254657 0.10887531 -0.059819367 -0.11755861 0.03895232 -0.21408583 -0.2952229
-0.028230442 -0.28219792 -0.108092055 0.047118645 -0.03966883 0.10315492 0.063822575 -0.19887011
0.05218434 -0.035834763 -0.26787907 0.09757755 0.079681665 -0.09070196 -0.009380227 0.00506054
-0.21620886 -0.12919798 -0.12341937 -0.25406218 0.027273353 -0.03717471 -0.17073433 -0.12669173
-0.08909291 -0.17035776 -0.26142564 0.021403091 -0.21646747 -0.15805668 -0.049169876 0.07614999
-0.2254358 -0.07330765 -0.017263817 -0.09469523 -0.014184368 -0.054945078 -0.103749506 -0.02777861
-0.066641346 0.06773313 -0.09604279 0.058799624 0.17358176 -0.105979465 -0.10821953 -0.08678741
-0.041437443 -0.043982122 -0.09428237 0.07819303 0.073149264 0.07153218 0.091037706 -0.09939483
-0.009193655 0.12283611 -0.06768298 0.0029185668 -0.0391509 -0.047964536 0.036143888 0.15388681
0.04155743 0.10790728 -0.109187156 0.027391832 0.07910286 -0.03282984 0.05337661 -0.09220447
-0.025739886 0.038751107 0.15597461 0.044998817 -0.031281393 -0.12462471 0.093745 0.068904705
-0.09802509 0.10409866 0.1663266 0.05794271 -0.009504216 -0.09183818 -0.0095963515 -0.0064384057
-0.10673946 0.07888025 0.12035519 -0.12652957 -0.09445309 -0.052618694 0.07490169 -0.0058527626
0.057819474 -0.063380234 0.07286177 0.004024288 0.007070183 0.014761923 0.10023039 -0.0014186203
-0.034517743 0.081298195 0.08875519 -0.0042217583 0.088500336 0.12835394 0.05014273 -0.1341824
0.12859014 0.0367651 0.02572122 0.10592463 0.056079213 0.03535069 0.04754843 0.07288471
0.09374865 0.091031544 -0.007178685 0.049450986 -0.020197982 0.09447445 -0.059105154 0.051086303
-0.05659481 0.02102532 0.008444292 0.043245893 -0.07700408 0.04359889 -0.019371262 0.00083979114
-0.03237563 0.07249047 -0.00010629838 0.11045018 -0.011068132 -0.042423427 0.0030660455 0.05370102
0.16649662 -0.049148418 0.1712838 0.11535242 -0.10540217 -0.06186314 -0.088037156 -0.08372836
-0.045223027 0.06945985 -0.00808393 0.0014670487 -0.022789327 -0.01565153 -0.026959099 -0.04655587
0.030812578 -0.06946797 0.08052724 -0.023072686 0.09138836 0.09433642 0.13573378 0.045039162

2.bias f4 [4]
00000000: 7166 adbd b007 02be b501 293e c499 af3d
-0.08466805 -0.12698245 0.16504557 0.0857425
