models/reinforce.pth (torch, 40625 bytes, 4 tensors)

0.weight f4 [64, 144]
0.05479127 0.073887154 0.0045128884 -0.0026785247 0.07344423 0.04143986 0.06471708 0.05767398
-0.056384802 -0.05147917 -0.018379847 -0.080226466 -0.07589637 0.016674306 -0.018206952 -0.06974372
0.002084884 -0.019732079 0.04271212 -0.06922086 0.010452509 0.02178121 0.02092207 0.019266052
0.064011574 -0.0012538123 -0.052882317 0.01723918 -0.05171908 -0.00058419554 -0.0037828623 -0.08823915
-0.08327869 -0.0686616 0.022584941 -0.043059494 -0.029439108 -0.027104346 -0.061560012 0.07211395
0.05283818 0.058448363 0.029542243 0.011713164 -0.011985204 -0.013017579 0.014749606 -0.048668507
-0.06757021 0.009798845 -0.084799275 0.017916689 -0.036089126 0.037981685 0.016822306 0.0018971362
-0.0242928 -0.059846763 -0.06257436 -0.028146723 -0.055693608 -0.040267766 -0.009913301 0.024912832
0.05442517 -0.01148334 -0.013557922 -0.005804837 -0.0027004313 0.06390398 0.046641696 -0.08383894
-0.08301378 -0.015814101 -0.03060147 -0.0054140966 0.038524516 -0.0020236054 -0.0032437108 0.031849388
0.030765291 -0.048576564 0.069485106 -0.08907247 0.05872031 -0.08445935 -0.032958977 0.01724174
0.00072334724 0.067674324 -0.06718257 -0.026290849 -0.06878163 -0.010086955 -0.08490292 -0.008509003
0.07304033 -0.062131543 -0.041159336 -0.057015367 -0.06371466 -0.067558974 -0.027146472 0.056673694
-0.025991902 0.07162063 0.052155722 -0.032186545 0.03993952 -0.019401146 0.029792156 0.07139203
-0.06633319 -0.031745903 -0.03550733 0.0023657028 0.0012389137 0.04212416 -0.011520283 -0.016515752
0.0283423 0.053756822 0.046695143 0.011569877 -0.0043850937 0.04720018 -0.047730662 -0.04519525
-0.054051004 -0.063752316 -0.049287505 0.0055235205 0.011948492 -0.07793065 0.0018943121 -0.07631938
-0.08870221 0.011077378 -0.093484774 0.008266529 0.0040486767 0.019362267 -0.035843212 -0.015821008
-0.07247802 0.068406366 0.059070185 -0.042436652 0.00085214723 0.009624979 -0.03415399 0.012104232
-0.07252549 -0.00968423 -0.03529702 -0.1013293 -0.062426683 -0.05962597 -0.053971052 0.06478991
-0.011736656 -0.06931444 0.051802155 0.0035218925 -0.017093517 0.010966627 0.03954737 -0.06560089
-0.063370645 -0.100736305 -0.058195427 -0.0010679455 -0.062223352 -0.06796172 -0.023311427 0.019280225
0.06675377 -0.040886797 0.03533096 0.0058242194 0.06330172 0.028657513 -0.092967644 -0.058211055
0.020983092 -0.016393727 0.04845439 -0.09191139 -0.07051227 0.036560882 -0.069321394 0.04893862
0.05725803 -0.052471586 0.017316584 -0.016625911 0.021652907 -0.06466945 -0.050831564 0.06492594
0.05651385 -0.020580003 0.06898226 -0.08118164 -0.07782189 0.039029967 -0.03230834 -0.062941365
-0.00784207 0.015336475 -0.015232746 0.050590985 -0.059272535 0.037639078 -0.044975884 -0.06357489
0.06322483 0.03718753 0.029113533 0.003901438 -0.04538273 -0.06537539 -0.025959976 0.056828383
0.054965593 -0.11005947 -0.007433559 0.030004784 0.061458822 0.093179315 0.06843597 -0.016486876
-0.01447561 0.06995978 0.07596252 -0.04051815 0.001750569 0.0050708777 -0.07522902 0.0051024705
0.055913404 -0.05846543 0.01489071 0.031113047 0.02342666 -0.07335018 -0.034524642 -0.07318614
0.039340086 -0.049250603 0.04460513 -0.042650286 0.018665299 -0.037519764 0.014071253 -0.058961418
00000000: d06c 603d 2652 973d dae0 933b 308a 2fbb
00000010: ee69 963d d8bc 293d 638a 843d 8d3b 6c3d
00000020: c0f3 66bd d2db 52bd 5591 96bc c64d a4bd
00000030: 8e6f 9bbd 8e98 883c bf26 95bc ccd5 8ebd
00000040: 8da2 083b 2ba5 a1bc e7f2 2e3d abc3 8dbd
00000050: 0041 2b3c 826e b23c c364 ab3c d7d3 9d3c
00000060: 8018 833d f656 a4ba 219b 58bd 2e39 8d3c
00000070: 63d7 53bd b324 19ba e6e9 77bb bab6 b4bd
00000080: 058e aabd 749e 8cbd 0e04 b93c 275f 30bd
00000090: 492a f1bc ef09 debc 5a26 7cbd 7bb0 933d
000000a0: d96c 583d 8d67 6f3d 9302 f23c 92e8 3f3c
000000b0: 975d 44bc af47 55bc 55a8 713c a158 47bd
000000c0: 4062 8abd 568b 203c 3eab adbd 05c6 923c
000000d0: 31d2 13bd af92 1b3d efce 893c 54a9 f83a
000000e0: b201 c7bc e121 75bd fc26 80bd f593 e6bc
000000f0: fb1e 64bd d0ef 24bd 666b 22bc ff15 cc3c
00000100: edec 5e3d 9e24 3cbc 0c22 5ebc 8136 bebb
00000110: b8f9 30bb 17e0 823d 5d0b 3f3d c0b3 abbd
00000120: 2103 aabd 938c 81bc efaf fabc bc68 b1bb
00000130: e2cb 1d3d 779e 04bb 7094 54bb 8174 023d
00000140: 7e07 fc3c 38f8 46bd 354e 8e3d a16b b6bd
00000150: b584 703d 06f9 acbd feff 06bd 8d3e 8d3c
00000160: 039f 3d3a d698 8a3d 0497 89bd e85f d7bc
00000170: 62dd 8cbd c143 25bc 95e1 adbd 5869 0bbc
00000180: 2b96 953d a57d 7ebd b196 28bd f288 69bd
00000190: d57c 82bd 5c5c 8abd 4762 debc ad22 683d
000001a0: f8ec d4bc d6ad 923d 3da1 553d 0ad6 03bd
000001b0: 9f97 233d 27ef 9ebc ae0e f43c fc35 923d
000001c0: b2d9 87bd fe07 02bd 2270 11bd e809 1b3b
000001d0: 0c63 a23a 628a 2c3d 92bf 3cbc 0b4c 87bc
000001e0: 1c2e e83c 1d30 5c3d 6843 3f3d 958f 3d3c
000001f0: d5b0 8fbb fa54 413d 3a81 43bd a81e 39bd
00000200: 9664 5dbd 9390 82bd b2e1 49bd a6fe b43b
00000210: 9cc3 433c 1b9a 9fbd 914a f83a 564d 9cbd
00000220: 81a9 b5bd e47d 353c f274 bfbd 5670 073c
00000230: c3aa 843b 9e9d 9e3c 55d0 12bd 0f9b 81bc
00000240: 5b6f 94bd a318 8c3d 94f3 713d 0ed2 2dbd
00000250: a262 5f3a 17b2 1d3c 0ee5 0bbd d450 463c
00000260: 3e88 94bd 9baa 1ebc 9c93 10bd bc85 cfbd
00000270: 1fb3 7fbd 5c3a 74bd c010 5dbd 93b0 843d
00000280: 1a4b 40bc bbf4 8dbd 7f2e 543d 8dcf 663b
00000290: b407 8cbc 5ead 333c 6cfc 213d c259 86bd
000002a0: 78c8 81bd d64e cebd 545e 6ebd 4efa 8bba
000002b0: eadd 7ebd 842f 8bbd 9bf7 bebc 90f1 9d3c
000002c0: 33b6 883d ea78 27bd 32b7 103d 18d9 be3b
000002d0: 55a4 813d 29c3 ea3c d265 bebd b76e 6ebd
000002e0: bce4 ab3c 234c 86bc 1c78 463d 0a3c bcbd
000002f0: bd68 90bd ddc0 153d 60f8 8dbd dd73 483d
00000300: 6587 6a3d 72ec 56bd 82db 8d3c 1033 88bc
00000310: 7061 b13c 6b71 84bd c234 50bd e4f7 843d
00000320: 117b 673d 6597 a8bc 9246 8d3d 8f42 a6bd
00000330: 1561 9fbd e3dd 1f3d c055 04bd 67e7 80bd
00000340: 077c 00bc d745 7b3c c492 79bc 7e38 4f3d
00000350: c2c7 72bd 6f2b 1a3d a238 38bd 8d33 82bd
00000360: 057c 813d f451 183d 817f ee3c 45af 7f3b
00000370: 3ee3 39bd 88e3 85bd 04aa d4bc e1c4 683d
00000380: 9a23 613d dc66 e1bd 3695 f3bb 98cc f53c
00000390: 3fbc 7b3d ccd4 be3d 2828 8c3d 7c0f 87bc
000003a0: 1c2b 6dbc 1347 8f3d 3d92 9b3d 5cf6 25bd
000003b0: 5973 e53a 9b29 a63b ac11 9abd a032 a73b
000003c0: 7405 653d 7279 6fbd 2af8 733c cae0 fe3c
000003d0: 44e9 bf3c 9f38 96bd b669 0dbd 9de2 95bd
000003e0: 1223 213d 00bb 49bd deb3 363d 11b2 2ebd
000003f0: f8e7 983c 53ae 19bd 1d8b 663c 8781 71bd

0.bias f4 [64]
0.032538638 0.05863983 -0.046216466 -0.062259234 -0.028605701 -0.057721168 -0.05023918 -0.055222794
0.034136854 0.06864888 0.01020875 0.024312288 0.05755921 0.054723002 0.05352703 -0.058271144
0.003741741 -0.0091001075 -0.007511431 0.030066952 -0.082316115 0.05811685 -0.011784312 0.0131127825
-0.056572333 0.034186076 -0.063909344 -0.06698911 0.01027951 0.041002512 0.06299829 -0.04783352
-0.07298034 0.040063504 0.010806934 -0.0010106011 -0.026900228 -0.041905858 -0.07224452 -0.0697963
0.06691503 -0.021175316 0.040677372 0.023408106 0.057022188 0.060931407 -0.03730024 0.035995305
0.0040722736 0.06725183 -0.037504762 0.0457814 0.04305049 -0.0021579245 -0.020556828 -0.080376
-0.055694997 0.052744713 -0.05930876 0.007604494 -0.012234293 0.05548583 0.049370714 0.0025111195
00000000: 3c47 053d 5230 703d 7a4d 3dbd 8a03 7fbd
00000010: 8156 eabc 086d 6cbd 99c7 4dbd 4c31 62bd
00000020: 16d3 0b3d c997 8c3d 9a42 273c 902a c73c
00000030: 35c3 6b3d 3a25 603d 293f 5b3d b9ad 6ebd
00000040: ff37 753b 9e18 15bc 7322 f6bb f84e f63c
00000050: 5a95 a8bd ef0b 6e3d fd12 41bc ffd6 563c
00000060: 64b8 67bd b306 0c3d e7e2 82bd 9631 89bd
00000070: 646b 283c 40f2 273d 3f05 813d 15ed 43bd
00000080: b776 95bd a119 243d 910f 313c 2576 84ba
00000090: de5d dcbc 7aa5 2bbd eff4 93bd 5df1 8ebd
000000a0: bf0a 893d db77 adbc 519d 263d 5bc2 bf3c
000000b0: 1990 693d 3693 793d 23c8 18bd d06f 133d
000000c0: b570 853b 54bb 893d 989e 19bd 4785 3b3d
000000d0: b655 303d f76b 0dbb cb66 a8bc 2c9c a4bd
000000e0: 7020 64bd d70a 583d beed 72bd 1f2f f93b
000000f0: 5872 48bc 1c45 633d f238 4a3d 9891 243b

2.weight f4 [4, 64]
-0.05428475 0.096923344 -0.10635001 -0.0837302 -0.0778822 -0.040048406 0.05260765 -0.07272119
-0.06604327 -0.10561781 -0.08211913 -0.13427071 0.098585695 0.080705054 0.07094875 -0.013922143
-0.0782199 0.039645694 -0.02723235 -0.05998387 -0.046265427 -0.04292019 -0.12143494 0.021475011
-0.08940005 -0.04807169 0.08933539 -0.09473999 0.0908464 -0.037600294 0.031532742 -0.08131085
-0.08939461 0.11069704 -0.008151379 -0.096358165 -0.022841616 0.11102959 -0.06051811 0.0025291801
-0.0154048195 0.039950445 0.10626963 0.07573639 -0.014724097 0.0403968 -0.02139971 -0.04030346
-0.037461255 -0.0794489 0.016548209 0.040574785 0.03655174 0.00014039515 -0.058296524 0.05707336
-0.05525918 0.038564235 0.017620904 -0.01935103 0.057253297 0.08964629 0.05816385 0.062425047
-0.032330606 0.01059757 -0.050528474 0.11533967 -0.040735316 -0.10524933 -0.11106821 0.013551116
0.041919183 0.08580355 -0.04826275 -0.051372964 -0.07194448 -0.0064938064 -0.07690634 0.023855701
0.07337898 -0.05511432 0.008518074 -0.017127944 0.048988912 -0.0105889775 -0.041753177 -0.11671116
-0.018058652 0.08059622 -0.010717287 0.067753516 -0.09563563 0.092712276 -0.10649723 -0.08994644
0.039688878 0.03963997 0.1300821 -0.019385846 -0.061328456 -0.105867766 -0.0341361 -0.0109379105
0.12238971 -0.025195027 0.070408076 0.08851387 0.11829864 0.02545106 -0.13300899 -0.100022875
-0.114992365 -0.048740968 -0.04787928 -0.19552635 0.102400854 -0.061689455 0.14273576 -0.16467036
-0.0029677218 0.0829979 -0.047454115 -0.041288797 -0.046748582 -0.042956106 -0.047853492 -0.04741659
0.075288184 -0.089477375 -0.007882019 -0.07377854 -0.10485244 -0.02772468 0.06869649 0.055470567
0.034962438 -0.063951075 -0.004041532 -0.059511386 -0.006778626 0.06834312 -0.09870851 0.121997535
-0.06849816 0.07328692 -0.07442164 -0.093354374 -0.10718418 -0.010068315 0.106910296 -0.068839446
-0.09027964 -0.11452132 -0.099166855 0.055211186 0.07844893 0.065236434 -0.08315707 -0.08814811
-0.05552037 0.040958602 0.11092234 0.08714098 -0.05541375 -0.033075694 0.08852096 0.033577885
0.009531644 0.008000738 0.020872038 0.0612281 0.10894479 -0.101328194 0.038020227 0.08482463
0.09070541 0.07023404 -0.037579328 0.009829081 0.051272493 -0.074929655 0.103730984 -0.093238965
0.018896282 -0.04407882 0.0666728 0.09483895 -0.12390345 0.08450577 0.02165874 0.09190664
-0.019255582 -0.008543855 0.06385186 0.107875295 0.10507535 0.12492927 0.007692679 -0.012108375
0.038110774 0.061489023 0.025400322 0.07420506 -0.058150854 0.036497332 -0.089440845 0.05115104
-0.07340602 0.042249728 0.09407304 -0.112014644 -0.03901512 0.085293606 0.044376016 -0.06680804
-0.03916718 -0.0069586737 0.09598568 0.07976282 -0.072381884 -0.07231505 -0.060443457 0.114947505
0.11467632 -0.10396967 0.13890189 -0.007978329 0.11534708 0.13318345 -0.12060542 0.014059498
0.0012800393 -0.11825724 -0.06641165 -0.032463524 -0.07120687 -0.08412301 -0.05119574 -0.099253856
0.013836244 -0.00655314 0.116051026 -0.07498367 -0.025883716 0.08885494 -0.14356992 0.06250033
0.05879615 -0.05667903 -0.023643503 0.10695967 -0.056469437 -0.10313741 0.073493265 -0.08035377
00000000: b059 5ebd bf7f c63d 09ce d9bd bd7a abbd
00000010: b480 9fbd cc09 24bd 1f7b 573d d9ee 94bd
00000020: b241 87bd 264e d8bd 132e a8bd 437e 09be
00000030: 4ce7 c93d b148 a53d 944d 913d b319 64bc
00000040: c131 a0bd 8663 223d 6116 dfbc a5b1 75bd
00000050: d180 3dbd 15cd 2fbd e2b2 f8bd 5dec af3c
00000060: 6017 b7bd d2e6 44bd 79f5 b63d 0a07 c2bd
00000070: ad0d ba3d c402 1abd 7a28 013d 4e86 a6bd
00000080: 8514 b7bd 21b5 e23d 5d8d 05bc 6e57 c5bd
00000090: 571e bbbc 7b63 e33d d6e1 77bd 9ac0 253b
000000a0: 7f64 7cbc 14a3 233d e4a3 d93d ae1b 9b3d
000000b0: 573d 71bc 1d77 253d 724e afbc 3e15 25bd
000000c0: f970 19bd 1bb6 a2bd 1c90 873c bf31 263d
000000d0: 47b7 153d 0937 1339 56c8 6ebd c1c5 693d
000000e0: 7357 62bd 88f5 1d3d b759 903c 0d86 9ebc
000000f0: 6f82 6a3d 7998 b73d 383d 6e3d 68b1 7f3d
00000100: 196d 04bd 6ea1 2d3c f2f6 4ebd 3437 ec3d
00000110: 13da 26bd f68c d7bd bb77 e3bd 8005 5e3c
00000120: 73b3 2b3d c6b9 af3d 29af 45bd 756c 52bd
00000130: a157 93bd ffc9 d4bb 1281 9dbd 086d c33c
00000140: b847 963d 8ebf 61bd 648f 0b3c e74f 8cbc
00000150: 99a8 483d 647d 2dbc 6105 2bbd 4306 efbd
00000160: bdef 93bc a20f a53d 8f97 2fbc 5bc2 8a3d
00000170: 9ddc c3bd efdf bd3d 381b dabd d735 b8bd
00000180: ce90 223d 855d 223d 3e34 053e 11cf 9ebc
00000190: 8c33 7bbd 33d1 d8bd 4cd2 0bbd ec34 33bc
000001a0: 75a7 fa3d cd65 cebc 1c32 903d c346 b53d
000001b0: 8f46 f23d be7e d03c 8233 08be cbd8 ccbd
000001c0: 1e81 ebbd 9ca4 47bd 101d 44bd 0f38 48be
000001d0: 8ab7 d13d 15ae 7cbd 5329 123e 599f 28be
000001e0: 1c7e 42bb cefa a93d 3f5f 42bd 711e 29bd
000001f0: 717b 3fbd bef2 2fbd 0602 44bd e637 42bd
00000200: b130 9a3d ea3f b7bd 9523 01bc 3419 97bd
00000210: e0bc d6bd de1e e3bc bfb0 8c3d 1b35 633d
00000220: c634 0f3d c8f8 82bd d46e 84bb 36c2 73bd
00000230: 3c1f debb 7af7 8b3d b027 cabd d8d9 f93d
00000240: c348 8cbd 7417 963d 5f6a 98bd 9430 bfbd
00000250: 6183 dbbd 93f5 24bc c9f3 da3d b2fb 8cbd
00000260: 88e4 b8bd 278a eabd fe17 cbbd 2025 623d
00000270: d5a9 a03d ae9a 853d 414e aabd ff86 b4bd
00000280: 5469 63bd 35c4 273d 402b e33d f876 b23d
00000290: 87f9 62bd 617a 07bd 7a4a b53d f788 093d
000002a0: 9d2a 1c3c 8715 033c d6fb aa3c 51ca 7a3d
000002b0: 721e df3d 2885 cfbd 19bb 1b3d 89b8 ad3d
000002c0: c2c3 b93d ddd6 8f3d c8ec 19bd 270a 213c
000002d0: 1b03 523d b874 99bd e970 d43d 12f4 bebd
000002e0: 60cc 9a3c fe8b 34bd c08b 883d ec3a c23d
000002f0: 18c1 fdbd 5c11 ad3d ab6d b13c 8c39 bc3d
00000300: e2bd 9dbc 86fb 0bbc c4c4 823d b9ed dc3d
00000310: bf31 d73d ebda ff3d de12 fc3b 3562 46bc
00000320: 0b1a 1c3d eadb 7b3d 5614 d03c d3f8 973d
00000330: 972f 6ebd 3a7e 153d c32c b7bd c183 513d
00000340: e555 96bd 0d0e 2d3d 5ea9 c03d ef67 e5bd
00000350: 52ce 1fbd 6aae ae3d a0c3 353d a7d2 88bd
00000360: c46d 20bd 9605 e4bb 2494 c43d b05a a33d
00000370: f43c 94bd ea19 94bd 8f93 77bd 9969 eb3d
00000380: 6bdb ea3d 0dee d4bd 4c3c 0e3e 8ab7 02bc
00000390: 173b ec3d 3e61 083e f9ff f6bd cf59 663c
000003a0: fec6 a73a da30 f2bd d502 88bd 79f8 04bd
000003b0: e8d4 91bd af48 acbd a0b2 51bd 9b45 cbbd
000003c0: 6ab1 623c b9bb d6bb 29ac ed3d 0a91 99bd
000003d0: 160a d4bc 94f9 b53d fe03 13be 2c00 803d
000003e0: 3bd4 703d 4528 68bd 05b0 c1bc ac0d db3d
000003f0: 7f4c 67bd b539 d3bd a383 963d 8490 a4bd

2.bias f4 [4]
0.07100401 0.02295382 0.05767953 -0.0016888456
00000000: 8d6a 913d a609 bc3c 5f41 6c3d 415c ddba
