models/reinforce_ep3000.pth (torch, 39041 bytes, 6 tensors)

0.weight f4 [64, 70]
000000 30 96 8c b9 66 62 05 80 6b d4 e6 b5 7c b9 05 00
       -0.0002681478 -4.94476e-40 -1.7198157e-06 5.25717e-40
000010 d1 2b e0 36 ea cc 05 00 ba 4b a1 39 8d 34 9b b9
       6.680821e-06 5.32687e-40 0.00030764734 -0.00029603057
000020 21 66 05 00 6d b4 76 2e f4 63 05 00 ad 9a 39 9e
       4.95814e-40 5.6094174e-11 4.95034e-40 -9.825805e-21
000030 90 63 05 23 78 3f 5c 39 ff 85 8b b9 c9 12 3b 37
       7.231028e-18 0.00021004479 -0.0002661198 1.1150442e-05
000040 81 49 7d b4 ae a7 64 32 74 36 d6 b6 3f 34 dd b7
       -2.3589202e-07 1.3309473e-08 -6.384036e-06 -2.6369582e-05
000050 3d 69 05 80 fd 5b a1 b9 69 44 1f 36 ab fd 42 35
       -4.9693e-40 -0.0003077685 2.3732666e-06 7.263977e-07
000060 25 df 5d b0 11 4a bd b6 d1 b2 6f b8 d2 40 06 00
       -8.071644e-10 -5.6412614e-06 -5.7148576e-05 5.74266e-40
000070 10 e2 81 b9 6f 2c 8b b4 83 e4 bf 35 b1 66 0c b3
       -0.00024773227 -2.5923097e-07 1.4297115e-06 -3.2689687e-08
000080 66 46 90 b6 91 91 cd b7 7e 5c 05 80 e8 ad 88 b9
       -4.29973e-06 -2.4505689e-05 -4.92357e-40 -0.00026069512
000090 35 6e 85 2d 55 7b 81 35 31 a2 bc b4 7e 1c e4 b6
       1.5169291e-11 9.647143e-07 -3.513574e-07 -6.7982464e-06
0000a0 4e c4 87 b7 0d 6a 05 00 2e 3f 98 b9 4e 8f 32 25
       -1.6184666e-05 4.97221e-40 -0.00029038772 1.5487592e-16
0000b0 22 4c ff b7 2c 59 05 00 d1 bd bd b8 50 70 0f ab
       -3.0433821e-05 4.91166e-40 -9.047578e-05 -5.095967e-13
0000c0 ef 6f 1b 38 00 5e 05 00 68 6e cc 29 44 5b 05 80
       3.7059126e-05 4.92898e-40 9.078572e-14 -4.91917e-40
0000d0 11 68 05 80 ab 72 05 00 db bb d6 a8 2c 61 05 80
       -4.9651e-40 5.00313e-40 -2.3840242e-14 -4.94036e-40
0000e0 d5 68 05 00 bd 57 05 00 e5 6c 05 00 fc 6a 05 00
       4.96784e-40 4.90652e-40 4.98241e-40 4.97556e-40
0000f0 3c 68 05 00 ad 5a 05 80 9d 00 67 0a 0c 63 05 80
       4.9657e-40 -4.91706e-40 1.1122361e-32 -4.94709e-40
000100 c2 6b 05 80 01 80 05 80 cc 7c 05 80 3e 67 05 00
       -4.97834e-40 -5.05097e-40 -5.03946e-40 4.96214e-40
000110 96 6a 05 00 90 eb 75 1b 9f 24 a4 ba 53 5d 05 00
       4.97413e-40 2.0342039e-22 -0.0012523121 4.92656e-40
000120 9e 8f f4 b6 f2 6d 05 80 a2 d4 31 39 f5 5b 05 80
       -7.288486e-06 -4.98618e-40 0.00016959247 -4.92165e-40
000130 ea 5c c8 3a 7e 03 aa ba 2b 95 0f b8 73 91 e8 35
       0.001528648 -0.0012971011 -3.423278e-05 1.7327678e-06
000140 42 ea 1d 36 38 74 4b b9 fd c2 46 37 ba 68 05 00
       2.353118e-06 -0.00019402883 1.1847119e-05 4.96746e-40
000150 6e b9 ca ba ae 1f e4 36 94 17 a8 37 44 49 a8 36
       -0.0015466639 6.7986175e-06 2.003814e-05 5.0153194e-06
000160 a1 16 63 b9 2b 81 7b b8 74 64 05 80 ee 38 a4 ba
       -0.00021656837 -5.996336e-05 -4.95213e-40 -0.0012529173
000170 25 04 ba 28 fb 72 80 38 16 61 05 00 49 54 88 ba
       2.0651946e-14 6.1249324e-05 4.94005e-40 -0.0010401095
000180 57 5a 05 80 f0 77 c4 b7 14 c9 a3 ba 7a af 31 07
       -4.91585e-40 -2.3420871e-05 -0.0012495839 1.3367568e-34
000190 69 72 01 39 29 5f 05 00 ce c4 79 ba ca 16 01 24
       0.0001234502 4.93315e-40 -0.00095279224 2.799172e-17
0001a0 26 36 41 b8 98 73 da a9 76 97 06 00 9f 66 05 00
       -4.6065215e-05 -9.701197e-14 6.05347e-40 4.95991e-40
0001b0 99 5f 05 00 bf b5 1f 00 ec b6 7c 1e 51 50 e0 09
       4.93471e-40 2.912099e-39 1.3378596e-20 5.4001568e-33
0001c0 78 2d 78 ab 91 77 79 b1 1e 63 05 00 67 23 83 15
       -8.81704e-13 -3.6302235e-09 4.94734e-40 5.2966334e-26
0001d0 94 5f 05 00 38 49 5e 33 94 b7 06 00 40 4b 42 ad
       4.93464e-40 5.1754995e-08 6.16868e-40 -1.1044332e-11
0001e0 e5 28 cc b2 d1 77 05 80 28 e3 55 1e 0e 61 05 00
       -2.3767322e-08 -5.0216e-40 1.1323101e-20 4.93994e-40
0001f0 9a 58 97 33 cb 61 05 00 fe 62 c7 ac c2 69 05 00
       7.047602e-08 4.94259e-40 -5.6669105e-12 4.97116e-40
000200 f5 4b 06 80 27 a9 05 00 a5 6e 5c a3 16 66 05 00
       -5.78261e-40 5.19858e-40 -1.1949654e-17 4.95799e-40
000210 23 e4 42 ac f8 2f ca ab e6 b2 05 80 77 9f 05 00
       -2.76957e-12 -1.4366277e-12 -5.23354e-40 5.16383e-40
000220 e5 72 05 80 0c 86 05 00 7e 76 05 00 23 6e 96 23
       -5.00394e-40 5.07264e-40 5.01684e-40 1.6309677e-17
000230 75 9a e0 b1 b9 99 05 00 16 08 0a 87 56 6b 05 00
       -6.5368178e-09 5.14323e-40 -1.0384342e-34 4.97682e-40
000240 51 ac b5 21 a3 6b 05 80 8b 83 b5 31 67 ac 13 b2
       1.2310649e-18 -4.9779e-40 5.282748e-09 -8.595726e-09
000250 ab 74 05 00 d7 16 02 02 b3 5c 05 00 25 d3 bd 12
       5.0103e-40 9.557446e-38 4.92432e-40 1.1979628e-27
000260 36 28 d2 1c eb 1b 8c 8f 5d e0 33 b2 04 68 05 00
       1.3907029e-21 -1.381582e-29 -1.0470186e-08 4.96491e-40
000270 8a f5 50 18 c1 9c 05 80 2c f2 00 a5 13 68 05 80
       2.7007335e-24 -5.1541e-40 -1.1184281e-16 -4.96512e-40
000280 22 5d 05 00 d8 c4 32 b2 55 f1 e9 89 67 70 17 92
       4.92587e-40 -1.0405721e-08 -5.6319657e-33 -4.7785745e-28
000290 63 61 05 80 ea 7d 66 a4 58 91 98 86 9e 91 06 00
       -4.94113e-40 -4.9979953e-17 -5.738961e-35 6.0325e-40
0002a0 44 9c 1f b2 5e 65 6b a5 f2 1c c0 91 2e 40 f3 19
       -9.290549e-09 -2.0417345e-16 -3.0310098e-28 2.5151533e-23
0002b0 78 07 ca 9f a0 a3 01 32 37 69 05 80 df 04 ff b1
       -8.5562684e-20 7.545992e-09 -4.96921e-40 -7.4220305e-09
0002c0 7f 0a 96 ad 53 67 05 80 b4 7c 67 0b 78 76 83 9d
       -1.7057687e-11 -4.96243e-40 4.4582798e-32 -3.4797905e-21
0002d0 a1 46 16 33 20 6c 05 00 82 b8 0d b2 c5 58 05 00
       3.4988833e-08 4.97965e-40 -8.249232e-09 4.91022e-40
0002e0 a1 8b 8f 92 40 95 05 80 d6 8d 11 a7 b6 7f 6a 03
       -9.05899e-28 -5.12718e-40 -2.0199682e-15 6.8913024e-37
0002f0 ed 58 05 80 d8 d1 91 af 3a 74 54 29 fd 63 55 8d
       -4.91078e-40 -2.652445e-10 4.7174267e-14 -6.575605e-31
000300 91 65 05 00 fb 72 24 a7 4a d1 d1 a8 25 cb 99 a1
       4.95613e-40 -2.2821903e-15 -2.3294426e-14 -1.0421455e-18
000310 09 4a 70 a4 90 a9 06 00 9c 5c 05 80 11 6b 05 80
       -5.2104414e-17 6.1184e-40 -4.924e-40 -4.97586e-40
000320 c5 ff 01 80 a0 85 41 0e 7d 6e 05 00 8c fe 3c 9d
       -1.83588e-40 2.3853425e-30 4.98813e-40 -2.501319e-21
000330 9b 79 05 00 bd 5f 05 00 97 5b 05 00 ce 33 01 04
       5.02801e-40 4.93522e-40 4.92034e-40 1.5187665e-36
000340 e6 61 05 80 f5 31 06 00 93 60 4d a5 5b 26 06 80
       -4.94297e-40 5.68934e-40 -1.7813636e-16 -5.64772e-40
000350 02 4c 06 80 92 e1 05 00 e9 64 05 80 79 5f 05 00
       -5.7828e-40 5.40097e-40 -4.95377e-40 4.93427e-40
000360 df e2 1a 25 ad d7 24 a5 32 72 05 00 ae 88 05 80
       1.3434238e-16 -1.4297806e-16 5.00143e-40 -5.08209e-40
000370 b9 67 05 00 10 64 05 80 f6 c1 01 23 3b 72 05 00
       4.96386e-40 -4.95073e-40 7.034177e-18 5.00156e-40
000380 41 18 ee a4 e2 5f 05 00 9b 6e 05 00 de 7e 05 80
       -1.03257135e-16 4.93574e-40 4.98855e-40 -5.04689e-40
000390 17 59 06 00 87 bf 1f 17 09 69 05 00 82 79 3f a5
       5.82972e-40 5.161741e-25 4.96857e-40 -1.6607778e-16
0003a0 13 b4 bc 03 59 b8 05 80 b4 67 05 80 18 65 05 00
       1.109099e-36 -5.25309e-40 -4.96379e-40 4.95443e-40
0003b0 20 c0 a2 1b 48 8a 05 00 26 be 32 a5 ae 48 ee a0
       2.692481e-22 5.08783e-40 -1.5503464e-16 -4.0366864e-19
0003c0 a1 a3 05 00 26 64 05 00 aa 69 05 00 24 a3 ad 24
       5.17876e-40 4.95104e-40 4.97083e-40 7.530316e-17
0003d0 c3 5e 05 80 64 3a 20 a5 5f 85 10 82 d9 77 05 80
       -4.93172e-40 -1.3897571e-16 -1.0617725e-37 -5.02171e-40
0003e0 34 6d 05 80 40 7c 18 8d 2e 30 05 00 87 97 f1 92
       -4.98352e-40 -4.6988177e-31 4.76461e-40 -1.5246593e-27
0003f0 29 e8 f5 a4 85 62 05 00 63 55 17 80 7d 65 05 80
       -1.0664511e-16 4.9452e-40 -2.142847e-39 -4.95585e-40

0.bias f4 [64]
000000 45 b9 93 b9 de e8 bb ba 02 18 14 b2 46 dd 21 a5
       -0.00028176061 -0.0014336368 -8.620193e-09 -1.4039494e-16
000010 d6 8e 84 3c c8 93 15 bc 22 72 8b bc 67 f2 a6 93
       0.01618139 -0.009129472 -0.017022196 -4.214332e-27
000020 16 56 30 b6 bf d7 c3 bb c6 0a 0d ba 29 25 b3 3d
       -2.6276152e-06 -0.0059766467 -0.00053803285 0.08747322
000030 06 b9 c0 b5 00 3f b1 3d 34 34 08 bc 13 6c 4a 3d
       -1.4358964e-06 0.086545944 -0.008313227 0.049419474
000040 d9 5f bc ba 22 c0 61 b2 19 32 ac ba fb ed 74 b9
       -0.0014371827 -1.314041e-08 -0.0013137489 -0.00023358308
000050 03 95 f8 bc 7f aa 1f bd 85 2b 08 3b a4 98 19 bd
       -0.030344492 -0.038980957 0.0020777893 -0.037499085
000060 cb e6 13 ab 1d 76 3f bc 74 8e 53 3d 6a a1 2d bb
       -5.254518e-13 -0.011685875 0.051649526 -0.0026493915
000070 71 fc 72 b3 f8 bf ed b0 5d 9d 0a bb 8a 96 02 3c
       -5.657461e-08 -1.729858e-09 -0.0021150925 0.007970462
000080 5e b3 4f 3c 69 92 a7 3a 1c 29 c5 b5 72 4e d6 b7
       0.012677042 0.0012784722 -1.4689608e-06 -2.5547317e-05
000090 86 b2 71 3d ec fe 21 ba 67 dc bd bb f5 5e 83 ba
       0.059008144 -0.0006179649 -0.0057940963 -0.0010022806
0000a0 a9 87 45 ad 00 19 a2 3d a3 2a af b0 27 8d 08 b9
       -1.1228276e-11 0.079149246 -1.2745044e-09 -0.00013022554
0000b0 4c bd c1 3d 30 d4 ee ab d5 e8 02 b8 52 4c e0 9b
       0.09459934 -1.6969811e-12 -3.1211257e-05 -3.7107012e-22
0000c0 e4 6a 2e bb 5e f6 19 3c 14 50 89 bd 14 81 95 bd
       -0.0026614005 0.009397117 -0.06704727 -0.0730001
0000d0 5b d6 3a bd 1e 09 29 bb 46 f6 50 9c 89 61 7c bd
       -0.04561458 -0.0025792788 -6.913973e-22 -0.061616454
0000e0 d6 72 66 3c 88 da ac 3b 4a f4 8b 3d d8 ae 65 b4
       0.014065465 0.0052750744 0.06833704 -2.1390895e-07
0000f0 f8 46 8b ba df b9 41 b1 4f c6 2c bd aa fd 43 ad
       -0.0010626009 -2.8190852e-09 -0.04218131 -1.1140791e-11

3.weight f4 [64, 64]
000000 3c 6b 05 80 5d 80 3c 1b 45 6c 05 00 15 76 06 80
       -4.97646e-40 1.5592472e-22 4.98017e-40 -5.93373e-40
000010 f2 88 5c be d7 ec 1f bd d1 69 56 b9 13 9c 06 80
       -0.21536615 -0.039044227 -0.0002044805 -6.07002e-40
000020 da 38 06 00 63 7e 45 be 1e 79 34 af 87 15 25 3e
       5.71407e-40 -0.19286494 -1.6413934e-10 0.16121493
000030 37 4a 06 80 dd c8 54 3e 4d 53 2b be 6e 10 1e 3e
       -5.77636e-40 0.20779748 -0.16730995 0.15435955
000040 89 00 a9 37 19 74 e8 a6 5a 36 42 bb 42 80 31 be
       2.014662e-05 -1.6129702e-15 -0.0029634447 -0.17334083
000050 96 36 28 bc 17 56 14 3c f8 c5 04 be 6c 3e ca 3c
       -0.010266921 0.009053729 -0.12966144 0.024687968
000060 f0 e0 05 80 67 2a 94 3b 02 a2 29 3e 28 e9 ac ba
       -5.3987e-40 0.0045216563 0.16565707 -0.0013192045
000070 ba 13 84 ac 9c 09 5e 15 4f fc 4e be c8 40 42 be
       -3.7538557e-12 4.4840123e-26 -0.20213436 -0.18970025
000080 a3 90 06 be 69 a1 ad bd d7 5f 05 00 05 fb 76 9e
       -0.13141112 -0.08478052 4.93558e-40 -1.3075041e-20
000090 95 b0 35 3e af 52 80 af c4 68 16 be 86 d9 27 be
       0.17743142 -2.3341815e-10 -0.14688402 -0.16391572
0000a0 f6 69 05 00 d1 1a 15 3e b8 1d 06 80 12 a3 05 00
       4.97189e-40 0.14561011 -5.61674e-40 5.17676e-40
0000b0 a4 ed 35 3e 55 85 96 ab b8 6b 44 83 73 58 05 80
       0.17766434 -1.0695148e-12 -5.772288e-37 -4.90907e-40
0000c0 dc e4 3c 39 d5 60 56 be 3c 5c c6 bd 1b 21 ce bc
       0.00018014334 -0.20935376 -0.09685561 -0.02516227
0000d0 ea 25 18 be ed 5c 05 80 f6 cb d7 97 60 38 d1 bd
       -0.14858213 -4.92513e-40 -1.3945536e-24 -0.10215831
0000e0 e7 17 a1 bc 33 76 48 be b4 de 49 3e 8a 5c 33 0f
       -0.019664718 -0.1957634 0.19713861 8.843204e-30
0000f0 9b 61 9b 2c 9e 27 cd a4 e2 e1 f8 bd cd 8a 06 80
       4.4162013e-12 -8.897169e-17 -0.12152459 -6.00805e-40
000100 6f da 06 00 89 5a ca 09 68 84 05 80 60 23 06 00
       6.29372e-40 4.871487e-33 -5.06676e-40 5.63703e-40
000110 47 4f f3 3d f8 37 8b 3d ce f1 23 b9 02 be 06 80
       0.11880355 0.067977846 -0.0001563497 -6.19175e-40
000120 72 1e 06 80 6f fa ab 3d 81 9e d3 1e 80 93 1c be
       -5.61935e-40 0.08397376 2.240605e-20 -0.15290642
000130 98 ab 06 80 11 87 52 bb 7d 65 c0 3d 6e ed 1f be
       -6.12569e-40 -0.0032123963 0.09394357 -0.15617916
000140 87 52 be b2 c3 e9 4f 8a 7a 1a e9 3a 76 d0 e0 3d
       -2.215644e-08 -1.0010653e-32 0.001778438 0.10977261
000150 42 fc 0e ba 8f 1b 70 bc 61 cd ec 3d 56 ec 45 3b
       -0.00054544595 -0.014655008 0.115626104 0.0030200682
000160 a7 99 05 80 5c 05 f7 bb 97 18 49 be 1e 6e b3 39
       -5.14298e-40 -0.0075384807 -0.19638287 0.00034223584
000170 c2 c3 05 80 bb 5e 9d 96 c4 48 f5 3d c3 12 04 3e
       -5.29402e-40 -2.5424501e-25 0.119767696 0.12897782
000180 1c b7 aa 3d 29 37 ad 3d 08 7b 05 80 6c 48 04 37
       0.083357066 0.084577866 -5.03313e-40 7.884675e-06
000190 87 2f 22 3e 65 9c 05 00 4c df fa 3d f9 b9 be 3d
       0.15838443 5.15281e-40 0.12249622 0.09312815
0001a0 e2 c8 05 00 50 14 0c be fa c4 05 00 1c bb 84 36
       5.3124e-40 -0.13679624 5.2984e-40 3.955689e-06
0001b0 91 b4 0c be 12 e9 00 ad 57 31 06 00 e2 45 06 80
       -0.13740756 -7.32771e-12 5.68713e-40 -5.76082e-40
0001c0 72 a7 6d b7 70 11 cf 3d 84 00 32 3e 97 f5 34 3e
       -1.4165287e-05 0.10110748 0.17383009 0.1767181
0001d0 f0 24 00 3e bd 97 fd b3 13 8f 3d 1e cd c6 3b 3e
       0.1251409 -1.18088316e-07 1.0035164e-20 0.18337555
0001e0 14 3b ec 3d 84 4b d3 3d 29 75 1f be 04 10 cb 91
       0.11534706 0.10317138 -0.15572037 -3.2037623e-28
0001f0 63 73 18 b1 11 e6 c6 a5 5c 22 2f 3e dd d0 06 00
       -2.21845e-09 -3.4503424e-16 0.17102951 6.25939e-40
000200 02 5c 05 00 be d3 15 00 89 69 05 80 79 5c 05 00
       4.92184e-40 2.004504e-39 -4.97036e-40 4.9235e-40
000210 31 58 05 00 ad 64 05 80 67 68 05 00 17 a3 05 80
       4.90815e-40 -4.95293e-40 4.9663e-40 -5.17683e-40
000220 fe 76 05 00 4e 01 0a 00 d0 4c ba 82 f2 6c c2 b9
       5.01864e-40 9.18823e-40 -2.7374332e-37 -0.00037083734
000230 f8 5b 05 00 ef 79 30 b8 e2 4a 19 af 9d e8 da b9
       4.9217e-40 -4.207523e-05 -1.3941873e-10 -0.0004175351
000240 e2 66 05 80 44 73 05 00 93 7c 05 00 f5 58 05 80
       -4.96085e-40 5.00527e-40 5.03866e-40 -4.91089e-40
000250 02 61 05 00 5f 39 06 00 09 68 8c a9 53 6e 05 00
       4.93977e-40 5.71594e-40 -6.235296e-14 4.98754e-40
000260 2f d5 06 00 60 5e 05 00 5e 11 34 b9 c0 80 05 80
       6.27489e-40 4.93033e-40 -0.00017172607 -5.05364e-40
000270 53 9b 05 00 0a 7c 05 00 97 05 bc 8e 42 5a 05 80
       5.14897e-40 5.03674e-40 -4.635096e-30 -4.91556e-40
000280 ff bd 0f ac 75 10 a2 9f 49 59 05 80 5c 85 05 80
       -2.0426991e-12 -6.8636895e-20 -4.91207e-40 -5.07018e-40
000290 bc 53 06 00 22 68 05 00 84 57 05 80 54 64 05 80
       5.81051e-40 4.96533e-40 -4.90572e-40 -4.95168e-40
0002a0 61 66 05 80 19 17 14 b9 8d 6a 05 80 73 64 05 80
       -4.95904e-40 -0.00014122984 -4.974e-40 -4.95212e-40
0002b0 bf cd 83 b9 50 74 05 00 dc 7e 05 00 cd 6e 05 80
       -0.0002513956 5.00903e-40 5.04686e-40 -4.98925e-40
0002c0 ae 92 06 00 44 5f 05 00 ae 93 6f a8 f5 60 05 80
       6.03632e-40 4.93352e-40 -1.3299188e-14 -4.93959e-40
0002d0 cd d3 04 ae 37 78 05 00 5d c3 05 00 3a 24 9b 9c
       -3.0201442e-11 5.02302e-40 5.2926e-40 -1.0266404e-21
0002e0 18 77 cc b6 9f 4b 14 00 07 9c 4e b9 9c ca e2 80
       -6.093538e-06 1.863838e-39 -0.00019703816 -2.0827505e-38
0002f0 d2 5e 05 80 5b 69 05 00 02 64 05 00 1c 59 05 00
       -4.93193e-40 4.96972e-40 4.95054e-40 4.91144e-40
000300 08 7e 05 80 36 6f 05 80 85 6c 05 80 0b 69 05 80
       -5.04389e-40 -4.99072e-40 -4.98107e-40 -4.9686e-40
000310 21 e4 05 00 61 7d 05 80 71 6a 05 80 7e 9e 05 00
       5.41015e-40 -5.04155e-40 -4.97361e-40 5.16034e-40
000320 76 7b 05 00 03 65 05 80 14 62 05 00 4a b1 06 00
       5.03467e-40 -4.95414e-40 4.94361e-40 6.14612e-40
000330 31 5e 05 00 35 83 05 80 5a 5f 05 00 5d 61 05 00
       4.92967e-40 -5.06246e-40 4.93383e-40 4.94105e-40
000340 d1 a3 05 00 4a 75 05 80 68 16 06 80 9f 67 05 00
       5.17944e-40 -5.01253e-40 -5.59051e-40 4.9635e-40
000350 4a 5b 05 00 6c 1a 06 80 5f 7b 05 00 23 60 05 80
       4.91926e-40 -5.60491e-40 5.03435e-40 -4.93665e-40
000360 e6 d5 05 00 11 e0 05 00 89 ce 06 80 33 a7 06 80
       5.3591e-40 5.39557e-40 -6.25104e-40 -6.10993e-40
000370 17 4b 06 00 83 70 06 80 5d 9b 05 80 72 57 05 00
       5.7795e-40 -5.91375e-40 -5.14911e-40 4.90547e-40
000380 8d 41 06 00 2a 42 06 80 50 89 05 00 74 a1 06 00
       5.74528e-40 -5.74748e-40 5.08436e-40 6.08931e-40
000390 44 7e 05 80 7d 6e 05 80 43 70 06 80 7a 66 05 80
       -5.04473e-40 -4.98813e-40 -5.91285e-40 -4.95939e-40
0003a0 fa 66 05 80 13 7e 05 80 c1 65 05 00 4e 60 05 80
       -4.96119e-40 -5.04404e-40 4.9568e-40 -4.93725e-40
0003b0 45 38 06 80 2b 5b 05 00 1f da 06 00 60 d3 06 00
       -5.71199e-40 4.91882e-40 6.2926e-40 6.2684e-40
0003c0 ea cd 05 00 b7 18 06 80 48 bc 05 00 64 58 05 80
       5.33046e-40 -5.59879e-40 5.2672e-40 -4.90886e-40
0003d0 58 68 13 00 c1 85 05 00 81 9c 06 00 dc 66 05 00
       1.782306e-39 5.0716e-40 6.07156e-40 4.96076e-40
0003e0 f3 8b 05 80 3f 65 05 80 4c 78 05 00 b4 77 05 80
       -5.09382e-40 -4.95498e-40 5.02332e-40 -5.02119e-40
0003f0 24 6c 05 80 7b 5f 05 80 5f c6 05 00 fb 7a 05 00
       -4.97971e-40 -4.9343e-40 5.3034e-40 5.03295e-40

3.bias f4 [64]
000000 10 e7 74 3d b4 cf 3d 3c 3a 18 ab bb 3b bb 46 b7
       0.05979067 0.011585165 -0.005221394 -1.1845313e-05
000010 3a 2b 19 bc d2 80 24 bc bd 52 1c bc f1 d9 8b 3d
       -0.009348685 -0.010040479 -0.009541211 0.068286784
000020 99 9c d7 bb ff 7f 95 bb 94 90 93 3a e7 8a b9 bb
       -0.006579947 -0.0045623775 0.0011258298 -0.0056623104
000030 a0 27 26 3d 9e ec 8b 3b d4 0e 81 3c d1 67 d9 3c
       0.040565133 0.0042701503 0.01575414 0.026538761
000040 9b 81 1b 3d c6 50 eb ba 4c 76 9a ba aa 65 74 bb
       0.0379654 -0.001795315 -0.0011784523 -0.0037292042
000050 92 a5 ad bb e4 29 89 3d 6a a1 85 9f 7d c2 11 bc
       -0.0052992785 0.06697443 -5.659473e-20 -0.008896467
000060 07 9d b8 bb a9 51 c0 3c 40 11 8f bb 69 8f 73 bb
       -0.0056339535 0.023476439 -0.00436607 -0.0037164337
000070 95 35 91 3d e0 e8 8a bb 35 18 ec ba a8 84 25 3d
       0.07090298 -0.0042391866 -0.0018012585 0.040409714
000080 08 27 b6 bb 40 cc 06 bc f7 4a 10 a9 43 e1 34 bb
       -0.005558852 -0.008227408 -3.2039445e-14 -0.0027600087
000090 01 1d b1 3d 27 70 6e 3d 02 b2 35 3d 14 40 5b 3d
       0.0864811 0.058212426 0.044359215 0.053527907
0000a0 15 21 2e 3c 95 06 55 bb 09 1e c2 ba f2 98 cd ba
       0.010628005 -0.0032505144 -0.0014809977 -0.001568584
0000b0 b1 04 4c bb 62 b7 81 3d 2e 82 15 bb 61 ee e0 3c
       -0.0031130726 0.063338056 -0.002281319 0.027457418
0000c0 f5 46 aa 3d 0a d4 e2 bb 8e a1 8d 3c 8f b4 42 3d
       0.08314315 -0.0069222497 0.01728895 0.047535475
0000d0 be 69 3d 3d ac 81 86 ba 37 f0 9e bb 9e 93 9b bb
       0.04624342 -0.0010262034 -0.004850413 -0.004747822
0000e0 ed 71 ba 3c c0 6c a1 3c 19 9d 9b 3d 95 c5 f8 ba
       0.022759402 0.019705176 0.075983234 -0.0018979782
0000f0 6b 13 5a bb 1f 4a 09 3d 9e 92 42 3c 2b e0 04 3c
       -0.0033275734 0.033517953 0.011875777 0.008110086

6.weight f4 [4, 64]
000000 fb ca 06 80 6a 71 06 00 11 61 06 80 7c 77 06 00
       -6.23829e-40 5.91698e-40 -5.85834e-40 5.93876e-40
000010 fd 99 06 80 32 b8 05 00 2e dc 05 80 ac 75 06 80
       -6.06254e-40 5.25254e-40 -5.38163e-40 -5.93226e-40
000020 f3 ca 06 80 71 97 06 00 ea 21 06 00 28 de 05 00
       -6.23817e-40 6.0534e-40 5.63179e-40 5.38872e-40
000030 5c 19 06 00 61 46 06 00 41 49 06 00 29 9f 05 00
       5.6011e-40 5.7626e-40 5.77292e-40 5.16273e-40
000040 be c9 05 00 73 69 06 80 6c 88 06 80 36 1b 06 00
       5.31549e-40 -5.88841e-40 -5.99952e-40 5.60774e-40
000050 d0 97 06 00 f4 46 06 80 15 cc 05 00 02 e5 05 00
       6.05473e-40 -5.76466e-40 5.32388e-40 5.4133e-40
000060 73 d2 06 80 37 52 06 80 9c c8 05 00 0d c7 06 80
       -6.26508e-40 -5.80506e-40 5.31143e-40 -6.22419e-40
000070 4f 89 05 00 a9 50 06 00 dd 52 06 00 b2 8a 06 00
       5.08435e-40 5.79948e-40 5.80739e-40 6.00767e-40
000080 b0 c3 06 80 a1 33 06 80 1e 0c 06 00 2e a6 05 80
       -6.21212e-40 -5.69534e-40 5.5536e-40 -5.18792e-40
000090 c0 c1 05 80 5e be 05 00 14 54 06 80 52 55 06 80
       -5.28682e-40 5.27468e-40 -5.81175e-40 -5.8162e-40
0000a0 d6 22 06 00 b5 27 06 80 f4 61 06 80 5e db 05 80
       5.6351e-40 -5.65257e-40 -5.86152e-40 -5.37872e-40
0000b0 1e 5f 06 00 0c 71 05 00 6a 85 06 80 e0 5e 06 00
       5.85135e-40 4.99731e-40 -5.98873e-40 5.85048e-40
0000c0 81 8b 06 00 9b d5 05 00 64 bf 05 00 f6 41 06 00
       6.01058e-40 5.35805e-40 5.27836e-40 5.74675e-40
0000d0 2c 01 06 80 2c 1c 06 80 ae cc 05 00 4c bf 05 00
       -5.51433e-40 -5.61119e-40 5.32603e-40 5.27802e-40
0000e0 40 16 06 00 d5 03 06 80 96 6b 05 00 1b e9 05 00
       5.58995e-40 -5.52388e-40 4.97772e-40 5.428e-40
0000f0 c1 bc 06 00 36 ce 06 80 ba 94 06 80 61 cf 06 00
       6.18725e-40 -6.24988e-40 -6.04366e-40 6.25407e-40
000100 7d b3 05 80 d4 2d 06 80 13 93 05 00 00 9d 05 00
       -5.23566e-40 -5.67453e-40 5.11938e-40 5.15498e-40
000110 31 be 06 80 3a 80 05 00 82 a8 05 00 61 97 06 80
       -6.19241e-40 5.05177e-40 5.19627e-40 -6.05317e-40
000120 a6 72 06 00 6e 3e 06 00 9e 3b 06 80 6b e4 05 80
       5.92141e-40 5.73409e-40 -5.724e-40 -5.41118e-40
000130 f1 79 06 80 9a ba 06 80 37 15 06 80 db aa 06 00
       -5.94757e-40 -6.17953e-40 -5.58623e-40 6.12304e-40
000140 b1 d3 05 00 86 cb 06 00 54 3c 06 80 97 be 05 80
       5.35118e-40 6.24023e-40 -5.72655e-40 -5.27548e-40
000150 a6 5f 06 80 e2 db 05 00 85 2e 06 00 60 01 06 00
       -5.85325e-40 5.38057e-40 5.67701e-40 5.51506e-40
000160 40 ca 06 00 77 62 06 00 7d bb 05 00 46 c2 05 80
       6.23567e-40 5.86336e-40 5.26436e-40 -5.2887e-40
000170 c9 b3 06 00 e2 ae 06 80 ba 72 05 80 65 64 06 00
       6.15508e-40 -6.13749e-40 -5.00334e-40 5.87028e-40
000180 c2 bb 06 00 55 e8 05 00 d7 39 06 00 db 2b 06 00
       6.18368e-40 5.42523e-40 5.71762e-40 5.66745e-40
000190 9e f5 05 00 3a 84 05 00 6a ea 05 80 78 a1 06 00
       5.47288e-40 5.06611e-40 -5.4327e-40 6.08937e-40
0001a0 fb f6 05 80 02 c9 05 00 06 da 06 80 19 2e 06 00
       -5.47777e-40 5.31285e-40 -6.29225e-40 5.6755e-40
0001b0 c6 f0 05 00 e7 78 06 00 73 ca 05 00 d7 6a 05 00
       5.45551e-40 5.94385e-40 5.31803e-40 4.97504e-40
0001c0 5f 78 06 80 07 0a 06 00 73 e6 05 80 95 72 06 80
       -5.94194e-40 5.5461e-40 -5.41847e-40 -5.92117e-40
0001d0 37 04 06 80 0a 35 06 00 4e c5 06 80 6e 7e 05 00
       -5.52525e-40 5.7004e-40 -6.21793e-40 5.04532e-40
0001e0 db c1 06 00 52 b4 06 00 30 c3 06 00 3b 43 06 00
       6.20555e-40 6.157e-40 6.21033e-40 5.75131e-40
0001f0 9c a5 05 00 c8 4f 06 80 65 8d 06 80 a7 b2 06 00
       5.18587e-40 -5.79633e-40 -6.01736e-40 6.15101e-40
000200 19 0f 88 3e 09 8f 22 be 47 cb f1 b9 f7 32 08 32
       0.2657402 -0.15874876 -0.00046118555 7.92783e-09
000210 f7 ce fb 38 87 cc 48 b9 99 f6 fc b8 b9 11 83 3e
       0.00012007163 -0.00019149679 -0.00012062229 0.2559946
000220 b9 2d d5 b7 50 b1 35 97 59 2f 2d be 81 2e d6 38
       -2.541287e-05 -5.8708054e-25 -0.16912593 0.00010212977
000230 cc 80 3b be 95 72 42 be b2 2b 33 be de 36 3c be
       -0.18310851 -0.18989022 -0.17497137 -0.18380305
000240 a5 3e 88 3e ff 82 05 80 39 63 05 00 b6 da 66 ba
       0.26610294 -5.0617e-40 4.94772e-40 -0.0008806394
000250 a7 d7 05 19 c7 97 88 3e 37 74 05 80 ee dc 65 ba
       6.9194895e-24 0.26678297 -5.00868e-40 -0.0008768578
000260 21 06 20 32 16 f4 23 be 23 85 3a 92 36 2c 4e 21
       9.314619e-09 -0.1601108 -5.8855355e-28 6.985403e-19
000270 ce 65 98 3e a4 db e2 b5 7e 63 05 00 56 d8 20 be
       0.2976517 -1.6902236e-06 4.94869e-40 -0.15707526
000280 34 6b e7 30 47 8a 8b b9 e7 74 05 80 4b bb 1a bb
       1.6837931e-09 -0.0002661517 -5.01114e-40 -0.002361017
000290 7f fd a6 3e 85 e7 8a 3e 27 c8 29 be af 13 91 3e
       0.32615277 0.2712976 -0.16580258 0.2833533
0002a0 79 b5 1b be a1 62 56 b9 a6 ee 1d 25 a8 66 05 80
       -0.15205945 -0.00020445373 1.3698437e-16 -4.96004e-40
0002b0 03 83 00 ba 22 7d 85 3e 12 7d 28 30 bd 47 3b be
       -0.0004902335 0.2607203 6.129578e-10 -0.18289085
0002c0 a9 f7 8a 3e d4 61 8b 3a 03 fd 42 be b4 ff 8a 3e
       0.27142075 0.0010634013 -0.19041829 0.2714821
0002d0 83 91 36 be 8f 47 9c 03 b7 f6 4a b6 ef c9 82 2f
       -0.17828946 9.185285e-37 -3.0243953e-06 2.3790345e-10
0002e0 ef be 38 be 2d 16 4c be 9c f2 8c 3e 5c 5a 05 00
       -0.18041585 -0.19930334 0.27528846 4.91592e-40
0002f0 27 ed a2 b7 82 98 2f be 3c b9 36 be ec c8 21 be
       -1.9422338e-05 -0.17148021 -0.17844099 -0.15799302
000300 37 42 8c 3e 05 20 cc bd ee fd 3e b9 c6 82 83 30
       0.27394268 -0.09967045 -0.00018214408 9.568673e-10
000310 30 6a 24 39 fd e5 d9 38 00 89 32 39 64 52 70 3e
       0.00015679817 0.00010390205 0.0001702644 0.2346893
000320 dc d6 c2 b7 58 b0 93 12 8e 5e d5 bd 07 fd 03 39
       -2.3226654e-05 9.320476e-28 -0.104184255 0.00012587394
000330 8a 5e 03 be f6 ad f6 bd 1c b5 0b be 18 e0 08 be
       -0.12829033 -0.12044899 -0.13643306 -0.13366735
000340 d6 30 82 3e 76 5c 05 00 3f 5b 05 00 bf 2c 0a 3b
       0.25427884 4.92346e-40 4.9191e-40 0.00210838
000350 48 87 92 26 39 9e 7e 3e 87 9a 05 80 5c f5 79 ba
       1.0167453e-15 0.24865045 -5.14611e-40 -0.00095351576
000360 3a 1e fd 32 22 0b ee bd 43 9e de 90 dc c9 5f 1e
       2.9466822e-08 -0.11623217 -8.78074e-29 1.1847265e-20
000370 2d 39 80 3e 79 01 be b5 ba 8e 54 0a 6c fc ff bd
       0.25043622 -1.4156532e-06 1.02342726e-32 -0.124993175
000380 49 bd 83 30 35 1b 9f 38 ad ae 05 80 57 ef 3d bb
       9.585303e-10 7.5867785e-05 -5.2184e-40 -0.002898177
000390 e7 2f 9e 3e 6e fe 6a 3e 6d 59 08 be a0 e9 81 3e
       0.30895922 0.2294862 -0.13315363 0.25373554
0003a0 72 8b db bd 2e e0 fd b9 aa 2c a0 25 86 6a 05 00
       -0.107199565 -0.00048422947 2.778584e-16 4.97391e-40
0003b0 fd 74 ae ba d9 58 65 3e e5 df 98 2f 69 03 0d be
       -0.0013310012 0.22397174 2.7807726e-10 -0.13770832
0003c0 ef 55 89 3e 1b 5a 4d 3b b8 9c 02 be a6 77 79 3e
       0.26823375 0.0031334225 -0.12755096 0.24362049
0003d0 08 58 09 be c2 7d 27 00 a7 0b 0f b6 fa e3 d0 30
       -0.13412488 3.626698e-39 -2.1315443e-06 1.5198787e-09
0003e0 bf 30 11 be 85 12 f9 bd 55 06 83 3e e4 6a 05 00
       -0.14178751 -0.121617354 0.25590768 4.97523e-40
0003f0 4b be a1 b7 2b d6 ff bd a9 c7 e1 bd ad 73 ea bd
       -1.9281308e-05 -0.12492021 -0.1102441 -0.11447845

6.bias f4 [4]
000000 00 00 00 00 00 00 00 00 e1 0e e9 3d 97 bb f9 bd
       0.0 0.0 0.11379791 -0.12193983
