models/reinforce.pth (torch, 84081 bytes, 4 tensors)

0.weight f4 [24, 847]
00000000: 731a d3bc b98d 7b3c bb43 12bc 1b8c f2bc
00000010: 6434 97bb dbd6 8a3d 1a95 a3bc fc88 cc3c
00000020: c710 09bd bd59 983b 2881 3abc 524c 4bbd
00000030: a0af e4bc 6bf8 923c 7111 3abc f2da 30bd
00000040: 31bf b13c a8e0 2fbd 5d15 a4bb fb27 96bc
00000050: 2732 d43a fee1 a23c 77ed 09bd 7b9e 0cbd
00000060: 9f8b 3cbd 7e52 55ba fc91 e93c cbaa 5d3c
00000070: 8be4 c63b 976d 573c e3d0 68bc 38b8 8ebc
00000080: 2398 bb3c 161f f4bc 0065 ee3c 73ce a3bc
00000090: 905c 1ebd 5ff4 36bd c4af 09bd 0499 913c
000000a0: 88a7 9a3b 5904 023c 3c6b 2a3c 2ce8 073d
000000b0: 45ed a1bc 5532 edbc 41de a9ba 238a ac3c
000000c0: 0d4e 26bd 6f49 2e3c e102 cb3b 2d5f 7f3c
000000d0: 8c55 0a3d 94d6 cdbc 1a50 74bc 6a38 23bd
000000e0: 61b2 853c df62 12bc 958d 2abd 33eb 0fbd
000000f0: 0c8d d7bc 2aee ddbc 6fe1 c7bc bf27 263c
00000100: 26c6 0ebc 2459 bd3c e6bf 273a a2bd f9bc
00000110: a509 7fbc 3d7a 4fbc 3d62 0cbd 31d7 88bc
00000120: a4ae 1c3b a689 2fba d19f f13b 5759 e73b
00000130: eac3 1c3d ab6e 293d ddbe b1bc 9823 ae3c
00000140: bfaa 673c 5aee 56bc a26a edbc 9bde 7c3c
00000150: fdfa 033d 7e7d 3a3a c657 54bb 33f5 31bc
00000160: 4912 24bc 6954 383d 8b7b e6bc 29ab c8bb
00000170: 3da9 1b3d 0542 e3bc da72 f7b9 1ccf e3bc
00000180: 67ec 6d3d 6dc2 1ebd cbfb 6cbc 2a8c ecbc
00000190: b901 d2bc 1074 2ebd 0f28 ac3b 1820 4bbd
000001a0: 165e 08bd 5e07 97bc 1218 313c 8ac0 75bb
000001b0: 4d36 20bd cc12 f13c d093 17bd cb3e d13b
000001c0: 3e71 613b 1a7c 293c a546 763b fe54 cfbc
000001d0: d579 5dbb b295 52bc 3c25 5abd 0931 2bbd
000001e0: 7e24 c8bc 8a79 4a3d 8b60 763b 9bc8 6e3c
000001f0: 6078 233c 4407 1b3c 1a61 8bbd bf87 06bc
00000200: 128b 1cbc 8331 b0bc 177b 223c 1b0e fa3c
00000210: 4760 143d b01c 80bc 8eef 11bc c347 eb3b
00000220: 47c3 f73c f311 ccbc 09d2 363d 9f58 8f3c
00000230: 3fa8 eb3b 41fa 5ebc b4c6 0cbb b14f 473c
00000240: 3588 3f3c 7e5a df3c ee6d b63a 918c d3bc
00000250: 57db ddbb 24fe c23c 92df 373c bd07 f2bc
00000260: 0935 fabc 7864 08bd e87d 673a b6d9 24bc
00000270: 1f88 2c3c 5a2a a33b 1f6e bbbb 4e82 033d
00000280: e979 b33c 0938 86bb 58f6 efbb 88dc babc
00000290: 2c2a bd3c a0de 3e3d 318a a83c 10be 283c
000002a0: d5d3 923b 2ac3 493d 604f de3c 707b 89bc
000002b0: 5520 4abd e213 c2bc 6265 8c3b d576 a63b
000002c0: 666c 2f3d 6d8b f9bb df87 7a3d 9682 3bbd
000002d0: 0879 143c 6dc0 053d 3f0c 8bbb 084d 8c3b
000002e0: 9c25 e6bc 1523 bfbc 19dd b53c f4a0 43bd
000002f0: 8615 deba 632f 6ebc 9561 a7bc 9d63 21bd
00000300: 17cc e03c db9e 263c d1bf 29bc 4731 03bd
00000310: 67e5 c3bc 2baa 263d c9f9 0b3d 1d25 653c
00000320: d2d1 cebc 4ef3 753c e213 a2bc cd92 b53c
00000330: 29a2 933c c239 fe3c 7718 e2bb 5230 843c
00000340: 273f 1cbd 42fd 86bd 30f1 053d 9f2d 19bd
00000350: 2039 a93c fefa 3c3c 44ff b8bb 6122 35bd
00000360: 2f7f dd3b 3d63 ed3c d4a2 20bd c8d6 5e3c
00000370: 65c8 523c eb76 e6bc a8bf 6d3c 4a22 efbc
00000380: 8d39 f3bc 305b 39bc b90c 23bd 26d7 7a3b
00000390: 0948 89bc ed18 f13b eedc c6bc b129 19bd
000003a0: 9e2f 39bd 782b 633d c28e ddbc 8646 9bbc
000003b0: 8a2e 12bc 56c7 11bd 617b 30bd b119 11bd
000003c0: 29da 56bc 1811 6a3c cdf6 11bc 1eef 9fbc
000003d0: 0b00 a43c 64af b03c 6163 9a3c 5cc6 373d
000003e0: 7ac8 6cbc 0c42 363d b3dc d83c 76fb d43c
000003f0: e153 ec3b cb18 093d 3039 b9bb a9d2 12bc
-0.025769448 0.0153536135 -0.008927281 -0.029607823 -0.0046143997 0.06779262 -0.019968558 0.024967663
-0.033463266 0.0046493695 -0.011383332 -0.04963333 -0.027915776 0.01794072 -0.011356697 -0.043177553
0.021697612 -0.04293886 -0.0050074295 -0.018329611 0.0016189263 0.019883152 -0.03367373 -0.034330826
-0.04603159 -0.00081375975 0.028511994 0.01352949 0.006069725 0.013148687 -0.014209959 -0.017421827
0.022899693 -0.02979998 0.029100895 -0.019995904 -0.038662493 -0.044666644 -0.03361489 0.017773159
0.0047196783 0.007935607 0.010401543 0.0331804 -0.01976646 -0.028954664 -0.0012959914 0.021061962
-0.04060178 0.010637625 0.0061954116 0.0155866565 0.03377299 -0.025126733 -0.014911676 -0.039848723
0.01632041 -0.0089347055 -0.04163893 -0.035136413 -0.026312374 -0.027091105 -0.024399487 0.010141312
-0.008714234 0.023113795 0.00063991395 -0.030485932 -0.015566264 -0.012663421 -0.034273375 -0.016704174
0.0023907805 -0.00066962314 0.007373788 0.0070602107 0.038272776 0.041365307 -0.021697456 0.021257207
0.01413983 -0.013118351 -0.02898151 0.015433933 0.032221783 0.00071140367 -0.003240095 -0.010861683
-0.010014125 0.045002375 -0.028135082 -0.0061239195 0.038003195 -0.027741442 -0.00047197082 -0.027808718
0.05808678 -0.038759638 -0.014464329 -0.02887543 -0.025635587 -0.042591155 0.005253799 -0.049591154
-0.033292852 -0.01843613 0.0108089615 -0.0037498795 -0.039114285 0.029427908 -0.0370062 0.0063856593
0.0034399773 0.0103445295 0.0037578729 -0.025309082 -0.0033794541 -0.012853073 -0.053258166 -0.04179481
-0.024431463 0.049432315 0.0037594165 0.014574195 0.00997743 0.0094621815 -0.0680563 -0.008211075
-0.009554641 -0.021507984 0.009917042 0.030524304 0.03622463 -0.01563868 -0.008907212 0.0071801855
0.030244483 -0.024910903 0.0446339 0.017498313 0.0071916874 -0.01360947 -0.002148074 0.012164996
0.011690189 0.02726483 0.001391826 -0.025823863 -0.006770532 0.023802824 0.011222737 -0.029544706
-0.030542867 -0.03329894 0.0008830712 -0.010061672 0.010530501 0.004979414 -0.0057199146 0.03210669
0.021908717 -0.0040960354 -0.0073230676 -0.022810236 0.023091398 0.04659903 0.020573707 0.010299221
0.0044808188 0.04925839 0.027137458 -0.016782492 -0.04934724 -0.023691121 0.0042845467 0.005080084
0.042827986 -0.007615498 0.061164733 -0.045778833 0.009062059 0.032654215 -0.004243403 0.004281644
-0.028094105 -0.023332158 0.022200154 -0.04776092 -0.001694367 -0.014537665 -0.020432273 -0.03940164
0.027441068 0.01016971 -0.010360674 -0.032029416 -0.023913098 0.04068963 0.03417376 0.013985899
-0.025246534 0.015011622 -0.019784871 0.022164727 0.01802166 0.0310334 -0.006899889 0.016136322
-0.038146164 -0.06591274 0.032700717 -0.037397023 0.020657122 0.011534451 -0.0056456644 -0.04422224
0.006759546 0.028977985 -0.039217785 0.0136010125 0.012865161 -0.028132876 0.014511026 -0.029191155
-0.029690528 -0.011313245 -0.039807055 0.003827521 -0.016757982 0.0073577077 -0.02427527 -0.037393276
-0.045211427 0.055461377 -0.027045611 -0.018954527 -0.008922229 -0.035590492 -0.043086413 -0.03542489
-0.013113537 0.014286302 -0.00890894 -0.0195232 0.020019552 0.021568008 0.018846216 0.044866905
-0.014452094 0.04449658 0.026472425 0.025998812 0.0072121476 0.03347091 -0.0056525692 -0.008961358

0.bias f4 [24]
00000000: b9e9 85bc 318d aa3d 25dc 353e 3d30 ebbc
00000010: 6f00 40bd c2b7 293e 2d47 28bd c9c0 15bd
00000020: 865a 103e b02f 743e 7766 4e3e bf0e ef3d
00000030: 4635 5fbd 404a 0d3e 640d 273e 7b1e 183e
00000040: 6644 19bd dadb f63a 42fc 8fbc 3854 4bbd
00000050: a684 203c e495 c9bb e0f6 103e e875 083c
-0.0163468 0.083277114 0.1775976 -0.028709525 -0.046875414 0.16574004 -0.041083504 -0.036560807
0.14097032 0.23846316 0.20156275 0.116727345 -0.054494165 0.13797855 0.16313702 0.14855377
-0.037418745 0.0018833831 -0.01757634 -0.049640864 0.009797251 -0.0061519016 0.14156675 0.008328892

2.weight f4 [3, 24]
00000000: b93c c63d 7b25 d9bd 3061 5cbe 5f1b 47be
00000010: 00b2 c2bd 668b 2abe b15a 88bd 8601 953c
00000020: 5cc8 9ebe d15a 8abd 54b3 50be 83e3 96be
00000030: 5260 ac3d bd66 ecbd 8fd3 44be 3558 9dbe
00000040: 688e b93d 374a 043e e65f 243d f189 d0bc
00000050: 1445 ff3d 0c9f ff3d 0301 96be 6662 46bd
00000060: 7a86 35bd d188 0ebe 4184 20be c3ae 87bd
00000070: 4c4f 03be eb7c 02be 106f 97bc 32ba 49bd
00000080: 957d 223b 542f d83d 3350 913c 016d 273e
00000090: 1444 ab3d d015 21bd c03c 00be 6138 ea3d
000000a0: d02d 153d 4b91 35be 7ba1 363e 6479 6ebd
000000b0: f4c4 713d b137 32be 3314 253e c67e 393e
000000c0: 6576 28bd 28c5 b83d 8fd8 503e 36a6 22be
000000d0: 6a2e 45be 03ed b73d 921c 91bd 7e61 f0bd
000000e0: e25c c03d 7c45 973e 566b b13e 23d6 363e
000000f0: c686 1bbd 16e5 9e3e c485 b43e 4c8a 8c3e
00000100: 48ef 1d3d 57b6 2ebe 0422 89bc 597a 23be
00000110: 5bd0 43be be20 92bd 5ecc 7f3e 7acd f23d
0.09679551 -0.10602852 -0.21521449 -0.19444035 -0.09506607 -0.16654739 -0.06657923 0.018189203
-0.31012237 -0.06755603 -0.20380908 -0.29470453 0.08416809 -0.11543033 -0.19221328 -0.3073136
0.09060365 0.12918936 0.04013052 -0.0254564 0.124643475 0.12481508 -0.29297647 -0.048433684
-0.0443177 -0.13919379 -0.15675451 -0.0662513 -0.12823218 -0.12742965 -0.018485576 -0.049249835
0.002479409 0.10555902 0.017738437 0.16350175 0.08362594 -0.039327443 -0.12523174 0.11436535
0.036420643 -0.17731206 0.17835037 -0.058221236 0.05902572 -0.17404057 0.16120987 0.18114766
-0.041128535 0.090219796 0.2039511 -0.15883717 -0.19255987 0.08980753 -0.070855275 -0.11737345
0.09392716 0.295452 0.34652203 0.17855124 -0.037970327 0.31034154 0.35258305 0.27449262
0.038558275 -0.17061745 -0.016739853 -0.1596464 -0.1912245 -0.07135151 0.24980304 0.11855598

2.bias f4 [3]
00000000: 035a 4d3d 68b0 febd 5937 463e
0.05013467 -0.124359906 0.19357051
