models/reinforce_best.pth (torch, 115757 bytes, 18 tensors)

0.weight f4 [64, 70]
00000000: 70a0 cf3c 43d1 45bb b6fa b4bd 315a b6bc
00000010: 1b85 97bc ee17 b1bc 24ed b9bc b9fd c53c
00000020: 96a4 893c 525a ad3d c28c 94bb 3df0 383d
00000030: 783d 62bc f037 0e3d c1e1 e53c 42aa 90bb
00000040: 8add 9d3d 3257 1d3b ae42 8f3c e0da cabb
00000050: 5556 323b 94a2 3d3d a876 03bc 22c6 6a3d
00000060: c82c 023c defb f13c a69b 7d3a a8a6 b3bc
00000070: 67f7 683d 92cf ff3c 9950 4a3d 5d3f c9bc
00000080: 9216 cc3c f961 f4bc 10ef 24bc 69b7 9a3d
00000090: fe05 a63c 477a 013c 5a4d 48bc 4966 4f3d
000000a0: 38e7 f6bc b9c6 983c 25a8 aa3d ff2b 313c
000000b0: 998b aabc 446d abbb fbcc 843d 5a4a 87bc
000000c0: a850 383d 1153 9a3d e907 1b3c f44b debc
000000d0: b2b3 dabb 6535 543d 43ee 89bc cfe8 b03c
000000e0: 01ab 813d adf5 fbba 9ebf 71bc e4b9 0d3c
000000f0: 909a 0b3d 5e79 643a 467d 65ba 63de 783d
00000100: 1d94 f5bc 26ea ddbc 6fd1 e03b d65d 353d
00000110: d84b 9b3b 8105 703c bbe8 43bb aefa 2932
00000120: 802e 39b9 2ac7 643a 06d7 123b 2c3d c23a
00000130: 7805 4f3b e844 62bb 2ac1 f93a 992a 70b6
00000140: e44f 0abb 6373 2abb 1f7f 37bb a4f7 7435
00000150: 3fea 58bb 9600 2834 f501 5c39 3934 62ba
00000160: 117d 4ebb 9efb 4f35 cd61 5fbb dcda 05bb
00000170: 14ec 68ba cfd2 9739 ebf6 6133 8536 e9ba
00000180: 6170 5b3b b1a3 62b3 fe5d 57bb 6427 beb4
00000190: 43c7 c73a 74db dfb9 5d21 50bb e514 84b5
000001a0: 58d5 51bb 98fc 3dbb 2028 02b5 b08e d53a
000001b0: 4f82 e5b7 df35 73bb 5172 333a 4f42 03bb
000001c0: c3ff 82bb 1133 90b4 607a fd3a dfcf 3dba
000001d0: 483a 1fbb e22d 3431 aadd 41bb 0bb3 6235
000001e0: 27e8 55b4 c1cb 8134 ce04 0cba 6340 3335
000001f0: d470 f8b2 ce9f 6035 1580 2fbb eb96 aab4
00000200: 3b07 003b 2a14 e0b9 4403 0ebb f6ee c631
00000210: 507a 14bb 3668 19b3 ab92 1333 52ea 6d33
00000220: 18d7 d6b1 6fc7 30b3 8d0c 33b2 e8a3 9e32
00000230: 460a a8bb 98df 46b4 9ed2 8abb ef2d f934
00000240: e454 853b 11c0 f3b4 b654 883b 9ff4 d6bb
00000250: 6954 983b dd0c 7a3b 9277 66ba 7d7b 95bb
00000260: c671 25bb 55cb 65b3 e8da b6bb 7ea3 0f36
00000270: 0269 613b 2a27 fcb4 8422 9cbb 08a5 ecb1
00000280: 7250 91bb 87c7 8cbb 8e86 72bb d888 883b
00000290: 441a 433b e2da 8ebb b2e6 a13b 0422 9fbb
000002a0: ab5b d4bb 83e6 1936 ce2d 8c3b 8cd8 fdb4
000002b0: 9ca5 adbb c5c6 f132 aa06 68bb 3e7d 71bb
000002c0: 57b1 5cb6 6a37 813b 81f1 2335 3ffc c4bb
000002d0: 4c49 f932 3aed b5bb 38aa 4dbb 806f c135
000002e0: e048 893b 6349 b2b4 dbec a9bb 78cc 6d32
000002f0: dc72 87bb 1173 73b1 d760 d8b1 bf9b 2831
00000300: 1902 9d32 122c 4433 1009 58b1 d68a 1fb1
00000310: 3ec7 f32f 44d5 4e33 abaa ad2f 6896 5032
00000320: d800 97b1 ef21 bd31 d377 d3ae 4928 44b1
00000330: 8f5f a7b1 0ea1 bcb1 aa09 07b3 31f0 4733
00000340: 7f2e 64b2 3546 0031 ebb5 7abb 2e58 0f35
00000350: 9336 fbba 1174 0f32 f95e 2d3b 25c1 a835
00000360: 9868 6d3b 9ea2 69bb e98f 4e3b b12c f83a
00000370: f91c f8ba ea5c 2ebb 5a7c 77bb 641d b333
00000380: fa20 67bb 334f 2c3b d731 ed3a cf0d 0fbb
00000390: ac91 29bb 7a8a 75bb 6dfe 78b2 357b 6fbb
000003a0: 3fb8 173a 315c f63a 7377 31bb 2e20 12bb
000003b0: 0d7d 80bb b441 8f3a ec6d 66bb 17ba 1536
000003c0: 8e87 0c3b 8d97 ff3a b75b 23bb 153e 773b
000003d0: 9071 eb31 3795 79bb 804d 6cbb 550f 2f3b
000003e0: 17aa 073b 11e2 4abb e2a6 723b cbf9 1dbb
000003f0: 8408 56bb 85a7 09b5 430f 543b ecb0 a1b4
0.025345057 -0.0030184544 -0.08836882 -0.022259803 -0.018496087 -0.021617856 -0.022696085 0.024168836
0.016802114 0.08464493 -0.004533381 0.045150984 -0.013808601 0.034721315 0.02806175 -0.0044148276
0.07708271 0.0024008271 0.01748785 -0.0061906427 0.0027212102 0.046297625 -0.008023895 0.05731786
0.007945247 0.029539045 0.00096743775 -0.021930054 0.056876566 0.031226907 0.04939327 -0.024566347
0.024913106 -0.029831873 -0.010066763 0.07554514 0.02026653 0.007902688 -0.012225473 0.050634656
-0.03013955 0.018649446 0.08332852 0.010813712 -0.020818518 -0.0052315313 0.064844094 -0.016514946
0.044998795 0.07535375 0.009462335 -0.027135827 -0.0066742534 0.051808733 -0.016837245 0.021595387
0.063314445 -0.0019222997 -0.014755158 0.008650277 0.03408295 0.0008715595 -0.0008754324 0.06075896
-0.029977852 -0.02708919 0.006860904 0.044278942 0.004739266 0.01464975 -0.0029893357 9.894093e-09
-0.00017660297 0.00087271875 0.0022405996 0.0014819256 0.0031588953 -0.0034525935 0.001905476 -3.5787582e-06
-0.0021104747 -0.0026008717 -0.0027999354 9.125745e-07 -0.0033098606 1.5646432e-07 0.00020981564 -0.00086289976
-0.003150765 7.747966e-07 -0.0034085393 -0.002042464 -0.0008885276 0.0002895803 5.2611465e-08 -0.0017792737
0.003348373 -5.2768602e-08 -0.003286242 -3.5418918e-07 0.001524188 -0.0004269738 -0.0031758167 -9.840847e-07
-0.0032018032 -0.002898967 -4.8487163e-07 0.0016293135 -2.7359607e-05 -0.0037110967 0.00068453426 -0.0020028537
-0.0039977743 -2.6859246e-07 0.0019338839 -0.0007240753 -0.0024296213 2.6219529e-09 -0.0029581585 8.44521e-07
-1.9921627e-07 2.4176373e-07 -0.0005341292 6.677639e-07 -2.8922308e-08 8.367905e-07 -0.0026779224 -3.1774775e-07
0.001953556 -0.00042739633 -0.0021669427 5.789725e-09 -0.0022655912 -3.5717868e-08 3.43595e-08 5.5393976e-08
-6.252673e-09 -4.1159577e-08 -1.0422025e-08 1.8468157e-08 -0.005128178 -1.852153e-07 -0.0042365333 4.6413285e-07
0.0040689576 -4.5402024e-07 0.004160489 -0.006559923 0.0046487343 0.003815464 -0.0008791621 -0.00456184
-0.0025244816 -5.3503147e-08 -0.005580295 2.1403825e-06 0.0034394865 -4.6967153e-07 -0.004764857 -6.887266e-09
-0.0044346387 -0.0042962465 -0.003700647 0.0041667037 0.0029770294 -0.004359589 0.004940831 -0.00485635
-0.0064806542 2.2932952e-06 0.0042779213 -4.728248e-07 -0.005299283 2.8146482e-08 -0.0035404363 -0.0036848332
-3.288578e-06 0.0039433734 6.1073666e-07 -0.0060115154 2.9020747e-08 -0.0055519613 -0.0031381976 1.4412071e-06
0.0041895956 -3.320848e-07 -0.005185706 1.38417064e-08 -0.0041335654 -3.5426562e-09 -6.297437e-09 2.453575e-09
1.827816e-08 4.5674888e-08 -3.1437288e-09 -2.3216464e-09 4.4343013e-10 4.8157077e-08 3.1589784e-10 1.2141392e-08
-4.3947743e-09 5.5044818e-09 -9.616454e-11 -2.8544653e-09 -4.8712034e-09 -5.48983e-09 -3.1440926e-08 4.655175e-08
-1.3281919e-08 1.866636e-09 -0.0038255404 5.339997e-07 -0.0019166045 8.350086e-09 0.0026454313 1.2573188e-06
0.0036225673 -0.0035649906 0.0031518883 0.0018934218 -0.0018929533 -0.0026605674 -0.0037763328 8.340683e-08
-0.0035267458 0.0026292324 0.0018096518 -0.00218283 -0.002587418 -0.0037466572 -1.449335e-08 -0.0036541943
0.00057876477 0.0018795786 -0.0027079254 -0.0022297013 -0.003921157 0.0010929615 -0.0035160733 2.2311049e-06
0.0021443102 0.0019500122 -0.0024926492 0.0037726213 6.8523107e-09 -0.0038083324 -0.0036056936 0.002671202
0.0020700747 -0.00309575 0.003702574 -0.0024105187 -0.0032658884 -5.128025e-07 0.003235773 -3.0117315e-07

0.bias f4 [64]
00000000: 50e6 d43c 90f8 48bb fd6c a5bb 8604 71bb
00000010: a220 fabb 436d 623d 9ce5 0bbc dfe8 213d
00000020: 7553 abbb 0abf a2ba c856 efba 08c2 4f3d
00000030: 4db0 8ebb 2d91 8d3d b95b 903c 4330 84bb
00000040: 0855 603d ad1e 4a3d 0986 463d 2a90 373d
00000050: 0be6 613d 6921 563d d8a0 583d 0c51 46bb
00000060: 478c 793d f4d2 c93d 821b d7bb 072f ee3c
00000070: 78b4 0a3d 1246 6cbc 9371 653d c45c 633d
00000080: 7041 463d 9eec 333d f48c 2bbb f1b4 09ba
00000090: 4946 92bb e4e5 693d 5b3e 423d fd28 dfbb
000000a0: 13ef b8bb 5394 a9bb 07fa cfbb 1dc5 013d
000000b0: edab 033d 5c6f 95bb ba4f 143d e233 323d
000000c0: 933d 82bb 314e 493d 18a5 babb 4826 b1bb
000000d0: b414 573d fe9b 293d 3ce2 03bb 7db6 6c3d
000000e0: cd85 a4bb b0cf 1f3d 15cf 1a3d c645 aebb
000000f0: 174c 7e3d 213e 843d 8c25 163d 1851 4f3d
0.025988728 -0.0030665733 -0.005048393 -0.0036776378 -0.0076332847 0.05527998 -0.00853863 0.039528724
-0.0052284547 -0.0012416553 -0.0018260116 0.050722152 -0.004354513 0.06912456 0.017621862 -0.0040340736
0.054768592 0.04934566 0.04846767 0.04481522 0.055151027 0.052277956 0.052887768 -0.003026071
0.060924795 0.09854689 -0.0065645585 0.029075159 0.033863515 -0.014421003 0.056016516 0.05550839
0.04840225 0.043926828 -0.0026176544 -0.00052530976 -0.004463945 0.057104006 0.047422748 -0.006810306
-0.0056437342 -0.0051751523 -0.0063469443 0.031682122 0.032146383 -0.004560394 0.036208846 0.04350651
-0.0039746254 0.049146835 -0.0056959502 -0.005406175 0.05250998 0.04140853 -0.002012386 0.057791222
-0.005020833 0.039016426 0.037795145 -0.0053183762 0.062084284 0.06457163 0.0366569 0.050614446

3.weight f4 [64, 64]
00000000: 68b1 7233 5a06 56b3 f3f5 ce32 6c10 4c34
00000010: 89d6 b0ba 4ecf 93b2 6843 86b2 3510 7cbb
00000020: 4949 dd31 6ac0 18b3 4681 de30 598b 8cbb
00000030: edf9 8531 dcda bcba 6b86 85bb c115 b233
00000040: 6f2a b6b1 5706 edb9 bf16 d8ba b884 75bb
00000050: 3155 352e a1ac 293b 46f5 b639 c2f7 7435
00000060: 38c9 5234 6c52 9fba d048 83ba 06b9 89bb
00000070: 434a 82b9 0623 0734 bec6 d934 3668 1734
00000080: 4c07 8dbb e446 82bb 794f 9cb1 38be 82b2
00000090: e5e5 98b0 7441 e8ba 5ce6 953a f184 6d33
000000a0: d0d2 1539 209c 1e32 cb59 b531 5710 8cbb
000000b0: 742c 36bb d849 9eb2 5c2a 99bb a64a 8ebb
000000c0: 5c5b 17b3 8da1 2332 c315 50b1 5cc2 dd32
000000d0: 25b2 fa32 1f80 89bb cdb8 3932 1ef5 8531
000000e0: bdfb 4733 8081 65bb 1939 8bbb a6b7 5f32
000000f0: eddf abb1 a523 9eb8 1571 89bb b3eb 81bb
00000100: 8d1a 3ebb 70dc 82bb d374 2439 d1b9 4533
00000110: d48d 67b3 49cf 1bb2 2605 a4bb 04e5 96bb
00000120: 762b 443b 2233 d13a ab29 5c33 1bc4 b3bb
00000130: fbe6 63bb 8aa4 43b3 4568 a7bb 4c2c 8230
00000140: 0c8d bdb9 66ad 34b3 a2de 33b4 4610 9f37
00000150: 2b51 e232 c2e0 d4bb 66a2 c4b2 7c73 6cb2
00000160: 37d3 6c33 db59 f0b1 5606 0d3b ef42 a7bb
00000170: 4e71 efbb aa00 e231 f2b8 8f32 b6f9 2331
00000180: dc3c a6bb 2ef9 9cb8 702a a0b2 de65 9ab1
00000190: eb5f bc3a 4a76 113b b5a3 5b2f d9d7 81bb
000001a0: 2d09 75bb 3dd0 c0bb 4258 693b ee37 5abb
000001b0: eb13 92ba a510 ab32 8724 16bb 36a3 9bbb
000001c0: 77b7 95b6 302c 0eb3 a548 f5ba 11e7 9cbb
000001d0: edc3 93bb 8552 ccbb 5dd0 a0b1 c072 8d34
000001e0: fda3 033b 0325 b5bb c6c8 8abb e7b6 a4bb
000001f0: fdfb 24bb 3251 2c3b 5f12 47bb c78e 58bb
00000200: 15c1 90bb 3daf 6733 9fe4 0ab4 3a78 6db6
00000210: a0d6 3abb 9abc fbb4 8d15 78b5 4258 bebb
00000220: 9745 96bb 4b32 bd34 5cb0 3336 61d2 18bc
00000230: cf89 d0b2 decc 43bb 418b efbb 5b04 f033
00000240: cfaf b1ba fda2 29bb ae9c 98bb 34cf d7ba
00000250: fe33 c7b5 6dae 01bc 91e4 5abb 961f 4db8
00000260: b994 aaba 4da4 cbba c627 b4bb 274c 2dbc
00000270: 3740 29bc 8558 8d34 e28e 383a 6f96 7eb6
00000280: 7e50 1dbc eed3 04bc bfc9 7e33 cf14 94b1
00000290: c2ea b834 8565 0ebc 01e2 0f3b 2670 303a
000002a0: 7c44 003c 4779 6db3 f0b1 2abb 2a77 29bc
000002b0: 90b3 21bc cfcf d238 a406 0abc 9dca 01bc
000002c0: e5ac d231 f185 41bb 49f0 a2b2 b8a0 c0b3
000002d0: b0db c73a aa99 bfbb a33a 02b4 2746 a0ba
000002e0: c75f 8cb5 4a42 04bc 4498 cfbb 7827 4cb5
000002f0: 1fb7 8dba 397f e43a f6ad 5abb cb66 ecbb
00000300: c92d 8b3d 03f2 863b 479f edb9 e127 a332
00000310: bdbf 7133 4a20 40bd bdca a1ba f88c ce3d
00000320: 1d7b edba da11 37bb df68 0bb2 c718 d93d
00000330: 52f1 f1b4 65d5 3dbd e687 ad3d 54d4 4433
00000340: ad04 64bd 75ad 52bd 7cc8 46bd 9efa af3d
00000350: 726f 29bd e895 c53d 41ce 5cbd 9bea 8032
00000360: 458f 5fbd cf1a 9b3c 6811 bfb8 51c7 ab3d
00000370: 8f38 cf3d 016f 12bc 9b1c 43bd 3ccd 5bbd
00000380: 3c02 dc3d 0dd5 c33d 4e4c 82b1 6ed9 bfba
00000390: fe4b 2abb dd33 37bd d75c 2dbd 737d 0dba
000003a0: 8479 803a 4711 633b 67f3 4cbb 5b6a c43d
000003b0: 2af8 ae3d e7fc b0b1 72f2 cb3d 1052 bd3d
000003c0: 17f8 0bba 5693 2fbd 2a07 1437 e287 c23a
000003d0: 8c74 06bd ceb2 e63d 3443 5fb3 d472 56bd
000003e0: 30f4 8aba c4a7 c73d 5e46 b33d 60d7 873b
000003f0: fe7a 53bd 5ead 42bd ec77 c73d b93a b53d
5.6506366e-08 -4.9831534e-08 2.4093401e-08 1.9004955e-07 -0.0013491671 -1.7207324e-08 -1.5630306e-08 -0.0038461809
6.440278e-09 -3.5565257e-08 1.6189368e-09 -0.0042890725 3.8992227e-09 -0.0014408487 -0.0040748618 8.292728e-08
-5.3017213e-09 -0.00045208886 -0.0016486271 -0.003746314 4.12303e-11 0.0025890248 0.00034896488 9.125762e-07
1.9630977e-07 -0.0012155301 -0.0010016207 -0.0042029647 -0.00024850862 1.2585596e-07 4.0564004e-07 1.4100883e-07
-0.0043038484 -0.003975736 -4.5492325e-09 -1.5220493e-08 -1.1124796e-09 -0.0017719702 0.001143645 5.5301772e-08
0.00014288281 9.232309e-09 5.2780016e-09 -0.004274409 -0.0027797492 -1.8427201e-08 -0.004674239 -0.004342395
-3.5240518e-08 9.524581e-09 -3.0280354e-09 2.581617e-08 2.9184841e-08 -0.0041961814 1.0810436e-08 3.898676e-09
4.6562253e-08 -0.0035019815 -0.00424875 1.3022065e-08 -5.0022124e-09 -7.5406664e-05 -0.0041943886 -0.003964865
-0.0029007525 -0.0039935634 0.00015683779 4.6036636e-08 -5.391287e-08 -9.069319e-09 -0.0050054966 -0.0046049375
0.0029933131 0.0015960673 5.126064e-08 -0.005486024 -0.0034775126 -4.5551623e-08 -0.0051088654 9.471335e-10
-0.00036153977 -4.206722e-08 -1.6751667e-07 1.8961855e-05 2.6346774e-08 -0.00649652 -2.2891253e-08 -1.3763266e-08
5.514013e-08 -6.9951347e-09 0.002151867 -0.0051044147 -0.007307208 6.577541e-09 1.6731494e-08 2.3861566e-09
-0.005073173 -7.485073e-05 -1.864575e-08 -4.493571e-09 0.0014371848 0.002219575 1.9976094e-10 -0.0039624986
-0.0037389502 -0.005884199 0.0035605584 -0.0033297497 -0.0011144852 1.9914589e-08 -0.0022909956 -0.004749681
-4.461904e-06 -3.310214e-08 -0.0018713666 -0.0047882874 -0.00450944 -0.006235423 -4.680301e-09 2.6346788e-07
0.0020086758 -0.005528094 -0.00423536 -0.0050266865 -0.002517461 0.0026293513 -0.003037594 -0.0033044086
-0.0044175484 5.3943257e-08 -1.2935423e-07 -3.5385733e-06 -0.0028509274 -4.688962e-07 -9.241856e-07 -0.005808861
-0.0045859325 3.5240586e-07 2.6775733e-06 -0.009327502 -2.4277055e-08 -0.002987675 -0.0073103015 1.1176663e-07
-0.0013556423 -0.0025884502 -0.0046573495 -0.001646495 -1.4841787e-06 -0.0079151215 -0.0033400396 -4.8905225e-05
-0.0013014294 -0.0015536636 -0.0054979054 -0.010577238 -0.010330251 2.6327703e-07 0.0007040334 -3.7936513e-06
-0.00960171 -0.008107169 5.932247e-08 -4.3097326e-09 3.444348e-07 -0.008691196 0.0021954777 0.00067305786
0.007828828 -5.5291164e-08 -0.0026046 -0.010343352 -0.009869471 0.00010052288 -0.008424435 -0.007921842
6.1314602e-09 -0.0029529298 -1.8968551e-08 -8.969931e-08 0.0015247967 -0.0058471756 -1.2128525e-07 -0.0012227938
-1.0458688e-06 -0.008072445 -0.00633529 -7.6053357e-07 -0.0010812021 0.0017432935 -0.003336785 -0.0072144023
0.06795842 0.0041182055 -0.00045322833 1.8993832e-08 5.628657e-08 -0.046905793 -0.0012343746 0.100854814
-0.0018118356 -0.0027934224 -8.11471e-09 0.10600429 -4.5065332e-07 -0.046346087 0.08473186 4.5827917e-08
-0.05566852 -0.051434953 -0.04853104 0.08592723 -0.04136605 0.09647733 -0.053907637 1.5007847e-08
-0.05457999 0.018933682 -9.110832e-05 0.08387626 0.101182096 -0.008937598 -0.047634702 -0.053662524
0.10742614 0.095621206 -3.792173e-09 -0.0014636943 -0.0025985236 -0.044727195 -0.042324867 -0.00053974165
0.000980184 0.003464775 -0.0031273009 0.09590598 0.08543427 -5.151026e-09 0.09958352 0.09244168
-0.00053393975 -0.04286512 8.823155e-06 0.0014841522 -0.03282599 0.11264573 -5.1982354e-08 -0.052355602
-0.0010601338 0.09748796 0.08753656 0.0041455477 -0.051630966 -0.047528617 0.0973967 0.08849091

3.bias f4 [64]
00000000: 1ffa a8bb 8892 c4bb 4431 d8bb 70ee 1a3d
00000010: ca43 a7bb 3b76 9dbb ed05 7e3d f85a 273d
00000020: 1f93 c4bb 1c02 febb 2767 b2bb 18ce 22bc
00000030: 0347 463d 98b5 233d 7fe8 38bb b556 c2bb
00000040: e8be 8bbb 4c92 833d 6ce7 acbb 9346 8c3d
00000050: 62f2 28bc 48c0 a5bb 0b7c 25bb 7a11 c4bb
00000060: f0cc c3bb d5a4 1d3d 7c54 c2bb 1d5b 24bc
00000070: 5b1b 7b3d e9fd 8e3d ebb0 18bc 4a13 7ebb
00000080: 9ff8 c3bb ab8c 053d ba7b ec3c c926 37bc
00000090: f008 afbb 6b16 c4bb 97de fcbb 9b47 c2bb
000000a0: 9c43 233d 0193 46bc 3b28 3fbb 0d63 3dbc
000000b0: d6a5 813d b6db 27bc 36b1 37bc 3210 bb3c
000000c0: fb69 c3bb f8a8 273d 73ed 243d 9379 0b3d
000000d0: e52a ed3c 3357 41bc 565e 1b3d 3d6b c3bb
000000e0: f6f8 113d b69a c4bb f7cc 543d e6a1 123d
000000f0: f78d 6f3d 651c babb eb86 79bb 0cb2 2e3d
-0.00515677 -0.005998913 -0.00659767 0.037825048 -0.0051045166 -0.004805354 0.06201737 0.04085824
-0.0059989835 -0.0077517163 -0.0054444256 -0.009936832 0.048407566 0.039968103 -0.002821475 -0.0059307464
-0.004264701 0.06424388 -0.005276611 0.068493985 -0.010311695 -0.005058322 -0.0025250937 -0.0059835287
-0.005975358 0.038487274 -0.0059304815 -0.010031489 0.061305385 0.06982023 -0.009319524 -0.0038768821
-0.0059805657 0.032604855 0.028867591 -0.011178681 -0.0053416416 -0.0059841177 -0.0077169645 -0.005928946
0.0398594 -0.012120009 -0.0029168266 -0.01155926 0.06330459 -0.010245254 -0.011211684 0.022834871
-0.0059635616 0.040932626 0.04026551 0.03405149 0.028951118 -0.011800575 0.037931763 -0.0059637115
0.03563782 -0.0059998883 0.051953282 0.03579893 0.058484998 -0.0056796544 -0.0038074802 0.042650267

6.weight f4 [4, 64]
00000000: 887e b632 47a4 23b1 1eb4 4eb3 58df 72b3
00000010: fd60 1833 e8e2 be31 8579 6632 75a6 86b2
00000020: 1e64 4cb1 6eb3 b133 3c27 12b1 e67f c2b0
00000030: ee55 84b3 dcd7 a433 feae c0b2 7452 76b2
00000040: 301d 23b2 cf41 dd32 909d 8bb2 6259 74b3
00000050: cf10 b3b3 ce88 e432 a11c 6831 0aa3 85b2
00000060: 8db2 ea31 f33e ba30 bd81 3e33 931c 2732
00000070: 5b78 28b2 6200 65b3 97a2 86b3 f098 b7b2
00000080: 080a 2032 c4be 3cb1 ba5b 80b1 d6f4 d930
00000090: eb56 cb31 a82c c1b2 e5b6 4633 ba85 c332
000000a0: af8f 9d31 672a 88b3 79d7 dcb1 a014 0233
000000b0: 4356 06b2 a3cd 82b3 1cce 6db3 2a98 a8b3
000000c0: 46a9 40b3 aa6e 1dae 4686 deb2 cc86 0f33
000000d0: 96fd 7931 f7e0 9932 2c2d 72b3 3f76 2c32
000000e0: 180a 7031 4f7f 8131 5857 04b3 ee0f ac32
000000f0: f987 c032 2c0e 1bb3 9809 aeb3 e60c 01b3
00000100: 0b15 eab2 d310 feb2 163a 0cb2 0a2c 19b3
00000110: 4c6b ffb2 ce11 b233 471f f4b2 b55e 0eb0
00000120: 0417 b3b3 8f5b 44b0 ed64 be31 acb2 6830
00000130: 999e 2b31 8d74 6f33 efdf 90b3 f045 22b3
00000140: 608c 43b3 3bf5 73b3 d2de 1132 6a1a a333
00000150: e552 a2b3 c916 b133 ff0c 6d32 cb95 f232
00000160: 7515 94b2 362b 7732 f13b 6732 6bc3 53b2
00000170: 5638 8ab3 0cda 2633 e678 efb1 183a d232
00000180: fdc6 8fb1 2e32 9f33 5e46 13b3 cb86 c732
00000190: 3d82 54b3 1761 9032 4fb6 2b32 00fb 49b3
000001a0: e2ad 7730 291c 3eb2 2657 a0b3 5edf 7233
000001b0: 5fce a733 c19f 4733 124a b830 0149 cdb1
000001c0: 3403 6cb3 bd42 b0b3 f1ab 2330 6fcb 1433
000001d0: d77f 22b2 ef20 ca31 5a4f 97b2 7e88 6433
000001e0: 21fa b130 240a 4633 00e7 a032 b886 71b3
000001f0: 54bf 5ab3 a833 1cb3 d580 5bb0 d55b 1933
00000200: 05ce 00bb 2e19 7cbb 7f7d 6fba 2b9b cbbd
00000210: 5c2b ea3a 2551 ebba 83df 073e ed84 babd
00000220: 2f23 6abb 96af 83bb 9658 37b9 5f80 d43a
00000230: 5c91 013e 7862 b1bd ec46 113b c6b8 0fbb
00000240: 04d7 b1ba 9bf1 093e 050b 03bb 173a 0e3e
00000250: 24d7 2fb8 67ff a1bb dc89 333b 26b8 ebbb
00000260: f560 9d39 5531 c3bd d321 5a3b 31cd 6e3b
00000270: 6bad 003e c8c6 093e 9c38 8e3a 5b99 863a
00000280: 2bf1 2d3b cf17 cdbd 01d1 c1bd 59a5 1abb
00000290: 6f29 cfbb 540c fe3a 03c5 40bb 6f0c a03b
000002a0: 78e5 babd 3600 15bb a9cb 3639 cb01 0fbb
000002b0: ad6f 113e 022c 85bb e16a 06ba efc6 aabd
000002c0: 1ffc 38bb e8d2 b4bd 82b7 c3bd 6c24 9dbd
000002d0: 8ca8 ccbd 3bca 3dbb daf1 d3bd e7fa 76bb
000002e0: 81f4 d4bd cd53 6d3b e558 0e3e 6d76 c2bd
000002f0: 4480 fc3d 812a ab3a c69d 8dbb 8804 c2bd
00000300: 1b77 04bb 6c96 2fbb d84a c5bb 8028 01be
00000310: 4a6d 4abb 959f 81bb e52e 0b3e e77d e4bd
00000320: d21e 2dbb 25f7 63bb ee97 9bb8 1fc9 b93a
00000330: 5402 033e b848 ecbd 270f e4ba e8e3 adba
00000340: c232 bb39 c2d8 083e d77f c8ba a006 0e3e
00000350: 6561 463b 9739 54bb 35b9 9d3b 5c91 66bb
00000360: 8a5d 8c39 35d5 e3bd d4ae 843b 9572 853b
00000370: d8ae 043e 9c8c 123e a1d8 823a df5d 2abb
00000380: c852 b53a cd43 00be 161c e8bd 893b a7ba
00000390: 2428 05bb 5aef 0a3b 5fde 0cbb d9ff df3a
000003a0: 343f f0bd 3864 b038 bcbb 75bb d2fb 9e39
000003b0: d8e0 183e 24b7 88bb f06f dd39 a936 dfbd
000003c0: 01c2 58bb c34a e3bd 9f40 ebbd b702 dbbd
000003d0: ecfb eebd ccec 23bb 43e3 01be 59fc 57bb
000003e0: 1ec1 02be 3f88 333b 86be 0d3e 9130 eebd
000003f0: 782f 033e 74f8 2f3a f79f 84bb 82f7 edbd
2.1245128e-08 -2.3813003e-09 -4.8126928e-08 -5.6548146e-08 3.5478468e-08 5.555524e-09 1.3415392e-08 -1.5675349e-08
-2.9742817e-09 8.274843e-08 -2.1268098e-09 -1.4151709e-09 -6.1623595e-08 7.67611e-08 -2.2431319e-08 -1.4337832e-08
-9.494485e-09 2.5757712e-08 -1.625338e-08 -5.689197e-08 -8.3383945e-08 2.6604905e-08 3.3776717e-09 -1.555738e-08
6.830595e-09 1.3551172e-09 4.435582e-08 9.727176e-09 -9.806253e-09 -5.3318566e-08 -6.269436e-08 -2.1373552e-08
9.315507e-09 -2.7466038e-09 -3.7357184e-09 1.5858415e-09 5.917959e-09 -2.2488464e-08 4.626681e-08 2.27618e-08
4.5856363e-09 -6.3407064e-08 -6.427339e-09 3.0286742e-08 -7.81944e-09 -6.091002e-08 -5.5368318e-08 -7.850788e-08
-4.4857437e-08 -3.5795956e-11 -2.5905262e-08 3.341738e-08 3.6378416e-09 1.7913846e-08 -5.63861e-08 1.0038604e-08
3.4930334e-09 3.7688674e-09 -3.0813084e-08 2.003068e-08 2.2413575e-08 -3.610164e-08 -8.1042515e-08 -3.0046884e-08
-2.7250755e-08 -2.9577143e-08 -8.16228e-09 -3.566314e-08 -2.97347e-08 8.2920096e-08 -2.8419562e-08 -5.1793886e-10
-8.3395236e-08 -7.1434497e-10 5.5412017e-09 8.4655016e-10 2.4973927e-09 5.5752526e-08 -6.746256e-08 -3.7782172e-08
-4.5529646e-08 -5.6800882e-08 8.490774e-09 7.595084e-08 -7.558791e-08 8.2463494e-08 1.3798171e-08 2.8240626e-08
-1.7239225e-08 1.4387117e-08 1.3459599e-08 -1.2326249e-08 -6.436373e-08 3.88482e-08 -6.96956e-09 2.4473636e-08
-4.18447e-09 7.413142e-08 -3.4290103e-08 2.3227946e-08 -4.9478547e-08 1.6807958e-08 9.994962e-09 -4.7027243e-08
9.010518e-10 -1.10658585e-08 -7.466433e-08 5.6548167e-08 7.814082e-08 4.6478593e-08 1.3408814e-09 -5.974585e-09
-5.4950945e-08 -8.207778e-08 5.95434e-10 3.4643957e-08 -9.4587085e-09 5.882718e-09 -1.7614799e-08 5.3209526e-08
1.2949536e-09 4.610969e-08 1.8731498e-08 -5.623471e-08 -5.0931092e-08 -3.636856e-08 -7.9854817e-10 3.570661e-08
-0.0019654047 -0.0038467157 -0.0009135827 -0.09941705 0.0017865705 -0.001795326 0.13268857 -0.09107385
-0.0035726537 -0.004018734 -0.00017485241 0.0016212574 0.12653106 -0.086613595 0.0022167517 -0.0021930202
-0.0013568108 0.13471071 -0.0019995582 0.13889347 -4.1923617e-05 -0.0049437764 0.0027395403 -0.007193583
0.00030017612 -0.09530894 0.003328432 0.0036438222 0.12566154 0.13454735 0.0010850611 0.0010269092
0.0026541452 -0.10014307 -0.094636925 -0.002359709 -0.006322078 0.0019382336 -0.0029414303 0.0048842947
-0.09125799 -0.0022735721 0.00017432742 -0.0021821137 0.14202757 -0.004064084 -0.00051276205 -0.08338725
-0.0028226448 -0.0882929 -0.09556486 -0.076729625 -0.09993085 -0.002895965 -0.10348864 -0.003768617
-0.10398198 0.003621328 0.13901098 -0.09495244 0.12329152 0.0013058932 -0.0043217866 -0.094735205
-0.0020212594 -0.002679254 -0.006020885 -0.12613106 -0.0030887895 -0.0039557912 0.13592108 -0.111568265
-0.0026416075 -0.003478476 -7.419275e-05 0.0014174319 0.12793857 -0.115373075 -0.0017399535 -0.0013266774
0.00035705237 0.13363937 -0.0015296888 0.13869715 0.0030270454 -0.003238296 0.004813338 -0.0035181856
0.00026772573 -0.111246504 0.0040491614 0.004072497 0.12957323 0.1431145 0.0009982773 -0.0025995893
0.0013833875 -0.12525864 -0.11333482 -0.0012758832 -0.0020318115 0.0021199794 -0.0021494848 0.0017089798
-0.11730805 8.411001e-05 -0.0037495932 0.0003032373 0.14929521 -0.0041722227 0.00042235805 -0.108990975
-0.003307462 -0.11098244 -0.11486935 -0.10693877 -0.11669144 -0.0025012968 -0.1268435 -0.0032956807
-0.12768981 0.0027394441 0.1384221 -0.11630357 0.12811077 0.00067127426 -0.0040473896 -0.11619474

6.bias f4 [4]
00000000: 0000 0000 0000 0000 986d f63b 3bd4 d53b
0.0 0.0 0.007520389 0.006525544

exp_avg f4 [64, 70]
00000000: 7f32 053a 314d dd37 b1b7 2a3a 9b23 3e39
00000010: 6ac8 7fb9 dbf6 b439 5fe6 28ba b131 053a
00000020: 2362 4eba a75b 2fba 0718 3539 cb1f 4d39
00000030: f63c c53a 26cb 6fb8 b08e 09b9 ec55 c23a
00000040: 759b 93b9 0759 59ba 2e21 d9b8 d9d9 d9ba
00000050: f3ca 22b9 ba9d 11b9 cd0d e63a adff 43b9
00000060: 4306 2bba e96a 92b9 ac08 8aba dd38 f6b9
00000070: 8c45 d9b9 eb19 beba 83f7 9eb9 5883 0d3a
00000080: 7c15 0a39 dd5f 533a 6d0d a83a 616e 0cba
00000090: ca1d 88ba b353 95ba a4f7 50b6 cef9 81b7
000000a0: b3ea 803a 84f6 b339 6fb1 02bb ea5d f8b8
000000b0: a2eb ee3a 696c 09b9 fe76 d0ba 0ea1 1e39
000000c0: ed1e dfba b8dc 23ba 01f4 0739 925b 303a
000000d0: fe38 e2b6 0fda 34ba 4427 43b9 d3e6 60ba
000000e0: 8bf5 3639 3695 a93a 4bf7 9b39 940f e5b9
000000f0: 31aa d3b8 c467 abba 9923 bfb9 7084 88b8
00000100: e80a 6fb6 54a0 833a 6160 7bb9 2915 1a39
00000110: a222 03ba 37a3 9138 17c5 07b3 6037 2bab
00000120: de51 2cb1 803a 3632 850d d432 54cb 8f32
00000130: d92a 1033 ffcf 1cb3 a3fc ad32 bfbb 72ae
00000140: a58a c3b2 7279 f4b2 6e4f ffb2 e554 a92c
00000150: 3e54 16b3 ace3 802c 4342 5031 91ee 30b2
00000160: 3743 0fb3 6f60 692c 0168 1bb3 0086 b9b2
00000170: 2969 2fb2 f30e 8731 7160 332d b361 a8b2
00000180: 1514 1833 c998 e429 9841 15b3 c409 38ad
00000190: 4b19 9632 1262 b5b1 c468 10b3 26e8 c4ac
000001a0: bafa 11b3 45aa 03b3 2703 012a 665f 9932
000001b0: 3542 11b0 eb12 29b3 2ed6 0a32 eec7 b6b2
000001c0: ae93 35b3 eb03 2dac 3635 b332 4629 17b2
000001d0: 00cf dcb2 2462 0728 8e5a 06b3 3b2b 8f2c
000001e0: ac6e 36ac 933d a42c e729 e3b1 13f1 24ab
000001f0: 7c02 d929 6436 8c2c 7cc4 f5b2 9453 e1ab
00000200: 1448 b332 8e83 c1b1 231a c8b2 aa5b cfa8
00000210: d3eb cfb2 b7d7 bc28 8524 9228 65f9 f728
00000220: df6c 6027 4a31 06aa 57f6 3baa f30e ec26
00000230: 925e 5fb3 715b 6fad db6a 3cb3 bf3d b12c
00000240: c947 3333 8d23 892c b638 3533 d0dd 8eb3
00000250: c071 4f33 cec0 2933 f657 2eb2 61ff 48b3
00000260: 7616 e9b2 bbff d329 0510 73b3 8d2e 122f
00000270: 38b8 1833 e5e9 c6ac 1b9f 4fb3 5e04 3ba9
00000280: 1829 41b3 eb21 3bb3 75d8 26b3 91c3 3733
00000290: 1320 0833 cf06 3fb3 7d41 5933 9857 58b3
000002a0: de23 8db3 c568 222f 3e1e 3b33 ce5a d3ac
000002b0: a70d 67b3 000b e2a9 1936 1ab3 d8bf 20b3
000002c0: 3453 08ad 912e 2c33 15c9 0c2d 874e 83b3
000002d0: 71d1 d7a9 f933 72b3 77fd 09b3 173f 072d
000002e0: e238 3833 7358 d4ac be3b 64b3 0ae6 3a2a
000002f0: 27c2 35b3 3b16 3fa9 34e3 a828 3aaa 36aa
00000300: cbf4 1ca9 23b0 e329 9a7e 01a8 e533 3da9
00000310: 8286 31a9 a9e7 19aa 1f51 32a9 61b6 d029
00000320: 568a 342a 0603 e126 3853 7ca7 0341 3ea9
00000330: 33a6 8da7 c646 e028 645f b629 b7b0 24aa
00000340: 93c9 09a9 4581 d329 6529 29b3 bd41 322b
00000350: f11e b3b2 bb1a 05ad 550f f132 0f48 40ac
00000360: fc32 2033 dfa3 1db3 9c54 0d33 feeb b132
00000370: 75c7 b0b2 686e f2b2 5bfc 26b3 5e2a ac28
00000380: eff2 1bb3 53cc ee32 990b aa32 3270 c9b2
00000390: e1c5 ebb2 69ac 25b3 4dad cba9 b195 21b3
000003a0: 5f0a f531 9d6d b032 8fb9 f6b2 7cd0 cdb2
000003b0: 0f0f 2cb3 ca4b 5832 1e7a 1bb3 5ffd 16ae
000003c0: 8c71 c732 2ba7 b632 f522 e3b2 55d2 2633
000003d0: 66f9 3b2a 9966 28b3 e619 20b3 2552 f232
000003e0: ed4c c032 25d1 0ab3 4195 2333 47e3 ddb2
000003f0: bd88 11b3 8cf9 27ad 770d 1033 cd49 b82c
0.0005081072 2.6381198e-05 0.00065123575 0.00018133076 -0.00024393355 0.00034516197 -0.00064430194 0.0005080952
-0.00078729 -0.00066893775 0.00017270456 0.00019562167 0.0015048075 -5.7171237e-05 -0.00013118493 0.0014826632
-0.0002815385 -0.0008291159 -0.000103535465 -0.001662071 -0.00015525128 -0.00013887035 0.001755172 -0.00018691896
-0.00065240654 -0.00027926944 -0.0010531149 -0.00046963143 -0.00041441282 -0.0014503574 -0.0003032052 0.0005398295
0.00013168709 0.0008063296 0.0012821384 -0.0005357024 -0.0010384854 -0.0011392742 -3.113856e-06 -1.5494323e-05
0.0009835571 0.0003432521 -0.0019942184 -0.000118430544 0.0018228183 -0.00013105724 -0.0015904603 0.00015128052
-0.0017022766 -0.0006250846 0.00012965502 0.0006727512 -6.7419596e-06 -0.00068989483 -0.00018611277 -0.00085793174
0.00017448344 0.0012938145 0.0002974815 -0.0004368989 -0.00010092965 -0.0013077189 -0.0003645688 -6.509654e-05
-3.5620124e-06 0.0010042288 -0.0002397313 0.00014694467 -0.0005002414 6.94454e-05 -3.161139e-08 -6.082825e-13
-2.507583e-09 1.0607096e-08 2.4686196e-08 1.6739854e-08 3.3566582e-08 -3.651075e-08 2.0254737e-08 -5.519118e-11
-2.2764036e-08 -2.8460565e-08 -2.9722028e-08 4.812694e-12 -3.5001214e-08 3.6632555e-12 3.030565e-09 -1.0298792e-08
-3.3355914e-08 3.3164823e-12 -3.618334e-08 -2.159777e-08 -1.0210251e-08 3.9307166e-09 1.0196386e-11 -1.9602203e-08
3.5408522e-08 1.0151738e-13 -3.4751423e-08 -1.04613575e-11 1.74738e-08 -5.2789426e-09 -3.3622896e-08 -5.5964287e-12
-3.3988478e-08 -3.0655674e-08 1.1458595e-13 1.7854926e-08 -5.284478e-10 -3.9365585e-08 8.081356e-09 -2.1278506e-08
-4.227666e-08 -2.4586954e-12 2.086254e-08 -8.798741e-09 -2.5705504e-08 7.515286e-15 -3.1281665e-08 4.069104e-12
-2.592519e-12 4.6679965e-12 -6.6113333e-09 -5.859906e-13 9.637167e-14 3.985078e-12 -2.8611105e-08 -1.6010409e-12
2.087112e-08 -5.6319953e-09 -2.329495e-08 -2.302137e-14 -2.4205212e-08 2.0965744e-14 1.6225094e-14 2.7530666e-14
3.1145264e-15 -1.1918691e-13 -1.6694403e-13 1.6379842e-15 -5.2007245e-08 -1.3605881e-11 -4.3869345e-08 5.0374978e-12
4.1741973e-08 3.897721e-12 4.2193925e-08 -6.652738e-08 4.82994e-08 3.9523734e-08 -1.0148133e-08 -4.6798394e-08
-2.7134984e-08 9.4146445e-14 -5.6592416e-08 1.3295161e-10 3.5557804e-08 -5.653466e-12 -4.834065e-08 -4.152613e-14
-4.497369e-08 -4.357018e-08 -3.8846753e-08 4.2785874e-08 3.169414e-08 -4.4476845e-08 5.058381e-08 -5.0371085e-08
-6.572348e-08 1.4771036e-10 4.3566835e-08 -6.007062e-12 -5.3796295e-08 -1.0038324e-13 -3.590512e-08 -3.7427384e-08
-7.74918e-12 4.0089223e-08 8.002728e-12 -6.114447e-08 -9.58425e-14 -5.6392285e-08 -3.2128323e-08 7.68787e-12
4.2892573e-08 -6.0352222e-12 -5.3139722e-08 1.659993e-13 -4.2318927e-08 -4.24298e-14 1.875028e-14 -1.6223906e-13
-3.4851282e-14 1.011138e-13 -7.188391e-15 -4.201144e-14 -3.9418562e-14 -1.3669503e-13 -3.95943e-14 9.268693e-14
1.6035206e-13 1.5613331e-15 -3.5017138e-15 -4.2244864e-14 -3.9315555e-15 2.4899689e-14 8.098971e-14 -1.4627436e-13
-3.059495e-14 9.392707e-14 -3.9386027e-08 6.3329534e-13 -2.0852413e-08 -7.56611e-12 2.8063065e-08 -2.7324842e-12
3.7299273e-08 -3.670345e-08 3.2906073e-08 2.0712829e-08 -2.05798e-08 -2.8222715e-08 -3.8879403e-08 1.911421e-14
-3.6309697e-08 2.7799762e-08 1.9795879e-08 -2.34505e-08 -2.7447586e-08 -3.8573862e-08 -9.045074e-14 -3.7621877e-08
7.1316175e-09 2.0538943e-08 -2.8722551e-08 -2.3959949e-08 -4.0060566e-08 1.2590087e-08 -3.6199815e-08 -3.433109e-11
2.3218284e-08 2.1263608e-08 -2.6442175e-08 3.8841183e-08 1.6695464e-13 -3.920886e-08 -3.7276457e-08 2.8209863e-08
2.2386724e-08 -3.2320845e-08 3.808714e-08 -2.583114e-08 -3.3884806e-08 -9.5482615e-12 3.353986e-08 5.237788e-12

exp_avg_sq f4 [64, 70]
00000000: c4e8 d536 9de6 b931 8e8e 9235 76ed e233
00000010: 98a7 d335 6f0f fb34 d1d5 cf36 c2e8 d536
00000020: 54bc 2e36 82d9 6635 f025 8b35 6e6c e035
00000030: ca56 c636 675c 7936 dceb c436 6f2e 8e36
00000040: 0718 7435 78ed b335 11f1 cd35 a446 1137
00000050: 4b88 6b35 712b ca36 d691 cd36 6566 a635
00000060: 6a3f f035 9727 0436 c98a 3937 25e2 c635
00000070: e74d e536 d651 9036 f37d 2536 d731 a535
00000080: 3e51 5736 0064 0337 3a14 9336 b34b 0737
00000090: 2900 1d36 f5c5 b036 66f4 5735 df7b a636
000000a0: c763 9a36 f5d2 ea36 4f6a ce36 79b1 cb35
000000b0: 2b23 a136 bd7b a534 1cb2 9036 1499 0136
000000c0: 123e ca36 9c64 4936 1267 1935 8196 1036
000000d0: f4f4 1d34 5113 0636 39f8 6035 55d0 5636
000000e0: 8a80 e535 0b77 3735 c924 9e35 6da9 0134
000000f0: 6c24 8035 8abe 7835 4c95 0f36 e68e c035
00000100: 965a 6934 ba8a 7335 d274 ea33 37aa 4535
00000110: 14cf 3c35 ba3f bb35 3a08 2a2b cf5a 9423
00000120: 01af 0f29 ed26 9e29 0299 7a2a 56b7 282a
00000130: 8ac0 112b fff2 292b ae37 102b f687 1428
00000140: 69d0 c22a 7d8d 8e2a 9c5f 162b 911f 1e27
00000150: 69f9 292b 5a41 0126 0124 0829 baca b729
00000160: 3edb 232b cf5f 1f27 a544 162b ad37 2a2b
00000170: fc5f 072a 4d7e 2929 a63e 5c27 e1e2 7a2a
00000180: abf7 292b b40d 9821 76fa 292b 1d78 f226
00000190: d93c 0b2a 8b83 8b29 9093 232b ce9d 1d27
000001a0: 894d 162b 880c 2a2b 3825 3326 d693 8a2a
000001b0: 3d04 a428 10d4 192b b91e cb29 cc91 122b
000001c0: aadb 292b 2409 3825 8c16 c22a 4764 9e29
000001d0: 1238 272b 53f7 ac1d b309 2a2b ccb2 1e27
000001e0: 8d21 9525 c159 7426 8b6a 8a29 97e6 2f27
000001f0: 041e 0e21 e9c4 1e27 e9de f82a 22b4 3f25
00000200: 8622 f92a 7640 4129 1c7e d32a 7a4c 091f
00000210: 6f04 f92a 3507 ef20 4ceb d920 db33 8321
00000220: e63d 8d1e 5386 6421 d72e 3e21 e7c8 0720
00000230: af75 172d 486a 6427 5cfb ce2b 86af 8726
00000240: 51b1 3c2c 5193 3d27 4339 172d 366a 172d
00000250: 5db8 ad2b abdc ca2b 5477 002a aaa7 3c2c
00000260: 9031 d42a edce 9621 1472 172d be0c 6e28
00000270: 2be1 e22b a0f5 8626 c9dc 0f2d 120a 9e1f
00000280: 6f7b 172d 8d7c 172d ae52 5d2b 4ea8 2f2c
00000290: d0b4 092b 3699 972c d06d 5d2c 1465 bd2b
000002a0: d06a 172d b08e 6d28 097d b52c b89f 8626
000002b0: 6252 042d 957f 0f21 fa82 172d 6cd2 f62c
000002c0: 4e3e 3f28 b748 dd2c 3b01 0527 7aea d02c
000002d0: faef 0d21 7fb6 f62c 3594 5d2c d1e4 a827
000002e0: 777d 5d2c 1d63 7f26 4487 4d2c 17ef 4121
000002f0: a27e 5d2c 81eb 881f 54e0 f31e 6535 3021
00000300: fa26 2c20 d840 6c21 f88a d11d a653 811f
00000310: a898 5f1f 6443 9e21 e541 611f d47e 9a20
00000320: 5113 2e21 9b3f 591e 8d6d 051c 4ea4 841f
00000330: 8e7c 331e f87a 101f 3014 0921 150e a021
00000340: 21b1 cc1f c53e 8720 9356 122c 23d4 2526
00000350: e759 a02a 7b6b d426 2b8e 192b 3240 bb27
00000360: 4492 112c 625b 122c 3398 8a2b 0669 8f2a
00000370: cde8 a22a 6eb6 192b 4d57 122c c02c 1822
00000380: 0e5c 122c b9c5 2a2b a67d 8f2a b2fd d62a
00000390: 4491 192b 0f58 122c cf1c 9f20 b659 122c
000003a0: 2bd7 8e29 3290 922a 4b23 1a2b 3da7 d52a
000003b0: e3b2 842c 1b8d 032a 3a5c 122c edcc 5128
000003c0: 041b b22a b6fe 982a 9695 192b 9f57 122c
000003d0: 194e 3a21 e456 122c 5ebe e22b 93c9 312b
000003e0: 2e37 b72a 996e 8a2b 5513 1b2c 7a8e e52a
000003f0: a969 ba2b 3f26 f526 fa21 c42b 8854 c326
6.374992e-06 5.4104263e-09 1.0919337e-06 1.0567139e-07 1.5769501e-06 4.6763623e-07 6.1939722e-06 6.3749912e-06
2.6037642e-06 8.599819e-07 1.0367348e-06 1.6720858e-06 5.9109634e-06 3.7157677e-06 5.868713e-06 4.2373354e-06
9.093205e-07 1.3405652e-06 1.534385e-06 8.659121e-06 8.7742654e-07 6.0251264e-06 6.1264536e-06 1.2397765e-06
1.7899849e-06 1.9692577e-06 1.1059173e-05 1.4817966e-06 6.833801e-06 4.3010614e-06 2.4660228e-06 1.2307963e-06
3.2084786e-06 7.8314915e-06 4.383296e-06 8.064252e-06 2.3394916e-06 5.268254e-06 8.044939e-07 4.961606e-06
4.6011733e-06 6.998302e-06 6.1516544e-06 1.517633e-06 4.802268e-06 3.0823676e-07 4.312269e-06 1.93116e-06
6.027295e-06 3.0009896e-06 5.714693e-07 2.1545277e-06 1.4710878e-07 1.99788e-06 8.3807714e-07 3.200975e-06
1.7099239e-06 6.834604e-07 1.1782623e-06 1.2075698e-07 9.547343e-07 9.266447e-07 2.1395563e-06 1.4346704e-06
2.1732771e-07 9.072643e-07 1.09177236e-07 7.3635914e-07 7.0336796e-07 1.3951133e-06 6.040755e-13 1.6084651e-17
3.190417e-14 7.023362e-14 2.2257546e-13 1.4985005e-13 5.178155e-13 6.0378086e-13 5.123635e-13 8.245132e-15
3.4605936e-13 2.5322444e-13 5.342339e-13 2.1944017e-15 6.038699e-13 4.4844434e-16 3.0229295e-14 8.162e-14
5.821349e-13 2.211762e-15 5.338597e-13 6.04734e-13 1.202371e-13 3.7635087e-14 3.0565095e-15 2.2283175e-13
6.038457e-13 1.0303548e-18 6.0388446e-13 1.682468e-15 1.2366791e-13 6.195659e-14 5.8114017e-13 2.1873673e-15
5.3398307e-13 6.0413523e-13 6.215354e-16 2.4616306e-13 1.8209496e-14 5.4650815e-13 9.0203405e-14 5.2071954e-13
6.0345706e-13 1.5962553e-16 3.4476968e-13 7.034005e-14 5.940813e-13 4.578375e-21 6.0409593e-13 2.202383e-15
2.5870115e-16 8.4776145e-16 6.1469134e-14 2.4411132e-15 4.8151197e-19 2.203365e-15 4.4208325e-13 1.662764e-16
4.425524e-13 4.291052e-14 3.7568635e-13 2.9074138e-20 4.4234362e-13 4.0492944e-19 3.6916936e-19 8.890631e-19
1.4954556e-20 7.742718e-19 6.4436496e-19 1.1501418e-19 8.609487e-12 3.1698971e-15 1.4706947e-12 9.415082e-16
2.6814837e-12 2.630888e-15 8.596071e-12 8.60694e-12 1.234356e-12 1.4414211e-12 1.1410084e-13 2.680948e-12
3.7693156e-13 1.0219168e-18 8.608687e-12 1.3214417e-14 1.6120762e-12 9.364695e-16 8.177633e-12 6.693226e-20
8.610764e-12 8.611012e-12 7.8629713e-13 2.4962424e-12 4.8923105e-13 4.308688e-12 3.1466947e-12 1.3457313e-12
8.607073e-12 1.3187083e-14 5.158211e-12 9.34141e-16 7.521624e-12 4.861914e-19 8.612439e-12 7.015102e-12
1.061614e-14 6.2892708e-12 1.8458125e-15 5.9377477e-12 4.8090265e-19 7.0120017e-12 3.148826e-12 4.687745e-15
3.1475636e-12 8.860522e-16 2.920734e-12 6.5707376e-19 3.1476284e-12 5.798785e-20 2.5821406e-20 5.9701787e-19
1.4581863e-19 8.004573e-19 5.546553e-21 5.477201e-20 4.734836e-20 1.0724335e-18 4.770011e-20 2.6172543e-19
5.897906e-19 1.1501038e-20 4.41476e-22 5.6175994e-20 9.501938e-21 3.0594903e-20 4.6444123e-19 1.0845749e-18
8.6690396e-20 2.2911427e-19 2.0795906e-12 5.7533374e-16 2.8484092e-13 1.4739588e-15 5.4553817e-13 5.1972527e-15
2.0686933e-12 2.0798576e-12 9.847734e-13 2.5474777e-13 2.893852e-13 5.460969e-13 2.079631e-12 2.0623532e-18
2.0798949e-12 6.067053e-13 2.548909e-13 3.8190073e-13 5.4558116e-13 2.079673e-12 2.6954712e-19 2.0797647e-12
6.3433925e-14 2.6034865e-13 5.476077e-13 3.7952446e-13 3.771526e-12 1.1684093e-13 2.0799044e-12 1.1646267e-14
3.1637898e-13 2.7177365e-13 5.456411e-13 2.0796487e-12 6.3122613e-19 2.0796082e-12 1.6111103e-12 6.316277e-13
3.254562e-13 9.836187e-13 2.2037556e-12 4.0777435e-13 1.3245421e-12 1.7010657e-15 1.3936068e-12 1.3553755e-15

exp_avg f4 [64]
00000000: ed32 053a 3847 0bb3 e9e4 5bb3 169f 22b3
00000010: c6a6 a4b3 8fdd a8b8 3541 b9b3 de4c ad3a
00000020: 89b1 60b3 e7fd 74b2 8406 acb2 0298 37ba
00000030: 37fe 3fb3 07d2 653a d3fa 293a cb00 31b3
00000040: e203 083a 555c 0f3a 0adf 6639 3958 b6b8
00000050: 331a 91b5 dc41 a338 2cbc bdba c60d 08b3
00000060: aa17 65ba 9252 e9b8 bf0e 8db3 ecaa 733a
00000070: b775 063b 54c9 2d37 fc0e 7538 c18b a837
00000080: 111b 1d3a 222e bdb9 eac7 eeb2 0f9a e2b1
00000090: e469 44b3 1e80 a3ba 56c1 84b9 01aa 93b3
000000a0: 0d6b 72b3 c6f5 60b3 f915 89b3 aec1 8cba
000000b0: 2482 90ba f50c 47b3 40cc ad3a 23bf 1e3a
000000c0: 1a95 30b3 e8cc 9338 9eae 75b3 7f2b 6ab3
000000d0: e1f4 8dba c6d0 8a39 20ea bbb2 a256 3cba
000000e0: a4ca 5ab3 f9ec 6238 b81d b53a 54ac 66b3
000000f0: c734 08ba a31f 6fba 3a30 043a 8e49 153a
0.0005081136 -3.2428233e-08 -5.1198104e-08 -3.7863252e-08 -7.667181e-08 -8.052133e-05 -8.626595e-08 0.0013221761
-5.231553e-08 -1.42604e-08 -2.0026398e-08 -0.0007003547 -4.470186e-08 0.0008766953 0.0006484214 -4.1211745e-08
0.0005188567 0.00054687756 0.00022017598 -8.694869e-05 -1.0810967e-06 7.784713e-05 -0.0014475635 -3.1677494e-08
-0.0008739183 -0.00011125686 -6.5685064e-08 0.00092951837 0.002051694 1.0358479e-05 5.8426507e-05 2.0092239e-05
0.0005993108 -0.0003608326 -2.7797757e-08 -6.59498e-09 -4.5731113e-08 -0.0012474095 -0.00025321048 -6.8761445e-08
-5.6442378e-08 -5.2377594e-08 -6.3835564e-08 -0.0010738873 -0.0011025113 -4.6345082e-08 0.0013259724 0.0006055703
-4.11138e-08 7.047673e-05 -5.720232e-08 -5.452193e-08 -0.0010830426 0.0002647696 -2.1876133e-08 -0.000718454
-5.094138e-08 5.4103297e-05 0.0013818061 -5.370778e-08 -0.0005195853 -0.00091218407 0.00050425867 0.00056948594

exp_avg_sq f4 [64]
00000000: c1e8 d536 9904 2a2b 5c76 172d 4c59 122c
00000010: 139f b82e 0af0 7537 18e5 8c2d 697c 5337
00000020: 9c58 7b31 6c40 082a 2178 882a 9375 5337
00000030: 2b4f 332c 1833 6937 d098 1b37 776a 852c
00000040: 85f2 2b37 ce7b 7f37 ed01 4a37 1252 5337
00000050: e9fe 2437 7c51 4437 08a2 6537 a342 772b
00000060: e771 7337 aa1e b035 c12d 7731 2727 7b37
00000070: 0833 6f37 bc78 0e31 125b 4c37 6a05 4a37
00000080: 0c55 6f37 0d92 4437 9b98 142b f926 7c29
00000090: 980c 522c 9d17 ec36 3e04 4537 1aa8 9f2d
000000a0: da60 1033 85a5 4d2d 1d26 5d2e 95f3 8537
000000b0: 1164 9037 5b34 e72c 32f1 7137 ea19 6737
000000c0: d189 db2b 1da0 0937 8d59 c92e 231c cd2d
000000d0: 51c7 1137 dd37 8c37 ad3f a32a 62b9 4437
000000e0: 816b 0e2d 9a0b 2d37 2113 2a37 00ce 992d
000000f0: 4353 1c37 f765 5e37 a198 9337 8985 6a37
6.374991e-06 6.0402513e-13 8.609637e-12 2.0797418e-12 8.3956085e-11 1.4659026e-05 1.6017895e-11 1.26055465e-05
3.6575676e-09 1.2101577e-13 2.424181e-13 1.2603955e-05 2.5481377e-12 1.3899778e-05 9.274299e-06 3.7919073e-12
1.024886e-05 1.522801e-05 1.2040587e-05 1.25956885e-05 9.834513e-06 1.1701482e-05 1.36871895e-05 8.7844505e-13
1.4510449e-05 1.3121946e-06 3.5969239e-09 1.4969882e-05 1.4257392e-05 2.073235e-09 1.21805515e-05 1.2041399e-05
1.4265312e-05 1.17165155e-05 5.2791945e-13 5.5989044e-14 2.9849786e-12 7.036097e-06 1.1743103e-05 1.815086e-11
3.36157e-08 1.1689654e-11 5.0283434e-11 1.5968262e-05 1.7212735e-05 6.5712275e-12 1.4420877e-05 1.37747065e-05
1.5599138e-12 8.203116e-06 9.156329e-11 2.3318297e-11 8.6890805e-06 1.6715314e-05 2.89988e-13 1.1725673e-05
8.095636e-12 1.0314305e-05 1.0137243e-05 1.7485569e-11 9.3177105e-06 1.3255972e-05 1.7594839e-05 1.3978578e-05

exp_avg f4 [64, 64]
00000000: 6030 52a9 dd51 0d2a 6642 a229 ccbf c52c
00000010: 4483 82b2 fe2c 6da8 0ada c5a8 46fe 29b3
00000020: 5b2a 99a8 6a1f e627 e119 0428 7eb2 3ab3
00000030: 7bd0 df27 584d 8ab2 3ef9 31b3 4003 832b
00000040: 7e6b 332a b908 c3b1 57ca 9cb2 17ec 24b3
00000050: 651e 5c27 1d7d eb32 622f 9b31 f52f b42c
00000060: 7ff8 5f2a c395 6cb2 f114 48b2 502d 37b3
00000070: 6459 68b1 0522 8a2b 0f3b fe2b 79db 6bab
00000080: 5f4e 3cb3 8e41 2fb3 045b 342a 0b10 d6a8
00000090: 1f76 f3a7 68c6 a7b2 c342 6132 9337 0229
000000a0: c291 0f31 7692 2daa 0a53 3527 7c54 3ab3
000000b0: 2dc7 fbb2 a9a5 1ba7 af4a 4bb3 f0f7 3db3
000000c0: 766d 30a7 1412 3c2a f784 3ea9 88f8 f9a9
000000d0: 24d4 6f29 892d 38b3 72be 2aaa 640a 0fa9
000000e0: 8a9f 24aa da14 1bb3 2cdc 39b3 5927 0d29
000000f0: 9c17 7da7 a450 a7b0 0fc0 36b3 b20f 2eb3
00000100: d093 03b3 e989 2cb3 e585 1b31 98ee 27aa
00000110: c26d 4fa9 5b30 b129 c3a8 59b3 b3f1 47b3
00000120: b7fd 0733 2841 9532 4e89 9b29 87cf 6eb3
00000130: 2403 1ab3 d8e5 2a2a f207 5fb3 4f4e e927
00000140: 7e41 a1b1 c788 02aa 560d d5ad 52be ec2f
00000150: 0506 9229 5424 8cb3 0f70 092a 48ef 3aaa
00000160: e574 a6a9 a7f0 d5a9 a700 cc32 0b48 60b3
00000170: 3299 9db3 58ab 83a8 d912 9228 9965 0828
00000180: 686f 5eb3 e3b4 aab0 1476 7b26 595e 0529
00000190: d4c9 8a32 b994 d232 6140 9527 c75b 2bb3
000001a0: 2983 22b3 9451 7eb3 c730 2033 9ed4 12b3
000001b0: 31a7 61b2 dff4 b829 79ef d3b2 c047 4db3
000001c0: 07a7 04ad 3b33 02a9 72e2 b1b2 8ee6 51b3
000001d0: bbe6 47b3 ab02 87b3 5aca d5a9 2ff1 9eac
000001e0: fa21 bd32 1fff 73b3 84ff 37b3 9ee6 59b3
000001f0: 17dc e1b2 c42f ec32 4c2c 09b3 41fe 10b3
00000200: 6282 40b3 d0fa 4d29 ce1a 1cab 671e adac
00000210: 7ca1 00b3 d6cd ac2e 712a b1ac 79c3 7ab3
00000220: 9eee 45b3 f2f2 f32c 24a6 c7ad b1f4 c8b3
00000230: b8c6 e9aa 7676 0ab3 4ade 9db3 b12b c62c
00000240: becd 70b2 343f dfb2 871f 49b3 123f 8eb2
00000250: 5d7b 90ad 4959 abb3 b359 10b3 ac2c 69b0
00000260: 8b5a 60b2 fdb6 98b2 373a 6db3 0528 e4b3
00000270: 41d5 deb3 865e 1dac 5cb3 1532 4103 8aae
00000280: d42e cfb3 93fb aeb3 f659 eeac 68d7 c2a7
00000290: da93 962c 798b bbb3 0175 bd32 8477 1132
000002a0: fbba aa33 eeeb 02a9 1a4f ecb2 9002 dfb3
000002b0: 0a87 d5b3 e176 d630 e1a1 b5b3 11bb aab3
000002c0: 4a52 32aa 7bbe feb2 1530 ce28 48b7 dcaa
000002d0: 0e77 8432 fe9b 7cb3 7095 d9ab 2078 53b2
000002e0: 375d 82ad c141 aeb3 afcd 88b3 4474 322c
000002f0: e18d 3bb2 233e 9632 991e 10b3 fc9e 9bb3
00000300: e5d5 a4b9 5476 3533 ad5f c8b1 07ce c6a8
00000310: d37b 4328 365c 213a fbb0 72b2 2030 f4b9
00000320: 9482 a8b2 af40 fbb2 7c75 d5a9 9d48 bbba
00000330: ec96 df2e 09b5 d939 fcb5 a4b9 5918 e229
00000340: 5c25 8a39 3e09 233a e49b 243a 8d60 6bba
00000350: b98e 0e3a e5a2 4aba 0856 663a 012f 83a9
00000360: 192b 4a3a b141 593a 90eb abb0 c94b e5b9
00000370: 51d7 9239 8bb6 8436 09e7 a439 41d2 db39
00000380: 2dbb dfb9 0788 e5ba 469b 1029 76f2 8cb2
00000390: 6e17 ebb2 52a0 713a 134a 1f3a 69af edb1
000003a0: aece 4032 99b3 1833 8c60 0fb3 06af abba
000003b0: 7b40 adba eb95 3baa 47df acb9 5e40 dcb9
000003c0: cdd4 e5b1 d6bc 253a ad50 812f 95da 8f32
000003d0: d231 703a 8d95 0fba e92f 8fa9 b616 403a
000003e0: dbc2 52b2 a542 31ba f174 15b8 e1ca 3933
000003f0: 1047 6f3a 50d8 343a 17ab a2b9 bda0 01ba
-4.6671326e-14 1.2551718e-13 7.2057635e-14 5.6203705e-12 -1.5193685e-08 -1.3165899e-14 -2.1965953e-14 -3.957964e-08
-1.7004781e-14 6.3871883e-15 7.3330836e-15 -4.3468837e-08 6.212097e-15 -1.6100486e-08 -4.143771e-08 9.309012e-13
1.5935688e-13 -5.6762386e-09 -1.8252804e-08 -3.8398948e-08 3.054761e-15 2.7414496e-08 4.5164805e-09 5.121232e-12
1.9892593e-13 -1.377106e-08 -1.1646294e-08 -4.264922e-08 -3.3811256e-09 9.814932e-13 1.8064178e-12 -8.379335e-13
-4.384344e-08 -4.0804984e-08 1.6018789e-13 -2.376573e-14 -6.7574116e-15 -1.9531583e-08 1.3111904e-08 2.8914e-14
2.0892093e-09 -1.54163e-13 2.5163811e-15 -4.3383338e-08 -2.931082e-08 -2.1600376e-15 -4.7332545e-08 -4.423049e-08
-2.4484245e-15 1.6704026e-13 -4.2303804e-14 -1.11009346e-13 5.3252663e-14 -4.2882252e-08 -1.5165107e-13 -3.176139e-14
-1.4621477e-13 -3.6107714e-08 -4.3273914e-08 3.1342418e-14 -3.5123602e-15 -1.2173769e-09 -4.2549853e-08 -4.0526807e-08
-3.063525e-08 -4.01723e-08 2.2631579e-09 -1.4915358e-13 -4.6058433e-14 7.8687674e-14 -5.0677738e-08 -4.6553122e-08
3.166289e-08 1.7375513e-08 6.907201e-14 -5.5602438e-08 -3.5858776e-08 1.5178776e-13 -5.192846e-08 6.4755394e-15
-4.6931623e-09 -1.1593774e-13 -2.4221219e-11 4.306338e-10 6.484747e-14 -6.525866e-08 1.2206922e-13 -1.6603136e-13
-7.392159e-14 -9.500847e-14 2.3749022e-08 -5.2219587e-08 -7.338748e-08 -1.461823e-14 1.621743e-14 7.571547e-15
-5.1789726e-08 -1.2420539e-09 8.7243144e-16 2.9613766e-14 1.6157095e-08 2.4514849e-08 4.1425607e-15 -3.989751e-08
-3.7837854e-08 -5.921318e-08 3.7297266e-08 -3.4186648e-08 -1.3134739e-08 8.21372e-14 -2.4672532e-08 -4.7795538e-08
-7.540419e-12 -2.8910234e-14 -2.0708487e-08 -4.8871293e-08 -4.6543146e-08 -6.286913e-08 -9.4942026e-14 -4.517407e-12
2.2017947e-08 -5.6809878e-08 -4.2840398e-08 -5.0733995e-08 -2.6293533e-08 2.7495737e-08 -3.1938086e-08 -3.3758855e-08
-4.4822066e-08 4.573669e-14 -5.545953e-13 -4.920331e-12 -2.994919e-08 7.858218e-11 -5.0353545e-12 -5.8385442e-08
-4.6084658e-08 6.9334477e-12 -2.2697462e-11 -9.357735e-08 -4.1527003e-13 -3.223837e-08 -7.3513164e-08 5.632349e-12
-1.4016619e-08 -2.5989358e-08 -4.6827633e-08 -1.6559657e-08 -1.6425689e-11 -7.979049e-08 -3.3609194e-08 -8.482839e-10
-1.3059103e-08 -1.7778342e-08 -5.523381e-08 -1.0624357e-07 -1.0376471e-07 -2.2363513e-12 8.713723e-09 -6.2760915e-11
-9.6477066e-08 -8.1482675e-08 -6.7743545e-12 -5.407936e-15 4.2796712e-12 -8.733236e-08 2.2055703e-08 8.4672855e-09
7.9502534e-08 -2.9070435e-14 -2.7509987e-08 -1.0384713e-07 -9.943149e-08 1.5604337e-09 -8.457915e-08 -7.950269e-08
-1.5838126e-13 -2.9656112e-08 2.2891447e-14 -3.9207027e-13 1.5420962e-08 -5.8815196e-08 -1.5460255e-12 -1.230913e-08
-1.4820685e-11 -8.114467e-08 -6.370407e-08 2.5359862e-12 -1.0917092e-08 1.7490555e-08 -3.355544e-08 -7.246669e-08
-0.0003143988 4.2249965e-08 -5.831643e-09 -2.2071766e-14 1.0851525e-14 0.0006155403 -1.4126495e-08 -0.00046575163
-1.9617154e-08 -2.924966e-08 -9.4794805e-14 -0.0014288608 1.0167675e-10 0.00041524347 -0.00031416107 1.004064e-13
0.00026349246 0.0006219334 0.0006279333 -0.0008978926 0.00054381375 -0.00077299617 0.00087866234 -5.8257225e-14
0.00077121105 0.0008287682 -1.2508838e-09 -0.00043734748 0.00028007713 3.9551574e-06 0.00031452652 0.00041927586
-0.0004267333 -0.0017511853 3.21091e-14 -1.6408404e-08 -2.7368255e-08 0.000921731 0.00060764066 -6.9175496e-09
1.1222864e-08 3.55536e-08 -3.338259e-08 -0.0013098426 -0.0013218069 -1.666095e-13 -0.0003297275 -0.00042009627
-6.68897e-09 0.0006322389 2.3522287e-10 1.674679e-08 0.0009162697 -0.0005477302 -6.358787e-14 0.0007327603
-1.2267914e-08 -0.0006761945 -3.563328e-05 4.3258186e-08 0.00091277156 0.0006898688 -0.0003102652 -0.00049449113
