models/reinforce3.pth (torch, 40635 bytes, 4 tensors)

0.weight f4 [64, 144]
-0.026627865 -0.08978202 -0.059193052 -0.0521883 0.0045962357 -0.067053 0.059262898 0.060845647
0.022846749 -0.031779304 -0.009011958 0.025568686 -0.060921334 -0.056784898 -0.060554795 -0.014027173
0.014326349 0.04999069 0.0035060649 -0.037499577 -0.022085695 -0.064294174 -0.018020168 0.015827635
-0.037161835 0.002048042 -0.060016952 0.041355442 0.06648315 -0.0007502575 -0.010698756 -0.023651386
0.024564924 0.020899624 -0.04893314 0.07252995 -0.044919875 -3.9394406e-05 0.03704802 0.028469667
0.07248517 -0.031711813 -0.08483913 0.06296529 -0.03405414 0.03431282 -0.008844 0.050679207
-0.08668624 0.057380993 0.00040312493 -0.089800864 0.075318456 -0.030017246 -0.027738001 -0.024188414
-0.0810113 0.031691674 -0.022836536 0.06818152 -0.04413999 0.03425693 0.01898283 0.01337895
0.0604064 -0.023742821 0.0147227235 -0.023527684 0.046697665 0.021634746 0.033732243 0.021907162
-0.058157884 -0.033308983 -0.061471306 0.001910332 0.035661668 0.058991425 0.05551294 0.06736166
0.04746024 -0.077154584 -0.05029575 -0.012519268 -0.052121002 -0.044558585 -0.05621707 -0.072621055
0.032151796 -0.04042054 0.060567573 -0.06743498 -0.019795736 0.046556443 0.056018382 0.016330492
-0.09031698 -0.006639291 0.04921271 0.06047787 -0.06376402 -0.05284892 -0.06505233 0.0137234945
0.010912538 0.031588238 -0.009716316 0.034141175 0.055289272 -0.0073613073 -0.07877273 0.02626004
-0.013186561 -0.009282214 -0.021088354 -0.055364396 0.004455048 0.021692453 -0.02959549 -0.08966837
0.029055087 -0.045060944 0.04772105 -0.0018932677 -0.060981367 0.026631393 0.0507604 0.04240297
0.03337342 0.02274646 0.030149786 -0.06955271 -0.042625006 0.04919889 -0.021311056 0.06049021
-0.02999031 -0.04660804 0.025184536 -0.030608505 0.07344289 -0.03941949 -0.010186868 0.046614356
0.027078511 0.041337315 -0.012677557 0.010155456 0.05064553 -0.022503955 0.04921699 -0.0063605844
0.015496144 -0.06876086 -0.08505453 -0.004917444 -0.043595042 0.012598194 0.052883323 -0.082366474
-0.032144535 -0.087694235 0.016364895 -0.043935698 -0.090040356 0.004619125 -0.07902961 0.04305775
-0.03191869 0.070703894 0.014383648 -0.01901982 -0.048714623 0.04344966 0.029196799 -0.041401796
0.018707085 -0.06541237 0.0011782132 -0.03979215 -0.010825825 -0.06767952 0.021359062 -0.06908774
0.016160073 0.0015712897 0.03252689 -0.04002969 0.024251072 -0.09282312 -0.05475243 -0.03751803
0.053795114 -0.039776582 -0.07290675 -0.054450274 0.0064711478 -0.03502401 0.05270345 -0.06962078
0.039392304 0.014240835 -0.029344553 0.0372909 0.013898258 -0.08172758 0.0623362 -0.08937408
-0.0015597956 0.03966949 -0.02255411 -0.074930415 0.01678148 0.0115622245 0.031092731 0.030404733
0.05989212 -0.020556228 -0.056576252 0.05034747 0.073155105 -0.042325392 0.050492838 0.02688017
0.02513173 0.026368348 0.04648951 0.063701704 0.05771333 0.06123225 -0.027478987 -0.018830547
0.040116094 0.011324159 0.035298478 -0.029096412 0.010161088 -0.012648307 -0.08571473 0.046458554
-0.07007857 0.06707048 -0.08969091 -0.059434365 -0.0052869585 0.055857457 0.029239535 -0.08024426
-0.06410869 -0.068446144 0.0750888 -0.07845851 -0.014442432 -0.08027183 -0.060455676 -0.005039347
00000000: ae22 dabc a3df b7bd 6a74 72bd 66c3 55bd
00000010: 059c 963b 1553 89bd a7bd 723d 4939 793d
00000020: 1b29 bb3c 042b 02bd e4a6 13bc 6c75 d13c
00000030: a688 79bd 4897 68bd 4e08 78bd 3ad2 65bc
00000040: 10b9 6a3c 0ac3 4c3d 02c6 653b 2899 19bd
00000050: 0fed b4bc aaac 83bd 089f 93bc f5a8 813c
00000060: 0237 18bd 7138 063b 56d4 75bd 5364 293d
00000070: 5128 883d eeac 44ba d649 2fbc 8dc0 c1bc
00000080: 613c c93c b035 ab3c 1e6e 48bd 958a 943d
00000090: e7fd 37bd 6c3b 25b8 aabf 173d 3839 e93c
000000a0: 1b73 943d 3fe4 01bd 23c0 adbd f2f3 803d
000000b0: 5b7c 0bbd 998b 0c3d 6de6 10bc 0095 4f3d
000000c0: 8e88 b1bd 5508 6b3d 835a d339 84e9 b7bd
000000d0: 9040 9a3d bae6 f5bc ce3a e3bc c826 c6bc
000000e0: 41e9 a5bd 21cf 013d b013 bbbc c1a2 8b3d
000000f0: 22cc 34bd ff50 0c3d e181 9b3c 6233 5b3c
00000100: b46c 773d 4e80 c2bc 9437 713c 21bd c0bc
00000110: 0d46 3f3d 5a3b b13c d22a 0a3d a676 b33c
00000120: f636 6ebd 006f 08bd 56c9 7bbd 1b64 fa3a
00000130: f811 123d fea0 713d 8961 633d e9f4 893d
00000140: ab65 423d 3903 9ebd eb02 4ebd 9e1d 4dbc
00000150: d57c 55bd 1083 36bd df43 66bd 59ba 94bd
00000160: 9ab1 033d 0290 25bd b415 783d 5a1b 8abd
00000170: ab2a a2bc f8b1 3e3d 8873 653d 86c7 853c
00000180: 1cf8 b8bd 698e d9bb 4493 493d a5b7 773d
00000190: b696 82bd 1c78 58bd 283a 85bd 82d8 603c
000001a0: 80ca 323c ab62 013d 2f31 1fbc 9ed7 0b3d
000001b0: 0177 623d 1f37 f1bb 9953 a1bd 4c1f d73c
000001c0: 720c 58bc 6d14 18bc 7cc1 acbc c7c5 62bd
000001d0: a7fb 913b 5fb4 b13c 3e72 f2bc 0da4 b7bd
000001e0: ef04 ee3c d391 38bd 2677 433d 8627 f8ba
000001f0: 99c7 79bd 142a da3c 23ea 4f3d bdae 2d3d
00000200: 91b2 083d c956 ba3c affc f63c a771 8ebd
00000210: 8f97 2ebd c684 493d 8694 aebc 95c4 773d
00000220: 3dae f5bc 12e8 3ebd cd4f ce3c b0be fabc
00000230: 3a69 963d 5576 21bd d2e6 26bc b2ee 3e3d
00000240: c1d3 dd3c 5151 293d 87b5 4fbc 1263 263c
00000250: b071 4f3d 375a b8bc c197 493d 736c d0bb
00000260: 8ae3 7d3c 7ed2 8cbd 1231 aebd 8322 a1bb
00000270: b790 32bd a868 4e3c 2f9c 583d c1af a8bd
00000280: fda9 03bd 0999 b3bd ac0f 863c ebf5 33bd
00000290: 1467 b8bd 075c 973b 47da a1bd 535d 303d
000002a0: 2cbd 02bd 34cd 903d 64a9 6b3c 74cf 9bbc
000002b0: fc88 47bd 45f8 313d 202e ef3c ee94 29bd
000002c0: 9a3f 993c ecf6 85bd 466e 9a3a 18fd 22bd
000002d0: cd5e 31bc 8f9b 8abd 33f9 ae3c df7d 8dbd
000002e0: 2162 843c bcf3 cd3a eb3a 053d 2cf6 23bd
000002f0: 2faa c63c 0c1a bebd 1644 60bd 81ac 19bd
00000300: 4458 5c3d c5ec 22bd 2250 95bd 4007 5fbd
00000310: ec0b d43b 5675 0fbd 93df 573d 5795 8ebd
00000320: d359 213d 6452 693c fd63 f0bc 58be 183d
00000330: 85b5 633c ca60 a7bd 3e54 7f3d c209 b7bd
00000340: 0e72 ccba 7a7c 223d 66c3 b8bc 1e75 99bd
00000350: 5079 893c 7c6f 3d3c 2fb6 fe3c 5913 f93c
00000360: 7151 753d 8965 a8bc 80bc 67bd 2639 4e3d
00000370: 58d2 953d 645d 2dbd 94d1 4e3d cd33 dc3c
00000380: 0fe1 cd3c 6f02 d83c c96b 3e3d 0a76 823d
00000390: d064 6c3d abce 7a3d 9d1b e1bc 8542 9abc
000003a0: c650 243d f788 393c 2395 103d 995b eebc
000003b0: b17a 263c d83a 4fbc 348b afbd 534b 3e3d
000003c0: 5a85 8fbd 3f5c 893d deaf b7bd 7371 73bd
000003d0: 393e adbb caca 643d c087 ef3c 1a57 a4bd
000003e0: 6b4b 83bd 7e2d 8cbd 28c8 993d dbae a0bd
000003f0: f39f 6cbc 8f65 a4bd 5fa0 77bd 1b21 a5bb

0.bias f4 [64]
-0.09073155 -0.0061313654 0.0032496005 -0.0012496868 -0.016669428 -0.025264433 0.030626856 0.046421565
0.11476408 0.014465653 -0.042885173 0.05678451 0.04221192 -0.08213293 -0.022683699 0.010841113
-0.024829285 -0.06083641 -0.036363054 -0.08288592 0.05595713 -0.019366229 0.078614525 -0.037881587
0.05139198 -0.033697505 -0.027213937 -0.021555956 0.005916872 -0.021595603 0.012636226 -0.09539069
0.011740393 -0.07079322 -0.0155853545 -0.08359485 0.04366644 0.003871951 -0.052144974 0.06885185
-0.006463233 0.039529648 0.0628115 -0.06536525 -0.005263394 -0.032093927 -0.09053471 0.061202522
-0.018520938 -0.057697453 -0.007433063 -0.035314225 0.0069959266 0.023914507 0.08082549 -0.069965586
0.019337976 0.08485395 0.012842939 0.051203772 -0.035255518 0.112455726 0.07575312 -0.049720194
00000000: 76d1 b9bd 9fe9 c8bb 40f7 543b 88cc a3ba
00000010: 538e 88bc 5bf7 cebc 2ce5 fa3c 8a24 3e3d
00000020: 6e09 eb3d 5901 6d3c 5da8 2fbd e096 683d
00000030: 68e6 2c3d 4f35 a8bd 2ad3 b9bc ec9e 313c
00000040: c966 cbbc 992f 79bd 6df1 14bd 18c0 a9bd
00000050: 4e33 653d eda5 9ebc a700 a13d b929 1bbd
00000060: 6680 523d 6506 0abd c3ef debc 1e96 b0bc
00000070: 52e2 c13b 43e9 b0bc 2c08 4f3c 325c c3bd
00000080: c75a 403c 09fc 90bd b759 7fbc c733 abbd
00000090: 95db 323d 8fc0 7d3b f895 55bd 3302 8d3d
000000a0: 87c9 d3bb d7e9 213d 51a3 803d 37de 85bd
000000b0: 8d78 acbb ec74 03bd 436a b9bd 7faf 7a3d
000000c0: 39b9 97bc 2a54 6cbd 0d91 f3bb a6a5 10bd
000000d0: 163e e53b 5be8 c33c d687 a53d 1e4a 8fbd
000000e0: ad6a 9e3c e8c7 ad3d 316b 523c 0cbb 513d
000000f0: 1768 10bd 304f e63d 7424 9b3d 67a7 4bbd

2.weight f4 [4, 64]
-0.07598661 -0.085055955 0.047711015 0.05215249 -0.02037642 -0.053220823 -0.006264592 0.028520929
-0.051887207 0.10690314 -0.06648464 -0.044224262 0.042222578 0.06767483 0.08000369 0.03646564
-0.0843275 0.031757616 -0.06959968 -0.07057672 -0.030601712 0.053312927 -0.09850242 0.071309164
0.016824529 0.010180261 0.08886113 -0.106133014 0.006890273 0.073086925 0.07618765 0.10753016
0.117768265 -0.0707674 0.0890751 0.11411848 -0.011823643 0.0048221457 0.15468615 0.107167765
0.022248885 -0.013561208 0.081149004 0.097227246 -0.09382455 -0.09213579 0.028885864 -0.06400726
-0.0073729185 0.08786912 -0.10588591 0.09054489 -0.1102467 0.07404118 -0.07351711 -0.06108807
-0.110812545 0.039879758 -0.062747166 0.08533194 0.008826175 0.027261045 0.014771292 0.049840465
-0.091177925 0.0022603783 0.04819751 0.06420952 -0.023483314 0.035868034 -0.021769801 0.046992198
0.18474399 0.06984836 0.013487668 0.07973349 -0.01549862 0.010950627 -0.11235481 0.12180018
0.01428228 0.0340386 -0.096478075 -0.015256782 0.07673553 0.07820415 -0.045158807 0.09026807
-0.023159415 -0.03874659 0.07180133 0.021669168 -0.010181038 0.01666471 0.029983204 -0.101600535
-0.037962083 -0.07983534 0.04120468 -0.11102511 -0.02575631 -0.027038196 0.040838048 -0.07308852
-0.075248584 -0.0060743084 0.07219167 0.092131525 0.11659198 -0.015611333 0.06855393 -0.07287921
0.03510904 0.09016938 0.12141677 0.10947642 0.028336212 -0.11652328 0.0725736 0.025892092
0.020178938 0.00089604367 -0.07370241 -0.045669433 -0.09408222 0.15661393 0.031257633 0.0035154787
-0.0103621315 0.057684876 0.03785775 -0.07305937 0.09011339 -0.109595954 -0.012825593 0.0371885
-0.01992173 0.06429028 -0.06745066 -0.09939884 0.08098605 0.08667308 -0.096382454 -0.098231144
0.12448551 -0.0039794766 0.0027900082 0.012267619 0.110246055 0.059261456 0.16298983 0.037816137
0.017780364 -0.075793736 0.10118981 -0.08060877 0.120931715 0.0037533839 0.14487693 -0.057536896
0.04411948 0.006489029 -0.04314154 -0.08671356 0.00997456 0.095023006 0.036495354 -0.023176441
0.08308158 0.085935496 0.12778148 0.10027608 -0.016746782 -0.0035906362 0.082563624 0.13745297
0.04015921 0.09795058 0.11674689 -0.00611835 -0.01206626 0.12809116 -0.049530476 -0.023616416
0.014065703 0.101263024 -0.064139046 -0.038819447 -0.0970881 0.0736369 0.11813703 0.042615104
-0.013265797 -0.05894381 0.06565158 0.03274922 -0.040372714 -0.08626515 0.041856587 -0.10383314
-0.0056467764 -0.06276427 0.0038578094 0.097043276 0.10865867 -0.051999565 -0.08601211 -0.1249945
0.06396183 0.10066224 0.043002453 -0.105183594 0.08314181 0.1047054 -0.015947986 -0.10031043
0.110660985 -0.012193462 0.09871106 0.023903683 0.1265326 -0.10389463 0.08510168 -0.09178141
-0.10911381 -0.04329544 -0.06936918 -0.044674292 0.073984645 0.02823941 -0.06962026 -0.11518854
0.115413584 -0.014928576 -0.08492491 0.05381134 -0.08655012 0.15682328 -0.034759313 -0.06767548
-0.056628823 -0.036589537 -0.035161965 0.024433862 0.061534956 0.08461257 -0.056962553 -0.030442975
0.13542171 -0.0389961 0.041234825 -0.08143055 0.039912242 0.09935839 -0.085812554 0.04769365
00000000: de9e 9bbd d131 aebd a06c 433d d99d 553d
00000010: 73ec a6bc 14fe 59bd 3547 cdbb b9a4 e93c
00000020: ae87 54bd 09f0 da3d 1929 88bd 8024 35bd
00000030: 95f1 2c3d 1a99 8a3d fad8 a33d ff5c 153d
00000040: e5b3 acbd 4614 023d 478a 8ebd 878a 90bd
00000050: 71b0 fabc a85e 5a3d a3bb c9bd 8a0a 923d
00000060: 98d3 893c 1ccb 263c d3fc b53d 445c d9bd
00000070: cdc7 e13b 99ae 953d 4508 9c3d c638 dc3d
00000080: 7d30 f13d 80ee 90bd 026d b63d f3b6 e93d
00000090: f4b7 41bc 1703 9e3b 0c66 1e3e c67a db3d
000000a0: 4b43 b63c d42f 5ebc 7331 a63d 141f c73d
000000b0: 1627 c0bd b0b1 bcbd 0ca2 ec3c 3d16 83bd
000000c0: 8698 f1bb baf4 b33d b6da d8bd 996f b93d
000000d0: 06c9 e1bd e7a2 973d 2390 96bd 7c37 7abd
000000e0: b0f1 e2bd f558 233d 9681 80bd 83c2 ae3d
000000f0: a99b 103c 8e52 df3c 4a03 723c 8425 4c3d
00000100: 7ebb babd db22 143b c16a 453d 4880 833d
00000110: 1460 c0bc 5cea 123d 9556 b2bc e47a 403d
00000120: 872d 3d3e a80c 8f3d 61fb 5c3c 504b a33d
00000130: eded 7dbc 426a 333c 471a e6bd 5f72 f93d
00000140: 3900 6a3c 0f6c 0b3d 4c96 c5bd 95f7 79bc
00000150: 8427 9d3d 7f29 a03d 71f8 38bd 77de b83d
00000160: d0b8 bdbc bfb4 1ebd 930c 933d 8a83 b13c
00000170: 5ece 26bc 6e84 883c 569f f53c f113 d0bd
00000180: 217e 1bbd b680 a3bd 3dc6 283d 2261 e3bd
00000190: e6fe d2bc 357f ddbc cc45 273d 6faf 95bd
000001a0: ee1b 9abd fe0a c7bb 3ad9 933d 74af bc3d
000001b0: c7c7 ee3d adc6 7fbc 0166 8c3d b241 95bd
000001c0: 7fce 0f3d b9aa b83d 5ba9 f83d 2c35 e03d
000001d0: 5821 e83c c2a3 eebd 78a1 943d a71b d43c
000001e0: 4d4e a53c 79e4 6a3a 4af1 96bd df0f 3bbd
000001f0: 2eae c0bd 675f 203e 0108 003d f263 663b
00000200: eec5 29bc fa46 6c3d ba10 1b3d 27a0 95bd
00000210: 5e8d b83d d873 e0bd 7022 52bc f852 183d
00000220: e532 a3bc 9faa 833d 9223 8abd 9e91 cbbd
00000230: 04dc a53d a881 b13d 2a64 c5bd 692d c9bd
00000240: 42f2 fe3d 4566 82bb 92d8 363b 20fe 483c
00000250: afc8 e13d 24bc 723d cee6 263e 18e5 1a3d
00000260: 20a8 913c bf39 9bbd 9a3c cf3d 3616 a5bd
00000270: 0cab f73d 55fb 753b 9e5a 143e cfab 6bbd
00000280: a1b6 343d eca1 d43b 2fb5 30bd e196 b1bd
00000290: 566c 233c 6c9b c23d 277c 153d 85dc bdbc
000002a0: ad26 aa3d f3fe af3d 26d9 023e 8c5d cd3d
000002b0: 8c30 89bc e150 6bbb 1e17 a93d 79c0 0c3e
000002c0: fc7d 243d 509a c83d fe18 ef3d 717c c8bb
000002d0: 90b1 45bc 542a 033e 78e0 4abd 3777 c1bc
000002e0: d673 663c fd62 cf3d 555b 83bd 2401 1fbd
000002f0: 20d6 c6bd f1ce 963d d4f1 f13d 2d8d 2e3d
00000300: c958 59bc 116f 71bd 5674 863d 0c24 063d
00000310: dc5d 25bd c8ab b0bd d071 2b3d 78a6 d4bd
00000320: 9808 b9bb 8e8a 80bd 4dd3 7c3b a0be c63d
00000330: 7088 de3d 7ffd 54bd 1e27 b0bd 1efd ffbd
00000340: 6cfe 823d 0128 ce3d 5723 303d 7f6a d7bd
00000350: 4146 aa3d c96f d63d 5aa5 82bc 8e6f cdbd
00000360: 3aa2 e23d 16c7 47bc 0629 ca3d a8d1 c33c
00000370: c391 013e b5c6 d4bd ca49 ae3d e4f7 bbbd
00000380: 1077 dfbd 8f56 31bd 6e11 8ebd 64fc 36bd
00000390: 4385 973d 5656 e73c 1195 8ebd f8e7 ebbd
000003a0: f55d ec3d fc96 74bc 1ced adbd 4869 5c3d
000003b0: 3041 b1bd 4896 203e c85f 0ebd 7199 8abd
000003c0: a0f3 67bd e9de 15bd fe05 10bd 8629 c83c
000003d0: 140c 7c3d 5b49 ad3d 9151 69bd 8c63 f9bc
000003e0: fdab 0a3e 60ba 1fbd d9e5 283d 0fc5 a6bd
000003f0: 057b 233d 697c cb3d 7ebe afbd 6b5a 433d

2.bias f4 [4]
0.04325135 -0.1050381 -0.034217823 -0.026541322
00000000: 5428 313d 371e d7bd fd27 0cbd 306d d9bc
