models_o1/reinforce_ep2000.pth (torch, 115817 bytes, 18 tensors)

0.weight f4 [64, 70]
000000 19 f5 a1 3d 70 00 60 3d 24 dc 50 3e 67 23 17 bc
       0.07908077 0.054687917 0.20396477 -0.009224749
000010 b7 f2 83 bd c1 86 11 bc f3 d5 85 bd ad fc a1 3d
       -0.064427786 -0.0088822255 -0.06534948 0.07909522
000020 a3 64 c2 bd 2b a0 c1 bd cd 61 0a 3e 5f fc f2 3c
       -0.09491851 -0.09454378 0.1351387 0.029661356
000030 47 e4 17 3e dd 86 0f be a4 2d c0 3d cd b4 83 bd
       0.14833175 -0.1401629 0.09383705 -0.064309694
000040 d3 85 df bd 4f 0a 8f 3d ad fb 9e 3d 51 d5 8f 3d
       -0.10914197 0.06984388 0.07762847 0.07023109
000050 7d f2 7c bd b9 d6 f0 3d 0e bc d7 bc 21 72 dd bd
       -0.061754692 0.11759705 -0.026334789 -0.10812784
000060 3a bb b7 3c 7e 99 b5 3d 44 37 e1 3c e5 9d 93 bd
       0.022428144 0.08867167 0.027492173 -0.0720785
000070 b6 d4 03 3e 1a 91 01 bc 0c de a4 bd 68 0b 44 bd
       0.12874112 -0.00790813 -0.080501646 -0.04786244
000080 82 9e ca 3d c4 58 58 bd cf 2d 51 bc a3 06 3f 3e
       0.09893514 -0.05281903 -0.012767269 0.18654875
000090 78 4f 0a 3e d4 95 21 be 1e 7f 0c be 81 40 27 3e
       0.13506877 -0.15779811 -0.13720366 0.163332
0000a0 03 ac 0d be 2f 69 d3 3d 85 05 17 3e 4a 58 8d 3e
       -0.13835149 0.103227966 0.147482 0.27606422
0000b0 a6 f5 9f bd 5c 34 8b be 67 4c 90 3d 69 b4 9b be
       -0.078105256 -0.27188385 0.070458226 -0.3041108
0000c0 bc 5d de bc 16 84 43 3e 35 fe 79 3d 8f a9 00 be
       -0.027144305 0.19093356 0.061033446 -0.12564681
0000d0 96 d5 c2 bd 77 b7 25 3e c8 5b bd bd 27 dd f4 3d
       -0.095133945 0.16183268 -0.092460215 0.11956244
0000e0 74 a4 97 3e 9b 9a 40 3d a5 87 bb be 5e ac 01 bd
       0.29617655 0.047022443 -0.36626926 -0.031658523
0000f0 f9 8f b0 3e e7 4f 5f bd e0 e5 ab 3e e6 f7 28 3e
       0.34484842 -0.05451956 0.33573818 0.16500816
000100 ff 63 88 3c 9a 38 aa be 05 c1 a8 bb 75 ab 66 3e
       0.016649244 -0.3324631 -0.005149963 0.22526343
000110 13 c3 6f bc c3 58 82 3e 7a 91 04 3d 04 cb fe 3c
       -0.014633912 0.25458345 0.0323653 0.031102665
000120 c8 96 49 3d 2f d8 dd 3c 72 5b 33 bd 9c 78 db 3c
       0.04921606 0.027080623 -0.04378838 0.02679091
000130 bf 72 3b bd 2d 55 05 3d 31 ac c7 3c 11 82 e7 bd
       -0.045763727 0.032551933 0.0243741 -0.11304105
000140 99 51 12 bd 78 00 40 3d 23 5d 1a bd 37 93 28 3d
       -0.03572235 0.046875447 -0.03768648 0.04115602
000150 ae 9c 6a 3c 41 ba 85 3c d5 4e b2 bd 9a a1 3c bc
       0.014319582 0.016324164 -0.08706442 -0.011513138
000160 a9 a1 f0 3c 7a cb 94 bb 08 38 7e 3d 22 32 ae bc
       0.02937396 -0.004540858 0.062065154 -0.02126414
000170 98 cc d3 bc 93 16 70 bd f4 49 86 3b 0f cb ae 3c
       -0.025854394 -0.05861528 0.0040981714 0.02133706
000180 30 e1 32 3c 00 c6 b6 3d 26 99 5f bd 2a 89 93 bb
       0.010917947 0.08924484 -0.054589413 -0.004502435
000190 69 6e 36 bc 03 31 f7 ba dc e6 03 bd 42 58 59 3b
       -0.011134722 -0.0018859211 -0.032202587 0.0033164178
0001a0 f2 24 d1 3b 8d 74 be bd 42 98 d5 bc f8 ef 78 3d
       0.006382578 -0.09299574 -0.026073579 0.060775727
0001b0 02 ba 06 3d 47 91 a0 bd 75 b3 c2 3c 32 72 55 bd
       0.032892235 -0.078402095 0.023767212 -0.05211086
0001c0 da 74 95 bd 42 a7 cf bd d0 22 1d 3d 0c 63 b8 3d
       -0.07297678 -0.10139324 0.038363278 0.09003267
0001d0 da ee 4f bd ac 70 e7 3d d2 9f 46 bc db fa a1 bd
       -0.050764896 0.11300787 -0.012123065 -0.07909175
0001e0 32 9d 67 bd 4a f9 27 3d b4 bf 7e 3d f7 27 8c bd
       -0.056546398 0.041009225 0.06219454 -0.0684356
0001f0 80 f4 8b 3d a8 ab 36 bd 51 f1 06 be 16 eb 10 bd
       0.06833744 -0.044597298 -0.13177992 -0.035380445
000200 76 3d 1d 3e 0a ec 97 3c 77 86 19 be 94 45 19 3d
       0.15355477 0.01854517 -0.149927 0.03741987
000210 5b 85 0d be ea 53 1f bd 3a 8d bc bb 99 f9 d9 3d
       -0.13820402 -0.038898386 -0.00575414 0.1064331
000220 51 7e ed bb 1a a7 83 bd 64 1f 56 ba 7a f9 b4 bd
       -0.007247724 -0.064283565 -0.000816813 -0.088366464
000230 50 a5 98 3d d7 3a 54 3d 97 59 63 3e 14 9c 65 bc
       0.07453406 0.051813927 0.22202145 -0.014014263
000240 b4 16 79 bd 0d 1c d5 bb 81 61 78 bd cc 30 95 3d
       -0.060812667 -0.006503588 -0.060639862 0.07284698
000250 50 80 e8 bd 73 32 e9 bd 71 5e 12 3e 28 35 ed 3c
       -0.11352599 -0.113865755 0.14293839 0.028956011
000260 b1 01 1b 3e 3b ae 0f be 09 95 b4 3d 12 c8 35 bd
       0.15137364 -0.14031307 0.08817489 -0.044380255
000270 cb 17 02 be d3 c1 02 3d b1 0b 90 3d 91 ca 08 3d
       -0.12704389 0.031923126 0.0703348 0.033396307
000280 f7 50 89 bd 74 be e7 3d b4 3c fa 3a 3f 48 f4 bd
       -0.06704896 0.11315623 0.0019091577 -0.11927842
000290 50 f8 a7 b8 c0 a7 ad 3d 6d 2a a4 3b f2 af 82 bd
       -8.009432e-05 0.084792614 0.0050099404 -0.06381215
0002a0 ef a4 f6 3d bb aa af 39 c6 0b ae bd 18 23 77 bd
       0.12043177 0.00033505805 -0.08498339 -0.060336202
0002b0 18 dc be 3d fd 5e 8b bd 9e 0f 1c 3b 62 34 2c 3e
       0.09319323 -0.06805227 0.002381302 0.16816857
0002c0 d2 c8 0a 3e 84 75 20 be 16 3e 14 be d2 a3 1b 3e
       0.1355317 -0.15669829 -0.14476809 0.15199211
0002d0 ee a5 0d be 05 bd d0 3d 8d d6 07 3e b4 86 89 3e
       -0.13832828 0.101923026 0.13265438 0.26860583
0002e0 56 4a aa bd e6 2c 84 be 30 ba 8a 3d 7d 0a 93 be
       -0.0831496 -0.25815505 0.06773794 -0.2871894
0002f0 9d c4 7f bc 97 e7 19 3e 88 dd 80 3d 9f bb f2 bd
       -0.015610841 0.15029751 0.06292254 -0.11852192
000300 a0 6f cc bd d6 c7 01 3e da 63 c8 bd bf 26 c5 3d
       -0.09982228 0.12673888 -0.0978467 0.09626531
000310 ea c7 6c 3e 34 ce 29 3d 06 f2 a1 be 98 d1 39 bd
       0.23123136 0.041456416 -0.31629962 -0.0453659
000320 29 fb 91 3e c1 38 79 bd c6 43 99 3e 65 d7 db 3d
       0.28511932 -0.06084514 0.2993452 0.107344426
000330 e8 33 04 3d a3 60 8f be b1 fd 74 bc cc f6 31 3e
       0.032276064 -0.28003415 -0.014953063 0.17379302
000340 96 45 03 bd d1 dc 67 3e 52 33 41 bc fb 40 29 34
       -0.032048784 0.22642829 -0.011792021 1.5762991e-07
000350 49 19 0c b9 1b f7 96 3b f2 44 2e 3c 84 f8 27 3c
       -0.0001336086 0.004607094 0.010636555 0.010252122
000360 0c 16 3b 3c 65 33 41 bc 77 02 99 3c 85 91 16 3a
       0.011418831 -0.011792039 0.018677933 0.000574373
000370 1c 05 94 bc c0 b7 51 bc 4f 47 a5 bc 89 2f 4f bc
       -0.018068843 -0.012800157 -0.020175604 -0.012645611
000380 4b 33 41 bc c4 8f a3 bc bf 9c 48 3b ae 64 62 3c
       -0.011792014 -0.019966014 0.0030611006 0.013817949
000390 ff 4b 32 bc b0 70 ae 3c 0e af b6 ba 4d 33 41 bc
       -0.010882377 0.021293968 -0.0013937668 -0.011792016
0003a0 e1 5f 45 bc ba 06 fd 3a 5a 53 2f 3b 83 d0 2e bc
       -0.012046785 0.0019304373 0.0026752562 -0.01066983
0003b0 73 46 21 3c 2b 50 5f bb 2d 22 3e bc c6 bf 54 3b
       0.009843457 -0.0034074883 -0.011604828 0.0032462939
0003c0 db dc 71 3b 0a 4e 09 bc 49 28 60 bc 9f da ba bb
       0.0036905322 -0.008380422 -0.01368148 -0.005702331
0003d0 af 34 6c bc 81 1f 81 bc e3 9b 24 3c a8 a7 a4 3b
       -0.014416858 -0.015762093 0.010046932 0.005024869
0003e0 b8 68 09 bb 54 53 fa bb b7 00 ab 3b 09 87 cc 3b
       -0.0020966958 -0.007639328 0.005218591 0.0062416834
0003f0 3a d3 b1 bc 8c 37 93 bb 1c cc 36 3c c2 59 da bb
       -0.021707166 -0.0044927057 0.011157062 -0.006663532

0.bias f4 [64]
000000 56 14 a2 3d bd 73 ff 3c 3a a3 95 3d 4d 33 41 bc
       0.07914035 0.031183118 0.073065236 -0.011792016
000010 26 94 0d 3e 9b a1 72 3d fb 8d cb 3d 8c 87 89 b9
       0.13826045 0.05923615 0.0993919 -0.00026231667
000020 84 6e 15 3d 6c d1 9d 3d 2a ec 6d b8 1d cd 49 3d
       0.03648235 0.0770596 -5.6725148e-05 0.049267877
000030 1b ec 57 3d 4a dd 80 b9 7a 63 ad 3d 3d 11 c4 3d
       0.052715402 -0.00024578936 0.08466239 0.095736004
000040 19 ed 11 ad 96 4a 7e b9 8c 34 88 9f 15 e0 b1 3d
       -8.294942e-12 -0.00024251113 -5.768517e-20 0.086853184
000050 ab 52 91 3d b9 58 ea b9 60 90 8f 3d 6b b5 0b 3d
       0.07095846 -0.00044698062 0.07009959 0.03410856
000060 0b 40 2a 3d 5f d6 19 3d c5 8b 52 3d 55 7b 2f 3d
       0.041564982 0.037557956 0.051402826 0.042842228
000070 82 48 89 3c f4 69 a7 bb ea 1d c7 b2 b2 fa 64 b9
       0.016758207 -0.005109066 -2.3180252e-08 -0.00021837166
000080 a9 a6 6b bb c3 81 02 3d cc bd 97 3d 3b 15 8f 3d
       -0.0035957491 0.03186203 0.07409248 0.06986471
000090 77 59 ac 3d 80 3b 55 bc 8f 2a e7 3d 1f cd a5 3d
       0.084155016 -0.013014674 0.11287414 0.08095764
0000a0 9e d4 1e 3d cb 8f 33 3d aa e4 96 b7 d8 69 1d 3e
       0.038776986 0.043838304 -1.7987873e-05 0.15372407
0000b0 39 c4 18 3d 67 88 94 bb 42 a1 8b ba 60 cd 34 ac
       0.037296508 -0.004532862 -0.0010652917 -2.5693545e-12
0000c0 5a 13 c0 3d 9c 94 af b7 6b ec 8f 3c ca 7a 9e 3d
       0.09378691 -2.0930827e-05 0.017568788 0.07738264
0000d0 06 54 9e 3d 00 08 82 ba 24 4c 17 bc 2b 26 93 bc
       0.0773087 -0.0009920597 -0.009234462 -0.017962536
0000e0 cc 55 a8 3d 65 de 0f b9 5d ff c7 3d d1 3c b7 3d
       0.082194895 -0.00013720391 0.097655036 0.08947147
0000f0 15 9d cf 3c fa 26 27 b4 3e bd 4d b5 19 88 3d 3e
       0.025343457 -1.5567267e-07 -7.6643835e-07 0.18508948

3.weight f4 [64, 64]
000000 a1 7b 05 00 2f 17 a6 b8 82 cd 22 1b 86 9b 06 00
       5.03527e-40 -7.919815e-05 1.3466729e-22 6.06804e-40
000010 11 51 ae ba 4e e0 15 ae 5a 7e 05 80 bf cb d7 a8
       -0.0013299306 -3.40779e-11 -5.04504e-40 -2.3958156e-14
000020 e2 6e 05 80 3d 6c 9e b0 50 11 3a a0 fb d3 72 ba
       -4.98955e-40 -1.1526776e-09 -1.5760541e-19 -0.0009263155
000030 02 0b c2 ba 04 44 00 96 78 e6 d0 b0 5f 6b 05 00
       -0.0014804306 -1.036122e-25 -1.5199495e-09 4.97695e-40
000040 c1 83 06 00 00 5c 05 00 15 ea 05 80 04 15 64 ad
       5.98277e-40 4.92181e-40 -5.4315e-40 -1.2964966e-11
000050 e3 63 05 00 81 1f 1c b2 ea 9b 86 ab 88 b1 05 00
       4.9501e-40 -9.087558e-09 -9.564548e-13 5.22864e-40
000060 33 cd c0 38 c0 b7 9e b9 0a 68 06 ba 59 98 55 ba
       9.193495e-05 -0.00030273013 -0.00051271974 -0.0008148007
000070 a7 d3 05 80 67 3a 23 03 36 66 05 00 bc d5 06 80
       -5.35104e-40 4.7968437e-37 4.95844e-40 -6.27686e-40
000080 37 80 06 80 a7 52 1b b9 7f 91 06 b8 25 88 aa b7
       -5.97008e-40 -0.00014812742 -3.2083593e-05 -2.0328976e-05
000090 28 e2 05 00 f9 2e ed a9 8c 00 b0 a1 73 c6 28 1b
       5.40307e-40 -1.0533063e-13 -1.1926369e-18 1.3960757e-22
0000a0 c7 71 91 b8 70 e0 6e b9 ee ae 06 00 a1 8a 8e b8
       -6.9353315e-05 -0.00022781058 6.13766e-40 -6.796909e-05
0000b0 e7 f9 5f b9 78 5f 05 00 b2 d2 05 80 1e c9 da 81
       -0.00021360033 4.93425e-40 -5.34761e-40 -8.036914e-38
0000c0 90 5c 05 80 89 98 36 0b 80 85 01 ba 58 8e 05 80
       -4.92383e-40 3.516668e-32 -0.00049408525 -5.10241e-40
0000d0 6f dd bd b3 67 80 06 00 e6 ab f3 af be ef 3b b0
       -8.841277e-08 5.97075e-40 -4.4323584e-10 -6.83709e-10
0000e0 79 7b ab b3 92 3f 06 80 56 6e 05 00 13 ed 65 ae
       -7.9852676e-08 -5.73818e-40 4.98759e-40 -5.2279136e-11
0000f0 9b c4 43 38 26 72 05 00 2e 2d 06 00 7f b6 06 00
       4.6674726e-05 5.00126e-40 5.6722e-40 6.1648e-40
000100 cc 1e 07 be 26 6f da 3d e7 ac 02 be c6 d2 b0 bb
       -0.13195342 0.10665731 -0.1276127 -0.00539622
000110 72 e6 c0 3d c5 0a ca bd cc a7 02 be 53 ca 09 b7
       0.09418954 -0.098653354 -0.12759322 -8.212944e-06
000120 5b 10 f0 3d 3d cf e1 bd ac b9 90 b6 87 d3 05 3e
       0.117218696 -0.11025856 -4.3131495e-06 0.13068973
000130 d4 49 ed 3d 15 98 f3 b5 69 37 ec bd 99 b1 ee bd
       0.11586347 -1.8149173e-06 -0.11534006 -0.11654968
000140 9e e7 05 00 d0 3a 31 9b 3a 64 05 00 bb fe ca bd
       5.42266e-40 -1.46601e-22 4.95132e-40 -0.09911867
000150 00 dd f2 bd 4b 7f 84 b9 25 19 ea bd 33 ef e0 3d
       -0.11858559 -0.00025271843 -0.11430577 0.10983124
000160 a1 06 d9 3d d0 4a dd 3d d8 0d 03 3e aa bc df 3d
       0.105969675 0.10805285 0.1279825 0.10924657
000170 ab d9 e2 3d 39 93 15 37 62 cf 03 30 f0 b9 8c 01
       0.11076673 8.91537e-06 4.795223e-10 5.1694685e-38
000180 53 82 d5 8e 89 b9 08 3e 71 57 a6 bd 70 a2 c4 bd
       -5.263405e-30 0.13352026 -0.08122147 -0.09601295
000190 c5 2a f1 bd d0 54 d4 bb 6a c9 7e bc f7 7f ed bd
       -0.11775736 -0.006479837 -0.015550951 -0.11596673
0001a0 71 0f ee 3d f7 75 04 3e 4d ec 73 00 a1 9d a6 bc
       0.11624039 0.12935625 1.0645851e-38 -0.020338835
0001b0 e8 b3 eb 3d bd 1c 30 b8 2d c3 96 34 a8 7e 70 32
       0.11508924 -4.1988435e-05 2.8081686e-07 1.3998637e-08
0001c0 e6 8e c4 bd e9 e9 8e 1a f8 12 01 3e aa eb eb bd
       -0.09597568 5.9107726e-23 0.12604892 -0.11519559
0001d0 26 a6 e2 bd 2b af 05 00 2b 71 11 b9 82 eb a4 b9
       -0.110668465 5.22016e-40 -0.00013870436 -0.00031455985
0001e0 34 fc 01 be a5 1d 51 1b 63 a1 06 be cb 1e d7 bd
       -0.12693864 1.7297653e-22 -0.13147502 -0.1050392
0001f0 d6 dd d2 3d 90 0f c6 09 2c 9f 99 92 7e 4b 05 bd
       0.10296218 4.76814e-33 -9.694896e-28 -0.032542698
000200 57 c6 ec bd dc 96 d7 3d 58 86 db bd 7d 97 1c bb
       -0.11561268 0.10526821 -0.107189834 -0.0023894005
000210 55 2d c0 3d 65 bb 81 bd 68 39 fc bd 5a d8 36 b8
       0.093836464 -0.06334571 -0.12315637 -4.3593674e-05
000220 ac 87 da 3d 3c 5d de bd 98 33 d3 b1 e4 8b 01 3e
       0.106704086 -0.10857627 -6.1467738e-09 0.1265102
000230 9f 5a e1 3d 07 ff af b5 28 60 c5 bd 52 e4 dd bd
       0.11003613 -1.3112739e-06 -0.09637481 -0.10834564
000240 c8 e3 05 80 d1 22 d8 16 e9 77 05 00 8a a3 ad bd
       -5.4089e-40 3.4918654e-25 5.02193e-40 -0.08478458
000250 36 fa e5 bd e8 80 8b b9 cf 45 c7 bd 3a c1 cb 3d
       -0.112293646 -0.0002660819 -0.09730112 0.099489644
000260 22 df c5 3d a9 0e d3 3d f8 cd fe 3d 30 34 c5 3d
       0.096617 0.103055306 0.12441629 0.096290946
000270 32 9d b5 3d 70 a3 09 36 5f 5f 4c 2f 68 67 05 80
       0.08867873 2.0509724e-06 1.8587575e-10 -4.96273e-40
000280 9e f4 79 8f 05 52 f3 3d ce 65 94 bd dc d9 b0 bd
       -1.23237594e-29 0.11880878 -0.0724598 -0.086353034
000290 90 03 db bd 0e 83 90 bb 61 02 35 bd bc fa d6 bd
       -0.10694039 -0.004410154 -0.04419172 -0.104970425
0002a0 bd 52 e7 3d 35 9c e5 3d 98 1a 42 00 c7 27 b8 bc
       0.11295078 0.11211435 6.070683e-39 -0.022479905
0002b0 a2 c1 da 3d 01 1d d3 b7 d6 ee 4f 36 b0 95 8e 2e
       0.10681464 -2.5166666e-05 3.0984424e-06 6.484002e-11
0002c0 d8 51 95 bd c3 86 23 21 c8 f0 d2 3d 53 c2 d9 bd
       -0.07291001 5.5404904e-19 0.10299832 -0.106327675
0002d0 d1 79 d7 bd 3a 6c 05 00 20 df f5 b8 54 97 18 b9
       -0.105212815 4.98002e-40 -0.00011724071 -0.00014552224
0002e0 9f 0d eb bd db 2a 78 11 bf 80 e8 bd 88 3d cf bd
       -0.114772074 1.9576956e-28 -0.11352681 -0.10119158
0002f0 6a 9c d5 3d 92 ce 0d 88 b9 c3 4c 12 a6 58 47 3b
       0.10430224 -4.2673466e-34 6.4612297e-28 0.0030417829
000300 2b 79 ee bd 56 c2 d0 3d ca 07 ec bd b4 e1 59 3a
       -0.11644205 0.10193317 -0.11524923 0.00083115255
000310 45 23 bc 3d ab fe cf bd 7d 5b f0 bd 43 63 e7 b5
       0.09186415 -0.10155996 -0.117362 -1.723973e-06
000320 6c c1 de 3d 70 25 c4 bd e6 57 fd b0 d7 02 ee 3d
       0.10876736 -0.09577453 -1.8433155e-09 0.116216354
000330 f8 58 de 3d f4 83 37 b5 5c 3a d4 bd 87 d7 e5 bd
       0.10856813 -6.836483e-07 -0.10362694 -0.11222749
000340 c0 65 05 00 09 12 95 9a 21 8b 05 00 0d c5 ae bd
       4.95679e-40 -6.165409e-23 5.09088e-40 -0.08533678
000350 7b 73 d6 bd 48 73 1e b9 f0 33 e4 bd 8f be c4 3d
       -0.10471245 -0.00015111 -0.11142719 0.09606659
000360 76 3e c0 3d b7 3d c7 3d e2 9c ed 3d da 8b ca 3d
       0.093869135 0.09728568 0.11602189 0.09889956
000370 25 88 c3 3d 1e 1d 7c 35 bf e2 db 2f e8 7c 8f 85
       0.09547452 9.3919687e-07 3.999698e-10 -1.3493539e-35
000380 6c 9c 76 ba 06 32 ee 3d 4d 31 87 bd a1 bb a4 bd
       -0.0009407464 0.11630635 -0.066012 -0.080436
000390 b9 1e e6 bd f0 3c f8 bb ee f8 66 bd 22 bd d8 bd
       -0.11236329 -0.0075756237 -0.05638974 -0.10582949
0003a0 56 6f e2 3d 12 db f2 3d 25 75 08 80 3a 3b 96 bc
       0.11056392 0.118581906 -7.76708e-40 -0.018338788
0003b0 b4 e7 e0 3d b0 59 81 b7 41 4f 1b 36 f8 d0 71 32
       0.10981694 -1.5419762e-05 2.3142932e-06 1.407556e-08
0003c0 8b 1e bf bd 63 b3 2d 33 1c 03 e1 3d a9 0f d8 bd
       -0.093319975 4.0442853e-08 0.10986921 -0.10549862
0003d0 71 73 cf bd 2e c4 05 b5 9b 3f 0a bc fb 73 25 b9
       -0.101294406 -4.983184e-07 -0.008438016 -0.00015778832
0003e0 26 eb f1 bd ee 8d f7 9a 21 1d ce bd 2f e9 be bd
       -0.11812429 -1.02386105e-22 -0.1006415 -0.0932182
0003f0 0c fa d0 3d 8f 60 3c 09 b9 8d 3b 12 a2 03 ff bb
       0.10203943 2.2675078e-33 5.918148e-28 -0.0077824155

3.bias f4 [64]
000000 1f 8b ef bb 2d 8b 1d 3d 2a c1 21 3d d4 33 f3 3c
       -0.0073102857 0.038462806 0.039490856 0.0296878
000010 07 5f ab 3d 8c ab 2f ba 44 ed 2e bb 69 d6 bc 3d
       0.083677344 -0.00067012827 -0.0026691714 0.09220583
000020 42 a6 8b 3d 5d 9a b0 ba 4c f2 bc bb 39 e2 ed 3c
       0.068188205 -0.0013473738 -0.0057661887 0.029038535
000030 9d 80 26 3d b3 24 6c bb 76 6f 04 3d c3 90 ce 3d
       0.04065 -0.0036032617 0.03233286 0.10086205
000040 0c 29 ff b6 4e 5e 0d bc 3d d5 04 3d 52 cf 32 bb
       -7.6043707e-06 -0.008628441 0.032429922 -0.0027284217
000050 6e c6 4c bb de 0a 0d 3d 6d f0 d4 bb 36 50 a8 ba
       -0.0031246203 0.034434192 -0.0064983875 -0.0012841288
000060 95 58 20 3d 8e 0e 0e 3d 46 55 f8 3c 23 d7 8f 3d
       0.03914698 0.03468185 0.030314099 0.07023456
000070 8d e8 a2 bb 62 a3 c6 3d d7 b8 18 ba 4e 22 be bb
       -0.00497157 0.096991315 -0.0005825883 -0.0058024293
000080 73 ff 08 3d 78 e0 bc bb 39 f2 aa b9 70 26 82 bb
       0.03344674 -0.0057640634 -0.00032605397 -0.0039718673
000090 10 a4 9b bb d2 b3 b5 bb 95 45 92 bb fd b9 9b bb
       -0.0047497824 -0.005545118 -0.004463861 -0.004752396
0000a0 e5 e4 71 bb 21 09 09 3d 99 04 92 bb 70 d7 a4 bb
       -0.0036910113 0.03345597 -0.0044561145 -0.005030565
0000b0 43 be a1 3d dc da 5f bb d8 a7 90 bb ac 63 1b 3d
       0.07897618 -0.003415755 -0.00441454 0.03793685
0000c0 9e ed 7b bb 5d 9d d8 3d 82 20 12 bc f6 f4 8f bb
       -0.0038441191 0.1057689 -0.008918883 -0.0043932153
0000d0 63 7b 02 3d 89 44 8d bb ef fc b9 bb 03 d5 ee 3c
       0.031855952 -0.0043111485 -0.005675904 0.029154306
0000e0 28 fb 0a 3d 04 c7 be bb ac 6a 93 bb 17 1f ac 3d
       0.033930928 -0.0058220644 -0.0044988003 0.084043674
0000f0 7c 3f ec bb 20 fc 98 bb 7d 49 64 3d cb 45 61 b4
       -0.0072097164 -0.0046687275 0.055734146 -2.0980148e-07

6.weight f4 [4, 64]
000000 3e 11 06 80 26 80 06 80 de bd 06 80 cf 01 06 80
       -5.57198e-40 -5.96984e-40 -6.19124e-40 -5.51662e-40
000010 59 cc 06 00 f3 52 06 00 8e b0 06 00 0d cb 05 00
       6.24319e-40 5.8077e-40 6.14349e-40 5.32018e-40
000020 8a 99 06 00 9c 4e 06 00 a6 bc 05 80 49 c0 05 00
       6.06092e-40 5.79213e-40 -5.26852e-40 5.28156e-40
000030 c9 0d 06 00 a9 ac 06 80 90 c7 05 80 7f 4b 06 00
       5.55958e-40 -6.12952e-40 -5.30767e-40 5.78096e-40
000040 b8 f7 05 80 5b c9 05 00 f7 5b 06 80 d8 d2 05 80
       -5.48042e-40 5.3141e-40 -5.84004e-40 -5.34814e-40
000050 c4 8b 05 00 8c bd 05 80 b4 59 06 00 e0 60 05 00
       5.09316e-40 -5.27174e-40 5.83192e-40 4.9393e-40
000060 60 89 06 00 11 d4 06 00 1c 90 06 00 f8 88 05 80
       6.00294e-40 6.27088e-40 6.0271e-40 -5.08313e-40
000070 c6 57 06 80 bc fe 05 00 69 cf 05 80 12 0a 06 00
       -5.825e-40 5.50559e-40 -5.33582e-40 5.54626e-40
000080 44 d7 05 00 e5 9d 06 80 63 d5 05 00 8a 3c 06 80
       5.364e-40 -6.07655e-40 5.35726e-40 -5.7273e-40
000090 2e 42 06 80 4b f2 05 00 22 b7 05 00 62 a6 06 80
       -5.74754e-40 5.46096e-40 5.24873e-40 -6.107e-40
0000a0 04 60 06 00 10 8c 06 80 68 9a 05 80 82 bf 05 80
       5.85457e-40 -6.01258e-40 -5.14568e-40 -5.27878e-40
0000b0 47 2f 06 00 1b c1 05 00 f4 d5 06 80 08 eb 05 80
       5.67973e-40 5.2845e-40 -6.27765e-40 -5.43491e-40
0000c0 9e fc 05 00 b7 bc 05 00 4b b9 06 00 5b 0b 06 00
       5.498e-40 5.26876e-40 6.17484e-40 5.55087e-40
0000d0 4a 6c 06 80 4f 01 06 00 ea f1 05 80 66 a7 06 80
       -5.8986e-40 5.51482e-40 -5.4596e-40 -6.11064e-40
0000e0 6a 9c 06 80 c9 5d 06 80 49 13 06 80 f2 5b 05 00
       -6.07124e-40 -5.84657e-40 -5.57931e-40 4.92161e-40
0000f0 59 48 06 00 2c c4 06 00 17 1c 06 00 99 24 06 00
       5.76966e-40 6.21386e-40 5.6109e-40 5.64142e-40
000100 27 b2 06 00 58 ed 05 80 b4 59 06 80 85 c2 05 80
       6.14922e-40 -5.4432e-40 -5.83192e-40 -5.28958e-40
000110 a9 e1 05 80 ad 7f 05 80 fe e3 05 80 94 0f 06 00
       -5.40129e-40 -5.04979e-40 -5.40966e-40 5.56601e-40
000120 5b bb 05 00 bf b5 05 80 bf 9f 06 00 41 53 06 80
       5.26388e-40 -5.24376e-40 6.08319e-40 -5.80879e-40
000130 79 c9 05 00 9e b9 06 00 f4 5d 06 00 5d aa 06 00
       5.31452e-40 6.176e-40 5.84717e-40 6.12128e-40
000140 f2 89 06 00 a6 c4 05 80 8e b8 06 80 81 38 06 00
       6.00498e-40 -5.29722e-40 -6.17219e-40 5.71283e-40
000150 80 51 06 80 b2 ac 05 00 99 a2 06 80 bb b9 05 00
       -5.8025e-40 5.21129e-40 -6.09342e-40 5.25805e-40
000160 1b 9e 05 00 e3 2c 06 00 ca d9 05 80 ae c2 06 00
       5.15895e-40 5.67115e-40 -5.37305e-40 6.20851e-40
000170 1d fe 05 80 2a de 05 80 f1 ab 06 80 d6 5a 06 00
       -5.50336e-40 -5.38875e-40 -6.12694e-40 5.83599e-40
000180 17 f4 05 00 e1 63 05 80 f4 70 06 80 4d b2 06 80
       5.4674e-40 -4.95007e-40 -5.91533e-40 -6.14975e-40
000190 7a 6a 06 80 2a 3d 06 80 fe 89 05 80 07 ac 06 80
       -5.8921e-40 -5.72955e-40 -5.0868e-40 -6.12725e-40
0001a0 75 5c 06 80 5f a4 05 80 73 6b 06 00 11 dd 06 80
       -5.8418e-40 -5.18143e-40 5.89558e-40 -6.30317e-40
0001b0 33 a9 06 80 70 9d 06 80 76 dd 06 80 c9 72 06 80
       -6.1171e-40 -6.07491e-40 -6.30458e-40 -5.9219e-40
0001c0 57 04 06 80 b2 0f 06 80 f9 78 06 80 13 76 05 80
       -5.5257e-40 -5.56643e-40 -5.9441e-40 -5.01535e-40
0001d0 93 9d 06 00 da 42 06 00 52 c2 06 00 a5 8c 06 80
       6.0754e-40 5.74995e-40 6.20722e-40 -6.01467e-40
0001e0 47 2b 06 00 0e 24 06 80 d9 aa 06 00 4a 30 06 80
       5.66538e-40 -5.63947e-40 6.12302e-40 -5.68336e-40
0001f0 6b 06 06 80 b2 71 06 00 66 9b 05 00 dc 91 06 80
       -5.53315e-40 5.91799e-40 5.14924e-40 -6.03337e-40
000200 f2 58 87 b9 18 4e 38 3e a6 ef 23 3e c0 1e 15 3e
       -0.00025815476 0.1799854 0.16009387 0.14562511
000210 bd e8 9c be ac 2a db 29 ae 0b 05 00 93 a2 9c be
       -0.30646315 9.732956e-14 4.63367e-40 -0.30592784
000220 11 be 8c be da 78 05 80 9c 9a e6 37 30 d8 0b 3e
       -0.2748876 -5.02531e-40 2.7490132e-05 0.13656688
000230 df 68 1b 3e 3f 16 c4 b9 13 7b 13 3e 30 ac a7 be
       0.15176724 -0.00037400608 0.14402418 -0.32748556
000240 6f 6b 05 00 03 b3 4a 38 90 e7 0e 3e 3a 08 2e 37
       4.97717e-40 4.832727e-05 0.13955522 1.0373124e-05
000250 1d eb bd 38 36 31 1f 3e 0c f3 93 b9 a3 b0 7c 38
       9.0560156e-05 0.15546116 -0.0002821911 6.0245988e-05
000260 a3 66 16 3e 48 2e 2a 3e 2f ec 12 3e b8 94 99 be
       0.1468759 0.16619217 0.1434791 -0.29996276
000270 99 34 ce 3a d8 f7 99 be f2 2f 86 b5 12 8f 61 38
       0.0015732228 -0.30071902 -9.997732e-07 5.3777425e-05
000280 33 8b 0f 3e ff fe 41 b2 45 bb 93 ab 89 bd b4 80
       0.14017944 -1.1292058e-08 -1.0496956e-12 -1.6598382e-38
000290 26 f4 82 ba 82 26 b3 2a 61 a4 ba a5 f2 46 6a 2a
       -0.0009990975 3.1823508e-13 -3.2377244e-16 2.0807989e-13
0002a0 be 0a 13 bb 31 38 12 3e 34 6a 68 3b 95 8d a0 ac
       -0.0022436823 0.14279248 0.0035463693 -4.5631923e-12
0002b0 56 01 98 be d4 62 e1 b9 64 5f 05 80 61 2f 16 3e
       -0.2968852 -0.00042988977 -4.93397e-40 0.14666511
0002c0 5e 59 d8 3a 3a f5 a7 be 4d 5c c2 ba 5c 91 34 b7
       0.0016506126 -0.3280428 -0.0014828533 -1.076268e-05
0002d0 16 b3 07 3e b7 68 4d bb 26 41 bb 37 ff 05 16 3e
       0.1325191 -0.0031342932 2.2322474e-05 0.14650725
0002e0 5e 44 10 3e da 38 30 b8 a6 5f 05 80 8e 2d a0 be
       0.1408858 -4.2014617e-05 -4.9349e-40 -0.31284755
0002f0 08 a7 9b 38 6c 05 1e 3b 3f 42 2e 3e fd 88 05 80
       7.422088e-05 0.0024112118 0.17017458 -5.0832e-40
000300 11 ce 27 b9 02 d4 39 3e 7f e3 22 3e 4b 53 13 3e
       -0.00016003127 0.18147281 0.15907095 0.14387242
000310 ec 11 97 be 29 e9 0c 28 c8 e2 05 21 0c 15 9b be
       -0.2950586 7.82212e-15 4.5362295e-19 -0.30289495
000320 68 4c 94 be b6 81 05 80 2f 7b a5 38 48 a4 10 3e
       -0.28964543 -5.05709e-40 7.890758e-05 0.14125168
000330 95 84 20 3e 91 b1 0f 3b 48 98 12 3e c8 46 a2 be
       0.15675576 0.0021925906 0.14315903 -0.31694627
000340 ae 70 05 80 fc 88 11 38 52 cf 0c 3e e0 67 fb 33
       -4.996e-40 3.469827e-05 0.13750961 1.1706993e-07
000350 35 c5 4d 38 bc d8 18 3e 99 b0 61 b9 35 ba aa 38
       4.9059472e-05 0.14926428 -0.0002152346 8.1409155e-05
000360 e8 31 17 3e af c4 39 3e d0 17 16 3e 24 1d 8d be
       0.14765131 0.18141435 0.14657521 -0.27561295
000370 39 2f 7a 3a 1b 06 a1 be 3f 94 bf b5 2b 25 ab 38
       0.000954378 -0.3144997 -1.4273754e-06 8.1608385e-05
000380 cf 86 0f 3e 0f 0f e7 b3 b1 50 4d a9 24 a5 23 00
       0.14016269 -1.0759515e-07 -4.5589133e-14 3.273484e-39
000390 38 41 6d ba 78 13 3d 2a 2c ad 65 a6 37 3c 04 2a
       -0.0009050551 1.6793327e-13 -7.9685027e-16 1.1744846e-13
0003a0 39 61 41 bb 59 d9 11 3e 6d fb 2e 3b 45 98 4f b0
       -0.0029507412 0.14243068 0.0026700154 -7.552255e-10
0003b0 c2 d9 8d be db 8d 13 ba b7 6d 05 00 b9 ea 14 3e
       -0.277052 -0.0005628743 4.98536e-40 0.14542665
0003c0 02 a0 2f 3b eb ef 9c be ae f6 ce 3a 61 56 39 b7
       0.0026798253 -0.30651793 0.0015790069 -1.1046971e-05
0003d0 fd d1 04 3e 37 3e 3b bb 55 62 78 37 6a ca 15 3e
       0.12970729 -0.0028571018 1.4804847e-05 0.14627996
0003e0 36 b4 17 3e 63 2a 62 b9 cf 64 05 80 34 3b 91 be
       0.14814839 -0.0002156883 -4.95341e-40 -0.2836548
0003f0 57 e9 4b 3a 54 ab 82 b9 f0 1f 28 3e 11 6d 05 80
       0.0007778606 -0.00024923182 0.16418433 -4.98303e-40

6.bias f4 [4]
000000 00 00 00 00 00 00 00 00 d0 3f 2b bd 68 a8 72 3c
       0.0 0.0 -0.041808903 0.014810659

exp_avg f4 [64, 70]
000000 36 1d e8 bb 8e 84 5e b9 fd cb 1c bb bb 0f eb b8
       -0.0070835603 -0.0002122095 -0.0023925297 -0.00011208603
000010 86 11 6b 3b f4 20 73 b9 ab 3f e8 3b 36 1d e8 bb
       0.00358686 -0.00023186562 0.007087668 -0.0070835603
000020 42 00 10 bb cc 4f bd 3a 2d 53 e2 3a cd c0 4b bb
       -0.002197281 0.0014443337 0.001726722 -0.003109026
000030 24 44 81 3b ee f8 cf ba f9 1b e8 bb 62 07 e0 ba
       0.0039448906 -0.0015867034 -0.0070834127 -0.0017092044
000040 ce f8 8b 3b 2b 1f a7 3a df 21 bf bb 9d 82 4f 3b
       0.004271603 0.0012750378 -0.005832895 0.0031663545
000050 81 f7 a3 bb 5d ab ae bb b4 1f ed ba b7 ba 5b 3b
       -0.00500387 -0.0053304867 -0.0018091113 0.0033528039
000060 5f eb 94 3a 1f b4 8c bb 31 80 33 3b 4e ad 89 bb
       0.001136165 -0.004293933 0.002738964 -0.0042015677
000070 11 cc 0a bb e4 48 71 39 06 e8 e1 3a ba 4c e3 39
       -0.0021178762 0.00023010705 0.0017235286 0.0004335398
000080 18 91 12 bb 57 f8 89 3a aa 26 2f bb 79 46 88 ba
       -0.0022364315 0.0010526282 -0.0026725926 -0.0010396979
000090 45 c1 d8 38 51 7a fa 39 d3 7e ee b8 be 85 55 ba
       0.00010335682 0.0004777485 -0.00011372347 -0.00081452343
0000a0 1e f7 cc b9 a3 29 8a ba be 10 58 ba 46 e3 31 39
       -0.0003909403 -0.0010540973 -0.0008242241 0.00016964701
0000b0 0c a0 3f b7 57 98 7c b9 22 17 ef b9 93 69 4c ba
       -1.1421751e-05 -0.00024089344 -0.00045602868 -0.0007797714
0000c0 03 6b 04 b9 66 43 60 ba 08 cd 2e 3a 05 d1 14 b9
       -0.00012628366 -0.0008554965 0.0006668125 -0.00014192246
0000d0 11 ad c7 b9 8f 4a cb b9 50 fc 72 ba 9e 53 0d 39
       -0.00038085182 -0.00038774728 -0.0009269165 0.00013477958
0000e0 bb a0 78 ba df 59 23 3a 79 f0 56 b8 35 87 9a b9
       -0.00094844 0.00062313484 -5.1245534e-05 -0.00029473906
0000f0 a5 b0 e9 b9 48 45 5b ba d3 8a c0 b4 e4 87 79 ba
       -0.00044572834 -0.0008364511 -3.5863795e-07 -0.00095188455
000100 7d 4b eb 35 40 1f 51 39 80 c8 c2 36 0f 25 86 b9
       1.7530834e-06 0.00019943435 5.804992e-06 -0.00025586082
000110 fc de 93 37 92 ad 0a 3a e3 46 46 3a b8 82 d1 37
       1.76276e-05 0.0005290146 0.00075636635 2.4975612e-05
000120 76 44 22 3a 87 bc b3 37 0e da cf b9 06 d9 37 38
       0.0006190011 2.1426253e-05 -0.0003964458 4.383272e-05
000130 07 92 46 ba 03 47 46 3a 0a bb e3 39 a1 2c 62 b9
       -0.00075748604 0.0007563682 0.0004343617 -0.00021569665
000140 d2 03 a6 b9 b5 eb 89 39 ba 71 3b ba 47 22 30 39
       -0.00031664834 0.00026306292 -0.00071504305 0.00016797437
000150 c9 3a 46 3a c4 5b 93 39 61 8f 2e ba 6a 14 5f b9
       0.000756186 0.00028106396 -0.00066589384 -0.00021274542
000160 fc 86 2d 3a 54 ac 07 ba 6b 3c ef 39 6b 94 da 39
       0.00066195405 -0.000517552 0.00045630647 0.0004169078
000170 38 ef a7 39 8f ae 98 b9 bf 36 45 b9 45 c6 af 39
       0.00032030954 -0.00029121756 -0.00018807779 0.00033526323
000180 0b 9d eb b9 3c 62 8b 39 83 7b cd 38 1f 1e 72 b8
       -0.000449397 0.00026585336 9.7981676e-05 -5.772535e-05
000190 b7 79 ff b8 da 03 92 b8 2b fa 54 39 4c 30 13 b9
       -0.00012182019 -6.96254e-05 0.0002031109 -0.00014037004
0001a0 29 4c 7f 39 31 82 dd 38 bb 5d 74 b6 1c 15 3a b8
       0.00024347067 0.00010562351 -3.6413392e-06 -4.4365515e-05
0001b0 f7 28 92 36 fb fc aa 38 f0 a7 00 38 9d 64 08 39
       4.355908e-06 8.153353e-05 3.0673982e-05 0.00013007452
0001c0 95 19 df 38 01 a3 14 36 dd 2c 62 37 34 1f f5 37
       0.00010638234 2.21486e-06 1.3481095e-05 2.9220806e-05
0001d0 5a 5b 60 38 47 01 e3 38 0d 2c 02 b4 49 75 0f 39
       5.349084e-05 0.000108244414 -1.2123219e-07 0.00013681235
0001e0 bb ac bc b8 32 87 3b 37 aa af 82 38 81 80 8d 38
       -8.996712e-05 1.1177546e-05 6.231603e-05 6.74734e-05
0001f0 74 f9 10 39 9e 45 00 b5 19 9e 0e 39 1c b8 fe b8
       0.00013825839 -4.778502e-07 0.00013601071 -0.00012145957
000200 e2 bf 4e 37 74 42 48 38 42 7b 8b 38 f0 5b 10 39
       1.2323233e-05 4.7745605e-05 6.650995e-05 0.0001376716
000210 0f a3 be b5 aa 0a 10 39 da 26 66 35 69 0a c9 b7
       -1.4203559e-06 0.00013736883 8.5738213e-07 -2.3965915e-05
000220 af 5e f1 b5 fb db 7d 37 05 d0 42 b6 a8 42 11 b9
       -1.7983456e-06 1.5131193e-05 -2.9029336e-06 -0.00013853109
000230 d5 fd 83 bb f0 8f 05 b9 ac bb 26 bb ad 59 cf b8
       -0.004028062 -0.0001273749 -0.002544145 -9.8872326e-05
000240 df ef 08 3b f5 47 57 b9 c9 24 84 3b f9 fd 83 bb
       0.0020894927 -0.00020530804 0.0040327054 -0.0040280786
000250 28 80 0b bb 18 0e 81 3a 55 b3 ce 3a 12 37 d7 ba
       -0.0021286104 0.0009846119 0.0015769998 -0.001641961
000260 d0 d6 6d 3b 9d 52 a7 ba af fc 83 bb 24 b0 d5 ba
       0.0036291368 -0.001276571 -0.004027925 -0.0016303104
000270 92 01 3c 3b 90 04 9a 3a d6 87 58 bb cc e1 3e 3b
       0.002868746 0.0011750627 -0.003303995 0.0029126285
000280 25 8a 0c bb fe de 32 bb 11 33 db ba e1 64 ca 3a
       -0.0021444645 -0.0027293558 -0.0016723593 0.0015441441
000290 74 a8 81 3a 32 46 0c bb aa 6f 1b 3b 15 e5 ed ba
       0.0009892122 -0.0021404144 0.002371768 -0.0018149937
0002a0 43 86 8f ba 47 6e 8a 39 9f f9 6e 3a c4 b2 bf 39
       -0.0010950047 0.00026403574 0.0009116176 0.0003656355
0002b0 0e ff b6 ba 76 f1 57 3a b4 92 d9 ba 19 c7 84 ba
       -0.001396151 0.00082375796 -0.0016599507 -0.0010130137
0002c0 29 50 bf 38 0c c0 f3 39 b0 7e 37 b8 d3 c1 59 ba
       9.122521e-05 0.00046491658 -4.3748587e-05 -0.0008306775
0002d0 bb dd 3f b9 d5 ad 91 ba b1 0e 4b ba 26 5d 7e 39
       -0.0001829778 -0.0011114428 -0.00077460246 0.00024258028
0002e0 97 d8 49 b8 0a d6 84 b9 2c 09 d5 b9 be 81 51 ba
       -4.812385e-05 -0.00025336473 -0.0004063336 -0.00079920504
0002f0 a8 2d 51 b8 78 dd 40 ba 0b 64 13 3a 51 d5 05 b9
       -4.9872004e-05 -0.000735722 0.00056225125 -0.00012763335
000300 94 05 ae b9 2a c1 ac b9 19 b7 51 ba bc 16 01 39
       -0.00033192022 -0.00032950315 -0.0008000001 0.00012310868
000310 8a 13 58 ba b2 f7 13 3a 01 fd 39 b8 b4 60 83 b9
       -0.00082426576 0.00056445145 -4.4343065e-05 -0.00025058317
000320 09 3e c8 b9 21 27 3d ba 14 3c bc 36 5e e8 58 ba
       -0.00038193192 -0.00072156085 5.6098306e-06 -0.00082743715
000330 af 45 a0 b4 7a 7e 3b 39 38 e8 cd 36 5d f9 4c b9
       -2.9853024e-07 0.00017880826 6.13651e-06 -0.00019547851
000340 00 80 85 37 ca 05 0a 3a b8 9d fd b3 82 58 f9 2b
       1.591444e-05 0.0005265145 -1.18099194e-07 1.771708e-12
000350 d3 77 b8 b0 c4 63 49 33 cb 20 e5 33 09 2a de 33
       -1.3421818e-09 4.6889696e-08 1.06696085e-07 1.0345327e-07
000360 47 98 f5 33 d1 9d fd b3 61 ea 48 34 60 55 c6 31
       1.14364006e-07 -1.1809937e-07 1.8711718e-07 5.7722644e-09
000370 3b b3 42 b4 f3 db 09 b4 e7 f8 58 b4 f6 6e 08 b4
       -1.8132862e-07 -1.2839136e-07 -2.0207118e-07 -1.2706354e-07
000380 af 9d fd b3 0a d6 56 b4 ab 0e 04 33 77 1f 15 34
       -1.1809913e-07 -2.000817e-07 3.0746985e-08 1.3888153e-07
000390 39 6d ea b3 5f fd 64 34 f0 8b 74 b2 b1 9d fd b3
       -1.09163416e-07 2.132633e-07 -1.4234487e-08 -1.18099145e-07
0003a0 82 9f 01 b4 89 8a a6 32 f0 e7 e6 32 1f d5 e5 b3
       -1.207209e-07 1.9387942e-08 2.6880997e-08 -1.070241e-07
0003b0 e4 b6 d3 33 b0 fb 13 b3 e9 96 f9 b3 b9 ba 0b 33
       9.858721e-08 -3.4455013e-08 -1.16224165e-07 3.2533283e-08
0003c0 a9 1a 1f 33 1c ec b4 b3 42 43 13 b4 55 51 75 b3
       3.704432e-08 -8.424851e-08 -1.371491e-07 -5.711748e-08
0003d0 ea 3a 1b b4 00 81 29 b4 05 a0 d8 33 51 53 58 33
       -1.4456933e-07 -1.5786281e-07 1.0087391e-07 5.0367195e-08
0003e0 14 68 b5 b2 c3 60 a4 b3 ba d5 60 33 fb 42 86 33
       -2.1118503e-08 -7.654446e-08 5.2348447e-08 6.252045e-08
0003f0 5f 95 69 b4 02 a3 41 b3 b4 43 f0 33 17 0b 90 b3
       -2.1754157e-07 -4.508457e-08 1.1188186e-07 -6.70754e-08

exp_avg_sq f4 [64, 70]
000000 71 2a fa 38 84 99 99 33 e5 b6 86 37 3c ec 46 35
       0.00011928834 7.152542e-08 1.6059212e-05 7.4104514e-07
000010 5d 0f fb 37 78 0f 42 36 5b 1d f6 38 6e 2a fa 38
       2.9928686e-05 2.8917257e-06 0.00011735662 0.00011928832
000020 cb 11 12 38 cb e7 41 37 3d f7 66 37 b0 07 20 38
       3.4825684e-05 1.1557665e-05 1.3766633e-05 3.8154132e-05
000030 5b 35 b0 38 d5 e5 52 38 9b 1c f9 38 fb 98 46 38
       8.402272e-05 5.028195e-05 0.000118785734 4.7349353e-05
000040 37 ae 9e 37 47 18 82 37 8c 14 29 38 49 59 d4 38
       1.8916193e-05 1.5508513e-05 4.0311876e-05 0.000101255784
000050 72 70 17 38 b8 22 f2 38 5f cf 26 38 fa cf f7 37
       3.610593e-05 0.00011545926 3.9770614e-05 2.9541541e-05
000060 d1 55 50 37 c8 9d 44 38 ee 48 ab 38 40 22 3d 38
       1.2417747e-05 4.6876987e-05 8.1674996e-05 4.509301e-05
000070 aa 2d d3 38 fd 83 f2 37 0b cf 14 38 c5 05 17 37
       0.000100697696 2.891011e-05 3.5478773e-05 9.001645e-06
000080 1e 0b 51 38 3c 51 6f 38 6a 39 74 38 d2 70 9a 38
       4.9839837e-05 5.7057696e-05 5.8227604e-05 7.364307e-05
000090 5a 0e 95 37 6f 4a 10 38 ba f1 b3 36 43 9b 25 38
       1.7768867e-05 3.4401597e-05 5.3627564e-06 3.9483664e-05
0000a0 9f 6a 11 38 74 1a 47 38 a9 60 63 38 5a 4c 56 37
       3.4669993e-05 4.7469934e-05 5.421104e-05 1.2773171e-05
0000b0 95 33 e5 37 eb 85 44 36 55 5b 00 38 a5 e5 a8 37
       2.7322947e-05 2.9284226e-06 3.0602638e-05 2.0134097e-05
0000c0 20 83 19 38 85 40 0d 38 67 3a 25 37 67 4d 91 37
       3.6600162e-05 3.3677108e-05 9.848364e-06 1.732139e-05
0000d0 53 00 ee 35 f8 1d 9d 37 70 a3 64 37 0b 25 d9 37
       1.7732476e-06 1.8729814e-05 1.3627912e-05 2.5885665e-05
0000e0 4f 56 ac 37 14 d2 90 36 13 3f 24 37 47 39 6f 35
       2.0544188e-05 4.3159907e-06 9.789847e-06 8.911779e-07
0000f0 eb 47 1a 37 fd 1e d8 36 77 03 85 37 cc 83 89 37
       9.19586e-06 6.440909e-06 1.5856449e-05 1.6393045e-05
000100 ce db 06 36 de 8c 09 37 43 c2 ed 34 f7 44 11 37
       2.00955e-06 8.1986345e-06 4.4286034e-07 8.658731e-06
000110 84 c9 56 36 73 c2 6a 37 19 e2 b1 37 9e 63 86 32
       3.2005782e-06 1.3992761e-05 2.120533e-05 1.5644954e-08
000120 02 b3 69 36 93 a5 c3 34 1f 89 ae 36 7c 6f be 35
       3.4823902e-06 3.6442052e-07 5.201567e-06 1.4188549e-06
000130 56 1f ac 37 1b e2 b1 37 cb 40 fa 36 41 b2 32 36
       2.051859e-05 2.1205333e-05 7.4581235e-06 2.6627824e-06
000140 b7 12 51 36 55 3f b5 36 a8 af 8e 37 f6 21 16 37
       3.115432e-06 5.401593e-06 1.7009515e-05 8.948604e-06
000150 83 7f ab 37 6b e2 39 37 b9 be 6f 36 4b 6f 87 36
       2.0444166e-05 1.1079576e-05 3.572479e-06 4.0362697e-06
000160 be df cf 36 a1 de cb 37 01 1a ad 36 3b 68 aa 37
       6.1951278e-06 2.4303155e-05 5.158829e-06 2.0314115e-05
000170 5e 61 38 37 72 36 bb 36 78 d4 59 36 e7 2b 01 37
       1.0989925e-05 5.5793726e-06 3.2459193e-06 7.699221e-06
000180 36 f1 ad 37 a6 41 fa 36 fe e3 b2 37 07 13 f8 36
       2.073553e-05 7.458223e-06 2.132542e-05 7.393191e-06
000190 fb e9 1c 37 f3 0c 21 36 91 e4 36 37 a9 4c 62 37
       9.352802e-06 2.3998407e-06 1.0901263e-05 1.3488499e-05
0001a0 d7 68 59 37 1c ac 83 37 e1 d5 66 36 4c 72 31 37
       1.2958618e-05 1.5696562e-05 3.4397165e-06 1.0576634e-05
0001b0 45 e8 88 35 cc d5 26 37 fe 39 bc 36 83 63 63 37
       1.0200389e-06 9.9441495e-06 5.609588e-06 1.3553424e-05
0001c0 17 ac 19 37 e2 5a b0 35 d9 6f e2 36 c3 2d c9 34
       9.159578e-06 1.3139472e-06 6.7483456e-06 3.7472464e-07
0001d0 27 df d0 36 c9 2e 13 36 bd 37 06 37 d2 50 8c 36
       6.2248614e-06 2.193194e-06 8e-06 4.181734e-06
0001e0 4a c2 60 35 5d c0 4e 36 e7 02 58 34 ce d1 38 36
       8.372923e-07 3.0808362e-06 2.0117623e-07 2.754026e-06
0001f0 d1 75 ac 35 ca f5 7c 36 dc 88 f1 35 88 de 81 34
       1.2849288e-06 3.7693994e-06 1.799573e-06 2.4190035e-07
000200 f8 8f a5 35 e9 83 ab 33 dd 5d 83 35 c3 ad f1 34
       1.2335358e-06 7.986802e-08 9.787578e-07 4.5016176e-07
000210 04 21 d1 35 c0 0d 7e 35 c5 ac 7f 34 f9 06 c7 34
       1.5581322e-06 9.464238e-07 2.3811579e-07 3.7071712e-07
000220 4f de 36 33 cb 56 cf 34 e8 88 8a 34 87 d8 51 35
       4.2577366e-08 3.8619905e-07 2.5804115e-07 7.8173656e-07
000230 4d 59 b9 38 64 f3 5f 33 23 d2 42 37 7c fb 1b 35
       8.838121e-05 5.2142596e-08 1.1612227e-05 5.810796e-07
000240 8e 12 ba 37 71 d8 15 36 d5 64 b6 38 46 59 b9 38
       2.2181568e-05 2.2328716e-06 8.697218e-05 8.838116e-05
000250 37 7a d5 37 e4 3b 0c 37 55 45 23 37 7f e3 ee 37
       2.544849e-05 8.358595e-06 9.7317e-06 2.8477747e-05
000260 bc 21 7c 38 60 a5 25 38 5b ed b8 38 a5 d6 0a 38
       6.01129e-05 3.9493083e-05 8.8180146e-05 3.3101667e-05
000270 c3 fc 6b 37 27 b1 3a 37 aa c5 00 38 0f ba 97 38
       1.4065942e-05 1.112771e-05 3.0701667e-05 7.234897e-05
000280 7d b1 f4 37 48 e7 b3 38 88 6d e6 37 a0 36 c1 37
       2.9169716e-05 8.5784646e-05 2.7469141e-05 2.303283e-05
000290 6c b5 12 37 9b 09 1a 38 17 07 6f 38 b8 89 19 38
       8.744519e-06 3.6725407e-05 5.6988643e-05 3.6606303e-05
0002a0 74 93 93 38 48 71 ab 37 ea 72 c7 37 47 98 d5 36
       7.0369715e-05 2.043754e-05 2.377616e-05 6.365622e-06
0002b0 18 09 10 38 98 68 2d 38 4d 92 28 38 63 53 5c 38
       3.4340745e-05 4.1343825e-05 4.0190575e-05 5.2529747e-05
0002c0 cd d2 49 37 94 bf c7 37 ba 83 81 36 6d 16 e6 37
       1.20296145e-05 2.381186e-05 3.8598346e-06 2.742858e-05
0002d0 25 7a d0 37 50 91 0d 38 4b a8 22 38 04 ca 21 37
       2.485241e-05 3.3752352e-05 3.8780545e-05 9.643383e-06
0002e0 70 00 a0 37 98 af 12 36 66 0e b3 37 a8 29 7f 37
       1.907369e-05 2.1857904e-06 2.1345168e-05 1.5208883e-05
0002f0 27 3d d7 37 4e c6 c9 37 b4 43 03 37 f7 8f 3f 37
       2.5658474e-05 2.405341e-05 7.823972e-06 1.1418007e-05
000300 18 cd af 35 d6 99 58 37 5b 7f 31 37 f4 00 90 37
       1.3098206e-06 1.2910421e-05 1.0579674e-05 1.7166582e-05
000310 87 e1 7e 37 40 22 49 36 06 32 e6 36 78 45 37 35
       1.5192089e-05 2.997127e-06 6.8603576e-06 6.82739e-07
000320 e9 5b e2 36 d7 da a6 36 d0 fe 3c 37 c7 ce 50 37
       6.7460246e-06 4.972662e-06 1.1265001e-05 1.244591e-05
000330 46 8a c1 35 f7 08 cc 36 c1 a5 ac 34 c6 e2 db 36
       1.4419863e-06 6.0807174e-06 3.2158098e-07 6.5531085e-06
000340 fd ec 18 36 42 45 33 37 93 50 80 31 7a 29 6f 2b
       2.278771e-06 1.0685357e-05 3.7344505e-09 8.4967417e-13
000350 c6 bc e5 2f 26 e5 fd 2d fd 54 76 30 1b 36 eb 2e
       4.178899e-10 2.8864532e-11 8.9615054e-10 1.0696174e-10
000360 a8 bc 79 31 93 50 80 31 1c e9 34 31 d9 0c c2 2f
       3.6341508e-09 3.7344505e-09 2.6325955e-09 3.5297523e-10
000370 4d c5 3d 30 3a 3b 80 30 89 66 72 31 e9 6f cf 2f
       6.903818e-10 9.330059e-10 3.527392e-09 3.7732598e-10
000380 93 50 80 31 f0 ea 04 31 ed 3d f2 2f 08 9b b9 2f
       3.7344505e-09 1.9342075e-09 4.4063544e-10 3.376146e-10
000390 30 3c 74 30 2b f5 7f 31 90 05 b3 2d 93 50 80 31
       8.8852214e-10 3.7246746e-09 2.0352414e-11 3.7344505e-09
0003a0 38 51 06 31 a3 f6 fe 2f cd aa cf 2f a1 11 7f 30
       1.9545734e-09 4.6377577e-10 3.7774442e-10 9.279351e-10
0003b0 58 f2 75 31 c5 5c 9d 2e 5c b3 80 31 3b 71 fc 30
       3.5789949e-09 7.1560126e-11 3.745681e-09 1.8367595e-09
0003c0 8c 16 28 30 e4 99 aa 2f 0f bb c6 30 2d ee 58 31
       6.1150085e-10 3.1032166e-10 1.4459561e-09 3.1567524e-09
0003d0 c5 be 99 30 4c 13 7b 31 f2 29 13 30 1e 46 d5 30
       1.1186435e-09 3.6536276e-09 5.3537896e-10 1.5517718e-09
0003e0 b8 d6 38 2f db 3b 17 31 5a 36 75 30 65 b0 56 31
       1.6810986e-10 2.2007416e-09 8.920772e-10 3.1241367e-09
0003f0 de ef fc 30 b8 c5 41 30 17 a3 98 30 de e3 5c 2f
       1.8403588e-09 7.0493966e-10 1.1105808e-09 2.0089838e-10

exp_avg f4 [64]
000000 35 1d e8 bb 18 46 46 3a f4 fd 83 bb b1 9d fd b3
       -0.00708356 0.00075635454 -0.0040280763 -1.18099145e-07
000010 ff e3 61 bb bf c6 05 3b 31 d9 74 bb da da 39 b1
       -0.0034468172 0.0020412651 -0.0037360901 -2.7045446e-09
000020 69 df e8 39 94 6d cf bb 7a 34 2a b0 5c da 17 ba
       0.00044416942 -0.0063302014 -6.1920213e-10 -0.0005792731
000030 28 78 23 b9 e2 31 2e b1 ec d9 bc bb 16 0b 50 bb
       -0.00015589653 -2.5348688e-09 -0.005763283 -0.003174489
000040 3d b9 f0 a4 48 f4 2c b1 06 88 bb 97 a1 39 a7 bb
       -1.04397214e-16 -2.5168152e-09 -1.2118929e-24 -0.0051033054
000050 5a 3d 62 bb c1 18 9d b1 23 fc 8c bb d2 e5 0c ba
       -0.0034521432 -4.5721156e-09 -0.004302518 -0.0005374822
000060 82 06 31 b8 68 02 0e 3a 09 cc 87 39 ef 15 95 38
       -4.220615e-05 0.00054172287 0.00025901225 7.108959e-05
000070 1b 0d 10 ba eb c4 5d b3 b9 96 94 aa 7a eb 1e b1
       -0.0005495117 -5.1634668e-08 -2.6394666e-13 -2.312588e-09
000080 09 09 1c b3 cd b7 11 ba 82 1d 32 bb 07 b6 85 bb
       -3.6329798e-08 -0.00055586995 -0.0027178233 -0.0040805372
000090 30 da 63 bb 12 0a 0c b4 28 89 42 bb b9 a2 54 bb
       -0.00347675 -1.304218e-07 -0.0029683802 -0.0032445623
0000a0 7c 10 82 38 34 f8 8b b9 a2 13 55 af c2 7b ca bb
       6.2019535e-05 -0.00026697072 -1.9379212e-10 -0.006179304
0000b0 e6 4d 09 ba 68 96 44 b3 c2 31 3d 34 71 d1 17 a4
       -0.0005237743 -4.57716e-08 1.7620098e-07 -3.292031e-17
0000c0 82 ba 8b bb f6 4d 73 af f3 0e 2b ba 8a 0b 98 bb
       -0.004264177 -2.2128419e-10 -0.000652536 -0.0046400474
0000d0 22 1b 81 bb 5b e6 2d b2 61 83 c6 b3 e2 45 45 b4
       -0.003940002 -1.0122302e-08 -9.243991e-08 -1.8372478e-07
0000e0 d7 7e ad bb fd 9a c3 b0 fa a7 86 bb 71 58 bb bb
       -0.0052946615 -1.4232168e-09 -0.00410938 -0.00571733
0000f0 25 c0 59 3a 5e 1c f4 ab 41 8b 27 ad fa 28 a5 bb
       0.0008306525 -1.7345116e-12 -9.5237715e-12 -0.005040285

exp_avg_sq f4 [64]
000000 71 2a fa 38 1e e2 b1 37 49 59 b9 38 93 50 80 31
       0.00011928834 2.1205338e-05 8.838118e-05 3.7344505e-09
000010 a9 e8 fd 37 c8 73 0e 38 a9 db c6 38 35 93 2e 2d
       3.0268291e-05 3.3963268e-05 9.4822906e-05 9.923441e-12
000020 59 84 9b 37 99 c4 bb 38 10 fc c4 2b 50 83 73 37
       1.8539069e-05 8.953474e-05 1.3996599e-12 1.4514502e-05
000030 f1 f3 63 37 ca 7a 2b 2d c3 d3 f8 38 65 15 f1 38
       1.3587051e-05 9.747489e-12 0.00011865005 0.000114957606
000040 82 8f a6 2a 1d 9e f0 2c 1b 92 ee 29 bd fb c9 38
       2.9587102e-13 6.8387644e-12 1.05946685e-13 9.631317e-05
000050 18 3f cd 38 f4 d7 9b 2d 7c bd d4 38 7e 2c 3f 37
       9.786914e-05 1.7717362e-11 0.00010144242 1.1394846e-05
000060 3e df 6c 37 d5 58 91 37 20 38 95 37 41 4a 9b 37
       1.4118674e-05 1.7326713e-05 1.778832e-05 1.8512017e-05
000070 3c fb 49 37 16 6a ac 2e 5f 6b 48 2b 26 93 54 2c
       1.2039029e-05 7.840499e-11 7.120328e-13 3.0208696e-12
000080 ea 25 b6 2e fa 3e 8a 37 43 76 9f 38 9c 22 bf 38
       8.283137e-11 1.6480208e-05 7.603739e-05 9.114036e-05
000090 d4 05 e0 38 9c a7 04 31 d1 f3 bf 37 58 41 d5 38
       0.00010682238 1.9303803e-09 2.288251e-05 0.00010168803
0000a0 58 48 91 37 0c e0 59 37 14 a8 03 2c a4 47 a6 38
       1.7319035e-05 1.2986373e-05 1.8709522e-12 7.928841e-05
0000b0 3a cc 4b 37 e0 ff cb 2e 51 16 df 29 9e 5f 96 2a
       1.2147293e-05 9.276824e-11 9.9070607e-14 2.67117e-13
0000c0 27 c6 06 39 ff b9 60 2c c9 52 88 37 b1 49 c9 38
       0.00012853053 3.1935563e-12 1.6251013e-05 9.598153e-05
0000d0 8f f3 ec 38 e3 bc c3 2d 18 94 0a 32 f8 b8 9c 2d
       0.00011298723 2.2252816e-11 8.06633e-09 1.781729e-11
0000e0 5c 5c e9 38 46 da f6 2c 3b bd f2 38 f0 78 d0 38
       0.00011127509 7.0159737e-12 0.00011574706 9.940739e-05
0000f0 67 52 b2 37 56 7d 88 2b 34 7e b4 2a 93 63 8c 38
       2.1257625e-05 9.698169e-13 3.2061994e-13 6.694267e-05
